real_btcusdt_call_pricing_mlp_6inputs/result_9/pinn_model159.pth (torch, 472610 bytes, 17 tensors)

layers.0.weight f4 [128, 6]
0.17156802 -0.10539578 0.208559 -0.17771293 0.05884712 0.037679 0.12988558 0.10223804
-0.09712082 0.1432043 -0.0035687198 -0.059210986 -0.06602087 -0.19222341 -0.13312522 -0.1738342
0.22450821 0.0057676435 0.100706674 -0.1020844 0.047389336 0.0420385 0.15616766 0.16997255
-0.081569925 -0.10810303 0.17390205 -0.16145036 0.1434579 -0.0608961 0.035260357 -0.04184764
0.14797631 -0.17248364 -0.10191746 -0.1337429 0.1264044 -0.04729677 0.20145167 -0.050141197
-0.21722738 0.07366566 -0.18308057 0.18634734 0.17985032 0.14849183 0.18731704 -0.18844682
-0.13366182 -0.15375055 -0.068814605 -0.059981674 -0.0016927287 0.030684441 0.108294345 -0.11261839
-0.034520276 -0.044746708 0.06251702 0.040389642 0.0968828 0.15913887 -0.0728945 -0.0636425
0.12525904 -0.1888085 -0.10517415 0.036942158 0.11733066 0.12850057 -0.15267567 -0.07623951
0.16606383 -0.2171088 -0.15732028 0.024813754 -0.024856765 -0.094298854 -0.016514082 0.18033676
-0.06682482 0.19921951 -0.08997876 -0.004243195 0.011657657 -0.11791817 0.0069332514 0.03016625
-0.013992527 -0.1302444 0.17212564 0.055135727 -0.13769278 0.07220537 0.102304414 0.029122919
-0.121258035 -0.060818557 -0.18257664 0.009883429 -0.113939114 -0.0559213 -0.06749971 0.090584874
-0.01688767 -0.08353455 0.12999707 -0.12562211 0.21331502 0.16495857 -0.010672824 0.069024235
0.20565349 0.19183086 0.17885597 -0.1308341 -0.13470952 0.11706915 0.19319955 -0.09586219
-0.07268517 0.01146573 0.10048541 0.098332204 -0.118047304 -0.19939142 0.11417777 0.0642622
-0.04848927 -0.026074683 -0.061313912 -0.070195064 -0.07071409 -0.18706837 -0.02077577 0.22579663
0.15805952 -0.016827598 -0.079299204 0.004821707 0.16063383 -0.08792913 0.0018063794 0.14333989
0.15333515 -0.13493982 0.055114 -0.033479046 0.063545756 0.0574504 0.09276423 -0.06806791
-0.078462 -0.036558453 -0.10976576 -0.12447303 -0.04601225 0.15040447 -0.11266322 0.1073639
0.13754019 0.09381835 -0.016322454 0.16886064 -0.035957832 -0.12006567 0.078420684 -0.15395318
0.16476852 0.002047279 0.11050355 0.05392523 -0.20511341 0.15005805 0.19283994 -0.21097729
0.06134527 0.12674345 0.019275801 -0.11223251 -0.03389007 0.05742517 -0.1667887 -0.12414966
-0.12517819 -0.07104677 -0.1250283 0.041211814 0.16601825 -0.17631027 0.022145761 -0.119583465
0.13917981 -0.07898814 0.02893418 0.075425744 -0.12472905 -0.13815296 0.12907588 -0.11818869
-0.2064642 0.19634461 0.18456759 -0.14585826 -0.124313526 -0.16772686 0.22463877 -0.108843125
-0.03917363 0.05960469 -0.009672318 0.004761967 -0.17658296 0.034606438 0.01921584 0.16644238
-0.024803085 0.023666594 0.07998636 -0.10984411 0.04786735 0.15588184 0.16303463 -0.0072015803
0.034886144 -0.009187419 0.08757955 0.15833499 -0.08315683 0.13594997 0.08117335 0.21965164
0.07475185 -0.17117035 -0.08089727 -0.17370202 -0.08895542 0.17231631 0.20369062 0.030153438
0.1742046 -0.19744797 -0.18800652 -0.20797192 -0.15922667 0.08217095 -0.046831753 0.16701344
0.22142234 0.051153548 0.12044858 0.17322458 -0.0767135 0.012445937 0.032615967 -0.19716863
00000000: 87af 2f3e bed9 d7bd 7e90 553e 61fa 35be
00000010: ad09 713d 4c55 1a3d ba00 053e 2d62 d13d
00000020: 48e7 c6bd 26a4 123e 2fe1 69bb 3887 72bd
00000030: f335 87bd 37d6 44be fa51 08be 9801 32be
00000040: 7be5 653e 80fe bc3b 4d3f ce3d a011 d1bd
00000050: 521b 423d 9030 2c3d 6aea 1f3e 490d 2e3e
00000060: 220e a7bd 1f65 ddbd 6113 323e 3e53 25be
00000070: a1e6 123e 306e 79bd 2a6d 103d 6e68 2bbd
00000080: 1a87 173e 8d9f 30be 1aba d0bd e6f3 08be
00000090: 2870 013e 42ba 41bd 5949 4e3e db60 4dbd
000000a0: db70 5ebe 06de 963d 7979 3bbe d6d1 3e3e
000000b0: af2a 383e 3e0e 183e 0ad0 3f3e 34f8 40be
000000c0: a5de 08be c970 1dbe acee 8cbd 58af 75bd
000000d0: 8dde ddba f05d fb3c 6dc9 dd3d 78a4 e6bd
000000e0: 2265 0dbd 5348 37bd ec08 803d 9c6f 253d
000000f0: 7d6a c63d 4df5 223e b649 95bd 0057 82bd
00000100: e843 003e 0457 41be 8b65 d7bd a950 173d
00000110: 0f4b f03d a795 033e 0357 1cbe 7623 9cbd
00000120: a30c 2a3e c551 5ebe 9118 21be 3746 cb3c
00000130: 6aa0 cbbc c21f c1bd 8a48 87bc 33aa 383e
00000140: 74db 88bd 3300 4c3e c946 b8bd 800a 8bbb
00000150: c2ff 3e3c 157f f1bd 5430 e33b 361f f73c
00000160: e940 65bc ca5e 05be b441 303e 00d6 613d
00000170: 56ff 0cbe 69e0 933d fa84 d13d 3093 ee3c
00000180: 2256 f8bd e11c 79bd 5ff5 3abe 1bee 213c
00000190: e958 e9bd bc0d 65bd 4a3d 8abd 9084 b93d
000001a0: 0358 8abc 2a14 abbd f41d 053e 15a3 00be
000001b0: 416f 5a3e e6ea 283e 12dd 2ebc 945c 8d3d
000001c0: d496 523e 4f6f 443e 0526 373e 60f9 05be
000001d0: 4bf1 09be f3c1 ef3d 1ad6 453e 6553 c4bd
000001e0: f6db 94bd c2da 3b3c 4bcb cd3d 6562 c93d
000001f0: c9c2 f1bd 442d 4cbe 09d6 e93d e69b 833d
00000200: af9c 46bd 939a d5bc 4c24 7bbd 6ec2 8fbd
00000210: 8cd2 90bd da8e 3fbe f331 aabc 3b37 673e
00000220: 5bda 213e 08da 89bc 9f67 a2bd 69ff 9d3b
00000230: 327d 243e 3014 b4bd 09c4 ec3a b1c7 123e
00000240: e403 1d3e aa2d 0abe 38bf 613d 5321 09bd
00000250: 4724 823d 1c51 6b3d 2cfb bd3d 3067 8bbd
00000260: afb0 a0bd 51be 15bd dfcc e0bd b7eb febd
00000270: 5777 3cbd a103 1a3e f9bb e6bd 9be1 db3d
00000280: 56d7 0c3e d623 c03d abb6 85bc cee9 2c3e
00000290: 8548 13bd fde4 f5bd 069b a03d e7a5 1dbe
000002a0: 14b9 283e a42b 063b af4f e23d b4e0 5c3d
000002b0: 4009 52be d1a8 193e d577 453e 6e0a 58be
000002c0: 2e45 7b3d 09c9 013e 49e8 9d3c 28da e5bd
000002d0: 50d0 0abd a836 6b3d a8ca 2abe 2d42 febd
000002e0: b62e 00be f880 91bd 6b07 00be b8cd 283d
000002f0: b000 2a3e ae8a 34be 076b b53c 2de8 f4bd
00000300: 2785 0e3e 89c4 a1bd 6007 ed3c d078 9a3d
00000310: f271 ffbd f877 0dbe 782c 043e e90c f2bd
00000320: 5a6b 53be 900e 493e 49ff 3c3e de5b 15be
00000330: 1798 febd 97c0 2bbe b507 663e 25e9 debd
00000340: 8774 20bd 0c24 743d a478 1ebc 460a 9c3b
00000350: 2ad2 34be 7bbf 0d3d 8a6a 9d3c df6f 2a3e
00000360: d72f cbbc 72e0 c13c e4cf a33d f3f5 e0bd
00000370: 8e10 443d 7d9f 1f3e 8df2 263e 3cfb ebbb
00000380: c6e4 0e3d d486 16bc e85c b33d 9122 223e
00000390: 214e aabd 7836 0b3e 373e a63d 5cec 603e
000003a0: 7f17 993d 4847 2fbe 78ad a5bd f1de 31be
000003b0: 422e b6bd b073 303e 4694 503e 5804 f73c
000003c0: b162 323e cd2f 4abe c884 40be 97f6 54be
000003d0: 510c 23be 3e49 a83d a7d2 3fbd 9205 2b3e
000003e0: 8abc 623e 6286 513d bfad f63d c961 313e
000003f0: f81b 9dbd 0bea 4b3c 5298 053d 93e6 49be

layers.0.bias f4 [128]
0.0022888535 0.12709722 0.19765437 -0.17904352 -0.06853094 -0.113026895 -0.1346843 -0.38930902
0.44450974 -0.15000752 -0.39428765 -0.16220197 0.36161876 -0.20084822 0.40325826 0.19564123
0.34235847 0.17877921 0.28040016 0.011947814 0.31813672 -0.2326539 -0.16520824 0.26126638
0.17248523 0.40865085 0.18266492 -0.046975784 0.22544795 0.14226562 -0.053868316 -0.35877547
0.37064555 -0.17313834 -0.18325073 -0.015012096 0.055036016 -0.38425133 0.1871936 0.18505757
-0.25872037 0.36182418 0.2213448 -0.26226285 0.048434045 -0.22253579 0.1576325 -0.30999926
0.27947685 -0.2629775 0.26024005 -0.42738208 -0.3030288 -0.27233905 0.13375293 0.30758676
-0.35619068 0.27695602 -0.34584126 -0.24715647 -0.17022388 0.07914677 0.31640476 0.29461172
0.10818569 0.13541159 0.17170031 -0.1533498 -0.2574589 -0.24718723 0.06941763 -0.20949513
-0.05783094 -0.18804201 -0.36478487 -0.2038675 0.3536276 0.057005398 -0.41228327 0.16858296
-0.32422924 -0.062394105 -0.3680802 -0.21469054 0.22084436 -0.012816093 -0.2995559 0.23383401
0.32461068 0.22697058 0.068950854 0.11255173 0.32073987 -0.17481756 -0.2082886 -0.118573815
0.39844513 0.028965054 0.08241478 -0.14731935 -0.22331245 0.40765387 0.2426244 -0.24106482
0.20773832 -0.38252178 0.20365666 -0.13049571 0.37497845 -0.26998284 0.21749546 0.028507818
-0.12777999 -0.32246715 -0.21503127 -0.39044562 -0.30297768 0.21330918 0.04709428 0.1407693
0.30041215 0.035207793 0.012845707 -0.02369809 -0.2840896 0.31955057 0.2166845 -0.02327515
00000000: 9700 163b c625 023e e865 4a3e 2f57 37be
00000010: f359 8cbd a57a e7bd aeea 09be 8353 c7be
00000020: c896 e33e 929b 19be 12e0 c9be 4618 26be
00000030: 1826 b93e 28ab 4dbe de77 ce3e 2d56 483e
00000040: 9c49 af3e e611 373e 9c90 8f3e c4c0 433c
00000050: d1e2 a23e d33c 6ebe 592c 29be b5c4 853e
00000060: f89f 303e af3a d13e 830c 3b3e ae69 40bd
00000070: d4db 663e 14ae 113e 06a5 5cbd 6bb1 b7be
00000080: 41c5 bd3e 2d4b 31be 14a6 3bbe 4bf5 75bc
00000090: 726d 613d 97bc c4be aeaf 3f3e bb7f 3d3e
000000a0: ff76 84be 0541 b93e 36a8 623e 5147 86be
000000b0: c762 463d 6ce0 63be 6a6a 213e 39b8 9ebe
000000c0: 9717 8f3e fda4 86be 2f3e 853e d3d1 dabe
000000d0: 9726 9bbe 0670 8bbe 87f6 083e 037c 9d3e
000000e0: a05e b6be 2ecd 8d3e 1b12 b1be 9616 7dbe
000000f0: 2b4f 2ebe b417 a23d ceff a13e 59d7 963e
00000100: 7690 dd3d 56a9 0a3e 35d2 2f3e bb07 1dbe
00000110: a7d1 83be a61e 7dbe d52a 8e3d e485 56be
00000120: 23e0 6cbd 168e 40be 15c5 babe a4c2 50be
00000130: ad0e b53e 7e7e 693d cb16 d3be 03a1 2c3e
00000140: 6001 a6be f690 7fbd 0275 bcbe d6d7 5bbe
00000150: 0625 623e 97fa 51bc 645f 99be 2f72 6f3e
00000160: 5f33 a63e fa6a 683e 1b36 8d3d 8581 e63d
00000170: 0438 a43e 6003 33be 9b49 55be d4d6 f2bd
00000180: 0001 cc3e 1f48 ed3c 15c9 a83d e2da 16be
00000190: 05ac 64be 02b8 d03e 8872 783e b2d9 76be
000001a0: 5bb9 543e e5d9 c3be 5f8b 503e aba0 05be
000001b0: 2dfd bf3e 313b 8abe 21b7 5e3e 3a89 e93c
000001c0: c2d8 02be 6a1a a5be 2831 5cbe 7de8 c7be
000001d0: e41f 9bbe b96d 5a3e efe5 403d d425 103e
000001e0: 9fcf 993e 0c36 103d cd76 523c 7f22 c2bc
000001f0: 3174 91be 229c a33e 8be2 5d3e 87ab bebc

layers.1.weight f4 [128, 128]
0.09638848 -0.05850219 0.116530366 -0.049926616 0.050305415 -0.044489454 -0.10284708 0.10771552
-0.13614951 0.09911436 -0.018384857 -0.102926254 -0.09447515 -0.14261408 0.027437927 -0.015860442
-0.07133432 -0.14359054 0.1252114 -0.07080981 -0.011528776 -0.008552624 0.0566562 0.010019057
0.12322021 -0.10348404 -0.11626655 0.080947086 0.049359396 -0.06667557 -0.047771893 0.104163215
-0.047466613 -0.13023455 -0.09544887 0.023218608 0.078096844 0.12346643 0.15071942 -0.11112771
0.03646771 -0.097542934 -0.014323267 0.10518358 0.055258118 -0.043636 0.020754976 -0.039915297
0.13178253 0.08225446 -0.1070193 -0.047788393 0.1352303 0.14043112 -0.06747426 -0.091824256
-0.082075246 -0.042902123 0.05021731 0.019911338 -0.09691765 -0.058264192 -0.008670824 0.15370362
0.020504208 0.13107458 0.10984519 0.14041904 0.06844601 -0.046495926 -0.04196398 0.0006408943
-0.074839845 -0.049660522 0.02907078 0.1343812 0.09457795 -0.037834894 0.065762535 -0.01223473
-0.025308086 -0.14144759 0.15318456 0.109028995 0.09815302 0.002340255 0.034436245 0.00381052
0.11952239 0.1099833 -0.09832868 -0.039650165 -0.07524667 -0.04753232 -0.07116278 0.12551373
-0.11056391 -0.055767298 -0.14599912 0.07383786 0.09689378 -0.08442606 -0.000450144 -0.06508062
0.10804601 0.103948325 -0.00011606003 0.057060435 -0.14358434 0.023640487 -0.0029565736 0.06412271
0.13244326 -0.03179447 -0.093649484 -0.024193771 0.012813522 0.05351164 0.14580667 0.08101213
-0.12868549 0.03586559 0.053657692 0.13402595 0.14048727 0.06869079 -0.109492525 0.040924158
-0.13764834 0.061756182 0.092238024 -0.015421197 0.11277742 -0.08553076 -0.041661087 -0.073305316
0.04383649 0.048204135 -0.06525402 -0.084063865 -0.09780039 -0.022908904 0.001889556 -0.04116656
-0.026021793 -0.07084444 0.10436899 0.06457883 0.12787542 0.093541145 0.09229795 0.022925394
0.022119824 0.1445824 0.116918474 -0.061405864 -0.1384254 -0.1118335 -0.089854464 -0.098722704
0.1485776 -0.14931999 0.08446112 -0.14331082 0.12909463 -0.19223554 0.08546463 -0.102504395
-0.08899884 0.084479645 -0.07355702 -0.014545396 -0.079028875 0.12881081 0.059645295 0.10805885
0.008885343 0.13329263 -0.07663719 -0.12195921 0.041990526 -0.13310055 0.124745086 -0.0074614733
-0.12913014 0.14777996 0.064078845 -0.025633434 0.044577226 0.1040311 0.12207982 0.035060868
-0.15457204 -0.11124833 0.13277423 -0.01231936 -0.017102715 0.07970481 0.10922773 -0.123991065
-0.098830014 0.12545373 -0.051902886 -0.06529816 0.08229443 -0.04967937 0.0072237253 -0.13027859
-0.063938335 0.06122322 0.040216576 -0.17848553 0.05320271 0.11671406 -0.042941462 -0.115244396
-0.040559296 0.048646152 -0.074748285 -0.037838142 -0.116744235 0.059017792 0.038462166 -0.12574354
0.053712733 0.13046648 -0.018591577 -0.10515328 -0.14134242 -0.09981062 -0.030272387 0.00130019
-0.13890918 -0.10170631 -0.13500513 -0.053976472 -0.11369145 -0.103548095 0.08238157 0.053566914
-0.12703934 0.11139638 0.039628927 0.078572385 -0.06359845 -0.09759747 -0.0024814855 -0.07830502
0.104235165 0.08570962 -0.021894692 0.046603464 -0.11869541 0.104364045 0.09826128 0.028326457
00000000: 5367 c53d fe9f 6fbd 79a7 ee3d da7f 4cbd
00000010: 0d0d 4e3d 933a 36bd 7da1 d2bd f499 dc3d
00000020: c76a 0bbe 78fc ca3d d79b 96bc 00cb d2bd
00000030: 307c c1bd 6d09 12be 81c5 e03c c2ed 81bc
00000040: ba17 92bd 6609 13be 6b37 003e bc04 91bd
00000050: 31e3 3cbc 4e20 0cbc 5510 683d f926 243c
00000060: e15a fc3d 71ef d3bd 281d eebd 96c7 a53d
00000070: 142d 4a3d 348d 88bd 76ac 43bd 8653 d53d
00000080: 5a6c 42bd 355c 05be b27a c3bd f334 be3c
00000090: 3df1 9f3d f8db fc3d 3156 1a3e ed96 e3bd
000000a0: 2a5f 153d 97c4 c7bd 23ac 6abc 7d6a d73d
000000b0: 5656 623d aabb 32bd 5706 aa3c 397e 23bd
000000c0: 00f2 063e 0775 a83d ef2c dbbd c3bd 43bd
000000d0: d079 0a3e 2dcd 0f3e f22f 8abd 5b0e bcbd
000000e0: 1117 a8bd 23ba 2fbd abb0 4d3d 1a1d a33c
000000f0: c37c c6bd 6fa6 6ebd 1210 0ebc 7b64 1d3e
00000100: 71f8 a73c 6a38 063e 84f6 e03d 02ca 0f3e
00000110: 6c2d 8c3d 8372 3ebd 6ce2 2bbd b001 283a
00000120: a245 99bd d568 4bbd d825 ee3c 3a9b 093e
00000130: 16b2 c13d c3f8 1abd 82ae 863d 2d74 48bc
00000140: e752 cfbc a3d7 10be 6adc 1c3e 984a df3d
00000150: 7304 c93d f75e 193b 050d 0d3d ebb9 793b
00000160: 28c8 f43d ed3e e13d 8c60 c9bd 3668 22bd
00000170: ed1a 9abd 40b1 42bd cbbd 91bd ac86 003e
00000180: 556f e2bd 406c 64bd cb80 15be 4e38 973d
00000190: 3f70 c63d 92e7 acbd 4e01 ecb9 fd48 85bd
000001a0: 3a47 dd3d dce2 d43d 4165 f3b8 34b8 693d
000001b0: c607 13be b2a9 c13c 13c3 41bb c452 833d
000001c0: 359f 073e eb3a 02bd 4dcb bfbd 0432 c6bc
000001d0: ceef 513c 052f 5b3d 584e 153e b0e9 a53d
000001e0: 21c6 03be cce7 123d 2bc8 5b3d 193e 093e
000001f0: e5db 0f3e c2ad 8c3d 9e3d e0bd 17a0 273d
00000200: b0f3 0cbe 0df4 7c3d 4ae7 bc3d 30a9 7cbc
00000210: d9f7 e63d c02a afbd d1a4 2abd 1921 96bd
00000220: e48d 333d b371 453d e6a3 85bd ad29 acbd
00000230: 924b c8bd 74ab bbbc faaa f73a 449e 28bd
00000240: a82b d5bc e416 91bd 69bf d53d e841 843d
00000250: c6f1 023e 8092 bf3d b506 bd3d 09ce bb3c
00000260: a234 b53c 690d 143e f472 ef3d b784 7bbd
00000270: 63bf 0dbe f608 e5bd 9e05 b8bd 212f cabd
00000280: ba24 183e 57e7 18be f4f9 ac3d 12c0 12be
00000290: 6231 043e 65d9 44be 1408 af3d d3ed d1bd
000002a0: 0645 b6bd aa03 ad3d 10a5 96bd d04f 6ebc
000002b0: e4d9 a1bd fbe6 033e a04e 743d f54d dd3d
000002c0: d493 113c dd7d 083e f6f3 9cbd c0c5 f9bd
000002d0: 42fe 2b3d 834b 08be 5a7a ff3d 607f f4bb
000002e0: b13a 04be a153 173e c53b 833d 35fd d1bc
000002f0: 9c96 363d 420e d53d fc04 fa3d fc9b 0f3d
00000300: 2248 1ebe 2ad6 e3bd f8f5 073e 24d7 49bc
00000310: fe1a 8cbc 473c a33d cab2 df3d 07ef fdbd
00000320: 6467 cabd f176 003e 1f98 54bd 0bbb 85bd
00000330: fb89 a83d 987c 4bbd 00b5 ec3b c067 05be
00000340: 1af2 82bd 33c5 7a3d 23ba 243d e9c4 36be
00000350: 16eb 593d c807 ef3d 63e3 2fbd 4105 ecbd
00000360: 8121 26bd 3041 473d a115 99bd 2bfc 1abd
00000370: 9a17 efbd a4bc 713d 818a 1d3d eac2 00be
00000380: e201 5c3d 0199 053e 5d4d 98bc 9a5a d7bd
00000390: 11bc 10be 8369 ccbd ccfd f7bc 236b aa3a
000003a0: 353e 0ebe 664b d0bd c93e 0abe 6f16 5dbd
000003b0: 10d7 e8bd 0611 d4bd abb7 a83d fb68 5b3d
000003c0: 9a16 02be c923 e43d f151 223d 8fea a03d
000003d0: e73f 82bd 2fe1 c7bd 6ba0 22bb 625e a0bd
000003e0: 3f79 d53d 8688 af3d 7f5c b3bc 46e3 3e3d
000003f0: 9416 f3bd d1bc d53d 363d c93d e30c e83c

layers.1.bias f4 [128]
0.03107812 0.08221764 0.07264225 -0.050333623 -0.07040395 -0.06761191 -0.014538981 0.081897564
-0.0022343139 -0.019059466 0.012025124 0.017952085 0.002824254 0.07718231 0.07996517 -0.018012147
0.033286814 0.06563076 -0.06516136 -0.024417385 -0.020123806 -0.060679495 -0.046437405 -0.0053141857
-0.054058388 -0.080056556 0.07900624 0.04185664 0.031897843 0.016849933 0.05288935 -0.021406977
-0.015310891 -0.0043277717 -0.05535191 -0.086000904 -0.043864563 0.058689393 0.034731522 -0.078520246
0.018927269 0.015896196 0.08798099 0.11718063 -0.064901896 0.029075664 -0.029947639 0.030056745
0.0011487484 0.03672861 0.034648746 -0.060230255 0.01573169 0.0016843018 0.032616194 0.06384154
-0.09213484 0.08057545 0.0838474 0.035107207 0.08115363 -0.061966572 0.070124745 -0.10013311
-0.023683138 0.07619197 0.06803852 -0.0742512 -0.022493131 0.061933752 -0.036064003 0.03264316
0.0028439183 0.06931187 -0.08865777 0.024246398 -0.055160955 -0.085993096 -0.043381434 -0.042561967
-0.06195954 -0.02939663 0.029106036 -0.03389259 -0.11279269 0.07649184 -0.014183795 0.016464049
-0.03666622 0.026467254 -0.08051942 -0.034195445 -0.039932102 -0.033752948 -0.04952337 0.07401186
-0.043950155 -0.0536667 -0.041887015 -0.03352443 0.032894533 0.019253207 -0.08498111 0.04784214
0.047888465 -0.0657875 -0.07006196 0.16459969 -0.05220379 0.061449964 -0.054242108 0.0007403333
-0.016022198 0.062496033 0.049227886 -0.04841209 0.024526741 -0.044477016 0.08934458 0.048399813
0.061009202 0.044321142 0.015346579 -0.0036376826 -0.077384524 0.05268667 -0.03339684 0.07487045
00000000: 8b97 fe3c b961 a83d 76c5 943d a12a 4ebd
00000010: f22f 90bd 1d78 8abd e834 6ebc e9b9 a73d
00000020: 916d 12bb 9922 9cbc 0705 453c 4010 933c
00000030: 1f17 393b c211 9e3d c7c4 a33d 368e 93bc
00000040: c157 083d 6b69 863d 5273 85bd f806 c8bc
00000050: aeda a4bc 108b 78bd 2635 3ebd 9f22 aebb
00000060: 546c 5dbd b1f4 a3bd 06ce a13d de71 2b3d
00000070: 50a7 023d df08 8a3c 81a2 583d af5d afbc
00000080: 88da 7abc fbcf 8dbb afb8 62bd 3e21 b0bd
00000090: 54ab 33bd 4a64 703d a442 0e3d 39cf a0bd
000000a0: 5c0d 9b3c bd38 823c 612f b43d 66fc ef3d
000000b0: 49eb 84bd 1630 ee3c c054 f5bc 9039 f63c
000000c0: 9a91 963a bd70 163d d8eb 0d3d 00b4 76bd
000000d0: bfdf 803c cac3 dc3a 8f98 053d 5abf 823d
000000e0: 31b1 bcbd be04 a53d 30b8 ab3d 93cc 0f3d
000000f0: e033 a63d a9d0 7dbd 909d 8f3d 9712 cdbd
00000100: 2403 c2bc 890a 9c3d c857 8b3d 0311 98bd
00000110: 8443 b8bc 3fae 7d3d d9b7 13bd d6b4 053d
00000120: 0861 3a3b 62f3 8d3d 3492 b5bd 62a0 c63c
00000130: 74f0 61bd 261d b0bd bbb0 31bd 7555 2ebd
00000140: 49c9 7dbd 34d1 f0bc c86f ee3c f5d2 0abd
00000150: dbff e6bd c1a7 9c3d 2663 68bc 9ddf 863c
00000160: 512f 16bd dbd1 d83c 5ee7 a4bd 8610 0cbd
00000170: d88f 23bd 8840 0abd 04d9 4abd 8893 973d
00000180: 1405 34bd 9dd1 5bbd b891 2bbd ea50 09bd
00000190: 6bbc 063d e7b8 9d3c 940a aebd 1ff6 433d
000001a0: b226 443d 99bb 86bd a57c 8fbd d28c 283e
000001b0: a4d3 55bd f5b2 7b3d f92c 5ebd ed12 423a
000001c0: fc40 83bc d7fb 7f3d 2ea3 493d c14b 46bd
000001d0: 4eec c83c 882d 36bd 4bfa b63d e23e 463d
000001e0: c9e4 793d 168a 353d 3870 7b3c 3066 6ebb
000001f0: c77b 9ebd facd 573d 20cb 08bd ae55 993d

layers.2.weight f4 [128, 128]
0.09502513 0.022486353 -0.0017100064 -0.031134604 -0.039287418 0.09523053 -0.01668663 0.0014977928
-0.05439073 0.09397258 -0.0452307 -0.01117434 0.026279144 0.10460215 0.120857775 0.111338034
0.039940584 -0.12597792 0.06358131 -0.078821085 -0.07018217 -0.0099156825 -0.0116245095 0.08725021
-0.13035394 -0.06406364 0.05522315 -0.09088762 -0.11765586 -0.1212133 -0.09419298 -0.1763387
-0.14943628 -0.15884282 0.05238402 -0.11889897 -0.039974313 -0.0866984 -0.026343964 0.0695777
-0.025010284 -0.13598026 0.052076582 0.11730433 0.066659935 -0.10238755 -0.13647035 -0.05399681
-0.035668842 0.031106561 -0.07305736 -0.11017442 0.03605158 0.09327737 -0.1287644 -0.06717459
0.09323294 -0.17120513 -0.008857889 -0.03397198 -0.14579521 -0.08436283 0.098279655 -0.048758514
-0.06807158 0.103357255 0.057776958 -0.08944819 -0.03153071 -0.08295907 0.10227184 0.092366286
-0.14250216 0.1485117 -0.16941415 0.07850021 0.12794022 -0.120783396 -0.044799153 0.06867193
-0.110890746 -0.038394693 -0.03211365 0.11396776 -0.02798852 -0.11644792 0.1242335 0.052062877
0.10530796 0.043212842 0.126214 -0.063362904 -0.02452084 -0.110586576 -0.124804094 -0.14811312
0.08533947 -0.06694155 -0.047714435 0.030196104 -0.12546389 0.037016634 -0.0005113034 -0.1642286
0.1322219 -0.057206146 -0.09960971 0.14221065 0.103891216 0.033635534 0.086697 0.101522505
-0.108397044 -0.027809003 0.11902927 -0.053681865 0.10809603 -0.026774677 0.04707549 -0.10270668
0.0019278005 -0.08470656 -0.13639817 0.01661418 0.089319564 -0.0093242 -0.12454694 -0.14366047
0.15729657 -0.10180204 0.0330697 -0.09063545 -0.09018881 0.08952836 0.0050988686 0.08658617
-0.13188702 0.0230735 -0.13393557 0.017339451 0.0744514 -0.09800103 -0.0798473 0.11266187
-0.03162649 -0.15742837 0.022444256 -0.0785457 0.03777822 0.09949592 -0.08173957 0.14506866
-0.011009403 -0.032911606 0.007900333 0.0071620652 -0.05941986 0.049728394 0.1201724 0.0947036
-0.017493036 0.07407299 -0.05866003 0.15648156 0.054062806 0.020460708 -0.042440142 0.036866862
0.13113551 0.15567379 0.11259123 0.12933819 -0.13184607 0.07267416 -0.11682437 0.075467244
-0.16007024 -0.0009226289 0.044911914 0.080834605 -0.024581341 0.09563596 -0.13801692 0.05361925
0.043951683 -0.13473956 -0.06872979 -0.056491524 0.028611736 0.07369098 -0.086285144 -0.09311076
0.011443007 0.06332445 0.12514547 0.09717938 -0.03327932 -0.061478324 0.13177142 -0.063875675
0.070725285 -0.0512093 0.110948384 0.11811765 -0.01596346 -0.086310215 -0.11462856 -0.13239776
-0.14678511 0.103692666 -0.038881604 0.03109059 -0.028989097 0.087800846 -0.040437084 0.0018239865
0.04946589 0.00754867 -0.0046189795 -0.12598298 -0.119681455 0.027780736 0.078990035 0.0021997662
-0.07587219 0.06749831 0.053171057 0.11612518 0.09786045 -0.023670852 0.07466463 -0.1304897
-0.029614015 0.028017161 -0.037779108 -0.033132702 0.12674384 -0.10309513 0.024894835 0.011289547
0.02405179 0.010866344 0.09144564 0.116655044 -0.11702926 0.08896582 -0.10382152 0.033015262
0.038613286 0.020872315 0.07941102 -0.030948464 0.10278727 0.05380137 0.14026895 0.12358129
00000000: 899c c23d 4d35 b83c 4b22 e0ba ff0d ffbc
00000010: d8eb 20bd 3908 c33d 66b2 88bc 9651 c43a
00000020: d0c8 5ebd b274 c03d d443 39bd 9414 37bc
00000030: 5c47 d73c a739 d63d 4884 f73d 3205 e43d
00000040: bd98 233d 5b00 01be eb36 823d f36c a1bd
00000050: abbb 8fbd 6375 22bc ba74 3ebc 3db0 b23d
00000060: 817b 05be cc33 83bd ab31 623d 4a23 babd
00000070: 8ef5 f0bd ae3e f8bd 40e8 c0bd 2292 34be
00000080: d305 19be b1a7 22be a090 563d 4e81 f3bd
00000090: 1bbc 23bd ee8e b1bd 4ccf d7bc c17e 8e3d
000000a0: 5ee2 ccbc 693e 0bbe 414e 553d 413d f03d
000000b0: 0185 883d 90b0 d1bd e2be 0bbe c22b 5dbd
000000c0: 7e19 12bd 30d3 fe3c 199f 95bd 20a3 e1bd
000000d0: d2aa 133d 3508 bf3d d1da 03be d592 89bd
000000e0: e9f0 be3d 6650 2fbe ae20 11bc 3426 0bbd
000000f0: 574b 15be 6bc6 acbd d846 c93d 02b7 47bd
00000100: 1d69 8bbd f8ac d33d 88a7 6c3d 9d30 b7bd
00000110: 5926 01bd 72e6 a9bd e673 d13d 892a bd3d
00000120: 16ec 11be 7313 183e e77a 2dbe b8c4 a03d
00000130: c302 033e 495d f7bd 517f 37bd dea3 8c3d
00000140: b01a e3bd c143 1dbd 9a89 03bd ee67 e93d
00000150: 2e48 e5bc 3f7c eebd 226e fe3d e23f 553d
00000160: b3ab d73d f3ff 303d 3e3e 013e 69c4 81bd
00000170: eedf c8bc 377b e2bd 4a99 ffbd f7aa 17be
00000180: 76c6 ae3d a718 89bd 3670 43bd d25d f73c
00000190: 9b79 00be c19e 173d fe08 06ba 8b2b 28be
000001a0: 2e65 073e fe50 6abd 2d00 ccbd ab9f 113e
000001b0: ebc4 d43d 6ac5 093d 328e b13d 08eb cf3d
000001c0: 45ff ddbd b5cf e3bc 9ec5 f33d 84e1 5bbd
000001d0: 7461 dd3d 9156 dbbc 3bd2 403d e157 d2bd
000001e0: 40ae fc3a a27a adbd f6ab 0bbe 761a 883c
000001f0: 2ded b63d 88c4 18bc 7712 ffbd bb1b 13be
00000200: 5a12 213e 977d d0bd 1874 073d 149f b9bd
00000210: e9b4 b8bd a55a b73d 6914 a73b 1754 b13d
00000220: 640d 07be a304 bd3c 6826 09be 770b 8e3c
00000230: fa79 983d c4b4 c8bd fb86 a3bd 44bb e63d
00000240: c78a 01bd e734 21be 04dd b73c 91dc a0bd
00000250: 56bd 1a3d 84c4 cb3d 1367 a7bd e18c 143e
00000260: c860 34bc 52ce 06bd 6670 013c c2af ea3b
00000270: 3d62 73bd 00b0 4b3d f21c f63d f6f3 c13d
00000280: 8e4d 8fbc 94b3 973d 8045 70bd b43c 203e
00000290: f670 5d3d 379d a73c b7d5 2dbd b501 173d
000002a0: 6348 063e f368 1f3e 3b96 e63d 3b71 043e
000002b0: a802 07be 31d6 943d 9e41 efbd 928e 9a3d
000002c0: 74e9 23be 94dc 71ba 8ef5 373d 9d8c a53d
000002d0: cf5e c9bc c9dc c33d 4f54 0dbe dc9f 5b3d
000002e0: ae06 343d 2bf9 09be 34c2 8cbd a863 67bd
000002f0: 2963 ea3c 4ceb 963d 44b6 b0bd dbb0 bebd
00000300: 737b 3b3c 40b0 813d 2226 003e fc05 c73d
00000310: e54f 08bd b2d0 7bbd 16ef 063e 40d1 82bd
00000320: 6bd8 903d d8c0 51bd e838 e33d abe7 f13d
00000330: cdc5 82bc 69c3 b0bd 61c2 eabd 4793 07be
00000340: d64e 16be d25c d43d 5142 1fbd b1b1 fe3c
00000350: 8b7a edbc eed0 b33d 5ba1 25bd d512 ef3a
00000360: bf9c 4a3d d55a f73b cf5a 97bb af01 01be
00000370: 8d1b f5bd 6d94 e33c 87c5 a13d f429 103b
00000380: e162 9bbd 8e3c 8a3d e5c9 593d 0ad3 ed3d
00000390: 0f6b c83d 60e9 c1bc c5e9 983d 189f 05be
000003a0: 1799 f2bc 3f84 e53c 44be 1abd 28b6 07bd
000003b0: 23c9 013e 8a23 d3bd 41f0 cb3c cbf7 383c
000003c0: 4208 c53c c008 323c da47 bb3d d7e8 ee3d
000003d0: 09ad efbd b633 b63d 61a0 d4bd 033b 073d
000003e0: f728 1e3d 6bfc aa3c 3fa2 a23d a287 fdbc
000003f0: 2282 d23d d35e 5c3d aaa2 0f3e 3018 fd3d

layers.2.bias f4 [128]
-0.05346891 -0.018310655 0.053822417 0.100824706 -0.04126562 0.016643332 -0.07745165 0.062663324
-0.015352919 -0.041501377 0.08456928 -0.078237675 -0.084064126 -0.001044407 -0.050145186 -0.056039225
-0.0633287 -0.06595744 0.008813809 -0.08512961 -0.057161644 0.07143749 -0.05402938 -0.0051402613
-0.05666058 -0.009053695 -0.11136929 0.018918075 0.04941758 0.0018953069 0.048919603 0.07653189
-0.01248761 -0.06793209 0.050689 -0.06972604 -0.086203866 -0.011897479 -0.06272332 0.046321485
-0.003945654 0.042490687 -0.017945321 0.02736522 -0.034801103 -0.023818031 0.051797573 -0.02278221
-0.10465113 -0.06276077 -0.09707661 -0.07846601 -0.087339185 0.039829057 -0.0884407 -0.10136562
0.051557835 -0.042101786 -0.026583126 0.014199874 0.0030273902 -0.03183136 0.029234275 0.06912229
0.082052246 -0.012608427 -0.03243071 -0.029993104 -0.086058445 0.08468372 0.07002222 0.021290425
0.035651524 -0.023178162 -0.012994944 -0.059478734 0.06686694 -0.06426615 0.075295925 0.02570752
-0.07427948 0.0010601112 0.042950816 -0.016819183 -0.05640315 0.08912555 0.054341577 -0.0802286
-0.064060465 -0.0015130664 0.028533917 0.047747817 -0.0757125 0.016250676 0.04089456 0.052335557
0.020764565 -0.09074676 -0.06976295 0.0075696665 -0.0676702 -0.092444934 0.016972518 -0.053396836
-0.018168518 0.043485757 -0.039507627 0.03792625 -0.07000552 -0.07706773 0.12090408 0.08305204
-0.09110763 0.017706253 -0.07563833 -0.074240744 -0.08598413 0.07082173 -0.05790766 -0.055472225
0.09045456 -0.020196468 -0.06982786 -0.07159116 0.04367008 0.090600915 -0.071882695 -0.06011441
00000000: 3702 5bbd 3a00 96bc e574 5c3d 2f7d ce3d
00000010: 2406 29bd 9957 883c f89e 9ebd a155 803d
00000020: cf8a 7bbc 59fd 29bd a932 ad3d 133b a0bd
00000030: d029 acbd 7ce4 88ba 0a65 4dbd 6389 65bd
00000040: 7ab2 81bd b214 87bd cb67 103c 6f58 aebd
00000050: 5422 6abd d24d 923d e94d 5dbd a36f a8bb
00000060: ed14 68bd f355 14bc 9515 e4bd 14fa 9a3c
00000070: 176a 4a3d f26b f83a ec5f 483d c0bc 9c3d
00000080: d598 4cbc fb1f 8bbd 459f 4f3d 87cc 8ebd
00000090: a78b b0bd a5ed 42bc 1675 80bd 99bb 3d3d
000000a0: 8b4a 81bb b70a 2e3d 1102 93bc 072d e03c
000000b0: 9a8b 0ebd 081e c3bc b129 543d c2a1 babc
000000c0: 5553 d6bd b888 80bd 1ad0 c6bd cab2 a0bd
000000d0: e3de b2bd cb23 233d 6620 b5bd c798 cfbd
000000e0: 4f2e 533d ec72 2cbd dbc4 d9bc 97a6 683c
000000f0: 2e67 463b 9a61 02bd b87c ef3c fd8f 8d3d
00000100: 020b a83d 9393 4ebc 10d6 04bd 19b4 f5bc
00000110: 693f b0bd a86e ad3d cf67 8f3d 4269 ae3c
00000120: 5507 123d 21e0 bdbc bfe8 54bc f99f 73bd
00000130: 89f1 883d f99d 83bd c034 9a3d 9498 d23c
00000140: d71f 98bd 6ef3 8a3a 32ed 2f3d 62c8 89bc
00000150: fd06 67bd 7587 b63d 4695 5e3d e44e a4bd
00000160: 2232 83bd 1552 c6ba f6bf e93c 3793 433d
00000170: 280f 9bbd 2320 853c 0e81 273d cf5d 563d
00000180: 731a aa3c 70d9 b9bd e1df 8ebd f70a f83b
00000190: ac96 8abd c553 bdbd f309 8b3c a4b6 5abd
000001a0: 25d6 94bc 1f1e 323d c0d2 21bd 8e58 1b3d
000001b0: 0e5f 8fbd b0d5 9dbd 8f9c f73d 3017 aa3d
000001c0: a396 babd b40c 913c 45e8 9abd 880b 98bd
000001d0: 7318 b0bd fc0a 913d 9530 6dbd d836 63bd
000001e0: 3e40 b93d 1073 a5bc e901 8fbd 639e 92bd
000001f0: 66df 323d f98c b93d 3c37 93bd 873a 76bd

layers.3.weight f4 [128, 128]
-0.13157856 0.009657421 0.07897116 0.14692198 0.028411973 0.1115863 0.09521976 -0.07233862
0.104497984 0.12918998 -0.10974568 -0.017254857 0.11210736 -0.1435983 0.07239648 -0.09759994
-0.015469313 0.15447542 -0.11225161 -0.039077535 -0.07861813 -0.015226064 -0.09850711 -0.13265057
-0.0486019 0.012605776 -0.12666804 0.07801026 -0.11427257 0.141916 -0.02325414 -0.08334208
-0.10261455 0.038182523 -0.09317367 0.101788975 0.13964048 0.14353164 -0.018093985 0.08507257
-0.0062799715 -0.1485695 -0.11650213 -0.04292477 0.008303657 0.039101914 0.0053178426 0.1266284
0.059372913 -0.13636966 0.06362389 0.02819652 0.09682713 -0.18175577 0.050323077 0.06508391
0.120466046 0.10627029 -0.12936443 -0.124384575 0.038640182 0.09060525 0.1294213 -0.08957633
-0.14416698 0.06343686 0.015373032 -0.10891469 0.06846008 -0.08117559 0.048539307 -0.14147983
-0.0289033 0.074312605 -0.035811607 0.043441247 -0.07661106 -0.080817 -0.0036163717 0.0117043005
0.06911765 -0.07309432 0.0019269346 -0.077822834 0.017163666 -0.12203272 0.112187274 0.08478147
0.09735316 -0.13968597 -0.14589778 0.0053511695 0.0034283383 -0.0949262 -0.11931147 -0.021162745
-0.07094202 -0.048943263 0.043020483 -0.01697741 0.075281516 -0.059858363 -0.04038253 -0.022767505
0.025344945 -0.072519295 -0.15007634 -0.15252677 -0.1511326 -0.016557885 0.10406007 0.048501093
0.037838057 0.012375278 0.12541851 0.0701638 -0.027604334 0.14134924 -0.02548825 0.030257074
0.029268077 -0.069226086 0.13680398 0.12847582 0.07339134 -0.0957264 0.108559705 -0.04125064
0.04469781 -0.12280556 0.0902499 0.16635914 -0.055914443 0.087095246 0.0635772 0.12486784
-0.009109755 -0.063288 -0.14387181 -0.027393432 0.1390537 0.01842999 0.040948126 0.096685626
-0.035860293 -0.019631887 0.11269144 0.1434682 0.11839135 0.03627969 -0.12936509 0.14148784
0.0095473565 -0.0028653943 -0.0049098576 0.109283164 -0.09434413 -0.09452812 0.025829261 0.122732505
0.066015214 0.14513549 0.1116228 0.07274035 -0.026122231 -0.03161241 -0.09432016 0.036671873
0.15634449 0.045431156 0.04862043 0.01757539 -0.004667004 0.06478588 0.11276029 0.021053534
0.08684971 0.14473723 -0.07190272 0.13552536 -0.15769605 0.085488155 -0.063216016 0.095951594
0.047363084 -0.07061681 0.1277991 -0.15032727 0.013586377 0.14853899 -0.14968865 0.13420424
-0.11755155 -0.035195548 -0.0065201945 -0.009146891 0.10604211 0.08255861 -0.114474036 -0.15348825
0.13723359 -0.05464146 0.140966 0.059677448 0.027030073 0.14560996 0.098034985 0.0074155973
0.1287052 0.11135393 -0.0953082 0.12165855 -0.11168665 0.09802323 0.05931485 -0.027553994
0.12982805 0.03339622 0.11494892 0.015999228 -0.08627678 -0.056055374 -0.012317645 -0.027165636
0.015407038 -0.07251586 0.07532788 0.118594564 -0.017255776 0.062341277 -0.11436284 0.029999318
-0.082978025 0.11044441 0.11572401 0.11427538 0.029561022 -0.085796215 0.13862774 -0.13088109
-0.002564354 0.03683065 0.06850952 -0.07425288 0.047877375 -0.018095402 0.06856993 0.1138292
-0.07593122 0.014575994 -0.14621109 0.050081372 -0.0797691 0.08240303 0.017104393 -0.012630972
00000000: 88bc 06be 293a 1e3c a2bb a13d b772 163e
00000010: 3ac0 e83c 5c87 e43d 9402 c33d 4526 94bd
00000020: 0a03 d63d 614a 043e 58c2 e0bd 0f5a 8dbc
00000030: 8b98 e53d 6f0b 13be 9b44 943d 7ae2 c7bd
00000040: 0073 7dbc ce2e 1e3e 2ce4 e5bd c40f 20bd
00000050: 8b02 a1bd be76 79bc 18be c9bd 8dd5 07be
00000060: c912 47bd 7588 4e3c 44b5 01be d8c3 9f3d
00000070: bd07 eabd 6e52 113e 777f bebc 41af aabd
00000080: 9427 d2bd 4765 1c3d d6d1 bebd bd76 d03d
00000090: eafd 0e3e f5f9 123e d639 94bc 873a ae3d
000000a0: 38c8 cdbb 9a22 18be ab98 eebd e2d1 2fbd
000000b0: 100c 083c 5429 203d 4c41 ae3b e0aa 013e
000000c0: 0331 733d 7da4 0bbe 3e4d 823d 63fc e63c
000000d0: 4d4d c63d 2f1e 3abe 921f 4e3d b74a 853d
000000e0: e7b6 f63d 3da4 d93d 1c78 04be 57bd febd
000000f0: 2b45 1e3d 3f8f b93d 0487 043e cb73 b7bd
00000100: 82a0 13be 2feb 813d 2bdf 7b3c aa0e dfbd
00000110: cc34 8c3d 633f a6bd 27d1 463d 17e0 10be
00000120: 9dc6 ecbc 3531 983d 31af 12bd 73ef 313d
00000130: 42e6 9cbd 6283 a5bd a600 6dbb 65c3 3f3c
00000140: 8e8d 8d3d 7ab2 95bd 3291 fc3a 9461 9fbd
00000150: d19a 8c3c 4aec f9bd 71c2 e53d e8a1 ad3d
00000160: 1861 c73d d709 0fbe 3a66 15be dd58 af3b
00000170: f9ad 603b ab68 c2bd 9259 f4bd 7e5d adbc
00000180: 0d4a 91bd bb78 48bd 3f36 303d 3614 8bbc
00000190: 322d 9a3d 0b2e 75bd 2768 25bd eb82 babc
000001a0: 34a0 cf3c ff84 94bd 9dad 19be fa2f 1cbe
000001b0: 81c2 1abe 67a4 87bc 721d d53d 15a9 463d
000001c0: 14fc 1a3d aec1 4a3c b66d 003e 0ab2 8f3d
000001d0: 7c22 e2bc dbbd 103e bccc d0bc afdd f73c
000001e0: 9bc3 ef3c 68c6 8dbd 5816 0c3e 2a8f 033e
000001f0: 334e 963d 340c c4bd 8d54 de3d 6ef6 28bd
00000200: 0d15 373d 7b81 fbbd f1d4 b83d 0d5a 2a3e
00000210: 8b06 65bd fe5e b23d c334 823d b6ba ff3d
00000220: 1541 15bc 249d 81bd 2253 13be 3168 e0bc
00000230: 1864 0e3e 7efa 963c 39b9 273d 1d03 c63d
00000240: 3ee2 12bd 0dd3 a0bc c5ca e63d 54e9 123e
00000250: 2a77 f23d 039a 143d 4878 04be 30e2 103e
00000260: 846c 1c3c 57c9 3bbb dfe2 a0bb dacf df3d
00000270: 7f37 c1bd f597 c1bd e397 d33c 2e5b fb3d
00000280: fc32 873d 669e 143e 7f9a e43d e5f8 943d
00000290: 4afe d5bc 047c 01bd ee2a c1bd 3f35 163d
000002a0: c518 203e 0516 3a3d 3726 473d 44fa 8f3c
000002b0: abed 98bb 76ae 843d deee e63d 7678 ac3c
000002c0: 43de b13d ff35 143e bc41 93bd 29c7 0a3e
000002d0: 137b 21be 6a14 af3d 6677 81bd 4582 c43d
000002e0: cbff 413d 8c9f 90bd c4dd 023e 64ef 19be
000002f0: 6599 5e3c 9b1a 183e fb47 19be d66c 093e
00000300: debe f0bd 3529 10bd 5ba7 d5bb d7dc 15bc
00000310: 9b2c d93d 7d14 a93d 5d71 eabd 062c 1dbe
00000320: f686 0c3e b9cf 5fbd 6459 103e 5770 743d
00000330: 2c6e dd3c c71a 153e 91c6 c83d 8afe f23b
00000340: 4ccb 033e 870d e43d f230 c3bd 1e28 f93d
00000350: f8bb e4bd 67c0 c83d 21f4 723d eab8 e1bc
00000360: a5f1 043e 7aca 083d 576a eb3d d010 833c
00000370: e1b1 b0bd 529a 65bd f3cf 49bc 788a debc
00000380: cd6d 7c3c 3283 94bd 8145 9a3d b5e1 f23d
00000390: fc5b 8dbc 9159 7f3d 1137 eabd 21c1 f53c
000003a0: 62f0 a9bd ae30 e23d b600 ed3d 3609 ea3d
000003b0: f529 f23c edb5 afbd 6ef4 0d3e b105 06be
000003c0: b90e 28bb bcdb 163d b84e 8c3d e511 98bd
000003d0: 111b 443d cf3c 94bc 646e 8c3d 491f e93d
000003e0: d481 9bbd 26d0 6e3c 5cb8 15be 2022 4d3d
000003f0: fb5d a3bd ebc2 a83d 831e 8c3c 23f2 4ebc

layers.3.bias f4 [128]
-0.09621211 -0.08423517 -0.014306424 0.019204034 -0.051431064 -0.07582004 -0.020894572 -0.012819503
0.019559603 0.09324964 0.028140139 0.08094602 0.053255484 0.05505165 -0.017291049 -0.0823842
-0.044603206 -0.008472803 0.024962092 0.032129746 -0.008360384 -0.056650452 -0.028492026 -0.044432994
-0.049839944 -0.051951565 0.022614544 -0.10034253 0.022738753 -0.07590203 -0.046320472 -0.09152989
0.046451844 0.0900197 -0.081797384 0.061053243 -0.0463961 0.017855188 0.04246588 -0.019237747
0.014365613 -0.039554525 -0.053018283 0.074976526 0.0017217878 0.007265219 0.016945595 -0.038032897
0.06681519 -0.0008684498 0.026559465 0.06985247 0.06243935 -0.07962161 0.06442159 0.013559101
-0.04282106 -0.0653176 0.0072703096 -0.0078217285 0.005585021 -0.033270177 -0.0039389837 0.050758835
-0.05410563 -0.037339445 -0.013415519 0.07377224 0.020247938 0.067029804 -0.023727616 -0.015448148
0.031309973 -0.04720472 -0.076363645 0.084589615 -0.0043351906 -0.0014172962 0.05151884 0.054064933
-0.029550383 -0.032211646 -0.052039035 0.07896896 -0.041258756 -0.050186485 -0.025294416 0.04958866
0.035450436 -0.04678057 -0.019122161 0.08407936 0.0709909 0.073535986 -0.064014584 -0.02454364
-0.04196662 0.08229094 -0.048252452 -0.053054113 0.04780757 -0.088276275 0.030059427 0.01700674
0.07637913 0.062125806 0.034824245 0.092913896 0.018836306 0.05334959 -0.10655537 0.0675946
0.015939225 0.04938738 -0.014683083 0.0069473125 -0.07250505 -0.07949857 -0.04216735 -0.06773236
0.014792829 0.0018747556 -0.07772274 0.08685939 -0.0017367003 0.012333479 -0.0442148 0.059357453
00000000: db0a c5bd 7d83 acbd 7e65 6abc c751 9d3c
00000010: 61a9 52bd 8a47 9bbd 182b abbc e508 52bc
00000020: 763b a03c abf9 be3d 2686 e63c 07c7 a53d
00000030: 6c22 5a3d d77d 613d f5a5 8dbc 0cb9 a8bd
00000040: dab1 36bd 83d1 0abc 4d7d cc3c 7b9a 033d
00000050: fef9 08bc 4e0a 68bd 1c68 e9bc 5fff 35bd
00000060: f824 4cbd 2acb 54bd 2342 b93c 6280 cdbd
00000070: 9f46 ba3c 8672 9bbd 89ba 3dbd 0674 bbbd
00000080: 4a44 3e3d 405c b83d 6385 a7bd f712 7a3d
00000090: d609 3ebd 0b45 923c b4f0 2d3d 7b98 9dbc
000000a0: c05d 6b3c ed03 22bd b329 59bd 4b8d 993d
000000b0: 9dad e13a 1311 ee3b 7dd1 8a3c 62c8 1bbd
000000c0: 67d6 883d aea8 63ba 3c93 d93c d00e 8f3d
000000d0: 67c0 7f3d a810 a3bd 77ef 833d fe26 5e3c
000000e0: 2365 2fbd 3cc5 85bd c73b ee3b b526 00bc
000000f0: 8d02 b73b 4f46 08bd 9712 81bb 7fe8 4f3d
00000100: dd9d 5dbd 3ff1 18bd c4cc 5bbc e615 973d
00000110: 01df a53c ec46 893d 6b60 c2bc 3b1a 7dbc
00000120: e33e 003d bd59 41bd 8b64 9cbd 523d ad3d
00000130: 370e 8ebb 92c4 b9ba 6b05 533d 3173 5d3d
00000140: a513 f2bc 5cf0 03bd e226 55bd 7aba a13d
00000150: f1fe 28bd 5890 4dbd 3c36 cfbc 7b1d 4b3d
00000160: 7a34 113d fc9c 3fbd 14a6 9cbc cd31 ac3d
00000170: ad63 913d 099a 963d 141a 83bd be0f c9bc
00000180: 31e5 2bbd 2788 a83d 5da4 45bd 454f 59bd
00000190: dfd1 433d 31ca b4bd 303f f63c b851 8b3c
000001a0: a96c 9c3d a177 7e3d dea3 0e3d a449 be3d
000001b0: 994e 9a3c 1a85 5a3d b439 dabd 0a6f 8a3d
000001c0: fa92 823c 6c4a 4a3d 5091 70bc 48a6 e33b
000001d0: 877d 94bd 25d0 a2bd acb7 2cbd 43b7 8abd
000001e0: 9f5d 723c 5cba f53a 1a2d 9fbd 56e3 b13d
000001f0: fea1 e3ba 5c12 4a3c 941a 35bd cd20 733d

layers.4.weight f4 [128, 128]
0.0008422714 0.0103832735 -0.082680635 0.01188997 0.13668661 -0.1266869 0.07903381 -0.03900901
-0.11367541 -0.0870195 0.13499211 -0.11989618 -0.093767114 0.008806945 0.01073645 -0.10042854
0.122402884 0.15904397 -0.0372821 0.07944996 0.026963657 -0.115383975 -0.14425674 -0.06660616
-0.0144593 -0.07854052 -0.03179012 -0.10962299 0.028350739 -0.047841046 0.07810352 0.04704428
-0.12595125 -0.12908855 0.08352663 -0.0040834537 0.109827675 0.0693027 0.05004261 -0.065180555
0.08895338 0.12647057 0.019932633 -0.042412914 0.034442015 -0.14922485 -0.14350328 0.13126573
-0.105935104 0.12014509 0.11915628 0.1382131 0.1272159 -0.102262795 0.12561204 -0.10043004
0.050467502 0.05577511 0.12263964 0.12300306 0.0800561 -0.05709621 -0.1589282 0.0012685675
-0.033758495 0.03954126 -0.084822275 -0.14331092 -0.124012575 -0.022640347 -0.079567224 -0.05454989
-0.06963366 -0.14253893 -0.019752946 0.070282675 0.014249318 0.070629515 -0.061243758 -0.099411406
-0.12389297 -0.012620933 0.043955173 0.04386492 0.06403685 -0.02404017 0.021443775 0.12898035
-0.004202376 -0.047476817 -0.10965484 -0.06970306 -0.13717031 -0.00874181 -0.062152244 -0.10158588
-0.07585381 -0.084779 -0.15528767 0.14409533 -0.06400273 0.011485802 -0.091890894 -0.139482
-0.103085026 -0.068108715 -0.03688864 -0.033478044 -0.10862886 -0.05157921 -0.0950532 -0.122541286
0.07284916 -0.12899113 -0.13683264 0.008544974 -0.047164556 0.12703821 -0.073520355 0.118148535
0.019363243 -0.071899235 -0.019709045 0.069473535 0.03588792 -0.076063596 0.019616857 0.009031337
-0.029952133 -0.1533733 0.039176777 0.09755529 0.053986415 -0.014206068 0.053146753 -0.102488734
-0.13841544 0.092833385 -0.047651373 -0.021628201 -0.057747584 -0.02795775 -0.12783213 -0.11731544
-0.09883326 0.04425591 -0.025564589 -0.017962059 0.124717265 -0.0049390113 -0.008876982 -0.01657158
-0.145992 0.040642284 0.0151637085 0.06334179 -0.0936824 -0.048583888 -0.059832186 0.073604636
-0.024171328 -0.126688 0.09495168 0.09949063 0.078381285 0.014423577 -0.10062579 0.09589196
-0.099743746 0.007223432 -0.04383369 -0.031290945 -0.09722309 0.096395396 0.15834622 0.07175541
0.1488924 0.10439751 -0.109017745 -0.022660414 -0.017507762 0.10514766 0.09172315 -0.005087726
-0.028978797 0.08607447 0.08131899 -0.024353001 -0.05330324 -0.14182325 0.07095464 0.13140832
0.1287738 0.058289796 -0.08869763 0.021775534 -0.06353709 -0.07692541 0.11203655 0.0016325372
-0.05010124 0.13890189 0.013430281 -0.10847263 -0.068789646 0.0010531867 0.027710423 0.103671424
0.12613872 -0.099804275 -0.09967341 0.11164127 -0.14441478 0.020857153 -0.05558895 -0.11133482
-0.00039173372 -0.06805619 0.08736021 0.07572379 0.048850503 0.024449445 0.12583956 -0.018653065
0.046667065 0.03746706 -0.115376346 -0.12269612 0.08000848 0.09755602 0.019358391 -0.14190346
0.10273047 -0.030199362 -0.027211884 -0.08983306 0.083031625 -0.084014796 -0.1104624 0.06560496
0.09112316 -0.1159017 -0.009019206 -0.10166597 -0.12469821 0.14117749 -0.055655506 -0.07552635
0.05752426 -0.08479877 -0.02310551 -0.031176845 0.029092798 0.05504769 0.0884396 0.14703205
00000000: e0cb 5c3a 9b1e 2a3c 7754 a9bd 26ce 423c
00000010: 93f7 0b3e 36ba 01be 7adc a13d e9c7 1fbd
00000020: a7ce e8bd 4837 b2bd 5f3b 0a3e 218c f5bd
00000030: f908 c0bd 014b 103c efe7 2f3c 7aad cdbd
00000040: 5dae fa3d 6cdc 223e 1eb5 18bd a9b6 a23d
00000050: e3e2 dc3c 6f4e ecbd 0ab8 13be cf68 88bd
00000060: b3e6 6cbc dad9 a0bd 5b36 02bd 0582 e0bd
00000070: cf3f e83c f9f4 43bd bdf4 9f3d 81b1 403d
00000080: 5df9 00be ca2f 04be 0310 ab3d 7ece 85bb
00000090: 55ed e03d 93ee 8d3d 7bf9 4c3d 627d 85bd
000000a0: 312d b63d 8081 013e c349 a33c 2ab9 2dbd
000000b0: 1213 0d3d 66ce 18be 86f2 12be 866a 063e
000000c0: 81f4 d8bd a10e f63d 3508 f43d bc87 0d3e
000000d0: e344 023e 286f d1bd 71a0 003e 44ae cdbd
000000e0: 03b7 4e3d 7174 643d 7e2a fb3d 07e9 fb3d
000000f0: 74f4 a33d b7dd 69bd 13be 22be 1046 a63a
00000100: 5946 0abd 04f6 213d 4db7 adbd 19c0 12be
00000110: 4efa fdbd 4078 b9bc 24f4 a2bd b56f 5fbd
00000120: 189c 8ebd baf5 11be eed0 a1bc 5df0 8f3d
00000130: f975 693c 35a6 903d bcda 7abd 3598 cbbd
00000140: 99bb fdbd 08c8 4ebc 570a 343d b4ab 333d
00000150: c125 833d e4ef c4bc dbaa af3c 6d13 043e
00000160: 16b4 89bb 0d77 42bd b792 e0bd 7ac0 8ebd
00000170: 6076 0cbe cf39 0fbc 5a93 7ebd 420c d0bd
00000180: 3e59 9bbd 9da0 adbd bb03 1fbe ba8d 133e
00000190: dd13 83bd f22e 3c3c 4b31 bcbd 5fd4 0ebe
000001a0: 3e1e d3bd 957c 8bbd 8b18 17bd 4620 09bd
000001b0: cf78 debd b944 53bd 41ab c2bd edf6 fabd
000001c0: f131 953d 4016 04be db1d 0cbe 3800 0c3c
000001d0: 9f2f 41bd 4e16 023e d791 96bd dcf7 f13d
000001e0: aa9f 9e3c e83f 93bd dd74 a1bc 2448 8e3d
000001f0: 36ff 123d 3bc7 9bbd 88b3 a03c 2cf8 133c
00000200: 2d5e f5bc e40d 1dbe d477 203d 11cb c73d
00000210: dc20 5d3d 91c0 68bc 69b0 593d 9de5 d1bd
00000220: c7bc 0dbe 6e1f be3d 162e 43bd a02d b1bc
00000230: bb88 6cbd a707 e5bc 6de6 02be 1443 f0bd
00000240: 1869 cabd af45 353d d46c d1bc 2b25 93bc
00000250: c46b ff3d 6ed7 a1bb c370 11bc 1fc1 87bc
00000260: ed7e 15be 8678 263d 3471 783c 57b9 813d
00000270: 8fdc bfbd e6ff 46bd 9812 75bd 07be 963d
00000280: f302 c6bc 80ba 01be 0776 c23d bec1 cb3d
00000290: 5e86 a03d de50 6c3c e514 cebd 0163 c43d
000002a0: 7346 ccbd 8ab2 ec3b f58a 33bd ef2a 00bd
000002b0: e61c c7bd f36a c53d 8325 223e 80f4 923d
000002c0: 4077 183e 5dce d53d b244 dfbd 55a2 b9bc
000002d0: 706c 8fbc a857 d73d 59d9 bb3d f0b6 a6bb
000002e0: f164 edbc d047 b03d 928a a63d f27f c7bc
000002f0: 8054 5abd 1d3a 11be ab50 913d e78f 063e
00000300: 47dd 033e 48c1 6e3d 1aa7 b5bd 9b62 b23c
00000310: bc1f 82bd 128b 9dbd 6b73 e53d dcfa d53a
00000320: f536 4dbd 4c3c 0e3e ae0a 5c3c e626 debd
00000330: 96e1 8cbd 150b 8a3a f800 e33c af51 d43d
00000340: 822a 013e 2f66 ccbd 9321 ccbd 2ea4 e43d
00000350: 78e1 13be 9fdc aa3c 3db1 63bd 8303 e4bd
00000360: 9c61 cdb9 0b61 8bbd e9e9 b23d 1315 9b3d
00000370: 7717 483d 344a c83c 16dc 003e 50ce 98bc
00000380: f725 3f3d 0f77 193d 6f4a ecbd 1a48 fbbd
00000390: 7cdb a33d 73cb c73d 7d95 9e3c 244f 11be
000003a0: 5a64 d23d a764 f7bc 75eb debc 65fa b7bd
000003b0: 7c0c aa3d f30f acbd 1c3a e2bd e55b 863d
000003c0: c89e ba3d df5d edbd 4bc5 13bc 4036 d0bd
000003d0: c661 ffbd d590 103e 07f7 63bd 8fad 9abd
000003e0: 8f9e 6b3d faaa adbd c447 bdbc 9566 ffbc
000003f0: 0554 ee3c b079 613d d21f b53d 928f 163e

layers.4.bias f4 [128]
0.0108977165 0.051793143 0.05151509 0.027005063 -0.07217891 0.07617095 -0.012128493 0.008283266
-0.090033256 -0.043161746 0.077375226 0.0306312 0.092161864 -0.018463826 -0.0020131662 -0.069299474
-0.036186595 0.025891555 0.03351203 -0.02158491 0.009883889 0.023091963 -0.013210175 0.09047709
-0.006093432 -0.10084927 0.019874347 0.08906803 0.025252812 0.034209713 -0.0069186976 -0.020848991
-0.034698043 -0.011453247 -0.014311175 -0.030960372 0.0719296 0.011409995 0.018691013 0.041253798
-0.09183096 0.04265639 0.06654885 -0.0016587102 -0.06838614 -0.060426913 -0.034521025 -0.020585574
0.06109235 0.015843315 0.042557273 -0.040306263 0.11826298 0.07237932 -0.06230707 0.018119939
-0.06641206 0.06883804 -0.043864332 0.05972037 0.05299136 -0.019148557 0.04123967 0.028106902
0.06398235 0.008246364 0.07141055 0.06771733 -0.04944591 0.06563238 -0.0753764 0.0012192599
-0.035594705 0.050869387 -0.051926885 0.010653824 -0.055852447 -0.08544524 0.08755513 0.0034465196
-0.042057216 -0.047449633 -0.036017355 -0.060539372 0.0072760046 -0.08638101 0.011883082 -0.08087741
0.01527205 0.04113673 -0.063340075 0.05614283 0.010542294 0.035984915 0.04912766 -0.068297766
0.08809086 0.08602034 -0.026249232 0.06298059 0.038456116 0.021383341 -0.08936864 0.044379774
-0.057232536 -0.050202064 -0.065952204 -0.040629517 0.04846227 -0.013956413 -0.0112145245 0.03312453
0.00858853 -0.047171842 0.06137214 -0.07748873 0.07240626 -0.037950378 -0.0032086403 0.032200325
-0.012197603 -0.027099088 0.042737365 0.050549313 0.052447952 0.051119324 0.01689002 0.04746622
00000000: 568c 323c 0c25 543d 7d01 533d b939 dd3c
00000010: 89d2 93bd 84ff 9b3d 96b6 46bc 89b6 073c
00000020: 5b63 b8bd 5fca 30bd e776 9e3d 48ee fa3c
00000030: 5cbf bc3d 7341 97bc 53ef 03bb e2ec 8dbd
00000040: 6538 14bd 871a d43c e943 093d d6d2 b0bc
00000050: 09f0 213c 5b2b bd3c 7d6f 58bc 0d4c b93d
00000060: 6aab c7bb 108a cebd 87cf a23c 4d69 b63d
00000070: fcde ce3c 7c1f 0c3d 3eb6 e2bb 81cb aabc
00000080: 891f 0ebd 66a6 3bbc 6b79 6abc 9ba0 fdbc
00000090: d34f 933d fdf0 3a3c e51d 993c bef9 283d
000000a0: df11 bcbd 78b8 2e3d c34a 883d 1469 d9ba
000000b0: 080e 8cbd 3682 77bd eb65 0dbd 14a3 a8bc
000000c0: f93b 7a3d d7c9 813c 8950 2e3d 2e18 25bd
000000d0: dc33 f23d 9c3b 943d b335 7fbd 4470 943c
000000e0: 0c03 88bd f5fa 8c3d 16ab 33bd 599d 743d
000000f0: 780d 593d 6fdd 9cbc eeea 283d 7240 e63c
00000100: 2e09 833d c21b 073c b23f 923d 62af 8a3d
00000110: cb87 4abd 456a 863d f15e 9abd 93cf 9f3a
00000120: c1cb 11bd 6b5c 503d 49b1 54bd 608d 2e3c
00000130: 89c5 64bd eafd aebd 1b50 b33d 01df 613b
00000140: 3044 2cbd 8c5a 42bd ef86 13bd 22f8 77bd
00000150: 8d6b ee3b 87e8 b0bd 42b1 423c 0ea3 a5bd
00000160: 9f37 7a3c fd7e 283d 71b8 81bd 06f6 653d
00000170: 96b9 2c3c eb64 133d 163a 493d b3df 8bbd
00000180: fb68 b43d 6f2b b03d a108 d7bc f8fb 803d
00000190: 2984 1d3d 1e2c af3c e806 b7bd 91c7 353d
000001a0: aa6c 6abd aea0 4dbd f311 87bd 236b 26bd
000001b0: 6080 463d 70a9 64bc 20bd 37bc 96ad 073d
000001c0: e8b6 0c3c 4337 41bd 5a61 7b3d 69b2 9ebd
000001d0: bc49 943d db71 1bbd 0d48 52bb 7de4 033d
000001e0: 74d8 47bc e8fe ddbc 600d 2f3d cc0c 4f3d
000001f0: aad3 563d 7f62 513d f05c 8a3c f06b 423d
