real_btcusdt_call_pricing_mlp_6inputs/result_18/pinn_model168.pth (torch, 472610 bytes, 17 tensors)

layers.0.weight f4 [128, 6]
0	0x3e3ec4a8	0.18629706
1	0xbde742c6	-0.11292033
2	0x3e50f0fe	0.20404431
3	0xbe431da1	-0.19054271
4	0x3d6ddb35	0.05807038
5	0x3d1a58bd	0.037682284
6	0x3e150644	0.14553171
7	0x3dd1b47c	0.10239503
8	0xbdefe41c	-0.1171343
9	0x3e2b9235	0.16754992
10	0xbb3f63cc	-0.002920377
11	0xbd7287d3	-0.059211563
12	0xbd3b2598	-0.04569015
13	0xbe5a3d41	-0.21312429
14	0xbe066ff0	-0.13128638
15	0xbe304c14	-0.17216522
16	0x3e6712c5	0.22565754
17	0x3bbd53b0	0.0057777986
18	0x3dde3614	0.10850158
19	0xbdc8c447	-0.09803062
20	0x3d3024a9	0.04300371
21	0x3d2f1c12	0.04275138
22	0x3e1f2d66	0.15544662
23	0x3e2e0dcc	0.1699745
24	0xbdb4ae31	-0.08822287
25	0xbde68da5	-0.11257485
26	0x3e2eb30d	0.1706049
27	0xbe21333e	-0.15742204
28	0x3e1418d5	0.14462598
29	0xbd796e41	-0.060896162
30	0x3d049df9	0.032377217
31	0xbd222a10	-0.039590895
32	0x3e1c7a41	0.15281011
33	0xbe442105	-0.19153221
34	0xbdd06bea	-0.10176833
35	0xbe08f291	-0.13373782
36	0x3e04ec0f	0.12980674
37	0xbd3c7b3d	-0.046015967
38	0x3e3c9e2b	0.18419711
39	0xbd28d906	-0.041222595
40	0xbe602fb8	-0.21893203
41	0x3d96dcb8	0.073663175
42	0xbe322b62	-0.17399362
43	0x3e3944bc	0.18092626
44	0x3e408ce7	0.1880375
45	0x3e1c8abb	0.15287296
46	0x3e3d7c73	0.18504505
47	0xbe40f8c7	-0.18844901
48	0xbe06c1e5	-0.13159902
49	0xbe6e463e	-0.23268983
50	0xbd87b6d1	-0.06626666
51	0xbd108bbf	-0.035289522
52	0xbae1707f	-0.0017199664
53	0x3cfb5e8b	0.03068473
54	0x3df36ac8	0.11885601
55	0xbe0b2613	-0.13588743
56	0xbcf34ef4	-0.029700734
57	0xbd67a031	-0.056549255
58	0x3d83b3c6	0.064307734
59	0x3d256f20	0.04038918
60	0x3db7e01b	0.089782916
61	0x3e53ad16	0.20671496
62	0xbd808aa0	-0.062764406
63	0xbd932541	-0.0718484
64	0x3dff1a4a	0.12456186
65	0xbe4158fe	-0.18881604
66	0xbdad57a3	-0.08463981
67	0x3d091518	0.033467382
68	0x3e034302	0.1281853
69	0x3de8ad55	0.113611855
70	0xbe1cfca7	-0.15330754
71	0xbd9c23ff	-0.07624053
72	0x3e3c2192	0.18372181
73	0xbe7847de	-0.24246165
74	0xbe18acf1	-0.14909722
75	0x3d26749b	0.040638547
76	0xbcc32700	-0.023822308
77	0xbdc11ccf	-0.09429323
78	0xbd18ddc0	-0.037320852
79	0x3e56a450	0.20961118
80	0xbda85b2c	-0.08220515
81	0x3e474f0a	0.19463745
82	0xbdb8dbc5	-0.09026293
83	0xbb8ad377	-0.0042366344
84	0x3c683ed3	0.014175135
85	0xbe2fef1b	-0.17181055
86	0x3caa607d	0.020797962
87	0x3ce95e04	0.028487213
88	0xbc651332	-0.013981627
89	0xbe055bd4	-0.13023311
90	0x3e22af0d	0.15887089
91	0x3d29e3f1	0.041477147
92	0xbe09e2c7	-0.13465415
93	0x3db5b4cd	0.08872376
94	0x3dd18c6c	0.102318615
95	0x3cee9bd1	0.029127033
96	0xbe080502	-0.1328316
97	0xbda0bf01	-0.07848931
98	0xbe3f03a3	-0.18653731
99	0x3ca5c9d3	0.020237839
100	0xbdea8155	-0.114504494
101	0xbd65084e	-0.055916123
102	0xbd88e325	-0.066839494
103	0x3dc65b20	0.096853495
104	0xbcf8380b	-0.03030016
105	0xbda7cbb4	-0.0819315
106	0x3e0648ba	0.1311368
107	0xbe00a231	-0.12561871
108	0x3e5c4848	0.21511948
109	0x3e2e7a1c	0.17038769
110	0xbc9f5ae9	-0.019452529
111	0x3db9254d	0.09040318
112	0x3e527e18	0.20555913
113	0x3e4470db	0.19183676
114	0x3e47287a	0.19449034
115	0xbe248c5a	-0.16069165
116	0xbe0fd065	-0.1404434
117	0x3dda7a0d	0.106678106
118	0x3e45cdb8	0.19316757
119	0xbdc45277	-0.095860414
120	0xbd985a17	-0.07439058
121	0xbb89d224	-0.004205959
122	0x3db70d72	0.08938111
123	0x3db48142	0.088137165
124	0xbdeebab2	-0.11656703
125	0xbe4c2ca2	-0.19938901
126	0x3dfc4b81	0.12319089
127	0x3db45793	0.08805766
128	0xbd22bd47	-0.03973129
129	0xbd26e66f	-0.040747102
130	0xbd6ed9ea	-0.058313288
131	0xbd8fc6ae	-0.07020317
132	0xbda0cc66	-0.07851486
133	0xbe41f3cf	-0.18940662
134	0xbc42cad6	-0.01188918
135	0x3e5e19a8	0.21689475
136	0x3e220078	0.15820491
137	0xbc89daeb	-0.016828021
138	0xbda73866	-0.08165054
139	0xbb77a147	-0.0037785338
140	0x3e25a52b	0.16176288
141	0xbdad2472	-0.08454217
142	0x3a8b79ae	0.0010641122
143	0x3e12c9d2	0.14334801
144	0x3e2e2b1e	0.17008635
145	0xbe13aae5	-0.1442066
146	0x3d73ae6f	0.059492525
147	0xbcd6e34c	-0.02623143
148	0x3d81e5e4	0.06342676
149	0x3d6b4ac2	0.05744434
150	0x3da2580a	0.07926948
151	0xbd996418	-0.074897945
152	0xbda30720	-0.07960343
153	0xbd2d4325	-0.042300362
154	0xbddd1185	-0.10794357
155	0xbdfee549	-0.124460764
156	0xbd3b0805	-0.045661945
157	0x3e1de0af	0.15417741
158	0xbde4cd30	-0.11171949
159	0x3e0ef36d	0.13960047
160	0x3e0d8fae	0.1382434
161	0x3dc0249f	0.09381985
162	0xbca78d5d	-0.02045315
163	0x3e34cf4c	0.17657202
164	0xbce61fbf	-0.02809131
165	0xbdeb8a81	-0.11501027
166	0x3da0e2f6	0.07855789
167	0xbe1da75a	-0.15395871
168	0x3e378e5b	0.17925398
169	0x3b38543a	0.0028126375
170	0x3dd89397	0.105750255
171	0x3d84c28b	0.064824186
172	0xbe5303da	-0.20606938
173	0x3e19a853	0.15005617
174	0x3e53ebbc	0.20695394
175	0xbe677191	-0.22601916
176	0x3d70f15a	0.05882392
177	0x3ded72da	0.11594172
178	0x3ca1914f	0.019722609
179	0xbde5db92	-0.1122352
180	0xbd316ce5	-0.04331674
181	0x3d8c4f6f	0.06851088
182	0xbe327824	-0.17428643
183	0xbdf5fd93	-0.12011256
184	0xbdffc27f	-0.12488269
185	0xbd917fdf	-0.071044676
186	0xbdf8a7ff	-0.12141418
187	0x3d9592c0	0.07303381
188	0x3e28518f	0.16437362
189	0xbe5e7d14	-0.21727401
190	0x3ca9c2af	0.020722715
191	0xbdf4e7b1	-0.11958254
192	0x3e204dac	0.1565463
193	0xbe14a17d	-0.14514728
194	0x3cc1e00a	0.0236664
195	0x3db68440	0.089119434
196	0xbdf9dc9e	-0.122002825
197	0xbe0d7700	-0.13814926
198	0x3e0d0f59	0.13775386
199	0xbdfe32c0	-0.124120235
200	0xbe62cee8	-0.22149241
201	0x3e3fd347	0.1873294
202	0x3e3d06d9	0.18459643
203	0xbe155a44	-0.14585215
204	0xbdd8916d	-0.10574613
205	0xbe326cb7	-0.17424284
206	0x3e6c6772	0.23086336
207	0xbe123687	-0.14278613
208	0xbd224300	-0.039614677
209	0x3d74279c	0.059608087
210	0xbd140eb8	-0.03614685
211	0x3af28e74	0.0018505589
212	0xbe3f718c	-0.18695658
213	0x3d58a4d7	0.05289158
214	0x3ca655b1	0.020304533
215	0x3e2a6f95	0.16644128
216	0x3bd071dd	0.00636123
217	0xbd1b31e7	-0.037889387
218	0x3dac2c69	0.08406908
219	0xbe014bbd	-0.12626548
220	0x3d4666fd	0.04843806
221	0x3e1fa010	0.15588403
222	0x3e2b3d3b	0.16722576
223	0x3cb73aec	0.022366963
224	0x3d12d696	0.035849176
225	0xbc813cc8	-0.015776053
226	0x3db2fbc9	0.087394305
227	0x3e222208	0.15833294
228	0xbdc5e6f5	-0.09663192
229	0x3dfa7130	0.1222862
230	0x3dac1364	0.08402136
231	0x3e6e7b7c	0.23289293
232	0x3d984f36	0.07436983
233	0xbe2f47cd	-0.17117234
234	0xbd9d0cd9	-0.07668466
235	0xbe554acd	-0.20829315
236	0xbdd08a6e	-0.10182653
237	0x3e35587b	0.17709534
238	0x3e5208b0	0.20511127
239	0x3cf70f46	0.03015865
240	0x3e349471	0.17634751
241	0xbe4ccccd	-0.2
242	0xbe3fc939	-0.18729104
243	0xbe5e03d5	-0.2168115
244	0xbe23f77d	-0.16012378
245	0x3da84730	0.08216703
246	0xbd24b1e1	-0.0402087
247	0x3e228a11	0.1587298
248	0x3e64bb88	0.22337162
249	0x3d73a58c	0.05948405
250	0x3df57fbe	0.119872555
251	0x3e31616d	0.17322321
252	0xbd81f156	-0.06344859
253	0x3c321b10	0.01087071
254	0x3cb01108	0.021492496
255	0xbe48c8b1	-0.19607808

layers.0.bias f4 [128]
0	0x3aca5202	0.0015435817
1	0x3dfb2e3f	0.1226468
2	0x3e568546	0.20949277
3	0xbe33c9c7	-0.1755744
4	0xbd86929e	-0.06570934
5	0xbdee93a1	-0.11649252
6	0xbe0fef8d	-0.14056225
7	0xbec8fdb9	-0.39256075
8	0x3ef122fe	0.4709701
9	0xbe0e7a76	-0.13913903
10	0xbed1fc8e	-0.41012996
11	0xbe2e2ca9	-0.17009224
12	0x3ebd7570	0.3700366
13	0xbe588477	-0.21144281
14	0x3ed0fe50	0.40819025
15	0x3e4a5bc2	0.19761565
16	0x3eb21984	0.34785092
17	0x3e33c3dd	0.17555185
18	0x3e92d4d7	0.2867801
19	0x3c71483c	0.014726695
20	0x3eabc725	0.33550373
21	0xbe84584a	-0.2584861
22	0xbe25d0ea	-0.16192976
23	0x3e8a0398	0.26955867
24	0x3e356611	0.17714716
25	0x3ed4a435	0.4153153
26	0x3e3a833d	0.18214126
27	0xbd53ddc7	-0.051725175
28	0x3e6ad31e	0.22932097
29	0x3e170601	0.14748384
30	0xbd71bf48	-0.05902031
31	0xbeb80ee8	-0.35948873
32	0x3ec45406	0.38345355
33	0xbe2a3eed	-0.16625567
34	0xbe3b2a4d	-0.18277855
35	0xbcd78817	-0.02631001
36	0x3d88bab4	0.06676236
37	0xbec782e7	-0.38967058
38	0x3e3f1cbe	0.18663308
39	0x3e485e21	0.19567157
40	0xbe86f1cb	-0.26356348
41	0x3ebc67c1	0.36797908
42	0x3e6fc357	0.2341436
43	0xbe884e42	-0.26622206
44	0x3d8f5b8e	0.069998845
45	0xbe6937f8	-0.22775257
46	0x3e2eb02f	0.17059396
47	0xbea17734	-0.31536257
48	0x3e94bf30	0.29052114
49	0xbe88c1a5	-0.2671024
50	0x3e88f23a	0.26747304
51	0xbedcea4d	-0.43147507
52	0xbe996a90	-0.29964113
53	0xbe8edd5f	-0.27903268
54	0x3e0e4ccc	0.13896483
55	0x3ea12c71	0.3147922
56	0xbebc17c0	-0.3673687
57	0x3e8f4039	0.27978685
58	0xbeb38ac1	-0.35066798
59	0xbe8261dd	-0.2546529
60	0xbe32dba0	-0.17466593
61	0x3da7070f	0.08155643
62	0x3ea1d492	0.3160749
63	0x3e9a84cf	0.3017945
64	0x3dd3caf2	0.10341443
65	0x3e032461	0.12806846
66	0x3e2f9508	0.17146695
67	0xbe1ecf69	-0.15508808
68	0xbe81bbab	-0.25338492
69	0xbe804663	-0.250537
70	0x3d97ff18	0.07421702
71	0xbe5b3155	-0.21405537
72	0xbd7b9ec4	-0.061430708
73	0xbe4a9b52	-0.19785812
74	0xbebc98b7	-0.36835262
75	0xbe54a956	-0.20767722
76	0x3eba71c9	0.36414936
77	0x3d4131a8	0.047166497
78	0xbed6d875	-0.4196202
79	0x3e1c7203	0.15277867
80	0xbeaaa8a9	-0.33331802
81	0xbd8249d2	-0.06361736
82	0xbebcfb76	-0.369106
83	0xbe5678c1	-0.20944501
84	0x3e6b60bd	0.22986121
85	0xbc909307	-0.017648233
86	0xbe9b6558	-0.30350757
87	0x3e70ac80	0.23503304
88	0x3ea47f00	0.32128143
89	0x3e6fe535	0.2342728
90	0x3da45793	0.08024516
91	0x3df3db12	0.11907019
92	0x3ea9ac16	0.33139104
93	0xbe3a47a0	-0.18191385
94	0xbe57954b	-0.21053044
95	0xbe00d92e	-0.12582847
96	0x3ecc8101	0.39942172
97	0x3cafe8d1	0.02147332
98	0x3da03bf7	0.078239374
99	0xbe3511bd	-0.17682548
100	0xbe6c64c2	-0.23085311
101	0x3ed62500	0.41825104
102	0x3e7beb6c	0.24601525
103	0xbe7d9de7	-0.24767266
104	0x3e4ea428	0.20179808
105	0xbec78e57	-0.38975784
106	0x3e5d45b5	0.21608622
107	0xbe03893f	-0.12845324
108	0x3ec4217b	0.38306794
109	0xbe8e7a70	-0.27827787
110	0x3e68b753	0.22726183
111	0x3cf03f38	0.02932702
112	0xbe0b22d1	-0.135875
113	0xbea3e01a	-0.32006913
114	0xbe689882	-0.22714427
115	0xbec8bbde	-0.3920583
116	0xbea195fe	-0.31559747
117	0x3e557f05	0.20849235
118	0x3d2712f9	0.040789578
119	0x3e107683	0.14107709
120	0x3e9bcede	0.30431265
121	0x3cf3cfd8	0.029762194
122	0x3c20110d	0.00976969
123	0xbcc8884a	-0.02447905
124	0xbe9480b1	-0.29004434
125	0x3ea73ce1	0.32663634
126	0x3e590942	0.21194938
127	0xbcc5c91b	-0.024143746

layers.1.weight f4 [128, 128]
0	0x3dad8f4a	0.08474596
1	0xbd6862a5	-0.0567347
2	0x3ddfd5ee	0.10929476
3	0xbd430431	-0.04761142
4	0x3d3323fb	0.043735486
5	0xbd55ea40	-0.05222535
6	0xbdd2b291	-0.10287965
7	0x3de5c5ab	0.11219343
8	0xbe0c5541	-0.13704397
9	0x3dccc3e5	0.099983014
10	0xbc8506b0	-0.01623854
11	0xbdc5892c	-0.09645304
12	0xbdc2dcf6	-0.09514801
13	0xbe0ce0e0	-0.13757658
14	0x3cb754f3	0.022379374
15	0xbc9f9349	-0.01947941
16	0xbd9174de	-0.07102369
17	0xbe177060	-0.14788961
18	0x3dfb9001	0.12283326
19	0xbd80e369	-0.06293375
20	0xbc648c2c	-0.013949435
21	0xbc209017	-0.009799979
22	0x3d75a71f	0.059973832
23	0x3bf2a822	0.007405297
24	0x3df39c59	0.11895055
25	0xbde988c7	-0.11403041
26	0xbdea48ce	-0.11439668
27	0x3d9e5a88	0.07732111
28	0x3d352f75	0.04423471
29	0xbd7c5dde	-0.061612956
30	0xbd520a3b	-0.051279288
31	0x3de36318	0.11102885
32	0xbd527154	-0.05137761
33	0xbdfe492e	-0.12416302
34	0xbdc319e9	-0.09526426
35	0x3cf4bbce	0.029874709
36	0x3d8c4f9e	0.06851123
37	0x3e007b13	0.12546949
38	0x3e1ef834	0.1552437
39	0xbdde0812	-0.10841383
40	0x3d17985e	0.037010543
41	0xbdd07dd8	-0.10180253
42	0xbcaf8344	-0.021424897
43	0x3de900d4	0.11377111
44	0x3d887e0b	0.06664666
45	0xbd359c1f	-0.04433834
46	0x3ca5605d	0.020187551
47	0xbd21f13e	-0.039536707
48	0x3e0852b4	0.13312799
49	0x3da56091	0.08075059
50	0xbdea6600	-0.11445236
51	0xbd426c89	-0.04746679
52	0x3e0f0f9e	0.13970801
53	0x3e2fdb1e	0.1717343
54	0xbd8728bf	-0.065995686
55	0xbdb42529	-0.0879615
56	0xbda01fd9	-0.078185745
57	0xbd1a11b9	-0.037614558
58	0x3d65e9fe	0.056131355
59	0x3ce77a21	0.028256478
60	0xbdcba423	-0.09943416
61	0xbd791831	-0.060814086
62	0xbc4aa455	-0.012368281
63	0x3e1b3d6a	0.15160146
64	0x3c9f5b97	0.019452853
65	0x3e0394a9	0.12849678
66	0x3dd9b831	0.10630835
67	0x3e12f1f6	0.14350113
68	0x3d8de90b	0.06929215
69	0xbd2a3562	-0.041554816
70	0xbd4962f7	-0.049166646
71	0x3ba3b027	0.004995364
72	0xbda372b6	-0.07980864
73	0xbd34f087	-0.044174697
74	0x3ce0bd79	0.027434098
75	0x3e0b971e	0.13631865
76	0x3dba62c4	0.09100869
77	0xbd11ba05	-0.035577793
78	0x3d849493	0.06473651
79	0xbc26e534	-0.010186482
80	0xbca4fd88	-0.020140424
81	0xbe099364	-0.13435131
82	0x3e27198d	0.1631834
83	0x3dd6558c	0.104655355
84	0x3dd1d770	0.102461696
85	0x3ba52cbe	0.005040734
86	0x3d24dc96	0.04024943
87	0xb920ea7a	-0.00015346138
88	0x3df2f9c2	0.11864044
89	0x3dde38ad	0.10850654
90	0xbdc91f30	-0.09820402
91	0xbd2c6e30	-0.04209727
92	0xbd9eb622	-0.07749583
93	0xbd3a9229	-0.045549545
94	0xbd81a983	-0.0633116
95	0x3e02eff3	0.12786846
96	0xbdeb7af6	-0.11498062
97	0xbd7ad21d	-0.061235536
98	0xbe1ce1ba	-0.15320483
99	0x3d9f291c	0.07771513
100	0x3dce7852	0.10081543
101	0xbdba48e0	-0.09095931
102	0xbbadf091	-0.0053082188
103	0xbd6aa032	-0.05728168
104	0x3dec4814	0.11537185
105	0x3dca0e91	0.098660596
106	0x3ba285b7	0.0049597877
107	0x3d7ff6da	0.062491275
108	0xbe1661ec	-0.14685792
109	0x3cf772d3	0.03020612
110	0xbbe6149a	-0.007021499
111	0x3d84553b	0.06461569
112	0x3e06b3dc	0.13154548
113	0xbceba823	-0.028766697
114	0xbdc428fd	-0.095781304
115	0xbca65305	-0.020303259
116	0x3c3ea38c	0.011635672
117	0x3d4dd604	0.05025293
118	0x3e18b5b8	0.1491307
119	0x3da2ccd4	0.07949224
120	0xbe066577	-0.13124643
121	0x3d5530cb	0.052048486
122	0x3d4abaea	0.04949466
123	0x3e1c7406	0.15278634
124	0x3e13d1c8	0.14435494
125	0x3d7e7daf	0.06213158
126	0xbde03771	-0.109480746
127	0x3d394951	0.045235936
128	0xbe0f77ee	-0.14010593
129	0x3d89fc3e	0.067375645
130	0x3d856816	0.065139934
131	0x3cb1d35d	0.021707231
132	0x3de9635c	0.113959044
133	0xbdc4c6e8	-0.09608251
134	0xbcb13b83	-0.021634823
135	0xbd8113ec	-0.06302628
136	0x3d256680	0.040380955
137	0x3d483c05	0.048885364
138	0xbda3dbf5	-0.08000938
139	0xbd899c84	-0.06719306
140	0xbdbece97	-0.09316748
141	0xbb9f7849	-0.004866634
142	0x3c2da70e	0.010598911
143	0xbd35785f	-0.044304248
144	0xbd1a0d98	-0.03761062
145	0xbdc8836b	-0.09790691
146	0x3dcb5ed8	0.099301994
147	0x3d8ae2ee	0.06781565
148	0x3e164136	0.14673313
149	0x3dad58a6	0.08464174
150	0x3dced19d	0.10098574
151	0x3caec0cf	0.021332173
152	0x3d0f2489	0.034946952
153	0x3e0ccbd8	0.13749635
154	0x3de9d666	0.114178464
155	0xbda53739	-0.080671735
156	0xbdeada03	-0.11467364
157	0xbda83c25	-0.08214597
158	0xbdf12a7c	-0.117756814
159	0xbde52304	-0.11188319
160	0x3e26c80a	0.16287246
161	0xbe09da33	-0.13462143
162	0x3dba8cd9	0.09108896
163	0xbe2f3825	-0.17111261
164	0x3deee195	0.1166412
165	0xbe3ae766	-0.18252334
166	0x3dfec00e	0.12438975
167	0xbdc2f852	-0.095200196
168	0xbdfb2e3b	-0.12264677
169	0x3dd8830a	0.10571869
170	0xbdc5c294	-0.096562535
171	0xbc196ea8	-0.009364761
172	0xbd80a9f1	-0.06282414
173	0x3dc95b1a	0.09831829
174	0x3d90cce4	0.0707033
175	0x3df78783	0.12086394
176	0x3cf22868	0.029560283
177	0x3dfc067f	0.123059265
178	0xbd33caea	-0.043894686
179	0xbe026106	-0.12732324
180	0x3d7a3193	0.061082434
181	0xbe1f2dce	-0.15544817
182	0x3e27beee	0.16381428
183	0xbbf61704	-0.007510068
184	0xbdcf6ca9	-0.10128147
185	0x3e38734f	0.18012737
186	0x3d25177c	0.0403056
187	0xbb37c904	-0.0028043399
188	0x3ce1e65a	0.02757566
189	0x3dc0e50a	0.09418686
190	0x3dde2251	0.10846389
191	0x3c982801	0.018573763
192	0xbe2c7b19	-0.16843833
193	0xbe0968b9	-0.13418855
194	0x3dec7e74	0.115475565
195	0xbb53fca6	-0.0032346635
196	0xbd0ef516	-0.0349017
197	0x3d9e195a	0.07719679
198	0x3dd098a7	0.10185366
199	0xbde8a164	-0.11358908
200	0xbe0d4b34	-0.13798219
201	0x3e0f521c	0.13996166
202	0xbd898276	-0.067143366
203	0xbdb8c988	-0.09022814
204	0x3d96c70b	0.07362183
205	0xbd780d57	-0.060559597
206	0xbc212e43	-0.00983769
207	0xbe06eed1	-0.13177039
208	0xbd3748af	-0.04474705
209	0x3d92e5de	0.0717275
210	0x3d1fc940	0.039010286
211	0xbe414451	-0.18873717
212	0x3db789ad	0.089618064
213	0x3dd63868	0.104599774
214	0xbcc5dc3d	-0.02415287
215	0xbe067343	-0.13129906
216	0xbd4b3c87	-0.04961827
217	0x3d20272f	0.03909987
218	0xbd71f07f	-0.059067246
219	0xbd872264	-0.06598356
220	0xbdee0daf	-0.11623704
221	0x3d2e6b5f	0.042582866
222	0x3d758cba	0.05994866
223	0xbe06527f	-0.13117407
224	0x3d544925	0.05182757
225	0x3dc071e9	0.09396727
226	0xbd678970	-0.056527555
227	0xbda84178	-0.08215612
228	0xbe17625a	-0.14783612
229	0xbdb28ffd	-0.0871887
230	0xbd796ce4	-0.06089486
231	0xbd157c25	-0.036495347
232	0xbe00cef3	-0.12578945
233	0xbdc8558e	-0.09781943
234	0xbde49d6e	-0.1116284
235	0xbcc4975e	-0.023997959
236	0xbdf24f01	-0.11831475
237	0xbe03229e	-0.12806174
238	0x3db251a2	0.087069765
239	0x3d6e7fca	0.058227338
240	0xbe17efa9	-0.14837517
241	0x3e08de9a	0.13366166
242	0x3d64b94f	0.055840787
243	0x3db71645	0.089397945
244	0xbd8da69b	-0.06916543
245	0xbe042893	-0.12906103
246	0x3a0fa69f	0.00054798456
247	0xbddc5be3	-0.107597135
248	0x3e0386d0	0.12844396
249	0x3de43250	0.11142409
250	0xbd969cb0	-0.073541045
251	0x3d895b8a	0.06706913
252	0xbdcfe517	-0.10151117
253	0x3dc200c1	0.094728
254	0x3d813c4c	0.06310329
255	0x3ce79785	0.028270492

layers.1.bias f4 [128]
0	0x3cdb7445	0.02678884
1	0x3da49c83	0.08037665
2	0x3d9d5fe7	0.076843075
3	0xbd55d65b	-0.05220638
4	0xbd9a7bf0	-0.075431705
5	0xbd92bad0	-0.07164538
6	0xbc24127b	-0.010014172
7	0x3daedf73	0.08538713
8	0xbc02b7e5	-0.007978414
9	0xbc784bb2	-0.015154766
10	0x3cc68d85	0.024237404
11	0x3d0489d6	0.032358013
12	0xbac66567	-0.0015136421
13	0x3da19183	0.07889082
14	0x3d97a4f8	0.07404512
15	0xbb3be842	-0.0028672372
16	0x3ce8f9b4	0.02843938
17	0x3d8b87ce	0.06813012
18	0xbd89035e	-0.06690095
19	0xbc90f762	-0.017696086
20	0xbcc6cd72	-0.024267886
21	0xbd840f73	-0.06448259
22	0xbd53ed20	-0.051739812
23	0xbb0b051a	-0.0021212758
24	0xbd6ce733	-0.057837676
25	0xbdb336bf	-0.08750676
26	0x3db99f86	0.0906363
27	0x3d09c5aa	0.033635773
28	0x3d07db0f	0.033167895
29	0x3cbcaa50	0.02303043
30	0x3d3a14a7	0.04542985
31	0xbcbd0b45	-0.023076663
32	0xbcfcdf4c	-0.030868195
33	0xb9b8c56b	-0.00035242303
34	0xbd454a70	-0.048166692
35	0xbdb2440a	-0.08704384
36	0xbd4c4b9f	-0.049876805
37	0x3d844ace	0.0645958
38	0x3cce71ef	0.025200812
39	0xbdb9f92c	-0.09080729
40	0xbb1f1117	-0.002427166
41	0x3ba00fe6	0.0048847077
42	0x3daf8c6b	0.085717045
43	0x3dfe856d	0.12427793
44	0xbd5ba02f	-0.05361956
45	0x3ca680e5	0.020325134
46	0xbd016931	-0.03159446
47	0x3cb411bf	0.021981118
48	0xbb3c1d65	-0.0028704044
49	0x3cf1160f	0.029429464
50	0x3cb4c938	0.022068605
51	0xbd7b5cd0	-0.06136781
52	0x3c746a36	0.014917901
53	0x3b4968ae	0.003073256
54	0x3ce123eb	0.027482947
55	0x3d5fed3d	0.054669607
56	0xbdcc2173	-0.099673174
57	0x3da501fb	0.08057018
58	0x3daf612b	0.08563455
59	0x3d0bd761	0.03414095
60	0x3d9d4004	0.07678226
61	0xbd5e75fc	-0.054311737
62	0x3d988941	0.07448054
63	0xbdd4f3e3	-0.1039808
64	0xbd0d4be7	-0.034496214
65	0x3dabb155	0.08383433
66	0x3d948beb	0.0725325
67	0xbda3a2a3	-0.07990005
68	0xbc7b14f0	-0.015324816
69	0x3d55026a	0.052004255
70	0xbd0e0db9	-0.034681056
71	0x3d1facbf	0.038983103
72	0x3bd77564	0.0065752733
73	0x3d89171f	0.06693863
74	0xbdbfd084	-0.09365943
75	0x3caac7d9	0.020847248
76	0xbd705d1d	-0.05868255
77	0xbdb8dd29	-0.09026558
78	0xbd3a9878	-0.04555556
79	0xbd417d60	-0.047238708
80	0xbd6b7523	-0.057484757
81	0xbd0b4c56	-0.034008346
82	0x3d103469	0.035206232
83	0xbce9e5e2	-0.028552
84	0xbdf0dca0	-0.11760831
85	0x3dad5d83	0.084651016
86	0xbc572bc4	-0.013132993
87	0x3ca974c3	0.02068556
88	0xbcfbb890	-0.030727655
89	0x3d017eb3	0.03161497
90	0xbd9c5dbc	-0.07635066
91	0xbd0e6f64	-0.0347742
92	0xbd02aa39	-0.03190062
93	0xbcf8bbc1	-0.030362966
94	0xbd382675	-0.04495855
95	0x3d917781	0.07102872
96	0xbd317915	-0.043328363
97	0xbd86274c	-0.06550464
98	0xbd19a782	-0.037513264
99	0xbd2ce3bd	-0.042209376
100	0x3ce13fba	0.027496208
101	0x3d1a7393	0.037707876
102	0xbdd177fa	-0.10227962
103	0x3d2feb89	0.042949233
104	0x3d4c356f	0.049855646
105	0xbd7483d9	-0.059696052
106	0xbd826354	-0.063666016
107	0x3e1e1ee5	0.15441473
108	0xbd48dabe	-0.049036734
109	0x3d85b73b	0.06529089
110	0xbd88ac1f	-0.066734545
111	0xb9758ca8	-0.0002341742
112	0xbc1d4d04	-0.0096008815
113	0x3d82bd12	0.063837186
114	0x3d34a675	0.04410406
115	0xbd27fc1a	-0.041011907
116	0x3d00d984	0.03145744
117	0xbd1bce47	-0.03803852
118	0x3dc88e65	0.097927846
119	0x3d2c392e	0.04204672
120	0x3d7b77a0	0.06139338
121	0x3d457956	0.048211418
122	0x3c44cb57	0.012011371
123	0xbbde6eb7	-0.0067881006
124	0xbda195a6	-0.07889871
125	0x3d6db434	0.058033183
126	0xbd3a3c95	-0.04546793
127	0x3d8c19c8	0.06840855

layers.2.weight f4 [128, 128]
0	0x3dc1a083	0.09454443
1	0x3cd7aed7	0.026328487
2	0x3cec0626	0.028811526
3	0xbd1443c4	-0.03619744
4	0xbd5094be	-0.0509231
5	0x3dcae1e4	0.099063665
6	0xbc7ca799	-0.015420818
7	0x3ccf5c2f	0.025312511
8	0xbd6b60cd	-0.057465363
9	0x3dc102f6	0.09424393
10	0xbd1c1de6	-0.03811445
11	0xbb4462dc	-0.0029966151
12	0x3c08cd57	0.008349738
13	0x3dd9b0c3	0.10629418
14	0x3deb1ff0	0.11480701
15	0x3e003346	0.1251956
16	0x3d141657	0.036154117
17	0xbe09c900	-0.13455582
18	0x3d78c497	0.060734358
19	0xbd9b7604	-0.07590869
20	0xbd4813f5	-0.048847158
21	0xbbcc7b3b	-0.006240276
22	0xbc410e98	-0.011783265
23	0x3db96a4e	0.09053479
24	0xbe081c4b	-0.13292043
25	0xbd83743e	-0.06418656
26	0x3d616472	0.055027433
27	0xbdcf80a4	-0.10131958
28	0xbdea58d8	-0.11442727
29	0xbdf44a51	-0.11928237
30	0xbdd8cce8	-0.10585958
31	0xbe3c41ab	-0.18384425
32	0xbe1cf1d2	-0.15326622
33	0xbe23dd08	-0.16002285
34	0x3d57f0ec	0.052719995
35	0xbdece532	-0.11567153
36	0xbd1233e3	-0.035694014
37	0xbda8beff	-0.082395546
38	0xbd08a35e	-0.033358924
39	0x3d90a75d	0.07063172
40	0xbcde4d03	-0.027136331
41	0xbe091fe2	-0.13391069
42	0x3d551c71	0.052029077
43	0x3df9cc74	0.121971995
44	0x3d923d50	0.07140601
45	0xbddbe6fe	-0.10737418
46	0xbe052687	-0.13002978
47	0xbd5fb948	-0.054620057
48	0xbd28d804	-0.041221634
49	0x3d27449a	0.040836908
50	0xbd955690	-0.07291901
51	0xbde5e2b5	-0.112248816
52	0x3d04832d	0.03235166
53	0x3dd5f6b2	0.10447444
54	0xbe0391c0	-0.12848568
55	0xbd8d3aa9	-0.06895954
56	0x3dc31c9c	0.09526941
57	0xbe44a433	-0.19203262
58	0xbc1af25d	-0.009457198
59	0xbd16938b	-0.0367618
60	0xbe1689a2	-0.1470094
61	0xbd8509f8	-0.06496042
62	0x3dd31c00	0.10308075
63	0xbd60dbbd	-0.05489706
64	0xbd96956b	-0.07352718
65	0x3dcef8d4	0.10106054
66	0x3d59136b	0.052997034
67	0xbdb186bf	-0.08668279
68	0xbcf52d4c	-0.029928826
69	0xbdd1ce54	-0.10244432
70	0x3dce0f7f	0.100615494
71	0x3dc7f0d9	0.09762735
72	0xbe004f85	-0.12530334
73	0x3e17d98b	0.1482908
74	0xbe2dd5d1	-0.16976096
75	0x3da0301d	0.07821677
76	0x3e01cb92	0.12675312
77	0xbe0688fd	-0.13138194
78	0xbd895a05	-0.06706623
79	0x3d644bb5	0.055736262
80	0xbddfb7f2	-0.10923757
81	0xbd028979	-0.031869385
82	0xbce2989f	-0.027660666
83	0x3de628c8	0.11238247
84	0xbcff05b6	-0.031130653
85	0xbdea2cfc	-0.11434361
86	0x3df73bd3	0.120719574
87	0x3d694dac	0.05695884
88	0x3df79ec0	0.12090826
89	0x3d402bfc	0.046916947
90	0x3e068eb8	0.1314038
91	0xbd89e72a	-0.06733544
92	0xbcb197e1	-0.021678867
93	0xbdcb807f	-0.09936618
94	0xbdfbed9e	-0.12301181
95	0xbe131454	-0.14363223
96	0x3db032a0	0.08603406
97	0xbd94e5b0	-0.07270372
98	0xbd4ae5bf	-0.04953551
99	0x3cf94ea6	0.03043301
100	0xbe0112ea	-0.12604871
101	0x3d1ef7e4	0.038810626
102	0xbbea623c	-0.0071528237
103	0xbe2cdce4	-0.16881138
104	0x3e030ef3	0.12798671
105	0xbd78cb66	-0.06074085
106	0xbda68c5c	-0.0813224
107	0x3e102f11	0.14080454
108	0x3ddd2974	0.10798922
109	0x3d0ee599	0.03488693
110	0x3dabff01	0.083982475
111	0x3dd6d6b0	0.10490167
112	0xbdd1531d	-0.10220931
113	0xbd0eeba2	-0.034892686
114	0x3ddfb24c	0.10922679
115	0xbd608dde	-0.054822795
116	0x3de2191b	0.11039945
117	0xbcae7c79	-0.021299588
118	0x3d483231	0.04887599
119	0xbddc8fac	-0.10769591
120	0x3b5ff99d	0.003417588
121	0xbda5d3e8	-0.080970585
122	0xbe0250cf	-0.12726139
123	0x3c769768	0.0150507465
124	0x3dc934d6	0.09824531
125	0xbc11fd8b	-0.008910547
126	0xbe041d2e	-0.12901756
127	0xbe168703	-0.1469994
128	0x3e243ea9	0.16039528
129	0xbddba7fb	-0.10725399
130	0x3c574c6b	0.013140778
131	0xbdad11fa	-0.084506944
132	0xbda7c51a	-0.08191891
133	0x3db984a6	0.09058504
134	0x3b67b8d5	0.0035357971
135	0x3da9d44c	0.082924455
136	0xbdfd2062	-0.12359692
137	0x3c9ade15	0.018904725
138	0xbe0c560f	-0.13704704
139	0x3b9e0b18	0.0048231
140	0x3da1f9c0	0.07908964
141	0xbdbd63e5	-0.09247569
142	0xbd9c5baf	-0.07634675
143	0x3dd60dfb	0.10451885
144	0xbcce71c2	-0.025200728
145	0xbe14f001	-0.14544679
146	0x3cf73687	0.030177368
147	0xbda8a25a	-0.08234091
148	0x3bf451a6	0.0074560223
149	0x3dcc15b3	0.09965076
150	0xbda10633	-0.078625105
151	0x3e18526c	0.14875191
152	0xbc02ba93	-0.007979053
153	0xbce140f7	-0.027496798
154	0x3c13203d	0.008979854
155	0x3cbe2244	0.023209698
156	0xbd6f6c25	-0.058452744
157	0x3d429c01	0.04751206
158	0x3e06b374	0.13154393
159	0x3dd7f879	0.10545439
160	0xbc1d367f	-0.009595512
161	0x3d9facfa	0.077966645
162	0xbd725a3c	-0.059168085
163	0x3e20e5d8	0.15712678
164	0x3d85fc8d	0.06542311
165	0x3ca0364c	0.01955714
166	0xbd00c1f0	-0.031434953
167	0x3d3dc32c	0.04632871
168	0x3e08e90b	0.13370149
169	0x3e219497	0.15779339
170	0x3dd56ef7	0.104215555
171	0x3dfb66e8	0.12275487
172	0xbe07ff4d	-0.13280983
173	0x3d9aa681	0.07551289
174	0xbe0907e0	-0.1338191
175	0x3da6850c	0.081308454
176	0xbe201a75	-0.15635093
177	0xbc9b2f34	-0.018943407
178	0x3d4b56a1	0.049643163
179	0x3db5444e	0.08850919
180	0xbce1acaa	-0.027548153
181	0x3dae60b1	0.08514536
182	0xbe0be72c	-0.13662404
183	0x3d745cd4	0.05965884
184	0x3d35deef	0.04440206
185	0xbdec5fea	-0.11541732
186	0xbd94c147	-0.07263427
187	0xbd73f250	-0.05955726
188	0x3d1ad841	0.037803892
189	0x3d94b85c	0.07261726
190	0xbdc19890	-0.09452927
191	0xbdd0d336	-0.10196535
192	0x3cc0b01c	0.023521475
193	0x3d8a40bc	0.06750628
194	0x3e00fcd9	0.12596454
195	0x3dc71942	0.097216144
196	0xbd23c11f	-0.039979097
197	0xbd2a848a	-0.041630305
198	0x3e0132be	0.12617013
199	0xbd8fc17c	-0.07019326
200	0x3da1402c	0.07873568
201	0xbd69d7b1	-0.057090465
202	0x3e082c71	0.13298203
203	0x3df1d127	0.11807471
204	0xbc4b05e7	-0.012391544
205	0xbd9b4c1c	-0.07582876
206	0xbdc15926	-0.09440832
207	0xbe0acf0d	-0.13555546
208	0xbe21133c	-0.15729994
209	0x3ddebc8c	0.10875806
210	0xbd299b01	-0.04140759
211	0x3cceed13	0.02525953
212	0xbcd2c2b5	-0.02572761
213	0x3dae6942	0.0851617
214	0xbd285172	-0.041093297
215	0xbc237b67	-0.009978152
216	0x3d045f8e	0.03231769
217	0x3bcd49e9	0.0062649143
218	0xbc19f379	-0.009396427
219	0xbdf524b3	-0.119698904
220	0xbe00853b	-0.12550823
221	0x3cf396cc	0.029734991
222	0x3da56cc9	0.0807739
223	0x3c332d7b	0.010936136
224	0xbda39891	-0.07988084
225	0x3d9896fd	0.07450674
226	0x3d87f325	0.06638173
227	0x3df6b9b5	0.120471396
228	0x3dd731b7	0.10507529
229	0xbcedc0db	-0.029022625
230	0x3d9b2c1b	0.07576772
231	0xbdfbc85f	-0.12294077
232	0xbcea69a0	-0.028614819
233	0x3cdd5e2c	0.027022444
234	0xbd64fc66	-0.05590477
235	0xbd14e663	-0.036352526
236	0x3e003863	0.1252151
237	0xbdd315f8	-0.103069246
238	0x3cf60282	0.030030493
239	0x3ac22b6f	0.001481397
240	0x3c9a85ce	0.018862631
241	0x3c1577b4	0.009122778
242	0x3dc5e364	0.09662512
243	0x3dea8f29	0.11453087
244	0xbdc7e327	-0.09760123
245	0x3db07095	0.08615223
246	0xbdeb5348	-0.11490494
247	0x3cff735e	0.031182941
248	0x3d123b1b	0.0357009
249	0x3c67f5fc	0.014157768
250	0x3d92c76b	0.07166942
251	0xbd1546c8	-0.036444455
252	0x3dcc457e	0.09974192
253	0x3d4d9469	0.050190363
254	0x3e196d02	0.1498299
255	0x3e0410fb	0.12897103

layers.2.bias f4 [128]
0	0xbd5d3664	-0.05400695
1	0xbcc6fba3	-0.024289912
2	0x3d3feb7a	0.046855427
3	0x3dd81344	0.105505496
4	0xbd3192fe	-0.043353073
5	0x3c7d4f58	0.015460812
6	0xbdab8c42	-0.083763614
7	0x3d694c83	0.056957733
8	0xbcb839a7	-0.022488428
9	0xbd4000e2	-0.046875842
10	0x3da7585e	0.081711516
11	0xbd9ad667	-0.07560425
12	0xbdb8b751	-0.0901934
13	0x3bc9e3fe	0.006161212
14	0xbd29de0f	-0.041471537
15	0xbd70238e	-0.058627658
16	0xbd7e67c2	-0.06211067
17	0xbd8ebe53	-0.06969895
18	0x3c88d282	0.01670194
19	0xbdc0a121	-0.09405733
20	0xbd708535	-0.058720786
21	0x3d9e7135	0.07736436
22	0xbd574fbb	-0.05256627
23	0xbbfa72c8	-0.0076430775
24	0xbd86e519	-0.06586666
25	0xbcc1f3fd	-0.023675913
26	0xbdbcebe3	-0.09224679
27	0x3cb307cc	0.021854304
28	0x3d5297c6	0.051414274
29	0xbbec281c	-0.00720693
30	0x3d3d2737	0.046179976
31	0x3d93d079	0.072174974
32	0xbc8866d2	-0.016650591
33	0xbd87aa7c	-0.06624314
34	0x3d4de8ce	0.050270848
35	0xbd9d77ff	-0.07688903
36	0xbdaf5309	-0.085607596
37	0xbca4c6f2	-0.020114396
38	0xbd822c54	-0.06356111
39	0x3d4f93d0	0.050678074
40	0x3ae92dc1	0.0017790125
41	0x3d452910	0.048134863
42	0xbc54442c	-0.012955707
43	0x3cd97ae0	0.02654785
44	0xbd1a8aa4	-0.037729874
45	0xbcf53d4c	-0.029936455
46	0x3d62eeee	0.055403642
47	0xbcbbd717	-0.022929711
48	0xbddcccd7	-0.107812576
49	0xbd8c42fd	-0.068487145
50	0xbdd46861	-0.10371471
51	0xbdb70f08	-0.08938414
52	0xbdaad537	-0.08341449
53	0x3d3aec82	0.045635708
54	0xbdc1eb1c	-0.09468672
55	0xbddbbb85	-0.10729126
56	0x3d3ecb55	0.04658063
57	0xbd246704	-0.040137306
58	0xbccb66c7	-0.024829281
59	0x3c817b9c	0.015806012
60	0x3beae8ba	0.0071688564
61	0xbd0330ec	-0.032029077
62	0x3cbf4c68	0.023351863
63	0x3daa1b3b	0.08305975
64	0x3d97b381	0.074072845
65	0xbc8301ef	-0.015992133
66	0xbcc5bdca	-0.02413835
67	0xbce25a81	-0.027631046
68	0xbdacdadb	-0.08440181
69	0x3de10926	0.10988073
70	0x3d86162c	0.06547198
71	0x3c710c88	0.01471246
72	0x3cff57d2	0.031169806
73	0xbca15915	-0.019695798
74	0xbc9e846a	-0.01935025
75	0xbd814763	-0.06312444
76	0x3d90b380	0.07065487
77	0xbd81c221	-0.06335855
78	0x3de7ad84	0.11312392
79	0x3cdfdefa	0.027328003
80	0xbd91f368	-0.07126504
81	0x3a34d81e	0.0006898659
82	0x3d5901d9	0.052980278
83	0xbc89bd28	-0.01681383
84	0xbd655163	-0.05598582
85	0x3dbd12b2	0.092320815
86	0x3d5930ec	0.05302517
87	0xbdaa3bcd	-0.08312187
88	0xbd958825	-0.07301358
89	0xbb456b5f	-0.0030123813
90	0x3ccfc8e0	0.02536434
91	0x3d3c1532	0.04591865
92	0xbda59706	-0.08085446
93	0x3c6e949b	0.0145617975
94	0x3d2317de	0.039817683
95	0x3d844c3b	0.06459852
96	0x3ca3abaa	0.019979317
97	0xbdc964af	-0.09833657
98	0xbd83194b	-0.064013086
99	0x3b6d5d78	0.0036219042
100	0xbd89d919	-0.06730861
101	0xbdc91efd	-0.09820364
102	0x3bf24250	0.007393159
103	0xbd43ada7	-0.04777303
104	0xbc84edba	-0.016226638
105	0x3d4089c5	0.047006387
106	0xbd0aa4cc	-0.03384857
107	0x3cbaa28c	0.022782587
108	0xbd990ab6	-0.07472746
109	0xbd8d1eaf	-0.06890618
110	0x3e08bd41	0.13353445
111	0x3db69595	0.08915249
112	0xbdc1558c	-0.09440145
113	0x3c681e6c	0.014167409
114	0xbdb1af5b	-0.086760245
115	0xbda0552a	-0.07828744
116	0xbdb1e4d1	-0.086862214
117	0x3d425d1a	0.04745207
118	0xbd76203d	-0.06008934
119	0xbd6419a4	-0.055688515
120	0x3dc41bed	0.09575639
121	0xbcb7d831	-0.022441955
122	0xbd94ffef	-0.07275378
123	0xbd87cad8	-0.06630486
124	0x3d1e5db8	0.038663596
125	0x3dc23088	0.09481913
126	0xbd8d1573	-0.06888857
127	0xbd663622	-0.05620397

layers.3.weight f4 [128, 128]
0	0xbe09fabb	-0.13474552
1	0x3b509708	0.0031828303
2	0x3d9b72d1	0.07590259
3	0x3e1657dc	0.14681953
4	0x3cca43e3	0.024690574
5	0x3dec7cbf	0.11547231
6	0x3dd6f959	0.10496778
7	0xbdb4f62e	-0.088360175
8	0x3dd8cbd7	0.10585754
9	0x3e08bc0d	0.13352986
10	0xbdde4a27	-0.10853987
11	0xbc68e11d	-0.014213827
12	0x3de2970e	0.11063968
13	0xbe10c7bb	-0.14138691
14	0x3da95946	0.08268981
15	0xbdca54e8	-0.09879476
16	0xbc737202	-0.014858725
17	0x3e3b9ce7	0.18321572
18	0xbdda2f8d	-0.10653601
19	0xbd284d00	-0.041089058
20	0xbd8d5979	-0.06901831
21	0xbcb4534f	-0.02201238
22	0xbdc179af	-0.094470374
23	0xbe037984	-0.12839323
24	0xbd525dad	-0.051358867
25	0x3c90a1d3	0.017655289
26	0xbdf28e16	-0.11843507
27	0x3d8c0372	0.06836595
28	0xbdf14b95	-0.11781994
29	0x3e1046fb	0.14089577
30	0xbc84e379	-0.016221749
31	0xbd9c7328	-0.07639152
32	0xbdcdd322	-0.10050036
33	0x3d3ae37b	0.0456271
34	0xbdccc8c4	-0.099992305
35	0x3dd5b3a9	0.10434658
36	0x3e0e980e	0.13925192
37	0x3e2a1d5f	0.16612767
38	0xbc938ba3	-0.01801092
39	0x3db508c4	0.088395625
40	0xbc587173	-0.013210642
41	0xbe1ad05a	-0.15118542
42	0xbdeb2b6f	-0.11482894
43	0xbd0f43b4	-0.034976676
44	0x3b5ec551	0.0033992121
45	0x3d405d2d	0.04696386
46	0x3c319f6e	0.010841234
47	0x3e05daa2	0.13071683
48	0x3d752f62	0.05985964
49	0xbe18b313	-0.14912061
50	0x3d934490	0.07190812
51	0x3d027760	0.031852126
52	0x3dd1670e	0.10224734
53	0xbe2f957b	-0.17146866
54	0x3d5059e8	0.05086699
55	0x3d851615	0.064983524
56	0x3dfb4f38	0.12270969
57	0x3def5db9	0.11687798
58	0xbe08abec	-0.13346833
59	0xbdfcd27a	-0.12344833
60	0x3d272ad0	0.040812314
61	0x3dc7d28f	0.09756958
62	0x3df8e33d	0.12152717
63	0xbdcddaa1	-0.10051466
64	0xbe118a8a	-0.14213005
65	0x3d557be7	0.052120116
66	0x3ca4d0ea	0.02011915
67	0xbde820f0	-0.11334407
68	0x3d89f2c1	0.06735755
69	0xbdb94aee	-0.09047495
70	0x3d399fa8	0.045318276
71	0xbe1c0555	-0.15236409
72	0xbceac122	-0.028656546
73	0x3d82682b	0.06367525
74	0xbd21c391	-0.039493147
75	0x3d306720	0.043067098
76	0xbd9a8edb	-0.07546779
77	0xbd960adf	-0.07326292
78	0xbc2e0502	-0.010621311
79	0xbc7db9f6	-0.015486231
80	0x3d80a892	0.06282152
81	0xbda1278b	-0.0786887
82	0x3c4c703c	0.012477931
83	0xbd8cda0d	-0.068775274
84	0x3cb71efc	0.022353642
85	0xbdf8ca66	-0.121479794
86	0x3e01766c	0.1264283
87	0x3da9743e	0.082741246
88	0x3dc2f195	0.09518734
89	0xbdfa8d7d	-0.12234018
90	0xbe264db9	-0.16240586
91	0x3c05f7b0	0.008176729
92	0x3c06dac2	0.008230867
93	0xbdc60a8b	-0.0966998
94	0xbdf0712c	-0.11740336
95	0xbd03e75b	-0.03220306
96	0xbd63ca5f	-0.055612918
97	0xbd3fa0d4	-0.046784237
98	0x3d24aec7	0.040205743
99	0xbc233d3b	-0.009963329
100	0x3da9acaa	0.08284886
101	0xbd85b6fd	-0.06529043
102	0xbd168615	-0.036748964
103	0xbcea0aed	-0.028569663
104	0x3c95a436	0.018266778
105	0xbd7d2c91	-0.06181008
106	0xbe2298e8	-0.15878642
107	0xbe2237fa	-0.15841666
108	0xbe2799ac	-0.16367215
109	0xbcc6d5bb	-0.024271837
110	0x3dd9fa06	0.10643391
111	0x3d49921b	0.049211603
112	0x3d4c4f78	0.049880475
113	0x3c93d314	0.018044986
114	0x3e0cb2e1	0.13740112
115	0x3d91a002	0.07110597
116	0xbcd2a990	-0.02571562
117	0x3e152b86	0.14567384
118	0xbc1310a3	-0.0089761345
119	0x3cefa49b	0.029253295
120	0x3ceb03ba	0.0286883
121	0xbd8d13b9	-0.068885274
122	0x3e1c84df	0.15285061
123	0x3e0af156	0.13568625
124	0x3d9f17f3	0.0776824
125	0xbdc0886e	-0.09401022
126	0x3dd1f8c4	0.102525264
127	0xbd8651c9	-0.06558568
128	0x3d42ed7a	0.047589757
129	0xbe042b66	-0.1290718
130	0x3dc3bc3c	0.09557387
131	0x3e2c1541	0.16804983
132	0xbd755418	-0.05989465
133	0x3dafe07e	0.0858774
134	0x3d7d3b27	0.06182399
135	0x3dfdaee7	0.123868756
136	0xbc441fbb	-0.011970456
137	0xbd77a8e5	-0.060463805
138	0xbe0e260c	-0.13881701
139	0xbc97fa76	-0.018552046
140	0x3e064a7e	0.13114354
141	0x3c60256c	0.013680797
142	0x3d16f868	0.036857992
143	0x3dc42067	0.09576493
144	0xbd085743	-0.033286344
145	0xbc7bd128	-0.015369691
146	0x3de5b136	0.11215441
147	0x3e0fa101	0.14026262
148	0x3df267ff	0.11836242
149	0x3d286211	0.04110915
150	0xbe082d08	-0.13298428
151	0x3e0ea946	0.1393176
152	0x3ae32706	0.0017330355
153	0x394ec581	0.00019719267
154	0xbbd6762f	-0.0065448503
155	0x3de33ee1	0.110959776
156	0xbdbd7207	-0.092502646
157	0xbdd35f3c	-0.10320899
158	0x3d12774f	0.035758313
159	0x3df9fb5e	0.122061476
160	0x3d79f30b	0.0610228
161	0x3e15f40d	0.14643879
162	0x3dca10d1	0.09866489
163	0x3d8b5f58	0.06805295
164	0xbcf1f1f0	-0.02953431
165	0xbca88d37	-0.020575149
166	0xbdb3be13	-0.08776488
167	0x3d21ff40	0.039550066
168	0x3e2f7fb7	0.17138563
169	0x3d44f8ad	0.04808872
170	0x3d412921	0.047158364
171	0x3cba4d30	0.022741884
172	0x398f4cfb	0.0002733244
173	0x3d825cc2	0.063653484
174	0x3de8e21e	0.113712534
175	0x3caa8c9a	0.020818997
176	0x3db6c905	0.0892506
177	0x3e15a8cb	0.1461517
178	0xbd953021	-0.072845705
179	0x3e097871	0.13424851
180	0xbe20e896	-0.15713724
181	0x3dabbf82	0.083861366
182	0xbd8371d2	-0.06418194
183	0x3dc403e1	0.09571052
184	0x3d328e28	0.043592602
185	0xbd843197	-0.06454771
186	0x3e0909cf	0.13382648
187	0xbe19735c	-0.14985412
188	0x3c942cdd	0.018087799
189	0x3e14c74d	0.14529152
190	0xbe160587	-0.14650546
191	0x3e09bb6c	0.13450402
192	0xbdfffe02	-0.1249962
193	0xbd34c780	-0.04413557
194	0xbc4866ae	-0.012231512
195	0xbb4a2d1b	-0.003084964
196	0x3dcdddbb	0.10052057
197	0x3db0b883	0.08628943
198	0xbdd8068f	-0.10548126
199	0xbe2774b1	-0.16353108
200	0x3e08ad49	0.13347353
201	0xbd5a89cc	-0.05335407
202	0x3e032c7d	0.1280994
203	0x3d73e266	0.059542082
204	0x3cfa279f	0.030536471
205	0x3e12c9b1	0.14334752
206	0x3db0fd61	0.08642078
207	0x3b643b5b	0.0034825418
208	0x3e07850c	0.13234347
209	0x3de8971f	0.11356949
210	0xbdccc540	-0.0999856
211	0x3df814f1	0.12113369
212	0xbddfc6dc	-0.10926601
213	0x3dd2eb51	0.10298789
214	0x3d7012fd	0.05861186
215	0xbd480477	-0.048832383
216	0x3e0cfdc1	0.13768674
217	0x3d17867b	0.036993485
218	0x3dc15128	0.094393075
219	0x3c37534f	0.011189296
220	0xbda640ce	-0.08117829
221	0xbd7183f8	-0.058963746
222	0xbc01f87e	-0.00793278
223	0xbce53238	-0.027978048
224	0x3d00cf63	0.03144778
225	0xbda348ea	-0.07972892
226	0x3d9f352e	0.07773815
227	0x3df2f11a	0.11862393
228	0xbc5c61e1	-0.0134510705
229	0x3d696357	0.056979503
230	0xbdfd866a	-0.12379153
231	0x3d03854e	0.03210955
232	0xbda06c28	-0.07833129
233	0x3de89c3c	0.11357924
234	0x3dee7d83	0.11645033
235	0x3dea8f9f	0.11453175
236	0xbb69ca37	-0.0035673508
237	0xbdb50d6c	-0.08840451
238	0x3e16fafd	0.14744182
239	0xbe1149ba	-0.1418828
240	0x39c72efd	0.00037991247
241	0x3d16b39a	0.036792375
242	0x3d83af65	0.06429938
243	0xbdb068f7	-0.086137705
244	0x3d391f87	0.045196082
245	0xbc862c6b	-0.016378602
246	0x3d702a6c	0.058634207
247	0x3de84f29	0.113432236
248	0xbd52f8a1	-0.051506642
249	0x3c57c1e6	0.013168788
250	0xbe16cee1	-0.14727356
251	0x3d5f92e7	0.054583456
252	0xbdad37fd	-0.084579445
253	0x3da5f778	0.081038415
254	0x3c9cf704	0.019160755
255	0xbc52e3b7	-0.012871674

layers.3.bias f4 [128]
0	0xbdc30319	-0.09522075
1	0xbda24f56	-0.079252884
2	0xbc99635f	-0.018724142
3	0x3c63c6c1	0.013902367
4	0xbd463def	-0.04839891
5	0xbd91281e	-0.0708773
6	0xbc84205c	-0.016128711
7	0xbc17805b	-0.009246911
8	0x3ca21f80	0.019790411
9	0x3dc773c8	0.097388804
10	0x3d128856	0.03577455
11	0x3daf514c	0.08560428
12	0x3d717018	0.05894479
13	0x3d6f2190	0.058381617
14	0xbc9e0ce2	-0.019293252
15	0xbd9ee0f0	-0.07757747
16	0xbd2cc6ea	-0.042181887
17	0xbbf89537	-0.007586147
18	0x3c6efab1	0.014586137
19	0x3d1b1125	0.037858147
20	0xbc49953f	-0.012303649
21	0xbd6c6f69	-0.057723437
22	0xbce4e94b	-0.027943274
23	0xbd3f516b	-0.046708506
24	0xbd356577	-0.044286218
25	0xbd4bce84	-0.049757496
26	0x3c6ef4ff	0.014584779
27	0xbdd219a4	-0.10258797
28	0x3cb17835	0.021663764
29	0xbda1519a	-0.078768924
30	0xbd718f3d	-0.058974493
31	0xbdc46f7a	-0.09591575
32	0x3d27d2d6	0.040972553
33	0x3dc87ac8	0.09789044
34	0xbda8ff57	-0.08251827
35	0x3d672842	0.056434877
36	0xbd361fd1	-0.044463936
37	0x3cc893c7	0.024484528
38	0x3d217bc6	0.03942468
39	0xbcb4a984	-0.022053488
40	0x3bd8303f	0.0065975483
41	0xbd396f29	-0.045272026
42	0xbd6a5b90	-0.057216227
43	0x3da149b9	0.078753896
44	0xbb9e5082	-0.0048313746
45	0x3c38a81f	0.011270552
46	0x3c7273e6	0.01479814
47	0xbd40ff96	-0.047118746
48	0x3d8d4cd6	0.06899421
49	0x3a568c29	0.00081843376
50	0x3d2e717b	0.042588692
51	0x3d995f10	0.07488835
52	0x3d7c8bac	0.06165664
53	0xbdab734d	-0.08371601
54	0x3d8c58ce	0.06852876
55	0x3c8382a2	0.016053502
56	0xbd4e5bb4	-0.050380424
57	0xbd7f2bdc	-0.062297687
58	0x3c1e60ac	0.009666603
59	0xbb8e444e	-0.0043416386
60	0x3b4e6054	0.0031490522
61	0xbd09b013	-0.033615183
62	0xbb659b8c	-0.003503534
63	0x3d54e843	0.051979315
64	0xbd5133ef	-0.05107492
65	0xbd0bf4bc	-0.034168944
66	0xbc30f758	-0.010801159
67	0x3d959d3e	0.07305382
68	0x3cba362c	0.02273091
69	0x3d910e59	0.07082815
70	0xbc9b0366	-0.018922519
71	0xbc8b06bf	-0.01697099
72	0x3cf754b3	0.030191755
73	0xbd34b901	-0.044121746
74	0xbda43e17	-0.08019655
75	0x3da7e84d	0.08198605
76	0x3b363d18	0.002780741
77	0xbb65e766	-0.0035080551
78	0x3d7ad2e5	0.06123628
79	0x3d742e82	0.059614666
80	0xbd030356	-0.031985603
81	0xbd1772e3	-0.0369748
82	0xbd4af8ee	-0.049553804
83	0x3db27ea3	0.0871556
84	0xbd1b8cf7	-0.03797623
85	0xbd4dd6a4	-0.050253525
86	0xbcc94c54	-0.024572529
87	0x3d47d5a3	0.048787724
88	0x3ce29058	0.02765672
89	0xbd219347	-0.039447095
90	0xbcaf7ff5	-0.02142332
91	0x3db03b7f	0.08605098
92	0x3d965d6d	0.07342038
93	0x3d6a3282	0.057177074
94	0xbd762a4d	-0.060098935
95	0xbce32c64	-0.027731128
96	0xbd3b2fbe	-0.045699827
97	0x3daea7e6	0.08528118
98	0xbd3f517d	-0.046708573
99	0xbd358cf0	-0.04432386
100	0x3d4c4afb	0.049876194
101	0xbdb39daa	-0.087703064
102	0x3cffdf6c	0.031234466
103	0x3caf427d	0.021394009
104	0x3da675ad	0.081279136
105	0x3d7eb593	0.06218488
106	0x3d0e9bef	0.03481668
107	0x3dc852e9	0.09781439
108	0x3cb3cf18	0.021949336
109	0x3d477ecc	0.048704907
110	0xbddff256	-0.10934894
111	0x3d48ae67	0.048994448
112	0x3ca53a33	0.020169353
113	0x3d3dae41	0.04630876
114	0xbc8efce3	-0.01745457
115	0xbac6933e	-0.0015150083
116	0xbd8efc9d	-0.06981776
117	0xbda801c5	-0.082034625
118	0xbd1e8532	-0.038701244
119	0xbd8ca5d9	-0.068675704
120	0x3c48a9d8	0.012247525
121	0x3bdc9e1e	0.006732716
122	0xbdaa14db	-0.08304759
123	0x3da489f2	0.080341235
124	0x38f8e158	0.00011867535
125	0x3c54adbf	0.012980877
126	0xbd46ed27	-0.04856601
127	0x3d69eb70	0.057109296

layers.4.weight f4 [128, 128]
0	0xbaab2396	-0.001305687
1	0x3c10f8df	0.008848398
2	0xbda8b795	-0.082381405
3	0x3c45f1a6	0.012081539
4	0x3e097570	0.13423705
5	0xbe04a454	-0.12953311
6	0x3d9d46fa	0.07679553
7	0xbd20d1ee	-0.039262705
8	0xbddd8f36	-0.10818331
9	0xbdac219f	-0.0840485
10	0x3e0a62c2	0.13514236
11	0xbdf6adba	-0.120448545
12	0xbdbea778	-0.09309286
13	0x3c00b2c7	0.007855124
14	0x3d2d7d57	0.04235586
15	0xbdcd4919	-0.10023708
16	0x3dff9b5f	0.124808066
17	0x3e248583	0.16066556
18	0xbd056634	-0.03256817
19	0x3da246f1	0.07923687
20	0x3d0dc9fd	0.03461646
21	0xbdee002d	-0.11621127
22	0xbe12318c	-0.14276713
23	0xbd879dbd	-0.06621883
24	0xbc94309b	-0.018089583
25	0xbda430dd	-0.080171324
26	0xbd069e44	-0.032865778
27	0xbddf65f8	-0.10908121
28	0x3cc1785c	0.023616962
29	0xbd4034df	-0.04692542
30	0x3d9f9311	0.077917226
31	0x3d3946e4	0.045233622
32	0xbe023f57	-0.12719475
33	0xbe0f7bed	-0.14012118
34	0x3dae762d	0.08518634
35	0x3b977b8f	0.0046228836
36	0x3dd7acfc	0.10531041
37	0x3d8ba06a	0.06817706
38	0x3d540346	0.051760934
39	0xbd96f435	-0.073707975
40	0x3db89abc	0.09013888
41	0x3dfe6761	0.12422062
42	0x3c9579ea	0.01824661
43	0xbd246d7d	-0.04014348
44	0x3ce454da	0.027872492
45	0xbe1bf1c3	-0.15228944
46	0xbe037603	-0.12837987
47	0x3e0a637e	0.13514516
48	0xbddcc9e3	-0.10780694
49	0x3df20870	0.118180156
50	0x3df6cd78	0.12050909
51	0x3e0ae6c5	0.13564594
52	0x3e044d3f	0.12920092
53	0xbdde043d	-0.10840652
54	0x3e0099c0	0.12558651
55	0xbdc2d01b	-0.09512349
56	0x3d4db60f	0.050222453
57	0x3d5552f1	0.052081052
58	0x3dfe9e5f	0.12432551
59	0x3dffbf90	0.124877095
60	0x3da8dce7	0.08245259
61	0xbd5283e9	-0.05139533
62	0xbe173018	-0.1476444
63	0xba842272	-0.0010081066
64	0xbd12477d	-0.035712708
65	0x3d1780f7	0.036988225
66	0xbd9dd1da	-0.07706042
67	0xbe117cf0	-0.14207816
68	0xbdf89ed8	-0.12139672
69	0xbcc98e22	-0.024603907
70	0xbd9f0da8	-0.077662766
71	0xbd5b5ac0	-0.053553343
72	0xbda3a931	-0.07991255
73	0xbe101a67	-0.14072572
74	0xbcc4325a	-0.02394979
75	0x3d8ce2f1	0.06879223
76	0x3c78c89e	0.01518455
77	0x3d981088	0.07425028
78	0xbd64303c	-0.055710062
79	0xbdbd968f	-0.092572324
80	0xbdf8883a	-0.12135358
81	0xbc1d8000	-0.009613037
82	0x3d2a7820	0.041618466
83	0x3d3a9a96	0.04555758
84	0x3d80dad4	0.06291738
85	0xbcb8e758	-0.02257125
86	0x3cd63374	0.026147582
87	0x3e02d3fe	0.12776181
88	0xbbade818	-0.0053072087
89	0xbd4e4ae1	-0.05036438
90	0xbde68cf9	-0.11257357
91	0xbd8a73f4	-0.067603976
92	0xbe0bbfa9	-0.13647331
93	0xbc03ddef	-0.008048519
94	0xbd5c263e	-0.053747408
95	0xbdd7fdf6	-0.10546486
96	0xbd9fc36d	-0.078009464
97	0xbdaeab71	-0.085287936
98	0xbe224de7	-0.1585003
99	0x3e149a16	0.14511904
100	0xbd90845d	-0.07056496
101	0x3cb354ef	0.021891085
102	0xbdbe3bb0	-0.09288728
103	0xbe0c5146	-0.13702878
104	0xbddbc439	-0.10730786
105	0xbd8dfa49	-0.06932504
106	0xbd15f12f	-0.036606964
107	0xbd0c9f2d	-0.03433149
108	0xbddd3ef1	-0.10803021
109	0xbd3b587f	-0.045738693
110	0xbdc8feda	-0.09814234
111	0xbdfc6815	-0.123245396
112	0x3d8f7d76	0.07006352
113	0xbe0664fc	-0.1312446
114	0xbe0d47a8	-0.13796866
115	0xbb7b3d28	-0.0038336013
116	0xbd47176f	-0.048606332
117	0x3dfd0951	0.123552926
118	0xbd8d29fa	-0.06892772
119	0x3df41c53	0.11919465
120	0x3c6d42b7	0.014481238
121	0xbd83e89d	-0.06440852
122	0xbc9813b3	-0.01856408
123	0x3d941648	0.07230812
124	0x3cf8a0d0	0.030350119
125	0xbd9cad32	-0.07650222
126	0x3ca73d63	0.020415014
127	0x3c2b3ece	0.0104519855
128	0xbd04a4ee	-0.03238385
129	0xbe18857e	-0.14894673
130	0x3d308b1b	0.04310141
131	0x3dc4c719	0.09608287
132	0x3d5739b3	0.05254526
133	0xbc832af1	-0.016011687
134	0x3d60339c	0.05473672
135	0xbdd89e25	-0.10577039
136	0xbe0fbb85	-0.14036377
137	0x3db5f00c	0.08883676
138	0xbd398e3f	-0.045301672
139	0xbcab4ce0	-0.02091068
140	0xbd70aa18	-0.058755964
141	0xbcec3b33	-0.028836822
142	0xbe0197cb	-0.1265556
143	0xbdecf898	-0.11570853
144	0xbdc635d0	-0.09678233
145	0x3d360a8f	0.044443663
146	0xbcb0b495	-0.021570483
147	0xbc860f29	-0.01636465
148	0x3e041959	0.12900294
149	0xbb9a93e7	-0.0047173384
150	0xbc55730e	-0.013027919
151	0xbc82bb48	-0.015958443
152	0xbe125789	-0.14291205
153	0x3d36a9c9	0.044595513
154	0x3c604e4e	0.013690544
155	0x3d8d6b7f	0.06905269
156	0xbdc53696	-0.09629552
157	0xbd24f6f9	-0.040274594
158	0xbd7dacf3	-0.061932515
159	0x3d87ed2e	0.06637035
160	0xbccb1a90	-0.02479294
161	0xbe0dcbce	-0.13847277
162	0x3dc4f2e0	0.09616637
163	0x3dca6bb6	0.098838255
164	0x3dc2163e	0.094768986
165	0x3c4ceddd	0.012507883
166	0xbdcdc594	-0.10047451
167	0x3dcc43f8	0.099739015
168	0xbdca0012	-0.09863295
169	0x3bf4a82d	0.007466337
170	0xbd249c26	-0.040187977
171	0xbcef16c5	-0.029185662
172	0xbdc92d41	-0.098230846
173	0x3dbd7090	0.09249985
174	0x3e2e000b	0.16992204
175	0x3d87ff44	0.06640485
176	0x3e1c541a	0.15266457
177	0x3dcc6d36	0.09981768
178	0xbdddaf33	-0.10824432
179	0xbc9f4bf7	-0.019445403
180	0xbc7fdb60	-0.015616268
181	0x3dd96911	0.10615743
182	0x3dc8572f	0.09782254
183	0xbb7ceb30	-0.003859233
184	0xbcef432c	-0.029206835
185	0x3dac842a	0.08423646
186	0x3dab7197	0.08371275
187	0xbc95a103	-0.018265253
188	0xbd50d600	-0.050985336
189	0xbe10563c	-0.14095396
190	0x3d8d822b	0.06909593
191	0x3e04e70d	0.12978764
192	0x3e04245b	0.12904494
193	0x3d794245	0.060854215
194	0xbdbe2be3	-0.092857145
195	0x3cb236b1	0.021754595
196	0xbd7e69ee	-0.06211274
197	0xbda02ee8	-0.07821447
198	0x3de70f45	0.11282209
199	0xb9ac667a	-0.00032882747
200	0xbd4d6cce	-0.050152592
201	0x3e0d966e	0.13826916
202	0x3c90e589	0.017687576
203	0xbded2aec	-0.11580452
204	0xbd91ca11	-0.07118619
205	0xbb581673	-0.0032972365
206	0x3ceaa30f	0.028642206
207	0x3dcfd5ad	0.10148177
208	0x3deb84fb	0.114999734
209	0xbdd393aa	-0.10330899
210	0xbdcca819	-0.099929996
211	0x3ddc77f7	0.10765069
212	0xbe143f7f	-0.14477347
213	0x3cac2cfe	0.021017548
214	0xbd5555d5	-0.05208381
215	0xbde26511	-0.11054433
216	0xbb8c298b	-0.0042774132
217	0xbd8d83ed	-0.069099285
218	0x3da8bbfd	0.08238981
219	0x3daad7b3	0.083419226
220	0x3d40c873	0.047066163
221	0x3c88c656	0.016696136
222	0x3dfee0aa	0.12445195
223	0xbca44be3	-0.020055717
224	0x3d4bf7e0	0.04979694
225	0x3d1524ed	0.03641217
226	0xbdf46ae2	-0.11934449
227	0xbdf7fae2	-0.12108399
228	0x3d9c0a8a	0.07619198
229	0x3dcace63	0.099026464
230	0x3c93cb59	0.0180413
231	0xbe0ff2f4	-0.14057523
232	0x3de7678c	0.11299047
233	0xbd044871	-0.032295648
234	0xbd1cb7c9	-0.03826121
235	0xbdbfb2dd	-0.09360287
236	0x3da0b6e4	0.078473836
237	0xbda975e9	-0.08274443
238	0xbdead4ca	-0.114663675
239	0x3d7edf54	0.0622247
240	0x3db09e52	0.08623947
241	0xbdf24382	-0.11829282
242	0xbc359f51	-0.011085347
243	0xbdd8aa4d	-0.10579357
244	0xbe06e012	-0.13171414
245	0x3e1288df	0.14310025
246	0xbd6f4eac	-0.058424637
247	0xbda68a20	-0.08131814
248	0x3d5edf0e	0.05441194
249	0xbdb362aa	-0.08759053
250	0xbcd0b3f3	-0.025476431
251	0xbce407d4	-0.027835764
252	0x3cddebb8	0.027089939
253	0x3d3f016b	0.04663221
254	0x3db11b25	0.086477555
255	0x3e136710	0.14394784
