model_B/pinn_model167.pth (torch, 472610 bytes, 17 tensors)

layers.0.weight f4 [128, 6]
0.18091595 -0.11008034 0.20425433 -0.18401183 0.05807038 0.037682284 0.13728444 0.10572733
-0.12647675 0.15864463 -0.002920377 -0.059211563 -0.05263495 -0.20684125 -0.1320007 -0.17532249
0.22565754 0.0057777986 0.10541971 -0.098993264 0.042860545 0.043917783 0.15544662 0.1699745
-0.08693467 -0.10935596 0.16866732 -0.15674049 0.14462598 -0.060896162 0.027637277 -0.038555793
0.15345123 -0.1784553 -0.10176833 -0.13373782 0.12883037 -0.045798223 0.1857165 -0.03738354
-0.21893203 0.073663175 -0.17479053 0.18043998 0.18840805 0.1555314 0.18504505 -0.18844901
-0.13325544 -0.2190154 -0.068123855 -0.04388238 -0.0017199664 0.03068473 0.11240242 -0.12622555
-0.026483389 -0.053534567 0.064307734 0.04038918 0.09341219 0.18954253 -0.062266998 -0.0651448
0.12456186 -0.18881604 -0.0853591 0.03224458 0.12863904 0.11763045 -0.15330754 -0.07624053
0.1744545 -0.23499447 -0.1531239 0.03674443 -0.023822308 -0.09429323 -0.0329284 0.19909059
-0.07308497 0.19375314 -0.09026293 -0.0042366344 0.013133864 -0.15461834 0.017442761 0.028305214
-0.013981627 -0.13023311 0.16264434 0.04706996 -0.13667208 0.0821947 0.102318615 0.029127033
-0.12582202 -0.071587205 -0.18789849 0.012937832 -0.114504494 -0.055916123 -0.06910351 0.099274844
-0.026625657 -0.083606586 0.1311368 -0.12561871 0.21545918 0.1727663 -0.021895979 0.08232725
0.20555913 0.19183676 0.19110453 -0.160859 -0.13373566 0.11144834 0.19316757 -0.095860414
-0.07382683 0.0010883351 0.091649726 0.08894629 -0.11656703 -0.19938901 0.120713025 0.08411877
-0.03775781 -0.037395913 -0.058313288 -0.07020317 -0.07078253 -0.18857104 -0.014802001 0.21854515
0.15820491 -0.016828021 -0.08237844 -0.0007448415 0.16254383 -0.081964046 0.0010641122 0.14334801
0.16431163 -0.13642818 0.057200782 -0.029879866 0.06342676 0.05744434 0.077135086 -0.073501
-0.07781202 -0.042303886 -0.10794357 -0.124460764 -0.039167304 0.15654992 -0.11917636 0.12910804
0.1382434 0.09381985 -0.017561644 0.17538978 -0.029300382 -0.1186876 0.07855789 -0.15395871
0.17774828 0.0035484866 0.10537968 0.05763354 -0.20606938 0.15005617 0.20077801 -0.21890762
0.060643565 0.11668725 0.019722609 -0.1122352 -0.041589897 0.06665532 -0.17178698 -0.118382506
-0.12488269 -0.071044676 -0.1263864 0.06782839 0.17214951 -0.20211877 0.020722715 -0.11958254
0.14925969 -0.126401 0.021975135 0.08228195 -0.122002825 -0.13814926 0.13728976 -0.124689735
-0.22210951 0.18614855 0.18459643 -0.14585215 -0.111545004 -0.17128369 0.23182425 -0.13760978
-0.039614677 0.059608087 -0.031945452 0.0025084328 -0.18217197 0.049914755 0.020304533 0.16644128
-0.0041489443 -0.017639233 0.083680436 -0.120752044 0.04843806 0.15588403 0.1672507 0.011511412
0.04018449 -0.013647991 0.087394305 0.15833294 -0.09216209 0.12457671 0.07936752 0.22401181
0.07436983 -0.17117234 -0.08092724 -0.20299655 -0.09635477 0.17414254 0.20511127 0.03015865
0.17673706 -0.19922754 -0.18942595 -0.2145253 -0.16012378 0.08216703 -0.040896673 0.16401404
0.2239225 0.052519392 0.119872555 0.17322321 -0.06653884 0.015724724 0.02317843 -0.19677563
00000000: 0842 393e cd71 e1bd 0c28 513e 996d 3cbe
00000010: 35db 6d3d bd58 1a3d 4b94 0c3e 9287 d83d
00000020: 1f83 01be bd73 223e cc63 3fbb d387 72bd
00000030: bf97 57bd 31ce 53be 312b 07be bd87 33be
00000040: c512 673e b053 bd3b 4ae6 d73d fbbc cabd
00000050: 8a8e 2f3d 22e3 333d 662d 1f3e cc0d 2e3e
00000060: ce0a b2bd 04f6 dfbd 20b7 2c3e 9480 20be
00000070: d518 143e 416e 79bd 9267 e23c aeec 1dbd
00000080: 5222 1d3e fcbc 36be ea6b d0bd 91f2 08be
00000090: 1cec 033e eb96 3bbd 772c 3e3e 7c1f 19bd
000000a0: b82f 60be b8dc 963d 4afc 32be 42c5 383e
000000b0: 0aee 403e a043 1f3e 737c 3d3e c7f8 40be
000000c0: 1d74 08be 9345 60be 8584 8bbd 03be 33bd
000000d0: 7f70 e1ba 8b5e fb3c 3d33 e63d 4541 01be
000000e0: b1f3 d8bc 1047 5bbd c6b3 833d 206f 253d
000000f0: e44e bf3d 7017 423e ae0b 7fbd a36a 85bd
00000100: 4a1a ff3d fe58 41be c0d0 aebd e512 043d
00000110: f4b9 033e 3ce8 f03d a7fc 1cbe ff23 9cbd
00000120: 33a4 323e 64a2 70be 83cc 1cbe 5481 163d
00000130: 0027 c3bc cf1c c1bd eedf 06bd 67de 4b3e
00000140: 93ad 95bd 3967 463e c5db b8bd 77d3 8abb
00000150: 6b2f 573c 4554 1ebe 1fe4 8e3c 56e0 e73c
00000160: 3213 65bc d45b 05be 3d8c 263e 6ecc 403d
00000170: c4f3 0bbe b255 a83d 6c8c d13d d19b ee3c
00000180: 7dd7 00be 509c 92bd 7668 40be 33f9 533c
00000190: 5581 eabd 4e08 65bd 2486 8dbd 9c50 cb3d
000001a0: 0d1e dabc ee39 abbd ba48 063e 31a2 00be
000001b0: 55a1 5c3e a6e9 303e 325f b3bc 309b a83d
000001c0: 187e 523e db70 443e e8b0 433e 39b8 24be
000001d0: 00f2 08be 073f e43d b8cd 453e 7752 c4bd
000001e0: 8532 97bd 77a6 8e3a dab2 bb3d 7929 b63d
000001f0: b2ba eebd a22c 4cbe 6438 f73d 7646 ac3d
00000200: efa7 1abd 752c 19bd ead9 6ebd aec6 8fbd
00000210: 6ef6 90bd c418 41be 1884 72bc 4dca 5f3e
00000220: 7800 223e ebda 89bc 07b6 a8bd 7841 43ba
00000230: e471 263e c4dc a7bd ae79 8b3a d2c9 123e
00000240: 4f41 283e d4b3 0bbe 5e4b 6a3d 9fc6 f4bc
00000250: e4e5 813d c24a 6b3d 00f9 9d3d b187 96bd
00000260: e95b 9fbd d746 2dbd 8511 ddbd 49e5 febd
00000270: e56d 20bd 9f4e 203e bc12 f4bd e634 043e
00000280: ae8f 0d3e 9f24 c03d 70dd 8fbc 6199 333e
00000290: 5b07 f0bc 7c12 f3bd f6e2 a03d 5aa7 1dbe
000002a0: a503 363e ba8d 683b 4dd1 d73d 2611 6c3d
000002b0: da03 53be 53a8 193e c098 4d3e 5229 60be
000002c0: 6365 783d baf9 ee3d 4f91 a13c 92db e5bd
000002d0: 2b5a 2abd 9682 883d ede8 2fbe 8772 f2bd
000002e0: 7fc2 ffbd df7f 91bd 706b 01be 9ce9 8a3d
000002f0: f647 303e 39f8 4ebe afc2 a93c b1e7 f4bd
00000300: 88d7 183e 446f 01be 3305 b43c 7083 a83d
00000310: 9edc f9bd 0077 0dbe b095 0c3e 555d ffbd
00000320: ad70 63be ba9d 3e3e d906 3d3e 445a 15be
00000330: b571 e4bd fe64 2fbe 5663 6d3e 94e9 0cbe
00000340: 0043 22bd 9c27 743d 3cd9 02bd 8564 243b
00000350: 4a8b 3abe 6a73 4c3d b155 a63c 956f 2a3e
00000360: def3 87bb 2780 90bc a660 ab3d d94c f7bd
00000370: fd66 463d 10a0 1f3e c443 2b3e 5d9a 3c3c
00000380: 7e98 243d d39b 5fbc c9fb b23d 0822 223e
00000390: 7abf bcbd 1322 ff3d 708b a23d 5a63 653e
000003a0: 364f 983d cd47 2fbe 2ebd a5bd 54de 4fbe
000003b0: a655 c5bd 6c52 323e b008 523e 460f f73c
000003c0: 8ffa 343e 4e02 4cbe e0f8 41be 85ac 5bbe
000003d0: 7df7 23be 3047 a83d 4583 27bd 4cf3 273e
000003e0: f14b 653e 931e 573d be7f f53d 6d61 313e
000003f0: 8445 88bd 23d1 803c b1e0 bd3c 8d7f 49be

layers.0.bias f4 [128]
-0.0010936013 0.12677768 0.20702963 -0.1761044 -0.06590281 -0.11722907 -0.14148565 -0.39317438
0.46401125 -0.14054121 -0.40571728 -0.16968094 0.36883816 -0.20834965 0.40621006 0.19792162
0.34761482 0.17696214 0.28352335 0.013844393 0.33358565 -0.24485588 -0.16084278 0.26532656
0.1759339 0.4144727 0.18488388 -0.04961413 0.2277766 0.14646703 -0.057229333 -0.36093977
0.38177767 -0.16686523 -0.18433367 -0.02245659 0.06479906 -0.38868293 0.18828481 0.1931357
-0.26340038 0.36689115 0.23309357 -0.26654357 0.06606929 -0.22670192 0.16890296 -0.31713042
0.28754908 -0.26881206 0.26590276 -0.43240008 -0.3020768 -0.27687284 0.13746925 0.311822
-0.3618028 0.27853727 -0.34951073 -0.2536959 -0.17555343 0.08241413 0.3164212 0.30179965
0.10414159 0.12956357 0.17299826 -0.15488565 -0.2523611 -0.24708201 0.069541074 -0.21407379
-0.059617434 -0.19511239 -0.36776865 -0.20737155 0.3587202 0.0487884 -0.41946727 0.1562661
-0.3320238 -0.066132 -0.3689086 -0.20663744 0.22737165 -0.016898 -0.3013924 0.23455442
0.32316852 0.23269238 0.07959122 0.116869815 0.33102727 -0.18100713 -0.20842077 -0.1239026
0.3997705 0.024197415 0.07902994 -0.17599745 -0.22930986 0.41612065 0.24586177 -0.24655133
0.20345351 -0.38878888 0.21167856 -0.12880771 0.3816596 -0.2769834 0.22728944 0.03034925
-0.13440011 -0.31993935 -0.22547565 -0.39219508 -0.3158853 0.20953164 0.04336975 0.14272226
0.30403835 0.030813314 0.011824641 -0.025450328 -0.28816998 0.3287176 0.21394163 -0.023651613
00000000: 2c57 8fba 02d2 013e 93ff 533e b654 34be
00000010: 0df8 86bd cb15 f0bd 9de1 10be 274e c9be
00000020: e292 ed3e 09ea 0fbe 2dba cfbe d7c0 2dbe
00000030: 5bd8 bc3e 9c59 55be c4fa cf3e f7ab 4a3e
00000040: 92fa b13e 9035 353e f929 913e 98d3 623c
00000050: bdcb aa3e 80bb 7abe f8b3 24be e2d8 873e
00000060: 0428 343e c435 d43e 3352 3d3e 3038 4bbd
00000070: 453e 693e 74fb 153e 4e69 6abd 19cd b8be
00000080: 5d78 c33e b8de 2abe f7c1 3cbe e2f6 b7bc
00000090: 5fb5 843d 7301 c7be bccd 403e 5dc5 453e
000000a0: 6adc 86be 28d9 bb3e 15b0 6e3e 6678 88be
000000b0: 564f 873d 8c24 68be e6f4 2c3e eb5e a2be
000000c0: a239 933e bca1 89be 6824 883e 8b63 ddbe
000000d0: cfa9 9abe 47c2 8dbe bdc4 0c3e 22a7 9f3e
000000e0: 373e b9be 709c 8e3e 12f3 b2be 6ee4 81be
000000f0: 47c4 33be bdc8 a83d f601 a23e 7c85 9a3e
00000100: 3048 d53d 50ac 043e 7526 313e 589a 1ebe
00000110: 7935 81be 1103 7dbe 8d6b 8e3d 2936 5bbe
00000120: 6931 74bd 8bcb 47be 2c4c bcbe 3559 54be
00000130: 2daa b73e 58d6 473d 6ac4 d6be 3804 203e
00000140: 06ff a9be 3770 87bd 97e1 bcbe c498 53be
00000150: 1dd4 683e ad6d 8abc 1b50 9abe 092f 703e
00000160: 5876 a53e e946 6e3e b900 a33d 7159 ef3d
00000170: 687c a93e ef59 39be 416c 55be a5c0 fdbd
00000180: b8ae cc3e a839 c63c 73da a13d ad38 34be
00000190: 34d0 6abe c40d d53e 30c3 7b3e f477 7cbe
000001a0: 1e56 503e 560f c7be 44c2 583e 2be6 03be
000001b0: e368 c33e c5d0 8dbe 90be 683e fe9e f83c
000001c0: 2fa0 09be 17cf a3be 17e3 66be cbcd c8be
000001d0: b8bb a1be 768f 563e 7ba4 313d c925 123e
000001e0: eaaa 9b3e 346c fc3c 24bc 413c 357d d0bc
000001f0: 048b 93be ac4d a83e 8413 5b3e 07c1 c1bc

layers.1.weight f4 [128, 128]
0.08995595 -0.055850208 0.110437684 -0.047516827 0.044402186 -0.051049963 -0.10200443 0.11166972
-0.13744242 0.100455776 -0.015593641 -0.09763887 -0.09524816 -0.13827461 0.021724353 -0.017501991
-0.071392596 -0.14783409 0.12498588 -0.06127484 -0.013832003 -0.009222343 0.059398133 0.006669285
0.119270205 -0.11270338 -0.114875 0.077523306 0.044770148 -0.060885675 -0.04997543 0.10482201
-0.05172655 -0.12395971 -0.095769204 0.028827393 0.06940438 0.12550148 0.15460245 -0.109025136
0.03734076 -0.10176517 -0.02105495 0.112893224 0.06499716 -0.044490993 0.0193386 -0.039150905
0.13293907 0.0817701 -0.11388037 -0.047499415 0.14011177 0.17499866 -0.06500647 -0.08870225
-0.07810157 -0.03747289 0.055077173 0.02711377 -0.09912942 -0.059952825 -0.010871236 0.1508446
0.02048944 0.12792224 0.106042795 0.1431287 0.069594264 -0.041565645 -0.04905404 0.0047288155
-0.077696644 -0.04173706 0.024931978 0.13597482 0.09091296 -0.0352127 0.06544742 -0.010408425
-0.020643517 -0.13594666 0.16132097 0.10539221 0.1024605 0.0071997126 0.03943496 0.0005215157
0.120626 0.10907172 -0.10021485 -0.04191731 -0.07757148 -0.04574839 -0.06451319 0.12704952
-0.11454897 -0.06277498 -0.15265352 0.07757625 0.10041299 -0.0922518 -0.004703485 -0.058028612
0.11625105 0.101337746 0.00487879 0.061743066 -0.14615929 0.022200055 -0.0072101247 0.06291377
0.13586225 -0.028505351 -0.094871745 -0.021418253 0.011886973 0.050220434 0.14657295 0.07930456
-0.13113438 0.048413347 0.050976716 0.14784405 0.14421265 0.06291724 -0.10957542 0.046376795
-0.13971128 0.064548336 0.08187558 0.0043579782 0.11202874 -0.09157383 -0.03331858 -0.069831245
0.04310844 0.04481536 -0.07572127 -0.07726536 -0.09690098 -0.018615639 0.006680864 -0.041967247
-0.03206939 -0.08397358 0.102575615 0.056376483 0.14054261 0.087662 0.09405174 0.02510306
0.02247366 0.13976766 0.119902216 -0.07271852 -0.13116951 -0.09465042 -0.10519314 -0.104693554
0.15410027 -0.14563325 0.08380891 -0.15629344 0.12590863 -0.18568222 0.115090266 -0.100142844
-0.11282878 0.09846377 -0.082502104 -0.014088096 -0.07055801 0.11414266 0.066357434 0.11439824
0.019396141 0.12548305 -0.05931259 -0.13091752 0.046883903 -0.1467925 0.14031932 -0.009535768
-0.11733707 0.17120855 0.05436813 -0.017026102 0.035732437 0.09918734 0.11563691 0.03303294
-0.1601815 -0.11358016 0.12631005 -0.009910666 -0.022715827 0.07353833 0.10898039 -0.11825839
-0.12304344 0.1269797 -0.058644097 -0.07782175 0.07650643 -0.051041324 -0.0038244778 -0.13084404
-0.057536993 0.064715326 0.03903783 -0.18382287 0.0759367 0.11170831 -0.032645926 -0.123677224
-0.043571096 0.04931085 -0.06600337 -0.052738395 -0.11404542 0.04819276 0.05200865 -0.12416094
0.054806784 0.11498481 -0.033940397 -0.094326064 -0.14855209 -0.09012114 -0.04399824 -0.018135324
-0.13255797 -0.10585404 -0.11929755 -0.036839016 -0.11520803 -0.117056035 0.08606774 0.05407253
-0.13860662 0.12073229 0.048158094 0.08231515 -0.06937441 -0.11398998 0.012905037 -0.09135649
0.11621277 0.098730154 -0.054366067 0.057498205 -0.1107343 0.10199445 0.08071466 0.0200977
00000000: d33a b83d 30c3 64bd 272d e23d 01a1 42bd
00000010: 11df 353d c419 51bd b3e7 d0bd 18b3 e43d
00000020: b5bd 0cbe c2bb cd3d 797c 7fbc e3f6 c7bd
00000030: 7811 c3bd dc97 0dbe 45f7 b13c 5660 8fbc
00000040: 4836 92bd d261 17be 99f8 ff3d 54fb 7abd
00000050: a09f 62bc 4f19 17bc 754b 733d 048a da3b
00000060: f043 f43d 08d1 e6bd 9643 ebbd 8ac4 9e3d
00000070: e760 373d 4263 79bd 09b3 4cbd ecac d63d
00000080: 38df 53bd 97de fdbd a522 c4bd 6d27 ec3c
00000090: e223 8e3d 7683 003e 1b50 1e3e 9248 dfbd
000000a0: a0f2 183d 426a d0bd 6e7b acbc 9034 e73d
000000b0: 3b1d 853d 303c 36bd fc6b 9e3c b35c 20bd
000000c0: 2e21 083e 1577 a73d 1d3a e9bd bf8e 42bd
000000d0: 7679 0f3e d932 333e 1d22 85bd 86a9 b5bd
000000e0: b7f3 9fbd 2c7d 19bd 9a98 613d b21d de3c
000000f0: 5e04 cbbd 1891 75bd 451d 32bc 0277 1a3e
00000100: 78d9 a73c 0cfe 023e f72c d93d 5490 123e
00000110: 7087 8e3d bd40 2abd e4ec 48bd 2ef4 9a3b
00000120: 6b1f 9fbd 7bf4 2abd 263e cc3c fc3c 0b3e
00000130: 9330 ba3d 313b 10bd 4c09 863d 1988 2abc
00000140: 981c a9bc 9a35 0bbe 5331 253e dfd7 d73d
00000150: d0d6 d13d 91eb eb3b 8d86 213d 54b6 083a
00000160: c40a f73d fe60 df3d 713d cdbd 7cb1 2bbd
00000170: ccdd 9ebd aa62 3bbd 7e1f 84bd 4519 023e
00000180: a698 eabd 2b90 80bd 3451 1cbe 4ce0 9e3d
00000190: 53a5 cd3d 83ee bcbd b11f 9abb 69af 6dbd
000001a0: 0815 ee3d 2a8a cf3d 42de 9f3b 4ce6 7c3d
000001b0: c8aa 15be e4dc b53c e942 ecbb efd8 803d
000001c0: 791f 0b3e 0e84 e9bc 1e4c c2bd 5575 afbc
000001d0: 94c1 423c f1b3 4d3d 3817 163e 6e6a a23d
000001e0: 1748 06be 134d 463d f6cc 503d 6e64 173e
000001f0: 7bac 133e c1da 803d 1469 e0bd 98f5 3d3d
00000200: 7910 0fbe eb31 843d 62ae a73d 5fcd 8e3b
00000210: 536f e53d 0f8b bbbd 1079 08bd af03 8fbd
00000220: 7a92 303d 5090 373d c113 9bbd 4d3d 9ebd
00000230: 0574 c6bd d37f 98bc 26eb da3b d9e5 2bbd
00000240: 315b 03bd 57fa abbd 2a13 d23d 07eb 663d
00000250: 67ea 0f3e 2288 b33d 339e c03d efa4 cd3c
00000260: ae1a b83c 411f 0f3e 4b8f f53d 73ed 94bd
00000270: 4d51 06be 14d8 c1bd 806f d7bd 9369 d6bd
00000280: 76cc 1d3e e220 15be 01a4 ab3d 630b 20be
00000290: 31ee 003e 7b23 3ebe 72b4 eb3d b117 cdbd
000002a0: c712 e7bd 5fa7 c93d ddf6 a8bd c2d1 66bc
000002b0: b880 90bd a0c3 e93d 68e6 873d a049 ea3d
000002c0: a8e4 9e3c a17e 003e c2f1 72bd 3e0f 06be
000002d0: 5609 403d c650 16be deaf 0f3e e93b 1cbc
000002e0: 6b4e f0bd 4b51 2f3e 1eb1 5e3d 537a 8bbc
000002f0: 2d5c 123d bb22 cb3d 0bd3 ec3d 8c4d 073d
00000300: 9e06 24be b79c e8bd 6c57 013e 5960 22bc
00000310: 8b16 babc 449b 963d 1c31 df3d 7431 f2bd
00000320: 33fe fbbd f706 023e cb34 70bd 0261 9fbd
00000330: 67af 9c3d b510 51bd 17a4 7abb fbfb 05be
00000340: e9ab 6bbd 7889 843d 22e6 1f3d 103c 3cbe
00000350: b384 9b3d 54c7 e43d bcb7 05bd 7c4a fdbd
00000360: 9b77 32bd 2dfa 493d c62c 87bd 3704 58bd
00000370: a590 e9bd c665 453d 0607 553d 1748 febd
00000380: 147d 603d 287d eb3d 1605 0bbd 062e c1bd
00000390: 0a1e 18be 6f91 b8bd 8037 34bd 8890 94bc
000003a0: 47bd 07be 01ca d8bd 4652 f4bd 82e4 16bd
000003b0: 30f2 ebbd 13bb efbd 4944 b03d 287b 5d3d
000003c0: e5ee 0dbe 7e42 f73d 6c41 453d d894 a83d
000003d0: 2c14 8ebd 9473 e9bd a66f 533c 1d19 bbbd
000003e0: f600 ee3d 0933 ca3d f4ae 5ebd 3d83 6b3d
000003f0: aac8 e2bd 77e2 d03d ba4d a53d efa3 a43c

layers.1.bias f4 [128]
0.026992254 0.0820823 0.07644728 -0.05413817 -0.07521205 -0.071577676 -0.00855195 0.08404791
-0.007206165 -0.014767853 0.021775465 0.028949615 0.0012809787 0.07736645 0.077427916 -0.003627391
0.031906586 0.069284976 -0.06881256 -0.017153926 -0.023090743 -0.065213375 -0.051645715 -0.003293564
-0.058370404 -0.0891858 0.08931955 0.037791558 0.03208991 0.021879904 0.047562227 -0.023779847
-0.029505704 -0.0026114595 -0.048332084 -0.086683325 -0.049128346 0.06543434 0.030668505 -0.088855736
0.0026792851 0.0077827815 0.08591758 0.119025126 -0.057126574 0.02231601 -0.030167472 0.023489324
-0.001678123 0.028727502 0.02668848 -0.0628923 0.017101292 0.0045057544 0.02665167 0.058245894
-0.09872069 0.079397894 0.08488976 0.03460151 0.077854514 -0.05555838 0.0738499 -0.10489727
-0.03503293 0.08508914 0.07279095 -0.079033144 -0.016454473 0.054179523 -0.033997107 0.038012274
0.006304931 0.064207196 -0.09085394 0.020823156 -0.057514653 -0.09046414 -0.043789543 -0.046272516
-0.05731889 -0.034777544 0.032437764 -0.029179677 -0.11796971 0.08294653 -0.012511953 0.020103827
-0.03129312 0.031574417 -0.078021824 -0.033808544 -0.03250857 -0.031070404 -0.04668268 0.07108011
-0.042786714 -0.06355865 -0.038605202 -0.03970842 0.02815426 0.030724315 -0.10154227 0.046317935
0.050647337 -0.060875546 -0.06433814 0.15594715 -0.0487379 0.06429941 -0.05932023 0.00045595344
-0.014766049 0.0641799 0.046792723 -0.040559802 0.031877343 -0.038216602 0.09466227 0.043579437
0.062828444 0.046598747 0.012419213 -0.0045023123 -0.07866269 0.05848683 -0.041973308 0.067439966
00000000: dc1e dd3c c41a a83d 6490 9c3d fcbf 5dbd
00000010: c608 9abd 5197 92bd 7a1d 0cbc 5021 ac3d
00000020: b221 ecbb ddf4 71bc 7662 b23c be27 ed3c
00000030: 83e6 a73a 4d72 9e3d 8792 9e3d 86b9 6dbb
00000040: 7bb0 023d 48e5 8d3d 99ed 8cbd 6486 8cbc
00000050: cc28 bdbc 978e 85bd 758a 53bd d6d8 57bb
00000060: ce15 6fbd 0ba7 b6bd 2bed b63d 52cb 1a3d
00000070: b670 033d 7c3d b33c 9cd0 423d f4cd c2bc
00000080: f2b5 f1bc 0525 2bbb ddf7 45bd 0787 b1bd
00000090: ce3a 49bd 7002 863d 843c fb3c fff9 b5bd
000000a0: f296 2f3b b406 ff3b 8ef5 af3d 72c3 f33d
000000b0: 8efd 69bd 11d0 b63c c621 f7bc af6c c03c
000000c0: 77f4 dbba f055 eb3c cda1 da3c aecd 80bd
000000d0: 0218 8c3c 02a5 933b 9a54 da3c 3f93 6e3d
000000e0: 132e cabd 5d9b a23d afda ad3d 50ba 0d3d
000000f0: 3072 9f3d 2f91 63bd 9e3e 973d 61d4 d6bd
00000100: b17e 0fbd 3743 ae3d 6c13 953d 21dc a1bd
00000110: 88cb 86bc 59eb 5d3d 8d40 0bbd c2b2 1b3d
00000120: 9899 ce3b 107f 833d a111 babd 5395 aa3c
00000130: 7c94 6bbd 4345 b9bd aa5c 33bd 4088 3dbd
00000140: 36c7 6abd e672 0ebd 76dd 043d 380a efbc
00000150: 1a9a f1bd dfdf a93d effe 4cbc c8b0 a43c
00000160: 372d 00bd 2d54 013d e8c9 9fbd d47a 0abd
00000170: b527 05bd 5c87 febc 5636 3fbd 7392 913d
00000180: 1f41 2fbd 0a2b 82bd 7d20 1ebd 4ca5 22bd
00000190: c3a3 e63c 8fb1 fb3c 65f5 cfbd e0b7 3d3d
000001a0: 9573 4f3d a358 79bd b7c3 83bd 9cb0 1f3e
000001b0: 64a1 47bd 69af 833d c5f9 72bd 090d ef39
000001c0: 4ced 71bc c070 833d baa9 3f3d 0922 26bd
000001d0: d191 023d 0389 1cbd 4bde c13d 5a80 323d
000001e0: 33ac 803d 54de 3e3d f479 4b3c 2288 93bb
000001f0: e819 a1bd e38f 6f3d 34ec 2bbd f71d 8a3d

layers.2.weight f4 [128, 128]
0.09528081 0.024342189 0.011983047 -0.038363557 -0.03798977 0.10106009 -0.013708364 0.010149359
-0.056745205 0.09499312 -0.040680178 -0.0036758617 0.020806901 0.10358153 0.11887754 0.11726019
0.038874134 -0.12889159 0.061319765 -0.078453176 -0.06356027 -0.00880415 -0.009892183 0.09272646
-0.13334408 -0.06208548 0.05702005 -0.09345114 -0.118007824 -0.11942801 -0.10159919 -0.1794648
-0.15037403 -0.15912244 0.054307662 -0.118838385 -0.036768205 -0.08386249 -0.027291073 0.07132718
-0.026571862 -0.13030589 0.053282652 0.120785415 0.071416266 -0.10740871 -0.1378676 -0.055642217
-0.038605284 0.032435082 -0.07275754 -0.11219683 0.034143828 0.09542741 -0.13060401 -0.06938376
0.09425949 -0.17457607 -0.0063686115 -0.037653226 -0.14525856 -0.06964514 0.09961485 -0.0526197
-0.065538034 0.10375153 0.054508455 -0.088784285 -0.030049097 -0.09619374 0.10195153 0.09685742
-0.13544264 0.14562786 -0.16607648 0.0772985 0.12672386 -0.124854594 -0.04927996 0.062747
-0.10841338 -0.03402481 -0.026914995 0.11065164 -0.031870082 -0.11549539 0.122034766 0.056304168
0.11057963 0.047661606 0.12510131 -0.06692023 -0.022988057 -0.104251735 -0.12608847 -0.14394458
0.08506587 -0.06982532 -0.049289837 0.028201092 -0.124783106 0.03637311 -0.0063748104 -0.16367535
0.12965973 -0.061925314 -0.09552417 0.14072448 0.1070729 0.03400279 0.084270254 0.10487213
-0.1031886 -0.030848345 0.11527391 -0.05249844 0.11212408 -0.02570116 0.043804668 -0.10764761
-0.0007961277 -0.08176498 -0.13312192 0.016383057 0.091367334 -0.009129299 -0.12916647 -0.14358902
0.15960225 -0.10754228 0.015578699 -0.08433194 -0.08240833 0.08969384 0.0045943195 0.08266074
-0.12347145 0.019598018 -0.13953726 0.0037665453 0.079598375 -0.09303147 -0.07721975 0.10364012
-0.026485091 -0.14898326 0.03035295 -0.081804484 0.013859819 0.0988267 -0.078362055 0.1495251
-0.009173749 -0.027968042 0.009556215 0.02277362 -0.059653617 0.048321947 0.13177745 0.1041326
-0.0072311563 0.07521995 -0.058507763 0.15659288 0.05783864 0.020531053 -0.038979817 0.046474475
0.13292034 0.15710087 0.103639014 0.122991554 -0.13186486 0.075965665 -0.13259014 0.08032077
-0.15359083 -0.012681108 0.04405801 0.08855339 -0.027308837 0.08769446 -0.13771565 0.059974525
0.043137025 -0.116047904 -0.072015576 -0.059318114 0.037316572 0.0720207 -0.09474156 -0.102248445
0.02321082 0.068752326 0.12632684 0.09596224 -0.041266702 -0.04344113 0.12651572 -0.07071519
0.071580835 -0.055717956 0.1335029 0.116969995 -0.013037197 -0.07642418 -0.100004405 -0.13443375
-0.15691848 0.10339795 -0.040590417 0.024803057 -0.025764855 0.085557655 -0.042631917 -0.009307226
0.03943845 0.0072854273 -0.0078608245 -0.1194976 -0.1240287 0.02962281 0.078458466 0.012185172
-0.07995636 0.07502591 0.06647371 0.11985981 0.10553496 -0.028606862 0.07719381 -0.123829976
-0.02659984 0.027798692 -0.053669374 -0.03606673 0.12623869 -0.10371954 0.031808093 0.0018350095
0.019261802 0.009278799 0.09512784 0.11547961 -0.10339228 0.088562086 -0.11579832 0.032399207
0.037065398 0.014344014 0.07122339 -0.03505116 0.098365374 0.050545104 0.14936626 0.12929684
00000000: 9622 c33d 4569 c73c 8b54 443c 1b23 1dbd
00000010: 299b 1bbd 98f8 ce3d 0c99 60bc 7f49 263c
00000020: a96d 68bd c18b c23d 42a0 26bd bae6 70bb
00000030: 3c73 aa3c 8e22 d43d 1176 f33d 1c26 f03d
00000040: 7c3a 1f3d 28fc 03be 6f2a 7b3d 0fac a0bd
00000050: e32b 82bd 483f 10bc d312 22bc 5fe7 bd3d
00000060: 5a8b 08be 584d 7ebd db8d 693d 5063 bfbd
00000070: 16ae f1bd ac96 f4bd 3c13 d0bd 9fc5 37be
00000080: a6fb 19be fef0 22be b671 5e3d 8a61 f3bd
00000090: 429a 16bd 19c0 abbd 8791 dfbc fc13 923d
000000a0: 3cad d9bc e86e 05be e93e 5a3d 585e f73d
000000b0: b142 923d 19f9 dbbd 2a2d 0dbe 18e9 63bd
000000c0: 9320 1ebd a6da 043d e801 95bd 74c7 e5bd
000000d0: 66da 0b3d 726f c33d 0fbd 05be 1319 8ebd
000000e0: 1f0b c13d 12c4 32be c9af d0bb 453a 1abd
000000f0: a9be 14be 1ca2 8ebd df02 cc3d c187 57bd
00000100: ce38 86bd af7b d43d 4244 5f3d 89d4 b5bd
00000110: 8629 f6bc 3901 c5bd f7cb d03d 2f5d c63d
00000120: 7ab1 0abe 781f 153e f40f 2abe ad4e 9e3d
00000130: e6c3 013e c4b3 ffbd c9d9 49bd 8081 803d
00000140: d607 debd 995d 0bbd d67c dcbc 549d e23d
00000150: 348a 02bd d988 ecbd 5ded f93d 339f 663d
00000160: 9377 e23d d138 433d 8f1a 003e 790d 89bd
00000170: 7351 bcbc ef81 d5bd 561d 01be 3566 13be
00000180: 0437 ae3d 9400 8fbd 24e4 49bd fa05 e73c
00000190: 498e ffbd f8fb 143d c9e3 d0bb 839a 27be
000001a0: 85c5 043e 66a5 7dbd 2da2 c3bd 141a 103e
000001b0: 0949 db3d 8246 0b3d e295 ac3d 33c7 d63d
000001c0: 8b54 d3bd abb5 fcbc ba14 ec3d 9b08 57bd
000001d0: 4fa1 e53d 3d8b d2bc 866c 333d 5a76 dcbd
000001e0: 3ab3 50ba 6674 a7bd 1d51 08be c335 863c
000001f0: cc1e bb3d 0e93 15bc 3744 04be 0009 13be
00000200: c66e 233e 203f dcbd cd3d 7f3c 39b6 acbd
00000210: b3c5 a8bd 67b1 b73d f28b 963b 094a a93d
00000220: 99de fcbd 068c a03c dbe2 0ebe 25d8 763b
00000230: 7904 a33d 4987 bebd 6325 9ebd 4541 d43d
00000240: 43f7 d8bc 118f 18be c0a6 f83c 1c89 a7bd
00000250: 4b14 633c a765 ca3d 497c a0bd 1c1d 193e
00000260: 7e4d 16bc 3c1d e5bc ac91 1c3c be8f ba3c
00000270: 5a57 74bd 3ced 453d abf0 063e 7943 d53d
00000280: 56f3 ecbb eb0c 9a3d d6a5 6fbd e259 203e
00000290: 36e8 6c3d bd30 a83c 4da9 1fbd 055c 3e3d
000002a0: 451c 083e 0ddf 203e b140 d43d ffe2 fb3d
000002b0: 9507 07be e393 9b3d b6c5 07be 377f a43d
000002c0: ea46 1dbe 6cc4 4fbc 2c76 343d 7b5b b53d
000002d0: c8b6 dfbc 2799 b33d 5505 0dbe d9a7 753d
000002e0: 73b0 303d 86aa edbd e77c 93bd 8df7 72bd
000002f0: 43d9 183d 977f 933d dd07 c2bd a267 d1bd
00000300: 9e24 be3c 05ce 8c3d d35b 013e da87 c43d
00000310: 4607 29bd 54ef 31bd 568d 013e 20d3 90bd
00000320: f998 923d 8338 64bd fcb4 083e f78d ef3d
00000330: f899 55bc 4884 9cbd 1ccf ccbd 00a9 09be
00000340: 3daf 20be 4ec2 d33d 2342 26bd c82f cb3c
00000350: d110 d3bc da38 af3d ce9e 2ebd 567d 18bc
00000360: 368a 213d 98ba ee3b b0ca 00bc 28bb f4bd
00000370: c202 febd 89ab f23c d5ae a03d 51a4 473c
00000380: 29c0 a3bd 2fa7 993d 5e23 883d 0f79 f53d
00000390: b722 d83d f058 eabc ca17 9e3d 929a fdbd
000003a0: e8e7 d9bc 15ba e33c 6bd4 5bbd b5ba 13bd
000003b0: b744 013e e96a d4bd 3449 023d b484 f03a
000003c0: edca 9d3c 1b06 183c 63d2 c23d 9380 ec3d
000003d0: 55bf d3bd 0a60 b53d ab27 edbd 08b5 043d
000003e0: e3d1 173d 2803 6b3c 92dd 913d ce91 0fbd
000003f0: c973 c93d 6208 4f3d 78f3 183e 6466 043e

layers.2.bias f4 [128]
-0.05239105 -0.023744166 0.04755883 0.10678343 -0.04367126 0.012179854 -0.083172195 0.059153244
-0.020826187 -0.04602623 0.08374054 -0.074684195 -0.08901778 0.005651129 -0.043877203 -0.056459505
-0.062468093 -0.06834199 0.017101586 -0.09206514 -0.05809554 0.07707098 -0.05425078 -0.0060008015
-0.06673328 -0.02302469 -0.094869606 0.022283502 0.0500696 -0.004957222 0.045554087 0.070692964
-0.016694486 -0.06519293 0.050127864 -0.07440847 -0.08773994 -0.018179687 -0.06353019 0.050016034
1.9097753e-07 0.048738047 -0.013506828 0.025923084 -0.03785203 -0.03149761 0.053947195 -0.024570048
-0.1091085 -0.06755581 -0.10290594 -0.0870312 -0.08239206 0.045148958 -0.09534605 -0.10611832
0.046255734 -0.040287677 -0.023726244 0.017189011 0.007457942 -0.032605827 0.020110324 0.082221076
0.077158265 -0.01685771 -0.02460118 -0.028343523 -0.08534676 0.1033869 0.06486324 0.01713977
0.030401569 -0.019112583 -0.017571334 -0.06362263 0.07068212 -0.063580304 0.10591759 0.02591848
-0.075382136 0.0008029562 0.051650062 -0.016867865 -0.055251997 0.09206283 0.05215127 -0.08164262
-0.07205248 -0.0027001614 0.025867835 0.04561959 -0.0801982 0.01170841 0.044412147 0.057665996
0.020061873 -0.0969422 -0.06730619 0.0030161587 -0.066663094 -0.09687496 0.009193176 -0.046567302
-0.01361135 0.047549248 -0.033555217 0.026118213 -0.073488176 -0.06966442 0.13301794 0.09034077
-0.09511672 0.01456081 -0.08695145 -0.0783474 -0.08449847 0.05331905 -0.060602035 -0.055486694
0.093830794 -0.025210695 -0.073218144 -0.06681178 0.04007084 0.09456657 -0.06901951 -0.05566267
00000000: ff97 56bd 2083 c2bc 0ccd 423d 45b1 da3d
00000010: a3e0 32bd 038e 473c 2f56 aabd ac4a 723d
00000020: ae9b aabc 0086 3cbd 2980 ab3d 07f4 98bd
00000030: f44e b6bd 1b2d b93b 95b8 33bd 1542 67bd
00000040: 8bde 7fbd e3f6 8bbd a018 8c3c a68c bcbd
00000050: 97f5 6dbd 64d7 9d3d 1136 5ebd 5fa2 c4bb
00000060: 75ab 88bd 469e bcbc ff4a c2bd e48b b63c
00000070: c815 4d3d 3170 a2bb ec96 3a3d 79c7 903d
00000080: e0c2 88bc df83 85bd e052 4d3d 7863 98bd
00000090: ffb0 b3bd 91ed 94bc 1e1c 82bd 9ddd 4c3d
000000a0: 810f 4d34 8ca1 473d be4b 5dbc a65c d43c
000000b0: bb0a 1bbd a303 01bd bcf7 5c3d 2047 c9bc
000000c0: 4774 dfbd b35a 8abd 59c0 d2bd 6a3d b2bd
000000d0: 2bbd a8bd 1dee 383d ca44 c3bd 9054 d9bd
000000e0: a776 3d3d b104 25bd 8a5d c2bc f8cf 8c3c
000000f0: c061 f43b b08d 05bd 68be a43c 8663 a83d
00000100: 2705 9e3d 2e19 8abc 6a88 c9bc ad30 e8bc
00000110: 48ca aebd 83bc d33d 05d7 843d b468 8c3c
00000120: b60c f93c fe91 9cbc c2f1 8fbc 954c 82bd
00000130: cac1 903d 6436 82bd 52eb d83d fe52 d43c
00000140: f361 9abd 7a7d 523a 048f 533d 7a2e 8abc
00000150: eb4f 62bd 708b bc3d 929c 553d 3f34 a7bd
00000160: 4090 93bd 31f5 30bb c8e8 d33c 9bdb 3a3d
00000170: f43e a4bd a2d4 3f3c 83e9 353d 2e33 6c3d
00000180: cc58 a43c a289 c6bd d4d7 89bd bfaa 453b
00000190: a986 88bd 6166 c6bd fa9e 163c 5bbd 3ebd
000001a0: 2402 5fbc 00c3 423d 3271 09bd ddf5 d53c
000001b0: f880 96bd 38ac 8ebd db35 083e 9504 b93d
000001c0: 8ecc c2bd 7790 6e3c 9a13 b2bd 9a74 a0bd
000001d0: 890d adbd 1465 5a3d d739 78bd 0446 63bd
000001e0: 5c2a c03d a986 cebc 65f3 95bd 9dd4 88bd
000001f0: 5221 243d 1eac c13d 1a5a 8dbd 8afe 63bd

layers.3.weight f4 [128, 128]
-0.13692735 0.0099099055 0.07854435 0.14460945 0.025151271 0.12018587 0.106534444 -0.084732905
0.10894786 0.13099395 -0.10475508 -0.018615998 0.10824996 -0.14314502 0.083070725 -0.096245274
-0.016372122 0.1695659 -0.11004365 -0.041693296 -0.07646289 -0.02427556 -0.09458389 -0.13457592
-0.04843089 0.015177899 -0.11803615 0.07336421 -0.112948775 0.14547314 -0.0072636236 -0.07642735
-0.09956369 0.04264565 -0.09777017 0.105142094 0.14393851 0.16802219 -0.020899633 0.08600301
-0.013355279 -0.15389879 -0.11217547 -0.04071572 -0.004615471 0.048524804 0.008806957 0.13411295
0.06004618 -0.14609861 0.069890924 0.034379467 0.10035902 -0.17283551 0.053367294 0.06583431
0.12489552 0.11682533 -0.1351229 -0.12351623 0.036370054 0.096900366 0.12560321 -0.09738355
-0.15320124 0.049664963 0.012459467 -0.10380225 0.071099594 -0.088423334 0.04798762 -0.15127556
-0.02589512 0.06145141 -0.04292199 0.03955773 -0.07684674 -0.073118 -0.007326588 -0.0013169837
0.071741864 -0.07970271 0.0017310588 -0.080150284 0.020124082 -0.12347562 0.12368305 0.07647548
0.10362696 -0.13998872 -0.15953344 0.0019204167 0.009353993 -0.09902083 -0.1216964 -0.029295752
-0.059246294 -0.04357729 0.042232618 -0.007784233 0.07896214 -0.06332597 -0.033806324 -0.031088317
0.01946935 -0.06731909 -0.16063985 -0.15780015 -0.15841925 -0.036234006 0.10428659 0.047229145
0.04768972 0.0139991995 0.13880472 0.07265921 -0.032173403 0.14163123 -0.025873976 0.030673314
0.038260836 -0.06756498 0.15329938 0.13333154 0.0797118 -0.097353004 0.10401127 -0.055201784
0.045633126 -0.12828545 0.096033685 0.16697748 -0.05932535 0.08704207 0.062583946 0.12313835
-0.01104859 -0.06042319 -0.13687882 -0.015955864 0.13119471 0.013944448 0.039005525 0.09430548
-0.03432296 -0.013976225 0.11025709 0.14059804 0.121645704 0.040879484 -0.1300036 0.13862664
0.0024345098 0.0004302756 -0.004000907 0.11178628 -0.09115739 -0.104521304 0.035459895 0.11803881
0.06301146 0.1447667 0.098328084 0.07055939 -0.029451365 -0.021013249 -0.08883487 0.038638134
0.17060448 0.046615735 0.048255336 0.025743255 0.001088129 0.06511572 0.1146301 0.02195839
0.087300785 0.14696772 -0.07335244 0.13525413 -0.15677293 0.08364579 -0.062761 0.09628194
0.044499233 -0.063372105 0.13251941 -0.15008698 0.016917262 0.1468351 -0.14697635 0.13293096
-0.11812929 -0.03718541 -0.01147491 -0.0046574157 0.10086748 0.085027464 -0.1046181 -0.15775602
0.13425753 -0.05456951 0.13029881 0.060426246 0.028680023 0.14492318 0.08916647 0.002729029
0.13163461 0.112128906 -0.09624616 0.1210436 -0.108672656 0.10239738 0.05931167 -0.048612393
0.13248453 0.03631674 0.09981932 0.010945344 -0.08064284 -0.058535747 -0.007977539 -0.028969906
0.026539307 -0.07909999 0.077118814 0.12001341 -0.014045378 0.058894224 -0.12349691 0.030871874
-0.08067101 0.11366171 0.11482656 0.11438193 -0.0044100443 -0.09111658 0.14727488 -0.13888493
0.0001567706 0.03678349 0.062845066 -0.08625339 0.04728657 -0.01307674 0.062321678 0.112901226
-0.062324233 0.013184813 -0.14531383 0.05346465 -0.08370008 0.081621155 0.016877253 -0.015353191
00000000: af36 0cbe 285d 223c dcdb a03d 8014 143e
00000010: 0a0a ce3c 0224 f63d bb2e da3d 7288 adbd
00000020: 0e20 df3d 4723 063e d589 d6bd 9480 98bc
00000030: 28b2 dd3d 9c94 12be fc20 aa3d 3e1c c5bd
00000040: d41e 86bc afa2 2d3e 915e e1bd 97c6 2abd
00000050: 9398 9cbd 8add c6bc 33b5 c1bd 45ce 09be
00000060: 785f 46bd b9ac 783c f0bc f1bd fa3f 963d
00000070: b051 e7bd e9f6 143e b103 eebb f185 9cbd
00000080: 0ce8 cbbd 35ad 2e3d ba3b c8bd bd54 d73d
00000090: 9e64 133e 020e 2c3e b535 abbc 5922 b03d
000000a0: 1ad0 5abc a597 1dbe 41bc e5bd 87c5 26bd
000000b0: 613d 97bb f2c1 463d 0e4b 103c e854 093e
000000c0: fcf2 753d e09a 15be f922 8f3d 7cd1 0c3d
000000d0: 0889 cd3d cbfb 30be aa97 5a3d 24d4 863d
000000e0: 39c9 ff3d 1e42 ef3d a85d 0abe 14f6 fcbd
000000f0: c4f8 143d b373 c63d 219e 003e 0771 c7bd
00000100: c9e0 1cbe 7d6d 4b3d cb22 4c3c 4696 d4bd
00000110: aa9c 913d 4b17 b5bd ab8e 443d fbe7 1abe
00000120: 0122 d4bc 79b4 7b3d f8ce 2fbd 4907 223d
00000130: d361 9dbd e4be 95bd e013 f0bb a49e acba
00000140: 66ed 923d 2d3b a3bd b2e4 e23a d525 a4bd
00000150: 42db a43c c9e0 fcbd 8a4d fd3d 2d9f 9c3d
00000160: 5f3a d43d 3459 0fbe bc5c 23be 7eb6 fb3a
00000170: 7e41 193c 6fcb cabd f63b f9bd a5fd efbc
00000180: 3eac 72bd 1a7e 32bd 1cfc 2c3d e112 ffbb
00000190: e7b6 a13d 0cb1 81bd 8078 0abd edac febc
000001a0: 307e 9f3c 97de 89bd c67e 24be 5d96 21be
000001b0: a838 22be 1c6a 14bd 3594 d53d 5973 413d
000001c0: 4c56 433d e65c 653c d322 0e3e 5ace 943d
000001d0: 42c8 03bd c707 113e a9f5 d3bc 9a46 fb3c
000001e0: 65b7 1c3d 825f 8abd 83fa 1c3e 1088 083e
000001f0: f13f a33d 0361 c7bd dc03 d53d 441b 62bd
00000200: cde9 3a3d 435d 03be 4fad c43d 25fc 2a3e
00000210: 23ff 72bd 1d43 b23d 032c 803d f62f fc3d
00000220: 2505 35bc 4f7e 77bd f629 0cbe dfb5 82bc
00000230: e857 063e 4177 643c 42c4 1f3d 3b23 c13d
00000240: 3b96 0cbd 89fc 64bc 78ce e13d eff8 0f3e
00000250: 6221 f93d 3f71 273d aa1f 05be 24f4 0d3e
00000260: 4c8c 1f3b 9d96 e139 0a1a 83bb 35f0 e43d
00000270: bab0 babd 440f d6bd 653e 113d 55be f13d
00000280: 270c 813d b93d 143e 3c60 c93d 7181 903d
00000290: fd43 f1bc fa23 acbc 0eef b5bd 0543 1e3d
000002a0: f1b2 2e3e 24f0 3e3d 63a7 453d 85e3 d23c
000002b0: 8d9f 8e3a 645b 853d 30c3 ea3d 15e2 b33c
000002c0: c1ca b23d b57e 163e ce39 96bd 0f80 0a3e
000002d0: 1589 20be 7c4e ab3d d788 80bd 772f c53d
000002e0: d444 363d 3cc9 81bd 2bb3 073e 67b0 19be
000002f0: 1296 8a3c f15b 163e f880 16be 0e1f 083e
00000300: c5ed f1bd ba4f 18bd 4301 3cbc 3c9d 98bb
00000310: 9c93 ce3d e122 ae3d 0442 d6bd cb8a 21be
00000320: ce7a 093e 4784 5fbd 0d6d 053e 8381 773d
00000330: 5ef2 ea3c be66 143e e99c b63d 82d9 323b
00000340: 39cb 063e d7a3 e53d b51c c5bd b5e5 f73d
00000350: c58f debd b8b5 d13d cbf0 723d ca1d 47bd
00000360: 06aa 073e ddc0 143d 126e cc3d 1a54 333c
00000370: 1328 a5bd 2ec3 6fbd 39b4 02bc 4c52 edbc
00000380: f668 d93c 2dff a1bd 78f0 9d3d 97c9 f53d
00000390: 961e 66bc 123b 713d f3eb fcbd 03e7 fc3c
000003a0: d836 a5bd 78c7 e83d 302a eb3d 1341 ea3d
000003b0: 2282 90bb 549b babd 3acf 163e da37 0ebe
000003c0: ca62 2439 49aa 163d eab4 803d 9ea5 b0bd
000003d0: 90af 413d d33f 56bc 0445 7f3d c238 e73d
000003e0: b247 7fbd 1d05 583c 26cd 14be c0fd 5a3d
000003f0: f36a abbd fe28 a73d 2a42 8a3c f38b 7bbc

layers.3.bias f4 [128]
-0.09725058 -0.08064085 -0.017480474 0.01134916 -0.049606245 -0.07123064 -0.014716677 -0.008951768
0.020037528 0.09682917 0.036216132 0.08539057 0.05961505 0.05772922 -0.018176008 -0.07926132
-0.04301198 -0.00673075 0.014391799 0.032277633 -0.010281166 -0.05636525 -0.029136818 -0.046100695
-0.04493129 -0.04876243 0.021516811 -0.10113563 0.023298254 -0.07946695 -0.058909766 -0.09537139
0.04053522 0.09699295 -0.08312126 0.057258382 -0.043469667 0.022945678 0.042106077 -0.021997856
0.0071956725 -0.055672225 -0.057491265 0.07854663 -0.0051694834 0.011173229 0.016665868 -0.042861834
0.06735359 0.0025669755 0.04256912 0.07478472 0.061097085 -0.08431612 0.06750997 0.015192972
-0.04291805 -0.062402196 0.009674689 -0.0023520896 0.0036664705 -0.03458381 -0.006007101 0.0523741
-0.0494421 -0.03395233 -0.011329686 0.07272168 0.022525724 0.07051053 -0.023400884 -0.016144799
0.030123785 -0.043188173 -0.08201113 0.08178497 0.0025904137 -0.004722523 0.061005212 0.058513984
-0.031473845 -0.03966992 -0.050633457 0.07454065 -0.03853413 -0.0497074 -0.025715025 0.05513811
0.029038271 -0.03965902 -0.020206053 0.08515292 0.070401765 0.057856753 -0.05842801 -0.028266603
-0.044557903 0.08375234 -0.04590548 -0.04524714 0.050109327 -0.08840926 0.03149156 0.018830393
0.08070806 0.06302431 0.034627624 0.09731717 0.018746253 0.049575005 -0.109282695 0.051210355
0.020771194 0.045481913 -0.01664584 -0.0019733482 -0.069986664 -0.08717246 -0.038192388 -0.06986254
0.011378306 0.005647354 -0.08223927 0.084374584 -0.00014743087 0.012874395 -0.04819092 0.05638429
00000000: 502b c7bd 0827 a5bd 3633 8fbc d4f1 393c
00000010: eb2f 4bbd 5fe1 91bd 381e 71bc 70aa 12bc
00000020: be25 a43c 5f4e c63d 5e57 143d 40e1 ae3d
00000030: e92e 743d 7975 6c3d dae5 94bc c253 a2bd
00000040: 542d 30bd a08d dcbb 95cb 6b3c 8d35 043d
00000050: 5672 28bc 40df 66bd 56b0 eebc 15d4 3cbd
00000060: df09 38bd 1dbb 47bd 0644 b03c 3220 cfbd
00000070: fbdb be3c 91bf a2bd 5e4b 71bd 1352 c3bd
00000080: 4208 263d 3da4 c63d 7b3b aabd c487 6a3d
00000090: 400d 32bd 93f8 bb3c 6c77 2c3d d934 b4bc
000000a0: adc9 eb3b 8f08 64bd f67b 6bbd 0edd a03d
000000b0: c564 a9bb eb0f 373c dc86 883c e48f 2fbd
000000c0: aef0 893d b43a 283b f55c 2e3d bb28 993d
000000d0: f040 7a3d eead acbd ab42 8a3d f1eb 783c
000000e0: d6ca 2fbd 7299 7fbd 9682 1e3c 8425 1abb
000000f0: 2b49 703b c1a7 0dbd 37d7 c4bb 3986 563d
00000100: cd83 4abd 9911 0bbd 26a0 39bc 1bef 943d
00000110: de87 b83c d367 903d 36b3 bfbc 1942 84bc
00000120: 28c6 f63c 15e6 30bd 74f5 a7bd e17e a73d
00000130: eec3 293b 65bf 9abb 9ae0 793d 5cac 6f3d
00000140: b8ea 00bd ed7c 22bd 0765 4fbd c5a8 983d
00000150: f7d5 1dbd fd99 4bbd 51a8 d2bc 80d8 613d
00000160: abe1 ed3c 7f71 22bd 2a87 a5bc a764 ae3d
00000170: cd2e 903d 34fb 6c3d 3652 6fbd 5d8f e7bc
00000180: 5982 36bd 5986 ab3d 6207 3cbd 1155 39bd
00000190: 703f 4d3d ea0f b5bd 4bfd 003d 3242 9a3c
000001a0: 444a a53d e412 813d b2d5 0d3d 394e c73d
000001b0: be91 993c 290f 4b3d 9bcf dfbd f3c1 513d
000001c0: 5a28 aa3c 3e4b 3a3d db5c 88bc 4a53 01bb
000001d0: 2b55 8fbd 7a87 b2bd 9f6f 1cbd 1714 8fbd
000001e0: 136c 3a3c 700d b93b 106d a8bd 95cc ac3d
000001f0: ac97 1ab9 20ef 523c d863 45bd 37f3 663d

layers.4.weight f4 [128, 128]
-0.0023900499 0.009360152 -0.08555293 0.011442403 0.13261937 -0.12725808 0.07619364 -0.03913786
-0.10802567 -0.07877554 0.13612047 -0.12133113 -0.09266268 0.008401571 0.045248795 -0.100122996
0.12627496 0.16164593 -0.033296745 0.07816933 0.03232234 -0.11767217 -0.143744 -0.06701841
-0.016092656 -0.08077628 -0.034764282 -0.109872624 0.025296483 -0.04907863 0.07841602 0.04549326
-0.13004936 -0.13900347 0.08147398 0.0029139647 0.107592106 0.06815876 0.05255249 -0.07589746
0.087064125 0.1229209 0.016836943 -0.040242977 0.027416399 -0.1514559 -0.13725092 0.13593732
-0.10921356 0.118206576 0.12183917 0.13789636 0.12919578 -0.109124504 0.12546568 -0.094116665
0.04929063 0.052147347 0.12239942 0.12473022 0.081411526 -0.052812032 -0.15124668 0.00084969896
-0.037409075 0.03861944 -0.07675052 -0.14312363 -0.122120164 -0.022546502 -0.07621941 -0.05473893
-0.07813757 -0.139971 -0.02471003 0.06896608 0.016469903 0.076035246 -0.057429314 -0.093124256
-0.12431336 -0.01103976 0.04295456 0.045358554 0.062605426 -0.022014707 0.024818024 0.12789293
-0.0048325816 -0.04729363 -0.11199161 -0.06793511 -0.13698494 -0.009535331 -0.051722776 -0.105278805
-0.075856596 -0.08396526 -0.1573653 0.14538063 -0.06567833 0.022359738 -0.09140377 -0.13744982
-0.10974017 -0.06918534 -0.036936812 -0.031482168 -0.10703939 -0.045708355 -0.09959171 -0.12348139
0.076191954 -0.12917623 -0.1395389 0.0011010158 -0.048095204 0.12342778 -0.06874451 0.119547255
0.015939193 -0.06231009 -0.01780662 0.07214054 0.031994488 -0.07465423 0.019854693 0.012349902
-0.03366589 -0.15108953 0.043731105 0.09584427 0.052820407 -0.016946014 0.055146173 -0.1039294
-0.13962588 0.09024426 -0.043541286 -0.022059456 -0.05750794 -0.028469047 -0.12777843 -0.11624955
-0.0962192 0.046019047 -0.021713212 -0.018752301 0.12725765 -0.0061927983 -0.012012528 -0.016994277
-0.14247286 0.045754094 0.012678966 0.06588259 -0.094161026 -0.04279837 -0.06302359 0.06640917
-0.021215826 -0.13749133 0.09528303 0.099942155 0.09478172 0.012482132 -0.09998216 0.097877294
-0.10137631 0.0071605383 -0.04090592 -0.028955277 -0.098168366 0.092620894 0.1613564 0.06680298
0.14882885 0.09959802 -0.10688428 -0.018337827 -0.017329572 0.10616226 0.098059386 -0.0030594892
-0.031219475 0.08382222 0.08307506 -0.01901222 -0.050483435 -0.14067955 0.06872748 0.13060392
0.12912107 0.06126792 -0.093313225 0.020955052 -0.061728507 -0.077352084 0.11363121 0.0057999906
-0.051154282 0.1400832 0.017067378 -0.114023894 -0.06950547 -0.0029486364 0.027959423 0.10180885
0.114018485 -0.10530424 -0.09910247 0.10884959 -0.14419766 0.021886015 -0.05339964 -0.11079684
-0.0025715956 -0.068163216 0.08285129 0.08480471 0.047886644 0.016523035 0.12575316 -0.019550066
0.050768342 0.037995383 -0.11881074 -0.1212197 0.074634954 0.09813707 0.019486066 -0.14056318
0.1138294 -0.031431265 -0.039245345 -0.091766156 0.0777744 -0.08106636 -0.11422808 0.06174102
0.092999026 -0.11671534 -0.011157987 -0.10495142 -0.12936728 0.1424622 -0.059322048 -0.08135402
0.05538777 -0.086515866 -0.025090175 -0.027509095 0.02847747 0.045990705 0.085864216 0.14458258
00000000: 62a2 1cbb 535b 193c 6036 afbd eb78 3b3c
00000010: 5fcd 073e f14f 02be 690b 9c3d 054f 20bd
00000020: 903c ddbd 1255 a1bd 2a63 0b3e 757c f8bd
00000030: eec5 bdbd bea6 093c cd56 393d 490d cdbd
00000040: 394e 013e 8386 253e 2b62 08bd 3e17 a03d
00000050: 6e64 043d 1bfe f0bd a131 13be f340 89bd
00000060: bfd4 83bc 096e a5bd fe64 0ebd e604 e1bd
00000070: 923a cf3c ac06 49bd 9498 a03d 2457 3a3d
00000080: a92b 05be ed56 0ebe d4db a63d 37f8 3e3b
00000090: 4059 dc3d d296 8b3d 4841 573d 2170 9bbd
000000a0: ad4e b23d f4bd fb3d a1ed 893c d2d5 24bd
000000b0: 5b98 e03c 4117 1bbe 818b 0cbe 2733 0b3e
000000c0: 5cab dfbd 4a16 f23d d186 f93d b434 0d3e
000000d0: e64b 043e ab7c dfbd 137a 003e 3dc0 c0bd
000000e0: f9e4 493d 7598 553d 8cac fa3d 8f72 ff3d
000000f0: 16bb a63d 6e51 58bd 69e0 1abe 55be 5e3a
00000100: 423a 19bd 6b2f 1e3d 602f 9dbd 008f 12be
00000110: 231a fabd 71b3 b8bc ec18 9cbd ee35 60bd
00000120: 9706 a0bd 8f54 0fbe b06c cabc 173e 8d3d
00000130: e4eb 863c 5eb8 9b3d 003b 6bbd eeb7 bebd
00000140: 0198 febd 1ce0 34bc 1ff1 2f3d e4c9 393d
00000150: 4637 803d 3058 b4bc 2b4f cb3c 5df6 023e
00000160: a25a 9ebb f7b6 41bd db5b e5bd 9021 8bbd
00000170: c845 0cbe 143a 1cbc 43db 53bd 6a9c d7bd
00000180: b45a 9bbd faf5 abbd 5f24 21be a9de 143e
00000190: 5c82 86bd c52b b73c e631 bbbd a5bf 0cbe
000001a0: 74bf e0bd 0bb1 8dbd 0e4b 17bd 72f3 00bd
000001b0: 7837 dbbd af38 3bbd bdf6 cbbd d0e3 fcbd
000001c0: 870a 9c3d c646 04be 49e3 0ebe f64f 903a
000001d0: 7aff 44bd b4c7 fc3d ecc9 8cbd 31d5 f43d
000001e0: e992 823c dd38 7fbd 30df 91bc 6bbe 933d
000001f0: a70c 033d 51e4 98bd 4fa6 a23c 3e57 4a3c
00000200: 3fe5 09bd 37b7 1abe 631f 333d 004a c43d
00000210: 365a 583d 5ed2 8abc f4e0 613d f0d8 d4bd
00000220: 16fa 0ebe fcd1 b83d 5958 32bd 08b6 b4bc
00000230: 728d 6bbd eb37 e9bc 59d8 02be 3e14 eebd
00000240: 920e c5bd 787e 3c3d e8df b1bc 6d9e 99bc
00000250: d44f 023e f5ec cabb 32d0 44bc 9537 8bbc
00000260: 68e4 11be a568 3b3d 70bb 4f3c 74ed 863d
00000270: 7fd7 c0bd 584d 2fbd 8312 81bd 8801 883d
00000280: d0cc adbc 87ca 0cbe c023 c33d 79ae cc3d
00000290: eb1c c23d db81 4c3c 72c3 ccbd e473 c83d
000002a0: 629e cfbd f3a2 ea3b f78c 27bd 9e33 edbc
000002b0: 7f0c c9bd 06b0 bd3d 9d3a 253e 00d0 883d
000002c0: 9766 183e 0cfa cb3d 25e6 dabd 3639 96bc
000002d0: bff6 8dbc 996b d93d 5cd3 c83d b681 48bb
000002e0: fcbf ffbc fcaa ab3d 4223 aa3d 84bf 9bbc
000002f0: b8c7 4ebd 4d0e 10be fec0 8c3d 09bd 053e
00000300: 5038 043e 12f4 7a3d 011b bfbd eea9 ab3c
00000310: 08d7 7cbd c56a 9ebd 7bb7 e83d d90d be3b
00000320: 2787 51bd f871 0f3e e3d0 8b3c 5c85 e9bd
00000330: e258 8ebd e93d 41bb 290b e53c 2981 d03d
00000340: 8682 e93d c0a9 d7bd 3cf6 cabd 89ec de3d
00000350: 8da8 13be 4d4a b33c 95b9 5abd 74e9 e2bd
00000360: 3788 28bb 2899 8bbd f0ad a93d 17ae ad3d
00000370: c924 443d 515b 873c 70c5 003e 7627 a0bc
00000380: 77f2 4f3d 0ca1 1b3d 0c53 f3bd 0942 f8bd
00000390: 36da 983d 17fc c83d 3ea1 9f3c cbef 0fbe
000003a0: 631f e93d 12be 00bd babf 20bd e5ef bbbd
000003b0: 2f48 9f3d 1f06 a6bd 69f0 e9bd 27e4 7c3d
000003c0: 4676 be3d 7408 efbd fdcf 36bc c5f0 d6bd
000003d0: db78 04be 9ce1 113e adfb 72bd f09c a6bd
000003e0: 49de 623d 3b2f b1bd e989 cdbc c15a e1bc
000003f0: 9549 e93c c060 3c3d 94d9 af3d 750d 143e

layers.4.bias f4 [128]
0.013887798 0.05365438 0.05017354 0.026784236 -0.06937363 0.079317406 -0.0016152682 0.012310183
-0.0921136 -0.0467805 0.07462611 0.030696211 0.09557169 -0.014495446 -0.00156091 -0.066318594
-0.02590563 0.02489867 0.029961264 -0.02033418 0.010887459 0.021603987 -0.017902613 0.09184027
-0.0027957626 -0.092893794 0.018239021 0.09523549 0.008919621 0.033939928 -0.009379385 -0.01584617
-0.041006558 -0.008902964 -0.010456506 -0.027556058 0.062606096 0.017432941 0.015143284 0.040456872
-0.08590914 0.037332915 0.06401608 -0.0016753012 -0.073397785 -0.06272261 -0.04652218 -0.027803294
0.059754826 0.018020816 0.040489655 -0.038845267 0.12060565 0.06967297 -0.064826064 0.015427522
-0.06686442 0.069388166 -0.044274576 0.060078457 0.05700366 -0.014957503 0.036627024 0.027210157
0.06578849 0.0044610985 0.071593195 0.057893835 -0.049833346 0.064274445 -0.07403013 -0.0011684623
-0.034055047 0.056196626 -0.054819252 0.016828276 -0.052839693 -0.084270105 0.09239505 0.0020130845
-0.042426825 -0.04864903 -0.03754658 -0.062049657 0.0047462233 -0.07153928 0.019817092 -0.07657186
0.014759573 0.044319563 -0.06619202 0.060776297 0.010349781 0.03734309 0.048716065 -0.064159036
0.08706525 0.0851513 -0.035545677 0.064456135 0.038924173 0.023190252 -0.0869118 0.04451816
-0.058440946 -0.04695052 -0.06276498 -0.041555077 0.047963813 -0.014165707 -0.012121421 0.033994317
0.010356468 -0.04272242 0.063691966 -0.07468882 0.06698325 -0.04217199 0.0017766972 0.0343382
-0.0048301294 -0.029437372 0.041908015 0.05570403 0.049755093 0.052233823 0.023187004 0.042883605
00000000: a689 633c b2c4 5b3d c582 4d3d 9d6a db3c
00000010: c313 8ebd 2a71 a23d 68b7 d3ba a6b0 493c
00000020: 0ea6 bcbd e99c 3fbd 93d5 983d 9f76 fb3c
00000030: 17bb c33d 4f7e 6dbc 7397 ccba 0bd2 87bd
00000040: 0b38 d4bc 4cf8 cb3c 5371 f53c de93 a6bc
00000050: 5061 323c d8fa b03c 80a8 92bc c016 bc3d
00000060: 1d39 37bb 1a3f bebd 006a 953c d30a c33d
00000070: 9a23 123c 9804 0b3d feab 19bc d4cf 81bc
00000080: 7ef6 27bd bddd 11bc c451 2bbc 3ebd e1bc
00000090: a037 803d 87cf 8e3c 891b 783c 1bb6 253d
000000a0: 22f1 afbd 66ea 183d dd1a 833d c895 dbba
000000b0: 9451 96bd b674 80bd 0b8e 3ebd bcc3 e3bc
000000c0: 7ac1 743d 64a0 933c 7bd8 253d 371c 1fbd
000000d0: 1800 f73d b4b0 8e3d 87c3 84bd b8c3 7c3c
000000e0: 37f0 88bd 621b 8e3d 4259 35bd d414 763d
000000f0: ab7c 693d 5110 75bc 3806 163d d6e7 de3c
00000100: 1ebc 863d 682e 923b 749f 923d 1622 6d3d
00000110: 0d1e 4cbd 52a2 833d 1c9d 97bd 1727 99ba
00000120: 4e7d 0bbd 6f2e 663d 278a 60bd 74db 893c
00000130: 6f6e 58bd ce95 acbd 9e39 bd3d f4ed 033b
00000140: c0c7 2dbd 3544 47bd 71ca 19bd c827 7ebd
00000150: 3586 9b3b 3083 92bd 7457 a23c b5d1 9cbd
00000160: 23d2 713c 6e88 353d af8f 87bd 91f0 783d
00000170: 2192 293c 11f5 183d 7f8a 473d d065 83bd
00000180: 444f b23d ce63 ae3d 5898 11bd 9401 843d
00000190: f46e 1f3d 7cf9 bd3c d0fe b1bd ad58 363d
000001a0: c65f 6fbd 304f 40bd ed8a 80bd a835 2abd
000001b0: b475 443d 4817 68bc ed98 46bc a03d 0b3d
000001c0: 2dae 293c b4fd 2ebd ef70 823d 74f6 98bd
000001d0: 842e 893d 89bc 2cbd 11e0 e83a 36a6 0c3d
000001e0: 1046 9ebb a526 f1bc bda7 2b3d e929 643d
000001f0: ffcb 4b3d 22f3 553d acf2 bd3c b8a6 2f3d
