model_B/pinn_model162.pth (torch, 472610 bytes, 17 tensors)

layers.0.weight f4 [128, 6]
000000 6c 24 2f 3e 28 f1 dc bd c9 fe 51 3e a3 1f 37 be
       0.17103738 -0.107881844 0.20507349 -0.17883162
000010 ad 09 71 3d 54 69 1a 3d 03 74 02 3e db 49 e1 3d
       0.05884712 0.037698105 0.12739567 0.11000415
000020 7e 45 d2 bd 81 de 1b 3e 2f e1 69 bb 13 89 72 bd
       -0.10267161 0.15221597 -0.0035687198 -0.059212755
000030 64 a8 81 bd db 5c 48 be 94 eb 07 be c8 d1 36 be
       -0.06330946 -0.19566672 -0.1327346 -0.17853463
000040 7b e5 65 3e cb 98 bc 3b a3 6f d1 3d 7d 64 ce bd
       0.22450821 0.005755519 0.10226371 -0.1007776
000050 58 f4 3b 3d f6 1e 38 3d 6a ea 1f 3e 06 10 2e 3e
       0.04588732 0.0449514 0.15616766 0.169983
000060 7e c6 a6 bd 2a 34 dd bd 6b 59 32 3e 56 33 22 be
       -0.08143328 -0.10800965 0.17416923 -0.15839896
000070 a1 e6 12 3e 8a 79 79 bd 0f c2 03 3d 34 3c 2f bd
       0.1434579 -0.060906924 0.03216749 -0.042782024
000080 54 f5 1b 3e 52 21 30 be 1a ba d0 bd c7 f5 08 be
       0.15230304 -0.1720021 -0.10191746 -0.13375007
000090 07 ce 00 3e 90 bd 3f bd 6c 9f 42 3e 34 f6 21 bd
       0.12578593 -0.04681164 0.19006127 -0.03954144
0000a0 db 70 5e be 44 e8 96 3d 46 fc 3a be e1 39 40 3e
       -0.21722738 0.0736852 -0.18260297 0.18772079
0000b0 86 db 39 3e 5e f0 15 3e 0a d0 3f 3e 00 f7 40 be
       0.18150148 0.14642474 0.18731704 -0.18844223
0000c0 82 64 0f be 38 04 3c be 19 26 92 bd e0 9b 80 bd
       -0.14003184 -0.18360984 -0.07136173 -0.06279731
0000d0 8d de dd ba 76 27 fb 3c be 61 cf 3d 66 0c f0 bd
       -0.0016927287 0.030658465 0.10126065 -0.11721115
0000e0 a5 4c 04 bd 9e 58 40 bd ec 08 80 3d 17 65 25 3d
       -0.032299656 -0.046959512 0.06251702 0.04037961
0000f0 ad ad cd 3d 82 f3 25 3e db f1 96 bd 17 e2 7e bd
       0.10042892 0.16206172 -0.07370349 -0.062227335
000100 e8 43 00 3e 02 50 41 be de cb c9 bd 5e 40 0f 3d
       0.12525904 -0.18878177 -0.09853338 0.034973495
000110 26 28 ef 3d 19 d6 f9 3d 03 57 1c be d3 1a 9c bd
       0.116775796 0.12199039 -0.15267567 -0.07622304
000120 85 df 2b 3e 69 a9 61 be be 39 1c be cd 81 ed 3c
       0.16784485 -0.22037281 -0.15256402 0.028992558
000130 6a a0 cb bc 78 22 c1 bd 47 6d 8b bc ef e1 3e 3e
       -0.024856765 -0.094304025 -0.017019881 0.18640874
000140 bc 85 87 bd 76 66 47 3e c9 46 b8 bd 48 07 8b bb
       -0.06617305 0.1947268 -0.08997876 -0.0042428114
000150 26 73 14 3c a3 71 01 be 26 e8 e8 3b 51 f6 e2 3c
       0.009060657 -0.12641005 0.0071077524 0.027705343
000160 e9 40 65 bc 32 67 05 be a7 d8 2b 3e 91 6f 59 3d
       -0.013992527 -0.13027647 0.16781865 0.053084914
000170 c1 e0 05 be fe 4e 91 3d fa 84 d1 3d 28 89 ee 3c
       -0.13074018 0.07095145 0.102304414 0.029118136
000180 25 22 fa bd ac b3 83 bd dc 3b 3a be 1e 95 56 3c
       -0.12213544 -0.06430754 -0.18186897 0.013097076
000190 e9 58 e9 bd 45 31 65 bd 9e 10 89 bd 5b 90 c4 3d
       -0.113939114 -0.05595519 -0.066926226 0.09597846
0001a0 63 80 a2 bc 37 a4 a6 bd f4 1d 05 3e d6 a7 00 be
       -0.01983661 -0.0813679 0.12999707 -0.12564024
0001b0 63 95 5a 3e b5 d1 32 3e 8a 6e 80 bc 2a 69 90 3d
       0.21346049 0.1746281 -0.01567771 0.070513085
0001c0 d4 96 52 3e 81 6e 44 3e 83 af 35 3e 5b ef 10 be
       0.20565349 0.19182779 0.17742734 -0.14153807
0001d0 f0 72 07 be 3d ee ec 3d 1a d6 45 3e 9e 55 c4 bd
       -0.13227439 0.11568878 0.19319955 -0.09586643
0001e0 5b 68 98 bd 5d e7 f4 3b a8 86 cc 3d 76 9a c3 3d
       -0.07441779 0.0074738697 0.09986621 0.095509455
0001f0 c9 c2 f1 bd 6c 32 4c be 4e b7 f1 3d cb 76 90 3d
       -0.118047304 -0.1994111 0.11802541 0.07053908
000200 a7 bc 3f bd fd 6d b5 bc 4c 24 7b bd 6f b7 8f bd
       -0.046810772 -0.022147173 -0.061313912 -0.07017409
000210 19 f8 92 bd 22 d7 43 be 07 01 8b bc be 97 63 3e
       -0.07176227 -0.19125035 -0.016968263 0.22225854
000220 5b da 21 3e fd d8 89 bc ff 4b a3 bd e2 dc aa 3b
       0.15805952 -0.0168271 -0.079734795 0.0052143196
000230 4c 13 24 3e 39 82 af bd 09 c4 ec 3a 9c c4 12 3e
       0.16022986 -0.0856976 0.0018063794 0.14332813
000240 a2 fa 1d 3e 33 55 0b be 55 89 76 3d ba 26 f3 bc
       0.1542764 -0.1360672 0.060189564 -0.029681552
000250 47 24 82 3d f6 5b 6b 3d 96 be ae 3d fb 67 91 bd
       0.063545756 0.057460748 0.08532445 -0.07099911
000260 3b 6a 9b bd e2 fc 1f bd df cc e0 bd 99 f9 fe bd
       -0.07588621 -0.039059527 -0.10976576 -0.12449951
000270 10 29 1b bd f0 d6 1b 3e 6e e9 ea bd cd 32 f3 3d
       -0.037880957 0.15218711 -0.114703044 0.11874924
000280 56 d7 0c 3e 30 1f c0 3d 5e f1 81 bc 1f 21 31 3e
       0.13754019 0.093809485 -0.015862163 0.17297791
000290 3d 44 ee bc a1 51 f6 bd 06 9b a0 3d 07 a7 1d be
       -0.029085273 -0.12027288 0.078420684 -0.15395747
0002a0 ad 3d 2c 3e 2f 15 96 3b b0 9f d6 3d 28 fe 4f 3d
       0.16820402 0.004580162 0.10479677 0.05077949
0002b0 40 09 52 be 55 ab 19 3e e3 d8 43 3e 6e e9 58 be
       -0.20511341 0.15006764 0.19125704 -0.21182796
0002c0 e5 99 83 3d cc 53 ff 3d 49 e8 9d 3c 88 d8 e5 bd
       0.064258374 0.12467155 0.019275801 -0.11222941
0002d0 ff f5 05 bd dc 78 7a 3d 2a 0d 2e be 6f 3a f5 bd
       -0.032705303 0.061150417 -0.16997209 -0.11974036
0002e0 b6 2e 00 be 3a 85 91 bd c0 47 01 be c7 1c 1a 3d
       -0.12517819 -0.07105489 -0.12625027 0.0376251
0002f0 2c 1c 2a 3e 46 0d 3b be 07 6b b5 3c fe e5 f4 bd
       0.16612309 -0.18266782 0.022145761 -0.1195793
000300 19 9c 0c 3e 83 0a b5 bd 30 30 dd 3c bf ca 96 3d
       0.13731422 -0.088398956 0.027000517 0.073628895
000310 f2 71 ff bd f7 79 0d be 7c 8f 03 3e 5e 85 f6 bd
       -0.12472905 -0.13816057 0.12847704 -0.120371565
000320 6c a7 5a be 36 75 49 3e 49 ff 3c 3e 17 5d 15 be
       -0.21352929 0.19673619 0.18456759 -0.14586292
000330 e0 30 fa bd 62 e4 25 be 75 63 66 3e c5 58 07 be
       -0.122163534 -0.16200402 0.22498877 -0.13217457
000340 87 74 20 bd 99 1a 74 3d fb 3c 45 bc cd 0e 84 3b
       -0.03917363 0.059595678 -0.012038465 0.0040300847
000350 5d 08 33 be 69 ad 35 3d 8a 6a 9d 3c de 6b 2a 3e
       -0.17483659 0.04435483 0.01921584 0.1664271
000360 c0 5e f2 bc 19 b5 3f 3c 0e e0 9f 3d dd 10 e8 bd
       -0.029586196 0.011700892 0.07806407 -0.113313414
000370 8e 10 44 3d 7d 9b 1f 3e d3 81 27 3e 90 50 8e bb
       0.04786735 0.15586658 0.16358118 -0.0043431
000380 9d 9e 13 3d c5 f4 36 bc e8 5c b3 3d c9 28 22 3e
       0.036039937 -0.011166756 0.08757955 0.15835871
000390 86 cc b3 bd 25 02 04 3e 3d 44 a5 3d 1b c1 5f 3e
       -0.08779244 0.12891443 0.08069656 0.21851008
0003a0 7f 17 99 3d 3e 4b 2f be 31 55 ae bd dc 28 37 be
       0.07475185 -0.17118546 -0.08512343 -0.1788668
0003b0 8a c0 b3 bd 88 99 2e 3e 46 94 50 3e 2d d7 f6 3c
       -0.08776958 0.17050755 0.20369062 0.0301319
0003c0 ce ac 34 3e 56 53 4a be 5b be 3d be 1a 1f 57 be
       0.17644045 -0.19758353 -0.18529646 -0.21007958
0003d0 51 0c 23 be 91 46 a8 3d ef 72 37 bd c5 a4 29 3e
       -0.15922667 0.082165845 -0.044787344 0.16566761
0003e0 50 a6 67 3e 49 58 5d 3d bf ad f6 3d 4b 62 31 3e
       0.22622037 0.054039273 0.12044858 0.17322652
0003f0 a9 ae 9b bd 68 6e 71 3c c2 39 fa 3c da 7b 47 be
       -0.07601673 0.014735796 0.03054512 -0.1948084

layers.0.bias f4 [128]
000000 1d a2 5e ba 24 56 02 3e 0e 14 4e 3e a5 91 36 be
       -0.00084927847 0.12728173 0.20124838 -0.17828996
000010 b9 a7 89 bd e0 a2 e9 bd 10 bb 0b be 13 ce c6 be
       -0.06721444 -0.11408019 -0.13645577 -0.38829097
000020 14 8c e8 3e c6 26 15 be 43 85 cb be db a3 27 be
       0.4541937 -0.14565572 -0.39750108 -0.163711
000030 78 db b9 3e 75 ca 51 be e9 7e ce 3e dc aa 46 3e
       0.36300254 -0.20487387 0.403312 0.19401115
000040 1b 7a af 3e 7e 50 37 3e da f1 8f 3e af 0c 28 3c
       0.34272847 0.17901799 0.28114206 0.01025693
000050 cd b7 a4 3e d6 3b 6f be cb fa 29 be 73 2e 86 3e
       0.3217148 -0.2336267 -0.16599576 0.26207313
000060 fc 63 31 3e 60 5c d1 3e 1e 45 3b 3e 16 62 43 bd
       0.17323297 0.4089079 0.18288085 -0.047700964
000070 19 60 66 3e 3c 85 10 3e 8b b5 59 bd 4f d2 b7 be
       0.22497596 0.14113325 -0.05315165 -0.3590264
000080 74 b7 c0 3e 62 c4 32 be 26 e3 3a be 61 cb 99 bc
       0.37639964 -0.17457727 -0.18250713 -0.018773736
000090 dc 93 7c 3d e2 db c4 be 04 58 3e 3e 44 89 3e 3e
       0.061664447 -0.38449007 0.18588263 0.1860705
0000a0 f9 4f 84 be 6d a9 b9 3e af cf 69 3e fb 39 86 be
       -0.25842264 0.36262074 0.22833131 -0.2621611
0000b0 37 08 62 3d 28 a0 64 be fc 41 27 3e 5f 44 a1 be
       0.055183616 -0.2232672 0.16333765 -0.31497476
0000c0 19 b6 90 3e f7 2b 87 be 7e 5a 85 3e 44 4c db be
       0.2826393 -0.2640073 0.26045603 -0.42831624
0000d0 7b c4 9c be 98 0b 8d be bf 5b 09 3e 02 f7 9c 3e
       -0.30618653 -0.27547908 0.13413905 0.30657202
0000e0 9f e7 b7 be 5e 9f 8c 3e 65 4b b1 be 53 c5 7f be
       -0.359189 0.27465338 -0.34627834 -0.24977617
0000f0 7e 7e 2f be 17 e7 a3 3d 42 45 a2 3e 59 1e 9c 3e
       -0.17138097 0.08003061 0.31693465 0.30491903
000100 8d d5 df 3d 8b 80 08 3e fa e2 34 3e 87 8d 1d be
       0.109294035 0.13330285 0.1766471 -0.1538602
000110 7d a6 82 be 51 53 7d be d2 83 91 3d f6 cd 57 be
       -0.25517645 -0.24738814 0.07105221 -0.21074662
000120 68 ea 69 bd f9 0c 41 be 98 7d ba be 4a 5a 50 be
       -0.057108313 -0.18852605 -0.36423945 -0.20346943
000130 ba e6 b5 3e 98 b5 69 3d b1 20 d4 be eb f1 27 3e
       0.35527593 0.057057947 -0.41431192 0.16400878
000140 2b 38 a7 be 4b fc 83 bd e2 3f bb be d9 41 57 be
       -0.3266004 -0.064446054 -0.36572176 -0.21021213
000150 82 fa 63 3e ff 8c 5b bc 73 cf 99 be f4 ef 6e 3e
       0.2226353 -0.013400315 -0.30041084 0.23333722
000160 d2 39 a6 3e a6 af 69 3e bd 97 96 3d f3 e1 e7 3d
       0.32465988 0.22820911 0.073531605 0.11322393
000170 09 1b a6 3e 63 11 34 be 13 eb 56 be f5 a3 f3 bd
       0.324425 -0.17584758 -0.20988111 -0.11896507
000180 40 f0 cc 3e 4e 92 e7 3c 5a 44 a9 3d 0c bf 18 be
       0.40027046 0.028268006 0.0826499 -0.14916629
000190 04 58 65 be 2d 9d d1 3e de 43 7a 3e 26 39 78 be
       -0.22396857 0.40940228 0.24439952 -0.2424055
0001a0 af df 4d 3e 45 2e c4 be de ed 50 3e 7c 2c 07 be
       0.2010486 -0.3831655 0.20403239 -0.13200563
0001b0 8c 39 c1 3e 98 3c 8b be 56 81 62 3e d0 54 da 3c
       0.37739217 -0.27194667 0.2211965 0.02665177
0001c0 d3 50 03 be 8c 20 a5 be a8 51 5d be ea 6f c8 be
       -0.128238 -0.32251394 -0.2161318 -0.39147884
0001d0 57 22 9d be db 5e 5c 3e ab 30 3b 3d 47 1f 11 3e
       -0.30690262 0.2152056 0.04570071 0.14172088
0001e0 f1 ce 99 3e 7a d3 fa 3c ab 7c 48 3c 6b c8 b9 bc
       0.30040696 0.030618418 0.012236754 -0.022678575
0001f0 e1 1e 92 be 14 fe a4 3e 88 09 5e 3e 5f 8d d8 bc
       -0.28539184 0.32225096 0.21683323 -0.026434598

layers.1.weight f4 [128, 128]
000000 1a 2d bc 3d 3a 33 64 bd d6 66 e8 3d de ac 54 bd
       0.0918829 -0.055712916 0.113477394 -0.05192267
000010 9d 72 3f 3d 44 0b 48 bd b1 02 d8 bd 15 b7 d6 3d
       0.046740163 -0.04883887 -0.10547388 0.10484139
000020 4c b3 0d be 54 7f c9 3d 3d d4 61 bc 6e f4 d9 bd
       -0.13837928 0.09838739 -0.013783512 -0.106423244
000030 34 af bb bd b9 64 10 be 30 fb d6 3c d1 64 27 bc
       -0.09164277 -0.14100923 0.026242822 -0.010216908
000040 b3 13 90 bd 8a b3 11 be e2 89 06 3e ae 33 8c bd
       -0.07035007 -0.14228645 0.13138536 -0.068457946
000050 c8 85 45 bc 98 6c a2 bb ca 59 62 3d 3d 29 04 3c
       -0.012055822 -0.004956793 0.05526141 0.008066473
000060 3c 70 fd 3d a8 b2 cf bd 68 29 e8 bd d9 b8 a6 3d
       0.12374923 -0.10141498 -0.113360226 0.08140726
000070 cc e9 50 3d 0f 3c 8a bd 54 ff 39 bd 7d dd cd 3d
       0.051004216 -0.067497365 -0.045409516 0.10052011
000080 e9 f0 3a bd 1e b6 03 be dd 5d c7 bd d7 91 e8 3c
       -0.045639906 -0.12862441 -0.097347 0.028389854
000090 8e a4 98 3d d3 dc fc 3d 90 bd 1b 3e 8d f5 e6 bd
       0.07453261 0.123468064 0.15209031 -0.11277304
0000a0 2e cf 16 3d 26 ef c6 bd 84 d4 6b bc d8 2b d1 3d
       0.036818676 -0.09713583 -0.014393929 0.10213441
0000b0 db a9 67 3d 22 02 38 bd 74 14 8f 3c 52 73 2a bd
       0.05655847 -0.04492391 0.017465807 -0.041613884
0000c0 88 fc 05 3e 72 65 a7 3d d4 58 da bd de 2f 4d bd
       0.13084614 0.08173646 -0.10661474 -0.050094478
0000d0 21 97 0a 3e 92 15 39 3e a5 0a 75 bd 2c 6a bd bd
       0.13534214 0.18074635 -0.059824605 -0.09248766
0000e0 6d b6 aa bd 52 ad 29 bd b1 79 44 3d f1 7d b0 3c
       -0.08335576 -0.041425057 0.047967616 0.021544429
0000f0 02 af cb bd 9c 61 64 bd c4 36 b1 bb 1b 9f 17 3e
       -0.099454895 -0.05575715 -0.00540814 0.14806788
000100 91 ca c0 3c 4f e5 06 3e 25 c1 e2 3d f8 6e 0e 3e
       0.023534091 0.13173412 0.11071996 0.13909519
000110 55 e5 88 3d 60 d0 3d bd 39 d9 3a bd e9 a2 b4 ba
       0.066843666 -0.0463413 -0.045617316 -0.0013781461
000120 b8 08 9d bd 30 f2 2f bd 7f 6b d5 3c d8 e5 07 3e
       -0.076676786 -0.042955577 0.026052235 0.13271272
000130 3b 56 c3 3d 5b 47 0a bd 92 ab 8c 3d 29 de 24 bc
       0.095379315 -0.033759456 0.06868662 -0.010062733
000140 fe 3f c3 bc 12 77 10 be b7 6f 1c 3e a8 c4 e1 3d
       -0.023834225 -0.14107922 0.15276991 0.11023837
000150 5a 38 cc 3d 37 a4 cf 3b fb f5 04 3d f9 fc dc 3b
       0.09971686 0.0063367146 0.032461148 0.006744024
000160 7c 4f 01 3e 63 04 e7 3d 9f 45 cf bd 19 bd 29 bd
       0.12627977 0.112801336 -0.10120701 -0.041440103
000170 fb 19 97 bd 6a ef 38 bd c6 62 93 bd 35 77 fc 3d
       -0.07378002 -0.045150198 -0.07196574 0.123274244
000180 fa 45 df bd 84 7c 5a bd 43 ac 15 be 08 48 9c 3d
       -0.10902019 -0.053341404 -0.14616494 0.07630926
000190 14 2e c4 3d a9 6e bd bd 83 a6 71 3a 35 78 87 bd
       0.09579101 -0.092496224 0.00092182326 -0.066147245
0001a0 ef c9 e3 3d e3 0a dd 3d d8 ea 33 ba 17 4e 61 3d
       0.111225 0.10793092 -0.00068633026 0.055006113
0001b0 1f e5 10 be b5 a5 98 3c 51 5c 42 bb 41 43 7a 3d
       -0.14149903 0.018633703 -0.0029657076 0.061099295
0001c0 9f b0 0f 3e 5f 8f 05 bd 32 9a c0 bd ea 20 dd bc
       0.1403222 -0.032607432 -0.094044104 -0.026993234
0001d0 5e 88 27 3c 72 91 63 3d 26 5f 17 3e c2 ce aa 3d
       0.010225384 0.05555863 0.1478239 0.08340217
0001e0 f0 9f 01 be 8b 20 25 3d c8 76 52 3d d9 f6 0e 3e
       -0.12658668 0.04031424 0.05138281 0.13961352
0001f0 eb 3a 0e 3e 02 f5 93 3d 4d 48 d9 bd 6a 1f 2a 3d
       0.13889663 0.07224466 -0.106094934 0.041533865
000200 f8 cc 0e be 16 2b 87 3d b5 50 b0 3d dc 72 37 bc
       -0.13945377 0.06600015 0.08609144 -0.011196818
000210 14 a5 df 3d 62 cf bb bd a8 3d 20 bd f0 ee 97 bd
       0.10920158 -0.091704145 -0.0391213 -0.074186206
000220 4d 18 26 3d 43 df 3e 3d 52 9a 83 bd 40 1a ad bd
       0.04055052 0.046599638 -0.06425919 -0.084522724
000230 2e 8f c5 bd 60 ca a0 bc f3 02 f3 3a 71 df 1a bd
       -0.0964645 -0.01962775 0.0018540308 -0.037810747
000240 55 ad 01 bd 8f d6 96 bd 4f 6b dc 3d e8 35 80 3d
       -0.031659443 -0.073651426 0.10762655 0.06260282
000250 fa 9b 03 3e 81 46 c3 3d 14 6a b6 3d 5d 73 b2 3c
       0.12852469 0.09534932 0.089069515 0.021783525
000260 08 eb b5 3c 9d f3 15 3e 2d ec f8 3d 02 48 82 bd
       0.022206798 0.14643712 0.12154422 -0.06361391
000270 2d 7f 08 be 4e be e1 bd 5a 9d c0 bd d4 43 d2 bd
       -0.13329764 -0.11022626 -0.094050124 -0.102668434
000280 e5 70 1c 3e c6 4f 16 be 76 dd a3 3d cc a7 17 be
       0.15277441 -0.14678869 0.08001225 -0.14810103
000290 94 65 01 3e 27 04 41 be 00 b1 ce 3d 6f 37 d6 bd
       0.12636405 -0.1884924 0.10092354 -0.10459792
0002a0 59 c2 cf bd fa a4 bd 3d ab 57 9c bd 36 a9 8c bc
       -0.10144491 0.092599824 -0.07633909 -0.01717053
0002b0 bc d1 9b bd 94 1b fe 3d ae 6c 70 3d 8a 6e e0 3d
       -0.07608363 0.12407604 0.058697395 0.10958584
0002c0 a8 cf 1d 3c 96 1a 01 3e b4 9c 8a bd 5c 2f 02 be
       0.009632029 0.12607798 -0.0676817 -0.12713379
0002d0 9c ae 38 3d 7a f0 09 be 73 d8 06 3e 03 0d 3a bc
       0.045088395 -0.13470641 0.13168506 -0.011355641
0002e0 ef 01 ff bd 53 48 21 3e 53 92 69 3d f2 8a a0 bc
       -0.12451541 0.15750246 0.05702431 -0.019597504
0002f0 b4 55 1b 3d 5e f0 d8 3d c4 f0 fd 3d 06 a0 09 3d
       0.03792353 0.105927214 0.12399438 0.033599876
000300 fa e5 1a be 65 f8 e4 bd 03 d2 04 3e 97 a4 67 bc
       -0.15126792 -0.1118019 0.12970738 -0.014138362
000310 20 94 a3 bc 8c ed 99 3d d8 dd da 3d ab 4d f5 bd
       -0.019968092 0.075160116 0.106868446 -0.119777046
000320 58 12 e5 bd a3 26 03 3e 5a 51 62 bd 1f 1a 95 bd
       -0.111851394 0.12807707 -0.055253364 -0.07280373
000330 20 9e a2 3d e4 08 40 bd 6c 0f fa 3b e3 07 01 be
       0.07940316 -0.04688348 0.007631233 -0.12600665
000340 e7 d3 75 bd f8 3a 7e 3d bf cc 1c 3d be e2 36 be
       -0.06001654 0.062067956 0.0382812 -0.17859933
000350 67 20 82 3d 51 2b f4 3d 04 78 27 bd d3 de ec bd
       0.063538365 0.119223244 -0.04088594 -0.11565938
000360 88 c7 23 bd 7f 35 5a 3d 6f a5 9d bd 52 10 2f bd
       -0.03998521 0.053273674 -0.076975696 -0.042740174
000370 20 7d e7 bd 40 6a 75 3d 66 e6 29 3d 9d fb 02 be
       -0.113031626 0.05991578 0.04147949 -0.12791295
000380 2d 45 69 3d de 3b 00 3e ce 15 cc bc 02 49 cb bd
       0.056950737 0.12522838 -0.024912741 -0.099260345
000390 f8 18 17 be 08 78 cf bd 35 b8 09 bd ec 68 00 bc
       -0.14755619 -0.10130316 -0.03362294 -0.007837515
0003a0 0f 45 0a be d1 e6 cf bd 5c 37 02 be 33 7b 51 bd
       -0.13502906 -0.101514466 -0.1271643 -0.051142883
0003b0 60 27 ec bd 50 c9 de bd 6c db a8 3d 68 7f 53 3d
       -0.11530948 -0.10878241 0.082449764 0.051635176
0003c0 4a 04 02 be bd 32 ed 3d 6a e5 36 3d 08 58 9d 3d
       -0.12696949 0.11581943 0.04465238 0.07682806
0003d0 20 93 8c bd 67 ea d3 bd 8f 4b 11 3c fb 95 a8 bd
       -0.06863999 -0.10347443 0.008868112 -0.082317315
0003e0 20 ab de 3d de 20 bd 3d 2b 4c 20 bd b9 6d 55 3d
       0.10872483 0.092347845 -0.03913514 0.052106593
0003f0 e2 bc f2 bd f7 d1 d6 3d 88 cc c2 3d b7 65 d0 3c
       -0.11852433 0.10489266 0.095116675 0.025439126

layers.1.bias f4 [128]
000000 81 fe 04 3d ef 3a ad 3d 65 dc 95 3d a6 3e 4e bd
       0.032469276 0.08458506 0.073174275 -0.050352715
000010 9d a4 90 bd 76 a1 8a bd f4 1d 50 bc 6e 06 a4 3d
       -0.070626475 -0.067690775 -0.012702454 0.08009039
000020 ab 79 96 bb 4e 55 97 bc 3c 7c 92 3c 2b c3 9a 3c
       -0.0045921407 -0.018473294 0.017881505 0.018891891
000030 b5 c6 55 3b 8e da 9c 3d 75 9c a3 3d 88 43 76 bb
       0.003261966 0.076588735 0.07988826 -0.0037576873
000040 56 b4 17 3d 25 f8 90 3d d5 17 86 bd 55 6d ac bc
       0.037037216 0.0707858 -0.06547514 -0.021048227
000050 bf 32 b7 bc 99 ae 7d bd 1c 1e 43 bd 40 45 95 bb
       -0.022363065 -0.061934087 -0.047636136 -0.0045553744
000060 8e 96 62 bd 78 6f a8 bd f5 0c af 3d ed 9d 27 3d
       -0.05531936 -0.08224386 0.08547393 0.040922094
000070 6c ad 05 3d a6 9a 99 3c 92 8c 54 3d 10 29 b5 bc
       0.03263609 0.0187505 0.05189187 -0.022114307
000080 0f 4b c5 bc 56 f1 59 bb d0 26 64 bd 10 8c b3 bd
       -0.024083642 -0.003325542 -0.055701077 -0.08766949
000090 16 4c 39 bd f4 8f 71 3d 49 c0 13 3d 9f 8d a8 bd
       -0.045238577 0.058975175 0.03607205 -0.08230137
0000a0 53 4c 74 3c be 1b 52 3c 50 58 b3 3d c6 5c ed 3d
       0.014910775 0.012823997 0.08757079 0.11589961
0000b0 cd 34 87 bd 32 f6 d2 3c 49 82 06 bd da 20 ee 3c
       -0.06601868 0.02575216 -0.032839093 0.0290684
0000c0 05 ec d6 3a e1 9b 0b 3d 16 70 0d 3d 30 73 78 bd
       0.0016397244 0.034084205 0.03453072 -0.060656726
0000d0 4a 23 7a 3c c1 ec f7 3a d5 df 00 3d 9f c4 80 3d
       0.015267203 0.0018915163 0.031463463 0.062875025
0000e0 8d 18 c1 bd a6 a0 a7 3d b3 f2 ab 3d c1 64 04 3d
       -0.09428511 0.08184938 0.083959006 0.03232265
0000f0 48 f4 a6 3d 48 34 79 bd f5 59 8e 3d 81 71 cc bd
       0.08152062 -0.060840875 0.06950752 -0.09982587
000100 46 03 d4 bc 01 c0 99 3d 31 00 8f 3d a5 02 9a bd
       -0.025880467 0.07507325 0.069824584 -0.07520036
000110 b3 29 ae bc f8 38 77 3d b3 c3 0a bd cf e8 10 3d
       -0.021260118 0.060357064 -0.03387804 0.035378274
000120 df ae 4d 3b a1 f9 8d 3d f8 f1 b2 bd 01 31 cc 3c
       0.003138475 0.069323786 -0.08737558 0.02492571
000130 bc 27 60 bd 8d 8e ae bd f2 16 2b bd c9 ce 2e bd
       -0.054725394 -0.08523283 -0.04176993 -0.042677674
000140 80 a5 70 bd ab f9 00 bd 78 67 f5 3c 7d e0 0b bd
       -0.058751583 -0.031488102 0.029956564 -0.034149636
000150 04 8d e9 bd 85 cb 9f 3d 2b 20 5d bc 36 3d 82 3c
       -0.1140385 0.0780249 -0.013496439 0.015898328
000160 6d 5b 15 bd 37 be e1 3c 1e 21 a3 bd 26 1d 03 bd
       -0.036464144 0.027556522 -0.07965301 -0.03201022
000170 1a d8 18 bd 28 b5 ee bc 5a 13 49 bd 85 93 98 3d
       -0.037315466 -0.029139116 -0.04909072 0.07450012
000180 b8 5c 36 bd 40 2f 76 bd b1 c0 2d bd 1d 91 1c bd
       -0.044522017 -0.060103655 -0.042420093 -0.03822433
000190 59 82 02 3d e0 81 9e 3c c9 68 bc bd 16 ca 38 3d
       0.03186259 0.019349039 -0.09199674 0.0451146
0001a0 cc cf 44 3d 69 90 87 bd 6f 42 90 bd fd f3 23 3e
       0.048049733 -0.06619341 -0.07043921 0.16011043
0001b0 58 20 53 bd 8a e3 7c 3d 80 c6 77 bd e0 ac 9d 3a
       -0.051544517 0.061740436 -0.06049204 0.001202967
0001c0 90 3d 8c bc 63 a2 82 3d d8 60 52 3d f7 2f 2f bd
       -0.017119199 0.06378629 0.05136189 -0.042770352
0001d0 ae 04 ea 3c 3a 48 34 bd 51 6c bd 3d 13 ee 40 3d
       0.028566685 -0.044014193 0.09249175 0.047102045
0001e0 0b 05 70 3d ed 23 31 3d fe 59 5c 3c 8a 0c a7 bb
       0.05859856 0.043247152 0.01344919 -0.0050979303
0001f0 4f 66 9c bd 5d 62 53 3d fa 9b 10 bd fa 67 9a 3d
       -0.07636701 0.05160748 -0.035305 0.07539363

layers.2.weight f4 [128, 128]
000000 f4 1e c4 3d ef 36 b9 3c 15 e9 72 ba 39 69 07 bd
       0.09576216 0.022609202 -0.00092662993 -0.033059333
000010 15 67 13 bd 36 ee c5 3d b4 2c 77 bc 1f fd e6 ba
       -0.03598698 0.09664576 -0.015086342 -0.0017623043
000020 9a 87 5f bd 72 f4 c0 3d 4a 9a 31 bd ac 53 02 bc
       -0.05457268 0.09421624 -0.043360032 -0.007954519
000030 e3 39 f2 3c 96 ff d3 3d 0f 13 f9 3d d0 43 e1 3d
       0.029568618 0.103514835 0.12161838 0.10999262
000040 6a 05 1a 3d c4 c5 ff bd c7 c7 85 3d ce 13 9f bd
       0.03760282 -0.12488893 0.06532245 -0.07767449
000050 12 80 88 bd b1 81 3f bc 87 08 0c bc 61 0a b7 3d
       -0.066650525 -0.011688636 -0.008546955 0.089375265
000060 e9 ee 06 be 38 c5 7f bd 42 da 6c 3d 2f 67 b7 bd
       -0.13177074 -0.06244394 0.057825334 -0.089552276
000070 af e8 f4 bd c8 9a f4 bd a0 9b c1 bd 90 2b 37 be
       -0.119584434 -0.11943585 -0.09453511 -0.17887712
000080 23 0a 18 be 10 7f 21 be fc 34 5a 3d 7d f6 f6 bd
       -0.14847617 -0.15771127 0.053273186 -0.12058733
000090 99 9d 28 bd 53 3b b0 bd 07 bf d1 bc d2 92 8d 3d
       -0.04116592 -0.08605065 -0.025603784 0.069127694
0000a0 ed c3 d3 bc 93 38 0a be 25 01 58 3d 5a f6 f8 3d
       -0.02585026 -0.13498144 0.052735467 0.12156363
0000b0 cf f1 8b 3d c7 1e d5 bd 53 4b 0d be 20 9d 65 bd
       0.06833231 -0.10406261 -0.13798265 -0.05605805
0000c0 cb da 0c bd 6f f6 02 3d f6 18 97 bd b2 55 e1 bd
       -0.034388345 0.0319733 -0.07377808 -0.11002673
0000d0 19 e4 12 3d 3e 97 c0 3d ad 1a 06 be cd e4 89 bd
       0.035862062 0.09403847 -0.13096114 -0.067330934
0000e0 42 f9 be 3d 2a f5 2c be f2 88 f0 bb a8 ea 11 bd
       0.09324886 -0.16890398 -0.007340544 -0.035624176
0000f0 cf 69 16 be 1b 98 b6 bd 4d 7e c4 3d ef 83 3c bd
       -0.146888 -0.089157306 0.095944025 -0.04602426
000100 9a ed 85 bd 02 18 d6 3d db 9e 64 3d fe 92 b7 bd
       -0.065394595 0.10453798 0.05581556 -0.089635834
000110 b0 7e 07 bd 96 be aa bd 86 79 d2 3d bb 6e c0 3d
       -0.033079803 -0.08337133 0.10277085 0.0939612
000120 f4 e4 14 be 64 c1 18 3e a1 c8 2d be d5 c1 9d 3d
       -0.14540464 0.14917523 -0.16971065 0.07702986
000130 f7 4a 00 3e 9a 62 f3 bd f6 26 30 bd c2 c1 96 3d
       0.12528597 -0.11884041 -0.043005906 0.07361175
000140 20 52 dc bd c2 d2 1e bd f5 98 ed bc 75 fd eb 3d
       -0.107578516 -0.038775213 -0.0290036 0.115229525
000150 99 45 f7 bc 85 36 eb bd fe 35 fc 3d 02 78 57 3d
       -0.030184554 -0.11485008 0.12314986 0.052604683
000160 24 83 da 3d dd 29 3c 3d a1 e4 00 3e 26 36 88 bd
       0.10669544 0.04593836 0.12587215 -0.06650953
000170 19 d6 b7 bc 1c 25 e4 bd 79 c4 01 be ad a2 15 be
       -0.022440957 -0.111398906 -0.12672605 -0.14612837
000180 3b fd a8 3d 0a 89 87 bd 81 0a 45 bd 92 86 e4 3c
       0.08251425 -0.06617935 -0.04810572 0.0278962
000190 06 39 00 be cd fb 1d 3d c7 86 c6 ba 26 42 28 be
       -0.12521753 0.038570214 -0.0015146368 -0.16431484
0001a0 aa 89 06 3e 5d 04 6b bd b4 87 ce bd 62 bd 10 3e
       0.13138452 -0.057377208 -0.10084477 0.14134744
0001b0 d5 58 d4 3d a7 64 02 3d 28 12 b2 3d ef c1 d1 3d
       0.10368506 0.03183427 0.08694869 0.10242068
0001c0 55 46 db bd 61 9a d9 bc ba 33 f8 3d 46 b3 4f bd
       -0.10706774 -0.026562871 0.12119241 -0.050708078
0001d0 bc 1a d9 3d 8e 53 df bc b1 88 35 3d 8e 7a d4 bd
       0.10600802 -0.027261522 0.044319812 -0.10374938
0001e0 9f cd 87 ba d2 3b a9 bd 6f c1 0a be 7f 45 85 3c
       -0.0010360962 -0.08263363 -0.13550352 0.01626849
0001f0 c8 52 b5 3d fb 87 18 bc 14 3c 03 be c6 6f 11 be
       0.0885368 -0.009309764 -0.12815887 -0.14202794
000200 fd 29 22 3e 7a b2 d1 bd 88 25 d7 3c 4a 02 b6 bd
       0.1583633 -0.1023912 0.026263013 -0.08887155
000210 a0 37 b7 bd 24 bb b9 3d 7f 44 9e 3b 91 5e b2 3d
       -0.089461565 0.09068897 0.0048299427 0.08709443
000220 fa de 04 be 95 d0 bc 3c 2e 37 0a be 8f 02 77 3c
       -0.12975684 0.023048678 -0.13497612 0.015076294
000230 2a 89 9c 3d b6 cb c5 bd a4 39 a0 bd 9a 8e e2 3d
       0.076433495 -0.096579954 -0.07823494 0.11062355
000240 8e a6 f9 bc 5b 74 1c be 10 0f cf 3c 59 6b a3 bd
       -0.030474927 -0.15278761 0.025275737 -0.07979459
000250 02 81 f6 3c ee c5 c8 3d 2a 91 a4 bd 50 10 19 3e
       0.030090813 0.09803377 -0.080355 0.14947629
000260 17 3c 35 bc e8 9b ff bc d5 b9 2f 3c 53 39 75 3c
       -0.01106169 -0.031202272 0.010725458 0.01496728
000270 f4 6a 74 bd d0 57 4f 3d 67 39 fc 3d a0 fe cb 3d
       -0.05967231 0.050620854 0.12315636 0.09960675
000280 06 f1 63 bc 53 13 9d 3d 5b 81 6a bd 49 e7 1e 3e
       -0.013912445 0.076697014 -0.05725227 0.15517916
000290 29 3e 5f 3d fd ba b1 3c 6c 29 26 bd 8f 5d 1d 3d
       0.05450264 0.021695608 -0.040566847 0.038419303
0002a0 65 3f 06 3e c4 e2 1f 3e bc b9 df 3d db 97 01 3e
       0.1311012 0.15613848 0.10924098 0.12655585
0002b0 a3 ec 03 be 17 f1 94 3d be 44 fc bd eb c9 99 3d
       -0.12883238 0.07272547 -0.12317799 0.07509216
0002c0 33 4d 22 be d4 50 78 bb ba 38 3a 3d 7e a4 ad 3d
       -0.15849762 -0.0037889974 0.045464255 0.0847864
0002d0 ed 7b ce bc a9 63 bc 3d 36 d5 0d be f9 ed 67 3d
       -0.025205577 0.09198696 -0.13850865 0.056623433
0002e0 b6 25 33 3d 1a c9 01 be 48 55 8d bd 5a d7 69 bd
       0.043737136 -0.1267437 -0.06901032 -0.05709014
0002f0 85 07 f9 3c 81 88 8f 3d 06 09 b6 bd 66 da c9 bd
       0.030399093 0.07008458 -0.0888844 -0.09856109
000300 13 32 88 3c c5 0a 89 3d 54 59 00 3e 50 26 c6 3d
       0.01662544 0.06691507 0.12534076 0.09675276
000310 f1 4c 0c bd 83 aa 79 bd 91 72 05 3e c1 03 85 bd
       -0.034253065 -0.06095363 0.13031985 -0.064948566
000320 d6 9e 8f 3d 00 0b 58 bd f5 ca e6 3d 76 50 f2 3d
       0.070127174 -0.052744865 0.1126918 0.11831753
000330 85 d0 7f bc 3d 54 a9 bd 32 d0 e6 bd 41 4c 09 be
       -0.01561368 -0.0826802 -0.11270179 -0.13407995
000340 55 b6 15 be 7a 04 d7 3d 1d 87 1f bd 27 78 ee 3c
       -0.14620335 0.10498901 -0.038947213 0.029110027
000350 cb 23 e7 bc 6b f3 af 3d c1 66 2c bd ca 54 1e bb
       -0.02821531 0.0859135 -0.04209018 -0.0024159425
000360 eb 69 3d 3d ed 34 ed 3b 1d 3e eb bb 0b 6a f6 bd
       0.04624359 0.0072389753 -0.0071790353 -0.12031945
000370 ab c8 f7 bd ad a0 f1 3c 30 5f a0 3d 08 0b 87 3b
       -0.12098821 0.029495561 0.078306556 0.004121188
000380 f6 5b 9e bd ff b0 8e 3d 7f 50 67 3d de db ee 3d
       -0.07732384 0.06967353 0.05647325 0.1166303
000390 2d 40 cc 3d 31 95 cd bc b8 b0 96 3d b4 85 01 be
       0.09973178 -0.025095554 0.07357925 -0.1264866
0003a0 94 b8 ed bc 14 fa d7 3c 9c 80 2d bd 92 a7 0d bd
       -0.029018678 0.026364364 -0.04235898 -0.034583636
0003b0 3e 61 02 3e e5 e3 d0 bd 18 94 dc 3c a0 7f d6 3b
       0.12732407 -0.101997174 0.026926085 0.006545976
0003c0 dd 20 b7 3c 8f 20 27 3c 6a 2e bf 3d 68 03 f0 3d
       0.022354538 0.010200634 0.09335025 0.117194
0003d0 a0 9d f1 bd c5 9a b4 3d bd 22 d9 bd 78 55 01 3d
       -0.11797643 0.088185824 -0.10602329 0.03157565
0003e0 45 9a 2f 3d 8e d4 9f 3c 63 f3 9c 3d 2a 22 02 bd
       0.042871732 0.019510534 0.0766361 -0.031770863
0003f0 85 8b d0 3d 1e ac 58 3d 71 d5 15 3e 40 26 05 3e
       0.10182861 0.05289852 0.14632203 0.13002872

layers.2.bias f4 [128]
000000 e4 18 56 bd 49 6e a0 bc 06 38 4d 3d be 1f d1 3d
       -0.05226983 -0.019583838 0.050102256 0.102111325
000010 57 53 30 bd 77 0b 43 3c 5b 5f a3 bd 10 67 7f 3d
       -0.04304823 0.011904589 -0.07977172 0.062354147
000020 83 39 9a bc d4 fd 33 bd eb 39 ad 3d be d4 99 bd
       -0.018826252 -0.04394324 0.084583126 -0.075112805
000030 a1 ed ad bd 3c 15 b4 3a b6 ce 46 bd 4d f1 67 bd
       -0.0849259 0.0013739238 -0.04853698 -0.056626607
000040 49 33 83 bd bf ef 82 bd 85 4a 1b 3c df a6 b0 bd
       -0.06406266 -0.06393384 0.009478216 -0.08625578
000050 ca e0 72 bd 61 a1 97 3d e1 0a 4a bd f2 32 a7 bb
       -0.059296407 0.074038275 -0.04932678 -0.0051025087
000060 db d1 7d bd 44 44 31 bc a0 79 d6 bd e8 b8 9b 3c
       -0.061967712 -0.010819498 -0.10472417 0.019009069
000070 6b 39 47 3d 4e e8 23 b9 0b cf 49 3d 75 99 94 3d
       0.048638742 -0.00015631432 0.049269717 0.07255832
000080 9e ec 5e bc 48 8b 89 bd 20 8a 51 3d 99 60 90 bd
       -0.013606219 -0.06716019 0.051157117 -0.070496745
000090 07 dc ab bd cf f6 52 bc 66 6a 80 bd cf fd 37 3d
       -0.08391576 -0.012876227 -0.06270294 0.044919785
0000a0 57 36 72 bb 78 8c 36 3d aa 1d c2 bc 8b b2 ec 3c
       -0.0036958659 0.044567555 -0.023695786 0.02889373
0000b0 89 8c 0d bd 89 a8 d7 bc 58 21 55 3d e7 60 c0 bc
       -0.034557853 -0.026325481 0.052033752 -0.023483707
0000c0 2d 7a d6 bd 45 ba 82 bd e3 56 ca bd 38 85 a2 bd
       -0.10472522 -0.06383184 -0.098798536 -0.07935566
0000d0 f2 3d ae bd 86 7a 24 3d 12 22 b9 bd e4 a8 d4 bd
       -0.08507909 0.04015591 -0.090397015 -0.10383776
0000e0 2f 1c 55 3d b7 50 2d bd 8b c4 e5 bc 3f 6c 81 3c
       0.05202883 -0.042313304 -0.02804782 0.015798686
0000f0 1a 60 57 3b ae 4f fa bc 75 52 be 3c d9 d1 9a 3d
       0.0032863677 -0.030555572 0.023232678 0.075595565
000100 8b 55 a6 3d aa f7 52 bc 8d f1 04 bd 28 fb ff bc
       0.08121785 -0.0128764305 -0.032456923 -0.03124769
000110 8f df af bd e8 24 bf 3d 9f 65 90 3d e3 e2 a4 3c
       -0.08587562 0.09333211 0.07050633 0.02012772
000120 f8 0d ec 3c b3 8b b9 bc 7a 8b 44 bc cd f7 6f bd
       0.028815255 -0.022649622 -0.011996144 -0.05858593
000130 9e 7b 8c 3d 4b 98 85 bd d9 82 bf 3d c8 fb d1 3c
       0.068595156 -0.06523188 0.09351129 0.025632754
000140 02 5f 9e bd bb 4c f8 38 c8 f1 66 3d 2b 55 92 bc
       -0.07732965 0.00011839854 0.056382924 -0.017862877
000150 ba 22 65 bd 5c 06 b5 3d 04 9f 5b 3d db b2 9d bd
       -0.05594132 0.088391036 0.053618446 -0.077001296
000160 41 e0 90 bd 99 49 59 ba 8d fa e7 3c bf 6e 41 3d
       -0.07074023 -0.000828886 0.028317714 0.047224756
000170 65 ad 9a bd 21 f6 4a 3c a2 28 3c 3d 25 b2 61 3d
       -0.07552604 0.012387783 0.045937188 0.055101532
000180 0d aa 98 3c 34 ca be bd af 7e 94 bd d0 6a a9 3b
       0.018635774 -0.09315911 -0.072507255 0.0051702037
000190 ed f9 8a bd dd 54 bd bd c0 a9 5f 3c 79 e9 5a bd
       -0.06785951 -0.09244702 0.013651311 -0.053445313
0001a0 ee 2d 88 bc ad 04 2d 3d 1b 90 1a bd 0b b6 00 3d
       -0.016623463 0.042240787 -0.037735086 0.03142361
0001b0 34 bf 92 bd c6 30 8d bd 90 7c fc 3d bf 71 ac 3d
       -0.07165375 -0.068940684 0.12328446 0.08420133
0001c0 1f 9a bb bd 00 2b 92 3c 70 48 95 bd e6 cf 9a bd
       -0.09160256 0.01784277 -0.07289207 -0.07559185
0001d0 ce a0 a7 bd 4e d9 8e 3d 30 04 6c bd 24 dd 64 bd
       -0.08184968 0.06975041 -0.05762118 -0.05587496
0001e0 e6 ed b6 3d e1 b9 d2 bc fc b8 8f bd 21 76 8d bd
       0.08932094 -0.0257234 -0.07017705 -0.06907297
0001f0 c4 04 37 3d a8 3a b9 3d 47 3a 91 bd a2 d6 73 bd
       0.04468228 0.09044391 -0.07091194 -0.05953086

layers.3.weight f4 [128, 128]
000000 6f 42 08 be 26 69 04 3c 92 8f ab 3d 4c 25 19 3e
       -0.13306592 0.00808171 0.08376993 0.14955634
000010 49 2c ce 3c 08 80 e8 3d 2c a7 cf 3d f3 cb a1 bd
       0.025167601 0.11352545 0.101393074 -0.07900228
000020 0c 81 d3 3d 37 d5 06 3e 90 40 e6 bd ed a3 63 bc
       0.10327348 0.13167273 -0.11242783 -0.013894063
000030 94 94 ec 3d 22 94 12 be a9 c9 98 3d 78 17 cc bd
       0.115517765 -0.1431432 0.074603386 -0.09965414
000040 b7 ec 70 bc 53 45 24 3e aa c6 e2 bd f2 ab 23 bd
       -0.014704875 0.1604207 -0.110730484 -0.0399589
000050 07 b1 9a bd 56 b4 a5 bc 77 a6 c7 bd 75 af 05 be
       -0.075532965 -0.020227592 -0.097485475 -0.13055213
000060 9a ac 4f bd 11 43 7f 3c ef f6 00 be c9 ea 97 3d
       -0.050701715 0.015579955 -0.12594198 0.074178286
000070 ef 02 f5 bd 5a d6 11 3e 09 c0 ae bc 52 11 a5 bd
       -0.1196345 0.14241925 -0.021331804 -0.08059944
000080 ef 2c d2 bd a3 95 32 3d 79 7f c7 bd 25 22 cf 3d
       -0.10262477 0.043599736 -0.0974111 0.101139344
000090 90 0a 0f 3e 72 4b 23 3e 3a 92 8a bc 3c cc b1 3d
       0.13968873 0.15946749 -0.01691543 0.08681533
0000a0 ab 12 4b bc e9 30 17 be 86 bc ee bd b0 85 26 bd
       -0.0123945875 -0.14764751 -0.11657052 -0.040654838
0000b0 18 f4 30 3c c0 89 29 3d 20 4b f3 3b 7d 07 02 3e
       0.010800384 0.041391134 0.007424727 0.12698169
0000c0 10 9e 80 3d 53 5c 10 be ad ac 8e 3d 5f 58 d9 3c
       0.06280148 -0.14097719 0.06966529 0.026531396
0000d0 51 d1 c7 3d d6 d9 3d be f0 9f 4a 3d bd ce 86 3d
       0.09756721 -0.18540129 0.049468935 0.06582401
0000e0 de 6c f5 3d 8d bf e5 3d 35 65 06 be 63 db 01 be
       0.119836554 0.11218176 -0.13124545 -0.12681346
0000f0 3e 9a 1f 3d e2 f7 bc 3d cd 99 03 3e db c2 bd bd
       0.038965456 0.092269674 0.12851639 -0.09265681
000100 51 33 13 be 5b d9 7a 3d 5b 0b 91 3c a5 9c e0 bd
       -0.14375044 0.061242443 0.01770561 -0.109673776
000110 af 60 87 3d ba 85 b3 bd 82 33 3a 3d ab 91 15 be
       0.06610238 -0.08765741 0.045459278 -0.14606349
000120 4c b7 ec bc 08 34 96 3d 80 56 11 bd bb bd 3e 3d
       -0.028895997 0.07334143 -0.035482883 0.04656766
000130 6a 11 9b bd 07 fb a4 bd 74 c7 2f bc 82 6b 6a 3c
       -0.07571681 -0.08055692 -0.010728706 0.014307858
000140 39 97 8b 3d 9e 69 9b bd 9c 93 d2 3b e1 d4 a2 bd
       0.06815953 -0.07588504 0.006426288 -0.0795076
000150 a2 e2 85 3c 70 7e f6 bd e8 91 f1 3d a6 35 b2 3d
       0.016343419 -0.12035835 0.117954075 0.08701639
000160 f5 9f c1 3d 23 df 0b be e8 32 19 be 28 9d f0 3b
       0.094543375 -0.13659339 -0.14960825 0.0073429532
000170 23 29 a3 3b db bc bf bd 47 f7 f5 bd 59 5d c6 bc
       0.004979269 -0.09362193 -0.12010055 -0.024214434
000180 b1 c2 8b bd b0 33 3f bd ff 4b 24 3d aa 37 7d bc
       -0.06824244 -0.046680152 0.040111538 -0.015455166
000190 06 6b a1 3d 2a 2f 81 bd f8 1e 1d bd f1 f5 b1 bc
       0.07881741 -0.06307824 -0.038359612 -0.02172372
0001a0 cc a7 c3 3c 52 00 96 bd d1 06 22 be f3 d1 1c be
       0.023883723 -0.0732428 -0.15822913 -0.15314464
0001b0 41 9f 1c be 08 7a 94 bc e0 2d dc 3d 21 af 3d 3d
       -0.15295126 -0.018124595 0.107509375 0.046309594
0001c0 6c 9c 3d 3d d4 81 94 3c 6f 44 08 3e 53 4b 99 3d
       0.046291754 0.018128313 0.13307355 0.0748507
0001d0 c3 f9 d9 bc c4 8c 12 3e e1 1a bb bc 24 8f f1 3c
       -0.026608353 0.1431151 -0.022839965 0.0294872
0001e0 88 9d e7 3c 6a 94 95 bd d8 98 11 3e a0 64 03 3e
       0.028273359 -0.07303698 0.14218462 0.12831354
0001f0 31 63 99 3d 0f c8 c2 bd 15 38 e7 3d 79 b4 35 bd
       0.074896224 -0.095108144 0.11289994 -0.044361565
000200 82 8f 36 3d 48 54 ff bd 85 dd ba 3d c4 d4 29 3e
       0.044570453 -0.12467247 0.09124283 0.1658507
000210 f0 de 66 bd df b8 b4 3d cc 71 81 3d c1 54 ff 3d
       -0.056364954 0.08824324 0.06320533 0.124673374
000220 cd 01 f3 bb 16 a2 82 bd e2 9c 0f be 9d 56 e1 bc
       -0.007415986 -0.06378572 -0.1402469 -0.02750712
000230 88 2d 0b 3e 97 a4 93 3c aa 62 2b 3d f2 72 c7 3d
       0.13591588 0.018022818 0.04184214 0.09738721
000240 04 53 18 bd f5 50 8c bc b0 87 e1 3d 67 32 10 3e
       -0.037188545 -0.017128447 0.110122085 0.14081727
000250 a3 ea ef 3d 7b 8c 19 3d ea e3 04 be 2d 5c 0e 3e
       0.11714675 0.03748749 -0.12977567 0.1390235
000260 ed ce 08 3c 4b 10 38 bb ca d3 0e bb 1c ed e6 3d
       0.008350116 -0.0028085883 -0.0021793717 0.11275694
000270 11 35 c0 bd f8 a6 c7 bd 54 53 ef 3c 2e 19 fb 3d
       -0.093851216 -0.09748644 0.029214539 0.12260662
000280 50 f8 87 3d c5 8b 13 3e c0 19 db 3d a3 40 95 3d
       0.06639159 0.14408787 0.10698271 0.07287719
000290 74 66 e3 bc 40 fa a8 bc e2 c0 be bd b4 ee 0e 3d
       -0.027758814 -0.020627141 -0.09314133 0.034895614
0002a0 fc 1c 29 3e c9 b0 35 3d 01 05 4e 3d cc 7b b0 3c
       0.16514963 0.04435805 0.05029774 0.021543406
0002b0 64 16 4d bb c2 1c 88 3d f3 fb ea 3d ac bf ba 3c
       -0.0031293863 0.0664611 0.11473837 0.022796474
0002c0 ca 85 ad 3d eb 27 17 3e cd a2 96 bd 3b 90 0c 3e
       0.08472784 0.14761321 -0.073552705 0.13726895
0002d0 f8 03 22 be 35 da ab 3d 4a da 79 bd aa a1 be 3d
       -0.15821826 0.08391229 -0.060999192 0.09308179
0002e0 97 3f 42 3d b3 3d 87 bd 43 31 04 3e 7d 20 1b be
       0.047423925 -0.06603565 0.12909417 -0.15149112
0002f0 7c 74 67 3c 87 38 19 3e dc 51 1a be b6 68 0a 3e
       0.014126893 0.1496297 -0.1507029 0.13516507
000300 7c 81 f3 bd 2c 43 15 bd 8e 30 28 bc 44 c8 cc bb
       -0.118899316 -0.036441013 -0.010265483 -0.0062494595
000310 14 c7 d6 3d 6e 8c aa 3d cf 93 e5 bd b2 1c 1e be
       0.1048719 0.08327566 -0.11209833 -0.15440634
000320 f7 7d 0c 3e 1a f9 66 bd ce 17 0c 3e 69 df 71 3d
       0.13719927 -0.056389906 0.13680956 0.05905095
000330 20 a4 d8 3c 8b f2 15 3e b5 69 c6 3d a8 d0 b6 3b
       0.026445448 0.14643304 0.09688131 0.005579073
000340 d5 cd 05 3e a5 0a e8 3d 27 e1 c2 bd 2a a1 f8 3d
       0.130668 0.11330155 -0.09515601 0.121401146
000350 44 d8 e1 bd 20 bf ca 3d 37 75 75 3d 4f 8f 0f bd
       -0.110275775 0.098997355 0.059926238 -0.03504878
000360 31 fa 04 3e 28 db 08 3d 47 7a e6 3d 3b d8 51 3c
       0.12986065 0.03341213 0.11253791 0.012807901
000370 b9 e9 b0 bd 2b 65 70 bd 65 16 35 bc f1 10 ee bc
       -0.08638329 -0.05869023 -0.011052703 -0.029060813
000380 e3 b0 98 3c 72 c5 9b bd 40 99 9f 3d 77 a8 f6 3d
       0.018639034 -0.07606019 0.07792902 0.12043851
000390 b8 46 85 bc 40 02 7d 3d 23 22 f7 bd 24 2c f1 3c
       -0.016269073 0.061769724 -0.12067058 0.029439993
0003a0 a5 97 a6 bd e5 54 e7 3d b1 68 ee 3d 49 ee ea 3d
       -0.08134393 0.11295489 0.11641062 0.114712305
0003b0 d9 d0 4e 3c 47 8c ab bd 30 ef 12 3e 6b e7 06 be
       0.012623035 -0.08376365 0.14349055 -0.13174216
0003c0 50 91 1b bb e4 fc 14 3d 12 7a 84 3d 7e e8 9d bd
       -0.0023737736 0.036373988 0.064685956 -0.0771036
0003d0 63 cb 3f 3d 5c 21 84 bc d7 81 83 3d 33 8c ea 3d
       0.046824824 -0.016129188 0.06421249 0.11452522
0003e0 41 c0 90 bd f8 9a 76 3c a7 f4 12 be c5 f3 4e 3d
       -0.070679195 0.015051596 -0.1435114 0.050525445
0003f0 1d 35 a5 bd 8d 1c aa 3d 62 6b 95 3c 21 ce 35 bc
       -0.08066771 0.08306227 0.01823968 -0.011096508

layers.3.bias f4 [128]
000000 6a 59 c4 bd 17 b3 ad bd e3 0d 56 bc 94 18 97 3c
       -0.09587367 -0.08481424 -0.013064834 0.018444337
000010 22 d5 46 bd aa ea 97 bd 38 9a ac bc d4 ae 47 bc
       -0.048543103 -0.074178055 -0.021069631 -0.012187678
000020 49 a2 a5 3c f3 be c1 3d ba f6 fb 3c a8 0d a8 3d
       0.020218985 0.09460249 0.030757297 0.0820573
000030 58 20 66 3d 21 05 64 3d 24 e4 88 bc d9 b3 a8 bd
       0.05618319 0.055668954 -0.016710348 -0.08237428
000040 ef be 34 bd 1a 21 04 bc 5a ea ba 3c 2f 75 0e 3d
       -0.0441274 -0.008064533 0.022816826 0.034779724
000050 97 1b 0d bc dc 30 75 bd da 0e de bc 35 96 36 bd
       -0.008612535 -0.05986105 -0.027106691 -0.044576842
000060 8a ed 46 bd 76 3e 56 bd e3 b2 ac 3c 70 b5 cd bd
       -0.04856638 -0.05230566 0.021081394 -0.10044372
000070 f0 d9 b2 3c 67 a9 9c bd c2 e2 5a bd bd c4 bf bd
       0.021832436 -0.076494984 -0.05343891 -0.09363697
000080 ac a5 33 3d 21 c4 bb 3d 35 d7 a6 bd 85 9d 79 3d
       0.04385917 0.09168268 -0.08146516 0.060941238
000090 2f 73 3a bd d2 f5 aa 3c e4 07 26 3d ed 07 ae bc
       -0.045520004 0.02086917 0.04053487 -0.021244014
0000a0 c8 f2 41 3c 51 a7 32 bd 14 7e 5a bd 2e c7 98 3d
       0.011837669 -0.043616597 -0.053342894 0.074598655
0000b0 f1 bf 37 3b 77 e1 fa 3b 52 05 7a 3c 1e 3b 25 bd
       0.002803799 0.007656272 0.0152600575 -0.04033958
0000c0 30 e2 8b 3d 55 49 11 3c 6d 2f df 3c 63 e5 92 3d
       0.06830251 0.008867581 0.027244294 0.07172658
0000d0 14 6b 75 3d 57 9f a2 bd 9e ce 84 3d 0c de 60 3c
       0.05991657 -0.07940548 0.064847216 0.013724815
0000e0 9c e0 27 bd 48 31 84 bd f4 01 0d 3c 1f a2 47 bc
       -0.04098569 -0.06454712 0.008606423 -0.012184649
0000f0 19 cb 86 3b 91 13 15 bd 82 63 6e bb ad 20 57 3d
       0.0041135666 -0.036395613 -0.003637523 0.052521396
000100 75 93 5a bd fd f3 13 bd 4b 1c 4b bc e9 6e 96 3d
       -0.053363282 -0.036121357 -0.012396882 0.07345373
000110 c8 79 a7 3c 4c c1 88 3d 3e 55 c8 bc f2 18 7e bc
       0.020443812 0.066774935 -0.02445471 -0.015508877
000120 58 66 01 3d 0e de 3b bd 1e 2a a5 bd 0e 90 aa 3d
       0.031591743 -0.045866065 -0.08064674 0.083282575
000130 a4 d4 18 bb 77 bb b6 bb 2d 7b 65 3d 2c 0f 5f 3d
       -0.0023320103 -0.005576547 0.056025673 0.05445783
000140 7f 02 e9 bc d6 9c 19 bd 2d 45 52 bd 54 53 a9 3d
       -0.028443573 -0.037503086 -0.051335502 0.08267847
000150 c7 24 2a bd 93 ce 4d bd 74 9b c3 bc b2 b8 49 3d
       -0.04153898 -0.050245833 -0.023877837 0.049248405
000160 9d a4 08 3d ba 6d 2b bd e4 e2 af bc 0a 8f ab 3d
       0.033360112 -0.04185269 -0.021470495 0.08376892
000170 86 cf 95 3d 02 d4 9b 3d a0 6a 76 bd a8 9d dc bc
       0.073149726 0.07608797 -0.06016028 -0.026930645
000180 32 b5 2d bd 04 ea a6 3d b2 e7 47 bd be 90 55 bd
       -0.04240913 0.08150104 -0.048804946 -0.05213999
000190 8f a8 45 3d cf 87 b4 bd 78 b5 f0 3c c5 d0 8c 3c
       0.048256453 -0.08814966 0.029383406 0.017189393
0001a0 a6 63 a2 3d 46 9b 80 3d d1 cb 12 3d 38 17 c0 3d
       0.07929163 0.06279616 0.035838906 0.093794286
0001b0 fe 62 b7 3c 00 20 59 3d 9a cd de bd da 05 85 3d
       0.02238607 0.053009033 -0.10879059 0.06495257
0001c0 be 78 8c 3c 98 e4 49 3d 35 bb 66 bc 36 7c 16 3b
       0.017147418 0.04929027 -0.01408272 0.002296222
0001d0 c0 1b 93 bd 34 44 a2 bd 97 86 2a bd 4d 42 91 bd
       -0.07183027 -0.07923165 -0.04163226 -0.07092724
0001e0 50 b5 40 3c 71 4e 9e 3b 0d e9 a2 bd 69 6a b1 3d
       0.011761978 0.0048311283 -0.07954607 0.08662874
0001f0 7c 39 83 b9 12 03 80 3c b3 2e 33 bd 37 35 7a 3d
       -0.00025029096 0.015626464 -0.043745708 0.061085906

layers.4.weight f4 [128, 128]
000000 fc 3c b5 39 7a 5a 15 3c 3b 6c a8 bd 41 20 48 3c
       0.00034568447 0.00911581 -0.08223768 0.012214721
000010 44 12 0d 3e 9e ec 03 be 71 44 98 3d 8f 45 25 bd
       0.13776499 -0.12883231 0.07434929 -0.04034954
000020 0b 47 e8 bd e3 eb a7 bd 08 4d 0a 3e 1e 8f f9 bd
       -0.11341675 -0.08199289 0.13505948 -0.121855006
000030 98 be c1 bd 43 9c 0e 3c 1d b8 d0 3c 0a ae cf bd
       -0.09460181 0.008704248 0.025478417 -0.10140617
000040 48 93 fd 3d 24 cd 22 3e 4f ec 0d bd cd a0 a3 3d
       0.12381607 0.15898567 -0.03464919 0.07989655
000050 ca a2 ea 3c f1 2d eb bd a5 4e 13 be 89 26 7e bd
       0.028642077 -0.11483372 -0.1438547 -0.06204847
000060 ae c8 90 bc c7 4c a2 bd 26 35 ff bc 66 b6 de bd
       -0.017673817 -0.079248 -0.031153273 -0.108746335
000070 ae a8 c0 3c 01 c8 3b bd d8 59 a0 3d 04 94 3f 3d
       0.023517933 -0.045845035 0.07829636 0.046772018
000080 fc d7 04 be 42 c4 04 be 90 ae ac 3d 93 ab 28 bb
       -0.12973017 -0.12965491 0.08431733 -0.0025737032
000090 19 58 da 3d d5 92 8f 3d d6 0a 44 3d 67 a0 8a bd
       0.106613345 0.07010428 0.047861896 -0.067688756
0000a0 10 ca b6 3d af 04 01 3e df 12 a1 3c ac 84 34 bd
       0.08925259 0.12599443 0.019662319 -0.04407184
0000b0 97 4c 05 3d de 96 1c be 23 fb 12 be 6c 9e 0c 3e
       0.032543745 -0.15291926 -0.14353614 0.13732308
0000c0 ac 04 d6 bd 19 1d f7 3d 22 e8 f3 3d e0 93 0c 3e
       -0.1045011 0.12066097 0.1190951 0.13728285
0000d0 79 f1 02 3e 0e 06 d3 bd 7b 3f 00 3e c5 01 c5 bd
       0.12787427 -0.10303889 0.12524216 -0.09619478
0000e0 09 ea 51 3d b3 c6 61 3d 27 63 fc 3d c4 bf fa 3d
       0.051248584 0.055121135 0.12323599 0.12243608
0000f0 57 a4 a3 3d bf 27 6f bd b1 e9 23 be a1 c9 77 ba
       0.0799033 -0.058387514 -0.16007115 -0.00094523473
000100 01 06 10 bd db d8 15 3d dc ba b0 bd 11 b5 11 be
       -0.035161976 0.036583763 -0.086293906 -0.14229228
000110 f5 c2 fd bd aa 0c c1 bc 40 c7 9e bd 09 61 5e bd
       -0.12390701 -0.023565609 -0.07752848 -0.05429176
000120 2f 58 93 bd 9d b3 11 be 73 8c ab bc 73 62 8e 3d
       -0.07194554 -0.14228673 -0.020940995 0.069523714
000130 ba c2 65 3c 07 b3 97 3d 3a 15 6e bd 32 69 cd bd
       0.014023477 0.07407194 -0.058125712 -0.1002983
000140 98 21 fc bd 1e a2 3d bc ec ff 38 3d 68 54 32 3d
       -0.12311095 -0.011574296 0.04516594 0.043537527
000150 ed b7 81 3d 04 f8 c9 bc f8 87 c8 3c 9b 8c 04 3e
       0.06333909 -0.024654396 0.024478897 0.12944262
000160 d7 ca 80 bb 4b 7a 36 bd ca 4a df bd 59 97 8c bd
       -0.0039304304 -0.04455022 -0.10902937 -0.06864805
000170 c7 11 0a be 4e 2a 02 bc d4 a4 7c bd e0 58 d1 bd
       -0.13483344 -0.007944657 -0.06168063 -0.1022203
000180 58 44 97 bd e3 3e af bd d8 03 20 be 64 1b 13 3e
       -0.073860824 -0.085569166 -0.15626466 0.14365917
000190 e3 ac 80 bd 18 62 b4 3c 86 a4 be bd 1a d5 0f be
       -0.062829755 0.022019431 -0.09308724 -0.14046136
0001a0 f3 6c dd bd 40 b1 89 bd 20 e3 10 bd 44 29 10 bd
       -0.10811796 -0.06723261 -0.035372853 -0.035195604
0001b0 d6 61 db bd c2 e7 4f bd 56 7e c4 bd a4 43 fb bd
       -0.1071202 -0.05075813 -0.09594409 -0.12268761
0001c0 12 20 96 3d cc 40 03 be fe aa 0b be 02 be 3d 3b
       0.07330336 -0.12817687 -0.13639447 0.0028952365
0001d0 81 1f 49 bd bc a5 fe 3d a3 6b 95 bd de a2 f8 3d
       -0.04910231 0.12433955 -0.07295921 0.121404395
0001e0 60 e4 8f 3c 65 3f 8c bd db c8 89 bc 9f f7 8d 3d
       0.017564952 -0.06848029 -0.016819408 0.069319956
0001f0 24 17 f7 3c 24 1c 9c bd 93 77 a6 3c 52 34 01 3c
       0.030162401 -0.07622555 0.02032069 0.007886009
000200 a8 08 0c bd 7e 5b 1c be 82 e1 39 3d b1 56 c5 3d
       -0.034187943 -0.15269276 0.045381077 0.09635676
000210 98 6e 5e 3d 64 ed 83 bc 49 71 5c 3d 6d 33 d0 bd
       0.05430469 -0.016104408 0.053818975 -0.10166059
000220 df 60 0c be 39 71 be 3d 68 9a 36 bd ba ea ad bc
       -0.13708828 0.09298939 -0.044580847 -0.02123009
000230 bd d6 67 bd e3 50 e6 bc a3 42 03 be 14 c1 ed bd
       -0.056601275 -0.028114742 -0.12818389 -0.11609092
000240 20 67 c8 bd 07 91 3b 3d f9 ad a7 bc 5a 55 9b bc
       -0.097852945 0.045792606 -0.020468699 -0.018961597
000250 78 9f 00 3e 0b 09 ab bb a8 51 30 bc 24 c4 93 bc
       0.12560833 -0.005219584 -0.010761656 -0.018037863
000260 4c 1a 13 be 43 7b 37 3d 7f 3a 7a 3c aa fa 80 3d
       -0.143655 0.044795286 0.015272736 0.062978104
000270 3a 75 bf bd 25 d5 3a bd 89 d9 81 bd 13 3f 8b 3d
       -0.09348531 -0.045613427 -0.0634032 0.0679914
000280 51 b3 c0 bc 04 7b 06 be 41 b3 c2 3d 2b 6b cb 3d
       -0.023523005 -0.13132864 0.09506846 0.0993255
000290 e6 1f 9f 3d 81 f4 62 3c b5 db ca bd 2b 05 ca 3d
       0.07769756 0.01385224 -0.09905187 0.09864267
0002a0 6d c0 c7 bd 92 1c e8 3b a2 3e 33 bd 22 06 ff bc
       -0.09753499 0.007083484 -0.043760903 -0.031130854
0002b0 06 ae bd bd 52 99 bf 3d 5a 75 22 3e 38 b5 8f 3d
       -0.09261708 0.093554154 0.15865079 0.070169866
0002c0 4c b2 18 3e a0 5b cd 3d 3c 5c da bd f9 95 9c bc
       0.14911765 0.10027242 -0.106621236 -0.019114481
0002d0 00 7a 89 bc a2 0b d8 3d d9 b4 c5 3d 7d dd 76 bb
       -0.016781807 0.10549094 0.096536346 -0.0037668638
0002e0 2c b5 fb bc c6 52 ad 3d 1b e1 a8 3d 04 64 c2 bc
       -0.030726038 0.084630534 0.082460605 -0.023729332
0002f0 20 72 4a bd 5a d6 0f be e6 7c 8c 3d 59 71 04 3e
       -0.049425244 -0.14046612 0.0685976 0.12933864
000300 25 31 04 3e 22 6d 71 3d 60 0e be bd 6f 21 a8 3c
       0.12909372 0.058941968 -0.092800856 0.020523755
000310 0b f7 80 bd 2b 23 9c bd 3b 5b ea 3d d4 ac 47 3b
       -0.0629712 -0.07623895 0.11443182 0.0030468004
000320 21 14 53 bd 89 c1 10 3e f9 fe 6d 3c d5 18 e0 bd
       -0.05153287 0.14136328 0.014526122 -0.10942236
000330 22 04 8b bd 7f ba c5 ba ab e4 e1 3c c0 5d ce 3d
       -0.06787898 -0.0015085487 0.027574858 0.10076475
000340 73 e9 eb 3d 01 74 d6 bd 19 9c cc bd f5 a0 e8 3d
       0.11519136 -0.10471345 -0.09990711 0.11358825
000350 c1 8f 13 be fd 14 b3 3c 50 f8 65 bd bf 2f e8 bd
       -0.14410307 0.021860594 -0.056145012 -0.11337232
000360 cd c9 c4 ba 77 59 8c bd 31 83 af 3d f7 52 ad 3d
       -0.0015013755 -0.068530016 0.08569945 0.0846309
000370 99 cd 46 3d c3 24 a9 3c 53 90 fa 3d dc c1 9b bc
       0.048535917 0.020647412 0.12234559 -0.019013338
000380 80 72 44 3d 7f 3b 1e 3d b6 e8 ed bd ab f6 f7 bd
       0.04796076 0.03863096 -0.11616652 -0.12107595
000390 1c 52 a4 3d fc 6c c8 3d 2b 57 a5 3c bc fc 12 be
       0.080234736 0.09786412 0.020183166 -0.14354223
0003a0 6d 7c ed 3d 6d b0 fc bc fc 0a 16 bd 4d 72 b9 bd
       0.11595998 -0.030845845 -0.03663157 -0.09055004
0003b0 86 7a a0 3d fc ca ad bd 81 11 e3 bd 5d 87 7e 3d
       0.078358695 -0.08485982 -0.11087323 0.06214081
0003c0 8b fe b9 3d 34 24 f1 bd ec db 1d bc 64 ff d2 bd
       0.09081753 -0.11774483 -0.009634953 -0.10302618
0003d0 1c 6a ff bd 98 49 0f 3e b2 c5 75 bd 19 d6 9b bd
       -0.12471411 0.13992918 -0.06000299 -0.07609195
0003e0 0f a2 6a 3d ec c1 b2 bd dc ce c3 bc 2d 99 f7 bc
       0.057283457 -0.08728394 -0.02390235 -0.030224407
0003f0 23 3b ed 3c af e3 58 3d 9d e3 ad 3d 29 8e 14 3e
       0.028958863 0.05295151 0.084906794 0.14507355
