model_B/pinn_model166.pth (torch, 472610 bytes, 17 tensors)

layers.0.weight f4 [128, 6]
0.17889827 -0.10963008 0.2054791 -0.18207495 0.058715377 0.037682284 0.13561067 0.11050867
-0.11938297 0.15552 -0.0044089397 -0.059211563 -0.053319026 -0.20585544 -0.13110925 -0.17549327
0.2269375 0.0057777986 0.104766615 -0.10005861 0.041747045 0.045630217 0.15662245 0.1699745
-0.08503932 -0.10850834 0.17050321 -0.15773816 0.14392179 -0.060896162 0.029347364 -0.03839575
0.15156323 -0.17791736 -0.10259734 -0.13373782 0.12802282 -0.045767225 0.18825036 -0.037227955
-0.21893756 0.073663175 -0.1745991 0.18093209 0.18441907 0.15357544 0.1843878 -0.18844901
-0.13160095 -0.211436 -0.06725099 -0.046514582 -0.0010526195 0.03068473 0.110611275 -0.1242257
-0.026782831 -0.051491167 0.06496153 0.04038918 0.09454471 0.18268378 -0.06080054 -0.063235596
0.12376186 -0.18881604 -0.087159336 0.032107297 0.1259449 0.11863867 -0.15467444 -0.07624053
0.17329293 -0.23377816 -0.15363604 0.035455678 -0.022172552 -0.09429323 -0.031439546 0.1982493
-0.072431736 0.19198692 -0.09189645 -0.0042366344 0.012575906 -0.14891838 0.01507566 0.028694237
-0.013724656 -0.13023311 0.16259843 0.048264425 -0.13572818 0.07938366 0.10327436 0.029127033
-0.1265522 -0.07205104 -0.18832368 0.013072722 -0.113395005 -0.055916123 -0.06990441 0.09929697
-0.022260204 -0.08445878 0.12912713 -0.12561871 0.21574044 0.1713919 -0.019453969 0.08147186
0.2065709 0.19183676 0.19043766 -0.16066359 -0.13280739 0.11218767 0.19450197 -0.095860414
-0.07476621 0.0004088609 0.09636846 0.090361066 -0.11475587 -0.19938901 0.118772276 0.08136118
-0.037394054 -0.035847515 -0.06272297 -0.07020317 -0.071278155 -0.18885621 -0.015598516 0.22011583
0.1596249 -0.016828021 -0.08258567 -0.000108447595 0.16090496 -0.081807345 0.002257554 0.14334801
0.1629171 -0.13578352 0.05805869 -0.030582584 0.06381676 0.05744434 0.07654626 -0.0725627
-0.077017054 -0.041557252 -0.10701722 -0.124460764 -0.038995963 0.15768178 -0.1177235 0.12549825
0.13793826 0.09381985 -0.017640736 0.17558481 -0.02762343 -0.12067536 0.077470146 -0.15395871
0.1756857 0.0037808055 0.10579749 0.057246394 -0.20489764 0.15005617 0.1991244 -0.2182841
0.06057718 0.11849558 0.021161694 -0.1122352 -0.04036589 0.06590032 -0.17172761 -0.11880265
-0.12591839 -0.071044676 -0.12653232 0.059644405 0.16831516 -0.19466795 0.021661276 -0.11958254
0.14748904 -0.120844804 0.023069043 0.07822243 -0.12355197 -0.13814926 0.13593571 -0.12460267
-0.22104178 0.18658702 0.18664065 -0.14585215 -0.11381752 -0.17148739 0.23162009 -0.13465759
-0.03863625 0.059608087 -0.031008422 0.0025920598 -0.179702 0.048133865 0.01939729 0.16644128
-0.0059506693 -0.014059436 0.08489073 -0.11959494 0.048860505 0.15588403 0.16764641 0.010237848
0.037975088 -0.01298342 0.08664234 0.15833294 -0.09099678 0.1252076 0.07965804 0.22247045
0.07494213 -0.17117234 -0.08194657 -0.19626632 -0.09362868 0.17262341 0.20602472 0.03015865
0.17641552 -0.19891056 -0.18984166 -0.21555349 -0.16101323 0.08216703 -0.04199562 0.16361716
0.2246054 0.053864073 0.121212564 0.17322321 -0.06802423 0.015053509 0.025097845 -0.19740377
00000000: 1c31 373e bc85 e0bd 1d69 523e db71 3abe
00000010: 897f 703d bd58 1a3d 86dd 0a3e 5f52 e23d
00000020: 0f7f f4bd a340 1f3e de78 90bb d387 72bd
00000030: 0d65 5abd c5cb 52be 8141 06be 82b4 33be
00000040: 4e62 683e b053 bd3b e18f d63d 87eb ccbd
00000050: f3fe 2a3d c0e6 3a3d a361 203e cc0d 2e3e
00000060: 1829 aebd 9f39 debd 6598 2e3e 1d86 21be
00000070: 3c60 133e 416e 79bd e269 f03c dd44 1dbd
00000080: 6433 1b3e f82f 36be 8e1e d2bd 91f2 08be
00000090: 6a18 033e 6a76 3bbd b4c4 403e 577c 18bd
000000a0: 2b31 60be b8dc 963d 1bca 32be 4346 393e
000000b0: 5ad8 3c3e e142 1d3e 28d0 3c3e c7f8 40be
000000c0: 66c2 06be ae82 58be e3ba 89bd 1386 3ebd
000000d0: 0df8 89ba 8b5e fb3c 2a88 e23d 0b6a febd
000000e0: ab67 dbbc 67e8 52bd 8d0a 853d 206f 253d
000000f0: a8a0 c13d 7511 3b3e fd09 79bd aa81 81bd
00000100: dc76 fd3d fe58 41be 9880 b2bd f182 033d
00000110: b3f7 003e d5f8 f23d fa62 1ebe ff23 9cbd
00000120: b473 313e 8b63 6fbe c452 1dbe f939 113d
00000130: 36a3 b5bc cf1c c1bd c1c6 00bd dd01 4b3e
00000140: 1757 94bd 3898 443e 3534 bcbd 77d3 8abb
00000150: 2c0b 4e3c 0f7e 18be e7ff 763c 2d10 eb3c
00000160: 61dd 60bc d45b 05be 3480 263e ebb0 453d
00000170: 54fc 0abe e693 a23d 8281 d33d d19b ee3c
00000180: e696 01be 7f8f 93bd ecd7 40be f82e 563c
00000190: a43b e8bd 4e08 65bd 0b2a 8fbd 365c cb3d
000001a0: 085b b6bc baf8 acbd e739 043e 31a2 00be
000001b0: 10eb 5c3e 5c81 2f3e ee5d 9fbc b8da a63d
000001c0: 5287 533e db70 443e 1702 433e ff84 24be
000001d0: a9fe 07be a6c2 e53d 862b 473e 7752 c4bd
000001e0: 071f 99bd 625c d639 d45c c53d 390f b93d
000001f0: 2005 ebbd a22c 4cbe e13e f33d b1a0 a63d
00000200: 822a 19bd d8d4 12bd e774 80bd aec6 8fbd
00000210: 48fa 91bd 8663 41be eb90 7fbc 0b66 613e
00000220: b674 233e ebda 89bc ad22 a9bd 5c6e e3b8
00000230: 45c4 243e 9c8a a7bd 79f3 133b d2c9 123e
00000240: bed3 263e d60a 0bbe f3ce 6d3d 5488 fabc
00000250: 5db2 823d c24a 6b3d 49c4 9c3d c19b 94bd
00000260: 1ebb 9dbd f037 2abd d82b dbbd 49e5 febd
00000270: 3bba 1fbd 5577 213e 0519 f1bd 9d82 003e
00000280: b03f 0d3e 9f24 c03d 4e83 90bc 81cc 333e
00000290: 884a e2bc a524 f7bd aba8 9e3d 5aa7 1dbe
000002a0: f4e6 333e 64c7 773b 5bac d83d 327b 6a3d
000002b0: b0d0 51be 53a8 193e 44e7 4b3e de85 5fbe
000002c0: c71f 783d d0ad f23d 4a5b ad3c 92db e5bd
000002d0: b456 25bd bff6 863d 5dd9 2fbe ce4e f3bd
000002e0: c0f0 00be df7f 91bd b091 01be b14d 743d
000002f0: cf5a 2c3e 0957 47be fd72 b13c b1e7 f4bd
00000300: 5e07 173e 7b7d f7bd 4afb bc3c 1533 a03d
00000310: d108 fdbd 0077 0dbe bb32 0b3e af2f ffbd
00000320: c758 62be ab10 3f3e ba1e 3f3e 445a 15be
00000330: 2919 e9bd 649a 2fbe d12d 6d3e aee3 09be
00000340: 0b41 1ebd 9c27 743d 6005 febc 8cdf 293b
00000350: cd03 38be 0428 453d 11e7 9e3c 956f 2a3e
00000360: d5fd c2bb 8c59 66bc 31db ad3d 31ee f4bd
00000370: f421 483d 10a0 1f3e 80ab 2b3e a6bc 273c
00000380: c48b 1b3d 69b8 54bc 8a71 b13d 0822 223e
00000390: 855c babd 6c36 003e c123 a33d 4bcf 633e
000003a0: 427b 993d cd47 2fbe 9ad3 a7bd 0afa 48be
000003b0: 65c0 bfbd 31c4 303e 25f8 523e 460f f73c
000003c0: 45a6 343e 36af 4bbe da65 42be 0eba 5cbe
000003d0: a7e0 24be 3047 a83d 9903 2cbd 428b 273e
000003e0: f5fe 653e 93a0 5c3d 4b3e f83d 6d61 313e
000003f0: 4a50 8bbd fea2 763c ff99 cd3c 3724 4abe

layers.0.bias f4 [128]
-0.0017440725 0.12830311 0.20574962 -0.17728026 -0.065189116 -0.11640048 -0.14148003 -0.39251032
0.46337834 -0.14118312 -0.40488327 -0.16831376 0.36723042 -0.20671864 0.4057949 0.19700743
0.34647253 0.17897224 0.2824866 0.012527614 0.3317981 -0.2404702 -0.16226298 0.2641903
0.17554244 0.41352412 0.18519066 -0.048530545 0.22660477 0.14502957 -0.056153722 -0.36192724
0.3833497 -0.16890958 -0.18531387 -0.021549331 0.06439063 -0.38791138 0.18772386 0.19222303
-0.26252013 0.36557412 0.23330653 -0.26555818 0.0632162 -0.22579081 0.16744609 -0.31715566
0.28668472 -0.268048 0.26433492 -0.43266883 -0.3037098 -0.27664146 0.13584676 0.31084043
-0.3607852 0.2778828 -0.34794682 -0.25299582 -0.17412953 0.08231486 0.31647032 0.30310804
0.105273046 0.1308406 0.17321336 -0.15497087 -0.25285515 -0.24834245 0.06929153 -0.21333204
-0.058686126 -0.19388388 -0.36712286 -0.20616587 0.35883003 0.049735345 -0.41846997 0.15726921
-0.33128372 -0.06458648 -0.36807877 -0.20698592 0.22630483 -0.01690456 -0.3007928 0.23437606
0.32377735 0.2312553 0.07823921 0.115964115 0.32988635 -0.18007763 -0.20724066 -0.123252325
0.39961758 0.024770522 0.079982504 -0.17222449 -0.22787267 0.41526872 0.2455515 -0.24575828
0.20403402 -0.38762546 0.21021922 -0.13012514 0.3838662 -0.2762039 0.22599463 0.029435186
-0.13318701 -0.32096758 -0.22424473 -0.39258713 -0.3154399 0.21091186 0.044658378 0.14334507
0.30304956 0.030818323 0.012648622 -0.024803339 -0.28821018 0.32737118 0.21514182 -0.023931114
00000000: 5d99 e4ba e461 033e 07b0 523e f588 35be
00000010: df81 85bd 6063 eebd 24e0 10be 1df7 c8be
00000020: ed3f ed3e 4f92 10be dc4c cfbe 715a 2cbe
00000030: a005 bc3e 0dae 53be 59c4 cf3e 51bc 493e
00000040: d964 b13e 8044 373e 15a2 903e 9f40 4d3c
00000050: 71e1 a93e d23d 76be 4428 26be f343 873e
00000060: 66c1 333e 6fb9 d33e 9fa2 3d3e f7c7 46bd
00000070: 150b 683e a282 143e 7201 66bd 874e b9be
00000080: 6946 c43e a2f6 2cbe ebc2 3dbe 3988 b0bc
00000090: 3cdf 833d 529c c6be af3a 403e 1dd6 443e
000000a0: 0a69 86be 882c bb3e e8e7 6e3e 3ef7 87be
000000b0: 7f77 813d b535 67be fd76 2b3e 3a62 a2be
000000c0: 57c8 923e 963d 89be e856 873e c586 ddbe
000000d0: da7f 9bbe f3a3 8dbe 6a1b 0b3e 7a26 9f3e
000000e0: d6b8 b8be a846 8e3e 1626 b2be ab88 81be
000000f0: 034f 32be b194 a83d 6608 a23e fa30 9b3e
00000100: 6599 d73d 14fb 053e d85e 313e afb0 1ebe
00000110: 3b76 81be 7c4d 7ebe b8e8 8d3d b773 5abe
00000120: dd60 70bd 7f89 46be 87f7 bbbe 251d 53be
00000130: 92b8 b73e 4ab7 4b3d b241 d6be 2e0b 213e
00000140: 059e a9be eb45 84bd d274 bcbe 1ef4 53be
00000150: 74bc 673e 6f7b 8abc 8401 9abe 4700 703e
00000160: 25c6 a53e 30ce 6c3e e13b a03d 987e ed3d
00000170: dde6 a83e 4566 38be e536 54be b76b fcbd
00000180: ad9a cc3e 8deb ca3c decd a33d 9e5b 30be
00000190: 7457 69be 1a9e d43e da71 7b3e 0fa8 7bbe
000001a0: 4bee 503e d876 c6be b543 573e 863f 05be
000001b0: 1c8a c43e 996a 8dbe 236b 673e 0f22 f13c
000001c0: 2d62 08be dd55 a4be 69a0 65be 2e01 c9be
000001d0: 5781 a1be 47f9 573e b4eb 363d 0dc9 123e
000001e0: 5029 9b3e b576 fc3c 2a3c 4f3c 5f30 cbbc
000001f0: 4990 93be 329d a73e 234e 5c3e 2f0b c4bc

layers.1.weight f4 [128, 128]
0.089885294 -0.054964896 0.110871226 -0.047274143 0.043166142 -0.050905563 -0.10319112 0.1096922
-0.13837413 0.101006895 -0.01466928 -0.09943985 -0.09430971 -0.1388473 0.021339647 -0.016043663
-0.07091728 -0.14797485 0.12547107 -0.06086136 -0.013792807 -0.007906092 0.059552163 0.006145705
0.12028913 -0.11175316 -0.11459692 0.076425396 0.045441277 -0.06045259 -0.048116483 0.10280422
-0.050960854 -0.12371043 -0.09704327 0.029456789 0.069443785 0.12518223 0.15339811 -0.108926095
0.038221087 -0.101870984 -0.02098681 0.10950331 0.065283515 -0.044157784 0.01805212 -0.03935142
0.13125104 0.081931196 -0.114207946 -0.048079815 0.1399407 0.18162557 -0.06497248 -0.08976465
-0.07825175 -0.038531285 0.05414049 0.025360608 -0.09892626 -0.059339594 -0.010729074 0.14927518
0.020753156 0.12741584 0.1057178 0.14332193 0.06920629 -0.04124924 -0.049323153 0.0036776525
-0.075797126 -0.04093781 0.024875509 0.13617013 0.09112409 -0.033242073 0.06716008 -0.010398352
-0.02190119 -0.13604589 0.16096295 0.106584504 0.10119166 0.008263528 0.038248233 0.0011156648
0.12038552 0.109869614 -0.09985215 -0.041921064 -0.077630885 -0.045606565 -0.06627496 0.12498079
-0.114367135 -0.061466638 -0.1516442 0.077607356 0.100664794 -0.09353062 -0.0042169634 -0.058265135
0.11671174 0.104926586 0.0049461494 0.061832156 -0.1450811 0.02181418 -0.0072615277 0.062626466
0.13893983 -0.028599478 -0.094863996 -0.021569522 0.011300394 0.049985196 0.14552973 0.079509504
-0.13040026 0.04869372 0.05151458 0.14722866 0.14382288 0.06544613 -0.10974893 0.047204934
-0.13955903 0.06598454 0.0867422 -0.0023790626 0.11114089 -0.091825806 -0.03545525 -0.07329027
0.044703018 0.047393348 -0.07126964 -0.082370624 -0.09550079 -0.019928798 0.004345906 -0.039142016
-0.029971607 -0.080170415 0.104805075 0.058035687 0.13391754 0.091642715 0.091940865 0.023386193
0.022215202 0.14357057 0.1205825 -0.07028735 -0.13216329 -0.10166392 -0.100078315 -0.104680985
0.15305583 -0.144973 0.08182316 -0.15360902 0.12566903 -0.18826255 0.10915228 -0.10099953
-0.10697123 0.09518134 -0.08014388 -0.016622039 -0.071480185 0.119920895 0.061508074 0.112014055
0.0131768435 0.12548321 -0.0625 -0.13099538 0.047194898 -0.14207171 0.1376262 -0.009369155
-0.119230196 0.16768411 0.055413347 -0.020650992 0.037767727 0.10159035 0.12022709 0.033100482
-0.1543766 -0.11370293 0.12641326 -0.011619884 -0.020498272 0.074625514 0.10788297 -0.12002456
-0.118190326 0.12767589 -0.05847106 -0.07559979 0.07701504 -0.04909591 0.0020254569 -0.12839943
-0.061361857 0.06365628 0.038404282 -0.18228139 0.069687456 0.115679085 -0.03603249 -0.120365225
-0.04182666 0.053353503 -0.06985265 -0.04471994 -0.114511475 0.054620042 0.047882717 -0.12579885
0.05587569 0.11969148 -0.029103862 -0.100140795 -0.14820369 -0.09562209 -0.03704255 -0.013881224
-0.13256617 -0.10394698 -0.120831266 -0.043348655 -0.11328365 -0.113270216 0.08382824 0.053828724
-0.1348391 0.11967454 0.0464621 0.07962638 -0.06860325 -0.110962644 0.012650594 -0.08604689
0.11187951 0.09832602 -0.051056623 0.056039456 -0.11609308 0.10525178 0.087930635 0.021979207
00000000: c815 b83d df22 61bd 7410 e33d 88a2 41bd
00000010: fbce 303d 5a82 50bd de55 d3bd 4ea6 e03d
00000020: f3b1 0dbe b4dc ce3d 6b57 70bc 1fa7 cbbd
00000030: 7325 c1bd fd2d 0ebe 7cd0 ae3c 006e 83bc
00000040: 143d 91bd b886 17be 7d7b 003e c349 79bd
00000050: 3afb 61bc 8e88 01bc f8ec 733d e961 c93b
00000060: 265a f63d d7de e4bd cab1 eabd eb84 9c3d
00000070: a220 3a3d 239d 77bd ca15 45bd 058b d23d
00000080: 54bc 50bd e55b fdbd 9fbe c6bd 5d4f f13c
00000090: 8b38 8e3d c52f 003e 6514 1d3e a514 dfbd
000000a0: b78d 1c3d bca1 d0bd 88ec abbc 4543 e03d
000000b0: 5db3 853d cbde 34bd 0ae2 933c f42e 21bd
000000c0: ac66 063e 8bcb a73d dbe5 e9bd 57ef 44bd
000000d0: 9d4c 0f3e 0efc 393e 4b10 85bd 87d6 b7bd
000000e0: 7442 a0bd fbd2 1dbd 6bc2 5d3d 0dc1 cf3c
000000f0: da99 cabd 130e 73bd ffc8 2fbc 98db 183e
00000100: 8602 aa3c 4c79 023e 9382 d83d fcc2 123e
00000110: 07bc 8d3d f7f4 28bd 1307 4abd c504 713b
00000120: 863b 9bbd 68ae 27bd b9c7 cb3c 2f70 0b3e
00000130: 449f ba3d d728 08bd 398b 893d d95d 2abc
00000140: 206a b3bc 9d4f 0bbe 79d3 243e fa48 da3d
00000150: 933d cf3d c063 073c 2eaa 1c3d 803b 923a
00000160: af8c f63d 5203 e13d 497f ccbd 6cb5 2bbd
00000170: f1fc 9ebd f3cd 3abd 2bbb 87bd eef5 ff3d
00000180: 5139 eabd 71c4 7bbd 9e48 1bbe 9bf0 9e3d
00000190: 5829 ce3d fb8c bfbd 742e 8abb 6ca7 6ebd
000001a0: 9106 ef3d c0e3 d63d 4f13 a23b b743 7d3d
000001b0: 2490 14be a7b3 b23c 1cf2 edbb 4e42 803d
000001c0: 3e46 0e3e 7449 eabc 0e48 c2bd 91b2 b0bc
000001d0: 4a25 393c 47bd 4c3d bf05 153e e1d5 a23d
000001e0: a587 05be 1173 473d f400 533d 1cc3 163e
000001f0: 4e46 133e 9f08 863d 0cc4 e0bd f659 413d
00000200: 90e8 0ebe e722 873d e5a5 b13d 0cea 1bbb
00000210: d69d e33d 2b0f bcbd 8639 11bd 3619 96bd
00000220: 831a 373d 871f 423d d1f5 91bd eeb1 a8bd
00000230: eb95 c3bd b841 a3bc 1a68 8e3b 6153 20bd
00000240: 0487 f5bc 6330 a4bd 0ba4 d63d d4b6 6d3d
00000250: ae21 093e 2daf bb3d 7e4b bc3d 6794 bf3c
00000260: a8fc b53c 2a04 133e f5f3 f63d d0f2 8fbd
00000270: d055 07be 2c35 d0bd dcf5 ccbd fc62 d6bd
00000280: abba 1c3e cd73 14be e792 a73d af4b 1dbe
00000290: 62af 003e e6c7 40be 3b8b df3d d7d8 cebd
000002a0: bb13 dbbd 6fee c23d 7922 a4bd f12a 88bc
000002b0: 3464 92bd 1699 f53d e4ef 7b3d a067 e53d
000002c0: b0e3 573c ac7e 003e 0000 80bd a723 06be
000002d0: 704f 413d 3f7b 11be e2ed 0c3e 1681 19bc
000002e0: f62e f4bd 62b5 2b3e 1bf9 623d 452c a9bc
000002f0: 55b2 1a3d 9a0e d03d 9f39 f63d 5f94 073d
00000300: e614 1ebe 15dd e8bd 7a72 013e 5361 3ebc
00000310: feeb a7bc 43d5 983d bff1 dc3d 70cf f5bd
00000320: c50d f2bd 78bd 023e 5a7f 6fbd 10d4 9abd
00000330: 10ba 9d3d cb18 49bd 87bd 043b 247b 03be
00000340: 9256 7bbd 395e 823d cf4d 1d3d f9a7 3abe
00000350: 4cb8 8e3d 28e9 ec3d ce96 13bd 0b82 f6bd
00000360: 6f52 2bbd 3489 5a3d e80e 8fbd 412c 37bd
00000370: fe84 eabd 44b9 5f3d ab20 443d 6ad1 00be
00000380: e8dd 643d cf20 f53d 396b eebc 9e16 cdbd
00000390: b5c2 17be 84d5 c3bd eeb9 17bd 136e 63bc
000003a0: 6dbf 07be 27e2 d4bd 6276 f7bd 5c8e 31bd
000003b0: 4201 e8bd 37fa e7bd 24ae ab3d 827b 5c3d
000003c0: 4313 0abe ed17 f53d 0b4f 3e3d 2813 a33d
000003d0: dc7f 8cbd 6240 e3bd 7044 4f3c 5a39 b0bd
000003e0: 1621 e53d 275f c93d c020 51bd a189 653d
000003f0: 35c2 edbd 3f8e d73d fa14 b43d bd0d b43c

layers.1.bias f4 [128]
0.027418049 0.08363654 0.07540124 -0.053485487 -0.074670956 -0.07064702 -0.009559631 0.08285608
-0.0061777947 -0.015216151 0.021079736 0.028182587 0.002400801 0.076764636 0.07844885 -0.003959077
0.032903817 0.07046046 -0.0677037 -0.0179761 -0.022710048 -0.06487746 -0.050556716 -0.004100488
-0.057925858 -0.08748243 0.08815369 0.038026523 0.031079622 0.021081552 0.04856019 -0.023285827
-0.029560545 -0.0027356576 -0.050065365 -0.08657741 -0.048665736 0.06486047 0.032136384 -0.08888278
0.005292162 0.00788781 0.0865978 0.12076602 -0.058502316 0.023332193 -0.030102303 0.023985034
-0.0014728553 0.027489461 0.027080566 -0.062152036 0.01707082 0.004086592 0.027193043 0.05849255
-0.09764887 0.07980425 0.08473067 0.03389722 0.07944423 -0.057112683 0.072616674 -0.10526272
-0.030939735 0.08353603 0.07187053 -0.078066446 -0.017565778 0.05585353 -0.03354631 0.036813337
0.0046853265 0.06655227 -0.09075035 0.02178959 -0.05652365 -0.08921337 -0.045029894 -0.04467795
-0.05776157 -0.03419841 0.03184083 -0.030463008 -0.11704687 0.08174869 -0.01242172 0.019012116
-0.03235402 0.031090844 -0.078737974 -0.03406516 -0.033512183 -0.031189319 -0.048311282 0.072057255
-0.043759476 -0.06271879 -0.039172344 -0.039458178 0.029192774 0.031406004 -0.10167402 0.044685293
0.04987056 -0.061954934 -0.065414526 0.15554821 -0.0491431 0.063624814 -0.05969373 0.0006564145
-0.014786259 0.06419685 0.048314054 -0.04131636 0.030978382 -0.03948627 0.09318649 0.044349264
0.057643905 0.04621263 0.012173163 -0.0041378047 -0.07786679 0.057501048 -0.040003464 0.06822623
00000000: d19b e03c a249 ab3d f76b 9a3d 9913 5bbd
00000010: 16ed 98bd 63af 90bd 00a0 1cbc 73b0 a93d
00000020: 196f cabb 2a4d 79bc 69af ac3c 2bdf e63c
00000030: c256 1d3b c736 9d3d caa9 a03d 25bb 81bb
00000040: 27c6 063d 934d 903d 3da8 8abd 9d42 93bc
00000050: 6c0a babc 79de 84bd 8f14 4fbd 635d 86bb
00000060: aa43 6dbd fd29 b3bd ec89 b43d b3c1 1b3d
00000070: b19a fe3c 38b3 ac3c 0de7 463d ebc1 bebc
00000080: f528 f2bc b848 33bb 5711 4dbd 7f4f b1bd
00000090: b955 47bd 91d5 843d 71a1 033d 2d08 b6bd
000000a0: df69 ad3b df3b 013c 305a b13d 2d54 f73d
000000b0: 20a0 6fbd 2823 bf3c 1b99 f6bc 437c c43c
000000c0: d30c c1ba 9431 e13c 10d8 dd3c 2293 7ebd
000000d0: 1bd8 8b3c d1e8 853b f2c3 de3c e295 6f3d
000000e0: 21fc c7bd 6970 a33d 4687 ad3d d0d7 0a3d
000000f0: a8b3 a23d fdee 69bd 0db8 943d fb93 d7bd
00000100: 5475 fdbc f014 ab3d db30 933d 4de1 9fbd
00000110: 1be6 8fbc acc6 643d db67 09bd 95c9 163d
00000120: 5e87 993b 8e4c 883d 52db b9bd 1580 b23c
00000130: 5885 67bd 80b5 b6bd 4471 38bd 3a00 37bd
00000140: 6597 6cbd a213 0cbd 886b 023d 8f8d f9bc
00000150: 45b6 efbd db6b a73d 7884 4bbc 4cbf 9b3c
00000160: a685 04bd 3ab2 fe3c 6041 a1bd e987 0bbd
00000170: 1244 09bd be80 ffbc 0de2 45bd c192 933d
00000180: 233d 33bd b572 80bd 2e73 20bd e69e 21bd
00000190: af25 ef3c 95a3 003d 783a d0bd ed07 373d
000001a0: 1345 4c3d 75c4 7dbd 0df8 85bd 0848 1f3e
000001b0: 464a 49bd ba4d 823d 6a81 74bd 3b13 2c3a
000001c0: 1142 72bc a379 833d f5e4 453d 583b 29bd
000001d0: 60c6 fd3c 5bbc 21bd 8fd8 be3d 93a7 353d
000001e0: 041c 6c3d 7449 3d3d f271 473c 6c96 87bb
000001f0: a078 9fbd 3886 6b3d acda 23bd 32ba 8b3d

layers.2.weight f4 [128, 128]
0.095636494 0.023848057 0.00965451 -0.037496876 -0.037422672 0.10045853 -0.015213758 0.01044742
-0.056920424 0.095012926 -0.0387225 -0.0034170705 0.021173274 0.10482511 0.11884927 0.116274804
0.038024943 -0.1278698 0.06251589 -0.07764029 -0.06657056 -0.009401155 -0.009600341 0.09201898
-0.13330051 -0.06179161 0.057024587 -0.09302769 -0.11732427 -0.11975316 -0.10279083 -0.17806938
-0.15093778 -0.15858947 0.05314936 -0.1191948 -0.036736473 -0.0854614 -0.026770445 0.0699177
-0.026395757 -0.13237461 0.051800247 0.12195526 0.07178932 -0.106681906 -0.13854605 -0.055433508
-0.038352136 0.0322162 -0.07375371 -0.11085483 0.034585427 0.09515382 -0.13030662 -0.06770444
0.09392711 -0.17414202 -0.0069777993 -0.036919888 -0.14538123 -0.068757676 0.09929862 -0.050629966
-0.064323604 0.10356161 0.054841153 -0.08878443 -0.030419996 -0.09772142 0.102028854 0.096774824
-0.1356436 0.1466672 -0.16811273 0.07757697 0.12602274 -0.12637173 -0.048328336 0.062354203
-0.108231746 -0.034157094 -0.02693818 0.11278991 -0.03169389 -0.114636555 0.120985486 0.053899687
0.11031801 0.047421485 0.124806784 -0.06768773 -0.02218264 -0.10465794 -0.1253408 -0.14544185
0.084256046 -0.06933826 -0.04796259 0.027909959 -0.12515512 0.037310705 -0.005260938 -0.16390814
0.12845172 -0.061431527 -0.09571512 0.14037527 0.105412304 0.034328572 0.08447156 0.10420317
-0.10344249 -0.03038405 0.113328144 -0.051856313 0.1115712 -0.025510862 0.04566702 -0.10774623
-0.000559257 -0.0817792 -0.13371283 0.015108365 0.09179654 -0.009186018 -0.12945095 -0.14324383
0.15899315 -0.10621853 0.014876893 -0.08468683 -0.08300131 0.09014663 0.0051468154 0.081458144
-0.12427641 0.020750193 -0.13962147 0.0039841374 0.081313625 -0.09472869 -0.0749715 0.102428146
-0.026236515 -0.14799531 0.029141953 -0.08272927 0.016005648 0.09741967 -0.07970035 0.14991105
-0.009775578 -0.028569112 0.010709956 0.021834694 -0.061157778 0.048796643 0.13231425 0.104522444
-0.008327422 0.07644214 -0.056541115 0.15515657 0.058320843 0.022472627 -0.037848726 0.046296533
0.13217346 0.158298 0.10507764 0.122063845 -0.13310973 0.07468793 -0.13240859 0.07902117
-0.15477785 -0.01335025 0.04518308 0.087891996 -0.025801757 0.08709672 -0.13916807 0.059132606
0.04287645 -0.11527382 -0.07180153 -0.05807938 0.036606014 0.07169917 -0.09417043 -0.1019878
0.02170381 0.07033749 0.12736514 0.0944825 -0.039945636 -0.040290035 0.12803198 -0.06947879
0.06993713 -0.056696754 0.13266076 0.11661251 -0.013196612 -0.07593896 -0.09885026 -0.13440795
-0.15574975 0.10458178 -0.04023103 0.025040984 -0.026447082 0.08492168 -0.040858816 -0.0077404235
0.03867509 0.008513623 -0.007488781 -0.11921515 -0.12430737 0.027563544 0.07773681 0.011091279
-0.078256756 0.07384363 0.065938964 0.11863947 0.105233714 -0.028362267 0.076001756 -0.12358685
-0.027347028 0.02665254 -0.054063767 -0.034666844 0.1283551 -0.10291962 0.031137161 0.00212886
0.019575132 0.01116585 0.09723222 0.11665623 -0.10274948 0.08676535 -0.11692037 0.031720098
0.035826914 0.014490441 0.070371605 -0.03371967 0.09720744 0.05167419 0.14852726 0.13080631
00000000: 11dd c33d 005d c33c f32d 1e3c 5396 19bd
00000010: 8448 19bd 34bd cd3d 2043 79bc a82b 2b3c
00000020: 6425 69bd 2396 c23d 7c9b 1ebd eef0 5fbb
00000030: 9373 ad3c 8cae d63d 3f67 f33d 7c21 ee3d
00000040: 0bc0 1b3d 4df0 02be 5508 803d df01 9fbd
00000050: 2556 88bd 4d07 1abc c04a 1dbc 7274 bc3d
00000060: ee7f 08be 3319 7dbd 9d92 693d 4d85 bebd
00000070: b547 f0bd 2541 f5bd 0084 d2bd d257 36be
00000080: 6f8f 1abe 4765 22be 25b3 593d 671c f4bd
00000090: fc78 16bd 6306 afbd b14d dbbc 0331 8f3d
000000a0: ea3b d8bc 368d 07be 7f2c 543d aec3 f93d
000000b0: 4706 933d 0b7c dabd 04df 0dbe 3f0e 63bd
000000c0: 2117 1dbd 22f5 033d 2f0c 97bd db07 e3bd
000000d0: 73a9 0d3d 02e0 c23d 196f 05be a0a8 8abd
000000e0: db5c c03d 4952 32be 06a6 e4bb 4f39 17bd
000000f0: d1de 14be d3d0 8cbd 135d cb3d 5e61 4fbd
00000100: 18bc 83bd 1c18 d43d 1ea1 603d 9cd4 b5bd
00000110: 5b33 f9bc 2b22 c8bd 81f4 d03d e131 c63d
00000120: 28e6 0abe ed2f 163e be25 2cbe ade0 9e3d
00000130: 1b0c 013e 9767 01be eff3 45bd 1f67 7f3d
00000140: 9ba8 ddbd 4fe8 0bbd 75ad dcbc 65fe e63d
00000150: 74d1 01bd 92c6 eabd 3dc7 f73d ebc5 5c3d
00000160: 69ee e13d 083d 423d b39a ff3d dd9f 8abd
00000170: 5eb8 b5bc e756 d6bd 5759 00be b5ee 14be
00000180: 6f8e ac3d 3801 8ebd 6c74 44bd 6da3 e43c
00000190: aa28 00be 1cd3 183d f263 acbb 89d7 27be
000001a0: d988 033e a09f 7bbd 4a06 c4bd 89be 0f3e
000001b0: 68e2 d73d 1e9c 0c3d 6dff ac3d 7968 d53d
000001c0: a8d9 d3bd f9e7 f8bc 9618 e83d 4967 54bd
000001d0: 717f e43d 28fc d0bc 570d 3b3d 0eaa dcbd
000001e0: 1a9b 12ba da7b a7bd 04ec 08be 1389 773c
000001f0: d3ff bb3d f480 16bc ca8e 04be 83ae 12be
00000200: 1acf 223e 1a89 d9bd 36be 733c 4a70 adbd
00000210: 97fc a9bd cc9e b83d 9ea6 a83b 87d3 a63d
00000220: a184 febd 4ffc a93c eef8 0ebe 5e8d 823b
00000230: c287 a63d 1e01 c2bd a88a 99bd d9c5 d13d
00000240: f6ed d6bc 158c 17be 1bbb ee3c f76d a9bd
00000250: 471e 833c f783 c73d f039 a3bd 4882 193e
00000260: bf29 20bc c509 eabc d078 2f3c acde b23c
00000270: 9480 7abd fdde 473d 637d 073e dd0f d63d
00000280: bd6f 08bc b28d 9c3d a897 67bd 5de1 1e3e
00000290: d6e1 6e3d 8418 b83c 4407 1bbd 6fa1 3d3d
000002a0: 7b58 073e df18 223e f232 d73d 9cfc f93d
000002b0: eb4d 08be fcf5 983d 1e96 07be dad5 a13d
000002c0: 167e 1ebe 02bb 5abc e511 393d b800 b43d
000002d0: 355e d3bc c45f b23d 1382 0ebe 0835 723d
000002e0: 379f 2f3d ae14 ecbd ae0c 93bd a5e4 6dbd
000002f0: 30f0 153d 04d7 923d 6ddc c0bd fbde d0bd
00000300: 30cc b13c 1a0d 903d 026c 023e 0a80 c13d
00000310: 099e 23bd 2a07 25bd d11a 033e e54a 8ebd
00000320: 333b 8f3d db3a 68bd 39d8 073e 8ad2 ee3d
00000330: 9a36 58bc e385 9bbd 0172 cabd 3da2 09be
00000340: dd7c 1fbe f92e d63d 4bc9 24bd c022 cd3c
00000350: 8da7 d8bc 6beb ad3d 935b 27bd 61a3 fdbb
00000360: c569 1e3d b97c 0b3c 7364 f5bb 1327 f4bd
00000370: dd94 febd f1cc e13c 7a34 9f3d 32b8 353c
00000380: 1445 a0bd 543b 973d 020b 873d 40f9 f23d
00000390: c684 d73d fc57 e8bc cfa6 9b3d 1a1b fdbd
000003a0: e006 e0bc 6d56 da3c f871 5dbd d2fe 0dbd
000003b0: 856f 033e 86c7 d2bd 5c13 ff3c 5884 0b3b
000003c0: 075c a03c f8f0 363c b021 c73d 76e9 ee3d
000003d0: 526e d2bd 08b2 b13d f273 efbd efec 013d
000003e0: 3ebf 123d 5169 6d3c fd1e 903d a31d 0abd
000003f0: b214 c73d 51a8 533d 8817 183e 17f2 053e

layers.2.bias f4 [128]
-0.052344024 -0.02256125 0.04809496 0.105667286 -0.042688433 0.011372775 -0.08254507 0.059682444
-0.021112833 -0.04574237 0.08714314 -0.077479884 -0.088055715 0.005381741 -0.045139037 -0.056450587
-0.063258976 -0.067014694 0.015884561 -0.091858275 -0.056719694 0.07828661 -0.053076208 -0.0053927638
-0.06619342 -0.020246718 -0.09431 0.020389216 0.04931244 -0.0042426055 0.046932414 0.069773875
-0.015958447 -0.06583119 0.048377715 -0.072653525 -0.08773477 -0.018056238 -0.06400446 0.049268264
-4.7581554e-05 0.048295163 -0.014791197 0.02667976 -0.03689138 -0.030544885 0.05368567 -0.025110608
-0.10979852 -0.06643856 -0.10180458 -0.08556613 -0.082225755 0.04428088 -0.09365401 -0.10492622
0.047263093 -0.04146717 -0.023792267 0.016266817 0.0061742775 -0.03153508 0.020710247 0.08091253
0.07821543 -0.015876466 -0.025931397 -0.029108614 -0.08475028 0.09956296 0.06551942 0.017526684
0.029639933 -0.020071961 -0.01716365 -0.062300693 0.069993146 -0.061761525 0.10520691 0.024740009
-0.07626599 0.00020316282 0.049643617 -0.01592212 -0.05491749 0.09122385 0.052975796 -0.0805229
-0.07179288 -0.0011967663 0.026330825 0.04638117 -0.079632275 0.011527362 0.04507257 0.057454787
0.019055992 -0.09626837 -0.067958 0.0033499463 -0.06547738 -0.095559664 0.009364155 -0.045839924
-0.014141319 0.047954988 -0.034469265 0.028071765 -0.07303849 -0.06880204 0.13192637 0.089536205
-0.09392423 0.015435571 -0.087534264 -0.07743951 -0.08325315 0.05447734 -0.05964175 -0.05575324
0.09282921 -0.023599917 -0.07277862 -0.06693629 0.041265756 0.09374771 -0.06982475 -0.05741645
00000000: b066 56bd 5fd2 b8bc 39ff 443d 1768 d83d
00000010: 11da 2ebd e054 3a3c 640d a9bd 9475 743d
00000020: d2f4 acbc 5a5c 3bbd 1a78 b23d c6ad 9ebd
00000030: 8e56 b4bd 5159 b03b b6e3 38bd bb38 67bd
00000040: ec8d 81bd 003f 89bd 5720 823c 3120 bcbd
00000050: e952 68bd bb54 a03d 7066 59bd c8b5 b0bb
00000060: 6a90 87bd 72dc a5bc 9a25 c1bd 4907 a73c
00000070: d7fb 493d 8e05 8bbb 343c 403d 9be5 8e3d
00000080: 4abb 82bc 81d2 86bd b627 463d 5fcb 94bd
00000090: 49ae b3bd adea 93bc c514 83bd 85cd 493d
000000a0: 4e92 47b8 26d1 453d c756 72bc 838f da3c
000000b0: 6a1b 17bd 4439 fabc 81e5 5b3d c3b4 cdbc
000000c0: 0cde e0bd f110 88bd eb7e d0bd 4c3d afbd
000000d0: fa65 a8bd de5f 353d accd bfbd 8fe3 d6bd
000000e0: f296 413d 7bd9 29bd 00e8 c2bc fd41 853c
000000f0: 9851 ca3b ee2a 01bd 89a8 a93c 78b5 a53d
00000100: 692f a03d 5d0f 82bc 156e d4bc 3075 eebc
00000110: 8e91 adbd aae7 cb3d 0c2f 863d 1f94 8f3c
00000120: 72cf f23c f46d a4bc c89a 8cbc 032f 7fbd
00000130: 9158 8f3d a7f9 7cbd b876 d73d 8fab ca3c
00000140: 5831 9cbd 1b08 5539 1b57 4b3d 1b6f 82bc
00000150: 29f1 60bd 92d3 ba3d 26fd 583d 31e9 a4bd
00000160: 2508 93bd d0dc 9cba beb3 d73c 2ffa 3d3d
00000170: 3f16 a3bd 43dd 3c3c 049e 383d b655 6b3d
00000180: 501b 9c3c 5a28 c5bd 902d 8bbd c68a 5b3b
00000190: 0119 86bd c9b4 c3bd 1d6c 193c a5c2 3bbd
000001a0: feb0 67bc 736c 443d a52f 0dbd c2f6 e53c
000001b0: 3495 95bd 15e8 8cbd b517 073e c25e b73d
000001c0: 595b c0bd 7ae5 7c3c 2a45 b3bd 9b98 9ebd
000001d0: a180 aabd a223 5f3d e84a 74bd 825d 64bd
000001e0: 3e1d be3d 9d54 c1bc f50c 95bd e515 89bd
000001f0: 4806 293d cdfe bf3d 4700 8fbd 832d 6bbd

layers.3.weight f4 [128, 128]
-0.13656901 0.012811167 0.08394385 0.14522034 0.026114939 0.11726831 0.10785289 -0.08338868
0.10990756 0.13146897 -0.105036676 -0.01890075 0.10900395 -0.14501612 0.08307195 -0.09518789
-0.016547373 0.16171484 -0.108584404 -0.04144601 -0.07716734 -0.026759712 -0.09584818 -0.1386409
-0.048166513 0.014466918 -0.12033714 0.07710705 -0.11445499 0.14616287 -0.0061891526 -0.07467247
-0.097411655 0.043736953 -0.09959793 0.10475407 0.1460005 0.16790275 -0.023371346 0.08282789
-0.013267998 -0.15432473 -0.11057589 -0.043447815 -0.0011365073 0.048675135 0.0123433815 0.13339742
0.060464125 -0.14091478 0.06891757 0.035607576 0.09942741 -0.18757346 0.054806594 0.066855475
0.12638773 0.11767428 -0.1374481 -0.124248914 0.036972266 0.097728305 0.12383891 -0.09355577
-0.15154973 0.049472187 0.0122533385 -0.103884794 0.07077083 -0.08919018 0.04589163 -0.15136899
-0.02406369 0.06443541 -0.042442147 0.039640278 -0.0781142 -0.073089235 -0.01013647 0.0009379452
0.07368483 -0.077253595 0.0032083713 -0.07626612 0.016034449 -0.12322726 0.122696936 0.07612253
0.10468643 -0.13952693 -0.15904032 0.0017878748 0.008995785 -0.10174271 -0.12469672 -0.028851118
-0.059227314 -0.042807765 0.04192142 -0.007371585 0.077572204 -0.06385062 -0.033430472 -0.03188138
0.02176317 -0.06771189 -0.16177763 -0.15662898 -0.15269803 -0.032455623 0.104781285 0.04913262
0.047117297 0.013284066 0.1395472 0.07163668 -0.035088327 0.13973646 -0.028272822 0.030908888
0.03904485 -0.07062574 0.15377508 0.12920888 0.080322586 -0.09649742 0.10794089 -0.050711893
0.044986315 -0.12749667 0.09536698 0.1659582 -0.05941322 0.08758221 0.06336048 0.12238142
-0.010017482 -0.061550077 -0.13705695 -0.015788103 0.13173601 0.014812474 0.04028408 0.09478942
-0.035497744 -0.014163809 0.11058438 0.14042607 0.12130433 0.039956797 -0.12923618 0.138488
0.0036145637 -0.00043670525 -0.0029894733 0.11114268 -0.09083291 -0.10398703 0.034938276 0.119117
0.06429254 0.1441401 0.100372255 0.071775585 -0.029026566 -0.02011018 -0.090064205 0.037757237
0.17073129 0.04583691 0.048867453 0.025166646 -4.044008e-05 0.06570008 0.11536147 0.022480309
0.08669072 0.14720266 -0.073157884 0.1360496 -0.15708023 0.08329388 -0.062064886 0.09647738
0.045308616 -0.06298461 0.1313941 -0.1502294 0.015968464 0.14772978 -0.14963527 0.1329781
-0.11867756 -0.037434537 -0.01112713 -0.005033997 0.10193025 0.08466132 -0.10643567 -0.1577364
0.13516143 -0.05538174 0.13167064 0.06075411 0.02794879 0.14576963 0.09070893 0.0034562296
0.13151214 0.111546114 -0.09535942 0.12159095 -0.10908606 0.10147804 0.060112055 -0.04734042
0.13217047 0.03581053 0.10216836 0.011156708 -0.082703285 -0.058709018 -0.008847461 -0.029454883
0.024900537 -0.07883587 0.07706096 0.120923765 -0.014907578 0.059554096 -0.12313948 0.030144712
-0.08183144 0.11326831 0.114745095 0.114825994 -0.0035697953 -0.088264436 0.1468236 -0.13647951
7.696921e-06 0.036866777 0.06180013 -0.08483878 0.047457203 -0.013252764 0.06328065 0.113138646
-0.0646436 0.013858379 -0.14424734 0.052613173 -0.0827607 0.081979595 0.017023671 -0.014862604
00000000: bfd8 0bbe eee5 513c c1ea ab3d a4b4 143e
00000010: ffee d53c 5e2a f03d fae1 dc3d afc7 aabd
00000020: 3717 e13d cd9f 063e 781d d7bd bfd5 9abc
00000030: 773d df3d 1b7f 14be a021 aa3d def1 c2bd
00000040: 5b8e 87bc 9398 253e 8061 debd 4bc3 29bd
00000050: e909 9ebd 2f37 dbbc 0d4c c4bd e1f7 0dbe
00000060: 404a 45bd a706 6d3c 5273 f6bd 4dea 9d3d
00000070: 6167 eabd b8ab 153e 60ce cabb e1ed 98bd
00000080: c37f c7bd 8525 333d 00fa cbbd 4d89 d63d
00000090: 2881 153e b3ee 2b3e 4475 bfbc aba1 a93d
000000a0: 0462 59bc 4d07 1ebe 9d75 e2bd 56f6 31bd
000000b0: dbf6 94ba 945f 473d e53b 4a3c 5599 083e
000000c0: 3ba9 773d f74b 10be a824 8d3d 40d9 113d
000000d0: 99a0 cb3d 4213 40be e17c 603d 86eb 883d
000000e0: c96b 013e 37ff f03d 32bf 0cbe 3776 febd
000000f0: 3b70 173d c725 c83d 419f fd3d 2b9a bfbd
00000100: da2f 1bbe 59a3 4a3d 3ac2 483c 8dc1 d4bd
00000110: 4cf0 903d 57a9 b6bd ddf8 3b3d 7900 1bbe
00000120: 3721 c5bc b6f6 833d d1d7 2dbd d85d 223d
00000130: 56fa 9fbd cfaf 95bd 7013 26bc 70e0 753a
00000140: 12e8 963d 2237 9ebd 8a43 523b 6931 9cbd
00000150: ad5a 833c 935e fcbd 8848 fb3d 21e6 9b3d
00000160: d765 d63d 26e0 0ebe 77db 22be 2057 ea3a
00000170: 0f63 133c 7b5e d0bd fe60 ffbd 2e59 ecbc
00000180: 5798 72bd 3257 2fbd cbb5 2b3d 568d f1bb
00000190: 2dde 9e3d 1dc4 82bd 64ee 08bd 0d96 02bd
000001a0: ad48 b23c 88ac 8abd 09a9 25be 5963 20be
000001b0: df5c 1cbe 30f0 04bd 9297 d63d 493f 493d
000001c0: 11fe 403d 69a5 593c 76e5 0e3e 40b6 923d
000001d0: c7b8 0fbd 1317 0f3e 689c e7bc a334 fd3c
000001e0: 7eed 1f3d 3aa4 90bd 3777 1d3e 554f 043e
000001f0: 2b80 a43d 70a0 c5bd 1d10 dd3d 46b7 4fbd
00000200: 9243 383d 7d8e 02be c34f c33d f2f0 293e
00000210: 475b 73bd 4d5e b33d 24c3 813d 1ca3 fa3d
00000220: 5d20 24bc ef1b 7cbd a858 0cbe 0d56 81bc
00000230: cee5 063e 05b0 723c eb00 253d f520 c23d
00000240: 1566 11bd 520f 68bc 107a e23d dacb 0f3e
00000250: 686e f83d bda9 233d 7d56 04be cccf 0d3e
00000260: 51e2 6c3b 96f5 e4b9 0aeb 43bb c69e e33d
00000270: 9b06 babd 27f7 d4bd 701b 0f3d 9df3 f33d
00000280: cfab 833d 7699 133e f88f cd3d 14ff 923d
00000290: 1fc9 edbc 1bbe a4bc 9573 b8bd 55a7 1a3d
000002a0: 2fd4 2e3e 7cbf 3b3d 3d29 483d 482a ce3c
000002b0: 359e 29b8 c38d 863d a242 ec3d a028 b83c
000002c0: e78a b13d 4bbc 163e cdd3 95bd 9650 0b3e
000002d0: a4d9 20be fb95 aa3d c037 7ebd ef95 c53d
000002e0: 8795 393d 13fe 80bd 2d8c 063e bcd5 19be
000002f0: 4cd0 823c 7a46 173e fd39 19be 692b 083e
00000300: 380d f3bd f554 19bd 914e 36bc 3af4 a4bb
00000310: cfc0 d03d ea62 ad3d f2fa d9bd a785 21be
00000320: c267 0a3e f7d7 62bd abd4 063e 4dd9 783d
00000330: dcf4 e43c a244 153e 9ac5 b93d e981 623b
00000340: 1eab 063e 4a72 e43d cd4b c3bd ad04 f93d
00000350: 8368 dfbd b8d3 cf3d 0f38 763d 07e8 41bd
00000360: b257 073e 10ae 123d a53d d13d a0ca 363c
00000370: 5760 a9bd de78 70bd f1f4 10bc 5e4b f1bc
00000380: 36fc cb3c b374 a1bd 23d2 9d3d e1a6 f73d
00000390: ea3e 74bc ffee 733d 8d30 fcbd 0bf2 f63c
000003a0: 3e97 a7bd 37f9 e73d 7aff ea3d e429 eb3d
000003b0: 3af3 69bb fcc3 b4bd ed58 163e 49c1 0bbe
000003c0: 0622 0137 9e01 173d 2222 7d3d f4bf adbd
000003d0: 7c62 423d 1f22 59bc 4999 813d 3cb5 e73d
000003e0: dd63 84bd 410e 633c 93b5 13be e980 573d
000003f0: 717e a9bd ebe4 a73d 3a75 8b3c 4882 73bc

layers.3.bias f4 [128]
-0.09953638 -0.08175772 -0.01720084 0.013007097 -0.050484426 -0.07219003 -0.015837241 -0.009393732
0.019642647 0.096607745 0.036032245 0.08393046 0.05764129 0.05699658 -0.017618151 -0.079958715
-0.04328123 -0.0071235443 0.014899025 0.03326206 -0.01088011 -0.05609795 -0.027980402 -0.045554165
-0.04431893 -0.048395973 0.020738062 -0.10039373 0.023983425 -0.07925755 -0.057570394 -0.094365194
0.0403947 0.09573357 -0.0827712 0.057806473 -0.043555874 0.020487633 0.043480154 -0.02146271
0.009449139 -0.059016466 -0.057804678 0.07809111 -0.0057405285 0.009751424 0.01325805 -0.041559316
0.06630176 0.0062074587 0.039885744 0.0740105 0.061433196 -0.08419866 0.066243775 0.014748606
-0.044043962 -0.061739042 0.010033752 -0.00210258 0.0039125406 -0.03558945 -0.005985247 0.053312857
-0.049284473 -0.034272753 -0.011815689 0.07279313 0.02299665 0.06952083 -0.02225034 -0.01566868
0.030788569 -0.043467414 -0.083652 0.081584945 0.001211745 -0.0045231706 0.06004983 0.057887323
-0.030421449 -0.03994026 -0.050790668 0.081246614 -0.03976893 -0.04965927 -0.025565905 0.05482612
0.030206768 -0.038939822 -0.021375464 0.08392312 0.06904552 0.05916543 -0.057540946 -0.028040452
-0.04449185 0.082991265 -0.04665384 -0.045734126 0.04958571 -0.08773482 0.030874139 0.017984409
0.080010824 0.06310495 0.034669954 0.09680991 0.020039978 0.050398804 -0.10922986 0.053075142
0.01986826 0.045815654 -0.015709013 -0.0009876429 -0.070603386 -0.086885914 -0.039143007 -0.07012317
0.011943131 0.005050273 -0.081319705 0.08533948 0.00025910226 0.013289433 -0.046747204 0.057732716
00000000: bbd9 cbbd 9770 a7bd c7e8 8cbc b81b 553c
00000010: c2c8 4ebd 5ed8 93bd 1abd 81bc 2be8 19bc
00000020: 9ee9 a03c 48da c53d 8c96 133d bce3 ab3d
00000030: 4619 6c3d 3f75 693d f153 90bc 65c1 a3bd
00000040: a947 31bd 9f6c e9bb 0a1b 743c cc3d 083d
00000050: 7d42 32bc f7c6 65bd 2837 e5bc 0197 3abd
00000060: c487 35bd db3a 46bd dee2 a93c 3a9b cdbd
00000070: e378 c43c c851 a2bd efce 6bbd 8a42 c1bd
00000080: ea74 253d f60f c43d f283 a9bd 7bc6 6c3d
00000090: a567 32bd aed5 a73c 3f18 323d 91d2 afbc
000000a0: 90d0 1a3c 40bb 71bd 99c4 6cbd 3bee 9f3d
000000b0: 0b1b bcbb 70c4 1f3c 4b38 593c 1a3a 2abd
000000c0: 38c9 873d f067 cb3b 3c5f 233d d192 973d
000000d0: 60a1 7b3d 5970 acbd d1aa 873d 23a4 713c
000000e0: 7167 34bd 14e2 7cbd 9b64 243c 70cb 09bb
000000f0: c534 803b 3ec6 11bd e41f c4bb 955e 5a3d
00000100: 84de 49bd 9661 0cbd 9796 41bc 9114 953d
00000110: 7863 bc3c f060 8e3d 5846 b6bc 9b5b 80bc
00000120: 4f38 fc3c e30a 32bd bd51 abbd 0216 a73d
00000130: 6ad3 9e3a 1b37 94bb cff6 753d 421b 6d3d
00000140: 6736 f9bc 6698 23bd e009 50bd a064 a63d
00000150: bfe4 22bd 8567 4bbd 976f d1bc 5b91 603d
00000160: 2f74 f73c 5d7f 1fbd 991b afbc e2df ab3d
00000170: bd67 8d3d 7357 723d 0eb0 6bbd 17b5 e5bc
00000180: 163d 36bd 53f7 a93d 1918 3fbd b553 3bbd
00000190: 631a 4b3d 50ae b3bd c3eb fc3c 0a54 933c
000001a0: b7dc a33d 2b3d 813d 1502 0e3d 4644 c63d
000001b0: e12a a43c fa6e 4e3d e8b3 dfbd 5265 593d
000001c0: c3c2 a23c 32a9 3b3d 30b0 80bc cc73 81ba
000001d0: 8298 90bd 3ef1 b1bd 6b54 20bd bd9c 8fbd
000001e0: 1fad 433c c37c a53b f28a a6bd 77c6 ae3d
000001f0: 1ed8 8739 ecbb 593c ff79 3fbd 2479 6c3d

layers.4.weight f4 [128, 128]
-0.0022666482 0.009236072 -0.086041026 0.011154477 0.13275476 -0.12849607 0.07565299 -0.03892267
-0.108602166 -0.078733385 0.13641322 -0.12272179 -0.09293767 0.008600894 0.049061332 -0.1006654
0.12636814 0.16152862 -0.032331746 0.07819489 0.032283522 -0.11759667 -0.14335632 -0.06701809
-0.015856696 -0.08055246 -0.034727924 -0.10979489 0.025442682 -0.04984423 0.07869541 0.045717582
-0.12918915 -0.13759957 0.08152749 0.0016266548 0.109996766 0.068365514 0.05282333 -0.07603067
0.088544756 0.12298658 0.016727151 -0.04096752 0.02654485 -0.15175441 -0.13948058 0.13686648
-0.10900894 0.11855371 0.1218301 0.13946612 0.12900464 -0.11064188 0.1255416 -0.094164796
0.04972629 0.05251475 0.12099494 0.12470221 0.08115917 -0.05334241 -0.15278326 0.00073990383
-0.0378227 0.03873618 -0.07698981 -0.14343001 -0.12244031 -0.021951217 -0.075458236 -0.055266723
-0.07617379 -0.14030062 -0.024813013 0.069954865 0.016448084 0.077683434 -0.05836421 -0.09514273
-0.12501507 -0.011610536 0.044148702 0.04453708 0.062756605 -0.0225028 0.02379417 0.12843454
-0.003915515 -0.04693071 -0.111055 -0.06803139 -0.13662961 -0.009661033 -0.05259958 -0.10490487
-0.075598285 -0.08371238 -0.1559196 0.14506812 -0.06502363 0.022915632 -0.09115095 -0.13822019
-0.11004412 -0.06729731 -0.03704102 -0.030180791 -0.10673089 -0.045663703 -0.09660325 -0.12307672
0.07633002 -0.12882054 -0.1391218 0.0015930977 -0.047777236 0.12358073 -0.069371015 0.1206867
0.017215904 -0.062346134 -0.017094184 0.07165237 0.032032773 -0.07568942 0.020328138 0.012307422
-0.034428667 -0.15175399 0.043723304 0.09590918 0.052299265 -0.017413933 0.055201624 -0.100778654
-0.13868439 0.09265155 -0.043429017 -0.022339858 -0.056159914 -0.028320955 -0.12860377 -0.11678122
-0.09636345 0.046574596 -0.021106655 -0.019074384 0.12739265 -0.007127185 -0.01136661 -0.018092414
-0.14134805 0.045012217 0.01249193 0.06547655 -0.094069004 -0.04511294 -0.06259249 0.066038795
-0.020866744 -0.13713332 0.09485037 0.10012452 0.09381766 0.012780607 -0.100430936 0.09676499
-0.1010341 0.006512783 -0.042132143 -0.029287482 -0.09726185 0.09319543 0.16191804 0.067452095
0.14964652 0.099438705 -0.10600299 -0.017276373 -0.01675369 0.105413415 0.097576834 -0.0031971748
-0.030736214 0.08367844 0.08247285 -0.020111175 -0.050239407 -0.14109287 0.06924169 0.13046616
0.12877245 0.061731685 -0.09250864 0.020447044 -0.06167972 -0.076741375 0.11393299 0.0054673417
-0.052645624 0.1416504 0.016333632 -0.1126849 -0.068034664 -0.0023553793 0.02735737 0.101663254
0.113356866 -0.105794124 -0.09819676 0.112586126 -0.14322118 0.021908365 -0.0553035 -0.11184616
-0.0020543856 -0.06790675 0.08343053 0.08499428 0.04776442 0.0168714 0.12617199 -0.021160753
0.049703468 0.03829682 -0.11813808 -0.12112368 0.07544856 0.09850067 0.02049298 -0.14124134
0.11422625 -0.031052116 -0.03988012 -0.09151314 0.07746569 -0.081404276 -0.11362428 0.06218031
0.09232099 -0.11698731 -0.010805637 -0.10421024 -0.12781817 0.141892 -0.05938924 -0.08088799
0.05571651 -0.0858604 -0.024535175 -0.028165264 0.029388573 0.046770588 0.08626648 0.14553978
00000000: 0c8c 14bb e552 173c 4736 b0bd 44c1 363c
00000010: ddf0 073e 7994 03be f4ef 9a3d 616d 1fbd
00000020: d06a debd f83e a1bd e8af 0b3e 9055 fbbd
00000030: 1b56 bebd c4ea 0c3c 89f4 483d a929 cebd
00000040: a666 013e c267 253e 4b6e 04bd a424 a03d
00000050: ba3b 043d 86d6 f0bd 00cc 12be c840 89bd
00000060: e7e5 81bc b0f8 a4bd de3e 0ebd 25dc e0bd
00000070: 2c6d d03c 7729 4cbd 0f2b a13d 5c42 3b3d
00000080: 294a 04be e7e6 0cbe e2f7 a63d 7a35 d53a
00000090: fc45 e13d 3803 8c3d 475d 583d f8b5 9bbd
000000a0: f456 b53d 63e0 fb3d 6107 893c 8fcd 27bd
000000b0: 9674 d93c 8265 1bbe ffd3 0ebe ba26 0c3e
000000c0: 1440 dfbd 4acc f23d 0f82 f93d 35d0 0e3e
000000d0: cb19 043e 3698 e2bd fa8d 003e 79d9 c0bd
000000e0: cbad 4b3d b519 573d 32cc f73d df63 ff3d
000000f0: c736 a63d 927d 5abd 3773 1cbe 1bf6 413a
00000100: faeb 1abd d4a9 1e3d d5ac 9dbd 51df 12be
00000110: fcc1 fabd 0ad3 b3bc d989 9abd 5c5f 62bd
00000120: 0101 9cbd f7aa 0fbe a944 cbbc 7f44 8f3d
00000130: 22be 863c 7e18 9f3d 4f0f 6fbd 31da c2bd
00000140: f303 00be 1e3a 3ebc 45d5 343d 836c 363d
00000150: 8986 803d cb57 b8bc feeb c23c 5884 033e
00000160: b84d 80bb 6b3a 40bd ce70 e3bd 0b54 8bbd
00000170: a2e8 0bbe 4f49 1ebc a872 57bd 5dd8 d6bd
00000180: 46d3 9abd 6571 abbd 63a9 1fbe bd8c 143e
00000190: 1c2b 85bd 90b9 bb3c 59ad babd 9889 0dbe
000001a0: d05e e1bd 2cd3 89bd 53b8 17bd b53d f7bc
000001b0: ba95 dabd dd09 3bbd edd7 c5bd a60f fcbd
000001c0: ea52 9c3d 88e9 03be f275 0ebe 7dcf d03a
000001d0: 10b2 43bd e517 fd3d 6412 8ebd 972a f73d
000001e0: 5e08 8d3c a95e 7fbd 1a09 8cbc 7abe 923d
000001f0: cc34 033d 0e03 9bbd 3287 a63c 12a5 493c
00000200: 1305 0dbd 6665 1bbe 3517 333d 086c c43d
00000210: c137 563d aaa7 8ebc 191b 623d 0a65 cebd
00000220: 4803 0ebe 19c0 bd3d a0e2 31bd 1402 b7bc
00000230: f007 66bd 5901 e8bc b5b0 03be fe2a efbd
00000240: 335a c5bd 01c5 3e3d dde7 acbc e241 9cbc
00000250: 3873 023e 298b e9bb 053b 3abc 8b36 94bc
00000260: 8bbd 10be bb5e 383d f4aa 4c3c 9218 863d
00000270: 40a7 c0bd 59c8 38bd 7e30 80bd 593f 873d
00000280: bcf0 aabc ad6c 0cbe e940 c23d 160e cd3d
00000290: 7923 c03d c065 513c bcae cdbd b92c c63d
000002a0: f7ea cebd 2f69 d53b c192 2cbd 4dec efbc
000002b0: 3931 c7bd 3fdd be3d d8cd 253e 5324 8a3d
000002c0: f03c 193e 85a6 cb3d 1818 d9bd 2e87 8dbc
000002d0: 093f 89bc fde2 d73d 5dd6 c73d b187 51bb
000002e0: 83ca fbbc 9a5f ab3d 87e7 a83d 31c0 a4bc
000002f0: d6c7 4dbd a67a 10be 96ce 8d3d ec98 053e
00000300: eddc 033e 5dda 7c3d 2b75 bdbd 8f80 a73c
00000310: e0a3 7cbd 952a 9dbd b355 e93d 6327 b33b
00000320: f0a2 57bd cd0c 113e 1cce 853c 57c7 e6bd
00000330: c255 8bbd b55c 1abb 901c e03c d334 d03d
00000340: a527 e83d 97aa d8bd 621b c9bd 8e93 e63d
00000350: 93a8 12be 2c79 b33c ec85 62bd 990f e5bd
00000360: dfa2 06bb b212 8bbd a0dd aa3d 7b11 ae3d
00000370: a0a4 433d e435 8a3c 3b33 013e 5159 adbc
00000380: dd95 4b3d 20dd 1c3d 61f2 f1bd b10f f8bd
00000390: c684 9a3d b8ba c93d e5e0 a73c 92a1 10be
000003a0: 74ef e93d 0261 febc 5659 23bd 3e6b bbbd
000003b0: 55a6 9e3d 49b7 a6bd d9b3 e8bd c8b0 7e3d
000003c0: ca12 bd3d 0b97 efbd 200a 31bc 2e6c d5bd
000003d0: c4e2 02be 234c 113e 2242 73bd 9aa8 a5bd
000003e0: ff36 643d 94d7 afbd fefd c8bc d7ba e6bc
000003f0: 4ec0 f03c 8492 3f3d 7bac b03d 6108 153e

layers.4.bias f4 [128]
0.013815765 0.054593455 0.0499622 0.026005128 -0.069568284 0.079900004 -0.0012822717 0.0047043604
-0.089728676 -0.04631698 0.074965805 0.030123413 0.09467376 -0.015515438 -0.0019465773 -0.067122735
-0.027184712 0.024999188 0.031184167 -0.020125195 0.011004542 0.020772384 -0.017147603 0.09470064
-0.0034944003 -0.0934023 0.019082932 0.0939243 0.01062448 0.034983113 -0.0087294495 -0.017258178
-0.04067278 -0.009917357 -0.011617392 -0.026388122 0.06460605 0.016903134 0.014676794 0.039582927
-0.086982846 0.038057104 0.0650656 -0.0015556947 -0.072704874 -0.06204038 -0.045980435 -0.029444901
0.05972056 0.01646929 0.040819075 -0.03853106 0.121515505 0.070254765 -0.0641434 0.016001305
-0.06582268 0.07017938 -0.044832643 0.05925975 0.05803149 -0.015310158 0.037499644 0.027709773
0.064936414 0.005052735 0.07080853 0.059736762 -0.050484087 0.06448253 -0.07356812 -0.0017622536
-0.033139784 0.05460434 -0.05352774 0.016227273 -0.05443634 -0.085610285 0.09173754 0.0013560222
-0.041606672 -0.04851629 -0.03671338 -0.06223854 0.005393726 -0.07086734 0.017995212 -0.07710742
0.015560549 0.044393405 -0.065751046 0.06036157 0.011382089 0.036356937 0.048968658 -0.06531297
0.08677481 0.08516543 -0.03481119 0.063612044 0.039111573 0.023867162 -0.08760511 0.045389
-0.058872398 -0.046282355 -0.06387159 -0.04292283 0.047177233 -0.014056613 -0.013176522 0.034996577
0.010230949 -0.04360533 0.06356536 -0.07491356 0.066402085 -0.042205457 0.0014735874 0.03229656
-0.009604009 -0.029514125 0.042013455 0.054707915 0.050379064 0.051593035 0.022734888 0.04274037
00000000: 855b 623c 639d 5f3d 2aa5 4c3d b508 d53c
00000010: d179 8ebd 9da2 a33d e611 a8ba 0927 9a3b
00000020: abc3 b7bd e0b6 3dbd ac87 993d 60c5 f63c
00000030: 51e4 c13d 7734 7ebc 4c24 ffba a577 89bd
00000040: 79b2 debc 19cb cc3c f075 ff3c 98dd a4bc
00000050: 654c 343c d92a aa3c 2179 8cbc 69f2 c13d
00000060: 4f02 65bb b449 bfbd cf53 9c3c 625b c03d
00000070: 4d12 2e3c 744a 0f3d f705 0fbc 0661 8dbc
00000080: 8098 26bd 697c 22bc e056 3ebc e72b d8bc
00000090: 2d50 843d 7178 8a3c f076 703c b521 223d
000000a0: 1024 b2bd c4e1 1b3d 1d41 853d 74e8 cbba
000000b0: 4be6 94bd 0e1e 7ebd fb55 3cbd 6f36 f1bc
000000c0: 8c9d 743d 9bea 863c e731 273d bfd2 1dbd
000000d0: 1fdd f83d bbe1 8f3d 9d5d 83bd 2b15 833c
000000e0: 0bce 86bd 35ba 8f3d 6fa2 37bd 5aba 723d
000000f0: 6db2 6d3d 75d7 7abc 3a99 193d 9bff e23c
00000100: 62fd 843d 6a91 a53b 1004 913d 89ae 743d
00000110: 67c8 4ebd 6b0f 843d e2aa 96bd 6bfb e6ba
00000120: 95bd 07bd cda8 5f3d e73f 5bbd 0fef 843c
00000130: a4f8 5ebd 7254 afbd e4e0 bb3d 8ebc b13a
00000140: c26b 2abd 04b9 46bd c560 16bd d7ed 7ebd
00000150: dabd b03b e522 91bd b26a 933c 7fea 9dbd
00000160: acf1 7e3c dcd5 353d 7ca8 86bd b23d 773d
00000170: f17b 3a3c 03eb 143d 5c93 483d cec2 85bd
00000180: feb6 b13d 376b ae3d 2e96 0ebd 0847 823d
00000190: 7533 203d 1185 c33c 4f6a b3bd d1e9 393d
000001a0: 2f24 71bd 9192 3dbd 1ccf 82bd d9cf 2fbd
000001b0: ea3c 413d b54d 66bc 57e2 57bc 9258 0f3d
000001c0: b69f 273c 819b 32bd 8e2e 823d 486c 99bd
000001d0: d1fd 873d a1df 2cbd 6325 c13a 6649 043d
000001e0: 225a 1dbc 9bc7 f1bc 4d16 2c3d 6815 603d
000001f0: 475a 4e3d 3853 533d 843e ba3c 8710 2f3d
