model_B/pinn_model164.pth (torch, 472610 bytes, 17 tensors)

layers.0.weight f4 [128, 6]
0	0x3e2e7931	0.17038418
1	0xbde06c39	-0.10958142
2	0x3e52fb18	0.20603597
3	0xbe34fb87	-0.17674075
4	0x3d6cd007	0.057815578
5	0x3d1a58bd	0.037682284
6	0x3e01e3c2	0.12684539
7	0x3de8a879	0.113602586
8	0xbdcf48c9	-0.101213045
9	0x3e1f236c	0.15540856
10	0xbb62bed5	-0.0034598608
11	0xbd7287d3	-0.059211563
12	0xbd79e537	-0.061009612
13	0xbe49e591	-0.19716479
14	0xbe07c50f	-0.13258766
15	0xbe347cbf	-0.17625712
16	0x3e668ad5	0.22513898
17	0x3bbd53b0	0.0057777986
18	0x3dd1be58	0.10241383
19	0xbdcccaa0	-0.09999585
20	0x3d3a06c3	0.045416605
21	0x3d3c28d7	0.045937385
22	0x3e1fd9a1	0.15610363
23	0x3e2e0dcc	0.1699745
24	0xbda7e774	-0.08198443
25	0xbdde3b03	-0.10851099
26	0x3e3108ad	0.17288466
27	0xbe217b94	-0.15769798
28	0x3e138605	0.14406593
29	0xbd796e41	-0.060896162
30	0x3cf9039b	0.030397227
31	0xbd36e64b	-0.04465322
32	0x3e1c91a1	0.15289928
33	0xbe312912	-0.17300823
34	0xbdd05f10	-0.10174382
35	0xbe08f291	-0.13373782
36	0x3e001738	0.12508857
37	0xbd426025	-0.04745497
38	0x3e40812b	0.18799274
39	0xbd18511c	-0.037186727
40	0xbe602b33	-0.21891479
41	0x3d96dcb8	0.073663175
42	0xbe38ac34	-0.1803444
43	0x3e428ed8	0.18999803
44	0x3e385b10	0.18003488
45	0x3e178122	0.14795354
46	0x3e4022c8	0.18763268
47	0xbe40f8c7	-0.18844901
48	0xbe11976b	-0.14217918
49	0xbe410ac6	-0.18851766
50	0xbd956f95	-0.07296673
51	0xbd78d573	-0.060750436
52	0xb9a23ad8	-0.0003094289
53	0x3cfb5e8b	0.03068473
54	0x3dd2d427	0.10294371
55	0xbdf407af	-0.11915528
56	0xbce4ec09	-0.027944582
57	0xbd41042b	-0.047123116
58	0x3d80abf9	0.06282801
59	0x3d256f20	0.04038918
60	0x3dd04981	0.1017027
61	0x3e26f0f1	0.1630285
62	0xbd9e5805	-0.07731632
63	0xbd80715d	-0.06271622
64	0x3dfed58c	0.124430746
65	0xbe4158fe	-0.18881604
66	0xbdbd846d	-0.09253774
67	0x3d0ea7e3	0.034828078
68	0x3df28aab	0.11842855
69	0x3df522ff	0.119695656
70	0xbe1cd7a1	-0.15316631
71	0xbd9c23ff	-0.07624053
72	0x3e2d48ac	0.16922253
73	0xbe62e6be	-0.22158334
74	0xbe19f791	-0.15035845
75	0x3ce137bb	0.027492395
76	0xbcc4ef08	-0.02403976
77	0xbdc11ccf	-0.09429323
78	0xbca6a99f	-0.020344554
79	0x3e413579	0.18868054
80	0xbd8ba289	-0.068181105
81	0x3e41b562	0.18916848
82	0xbdb90e6b	-0.09035953
83	0xbb8ad377	-0.0042366344
84	0x3bf99fdd	0.007617934
85	0xbe0621d7	-0.13098846
86	0x3c3d2879	0.011545294
87	0x3ce61160	0.028084457
88	0xbc5ef3f1	-0.013607965
89	0xbe055bd4	-0.13023311
90	0x3e2ab3fa	0.16670218
91	0x3d58bced	0.05291455
92	0xbe0776c5	-0.132289
93	0x3d96b543	0.07358792
94	0x3dd155c1	0.102214344
95	0x3cee9bd1	0.029127033
96	0xbdfe1b35	-0.12407533
97	0xbd8653f9	-0.06558985
98	0xbe3c1761	-0.18368293
99	0x3c592f48	0.013255902
100	0xbde8d605	-0.11368946
101	0xbd65084e	-0.055916123
102	0xbd8a8beb	-0.067649685
103	0x3dc81218	0.09769076
104	0xbcb9cb09	-0.022679823
105	0xbda6eb23	-0.081503175
106	0x3e053d2d	0.13011618
107	0xbe00a231	-0.12561871
108	0x3e5b7209	0.2143022
109	0x3e3283e0	0.17433119
110	0xbc895c63	-0.016767686
111	0x3d912fe8	0.070892155
112	0x3e52a4d8	0.20570695
113	0x3e4470db	0.19183676
114	0x3e3da095	0.18518288
115	0xbe13dda8	-0.14440024
116	0xbe05cdf5	-0.13066848
117	0x3dead667	0.11466675
118	0x3e45c225	0.19312342
119	0xbdc45277	-0.095860414
120	0xbd9d358f	-0.07676231
121	0x3bba5532	0.0056864256
122	0x3dcc1ed7	0.0996682
123	0x3dc1ed95	0.09469143
124	0xbdf01693	-0.11723056
125	0xbe4c2ca2	-0.19938901
126	0x3df601ba	0.12012048
127	0x3d9ad0f7	0.07559388
128	0xbd46a0e8	-0.048493296
129	0xbcbd287c	-0.023090594
130	0xbd7c1ffb	-0.061553936
131	0xbd8fc6ae	-0.07020317
132	0xbd93a9c1	-0.07210112
133	0xbe43ac9a	-0.19108811
134	0xbc8d93c9	-0.017282384
135	0x3e6314a5	0.22175844
136	0x3e21d7bc	0.15804952
137	0xbc89daeb	-0.016828021
138	0xbda344d2	-0.07972111
139	0x3b937210	0.0044996813
140	0x3e22f62e	0.15914223
141	0xbdadccae	-0.08486305
142	0x3b0265f8	0.0019897204
143	0x3e12c9d2	0.14334801
144	0x3e1cfdb8	0.15331161
145	0xbe0b1d72	-0.13585451
146	0x3d768912	0.060189314
147	0xbcf52434	-0.02992449
148	0x3d828100	0.06372261
149	0x3d6b4ac2	0.05744434
150	0x3da896a1	0.08231855
151	0xbd9357d1	-0.07194484
152	0xbd98f6b9	-0.074689336
153	0xbd2376d0	-0.03990823
154	0xbde09fad	-0.10967956
155	0xbdfee549	-0.124460764
156	0xbd162209	-0.036653552
157	0x3e23d02f	0.15997384
158	0xbdedc8a6	-0.11610536
159	0x3df7fa1e	0.12108253
160	0x3e0cd0c2	0.1375151
161	0x3dc0249f	0.09381985
162	0xbc84e80f	-0.016223935
163	0x3e31583c	0.17318815
164	0xbccf6ecc	-0.025321387
165	0xbdf4832d	-0.11939082
166	0x3da07129	0.078340836
167	0xbe1da75a	-0.15395871
168	0x3e2f479c	0.1711716
169	0x3ba85c98	0.005137991
170	0x3dd597fb	0.104293786
171	0x3d52812a	0.05139271
172	0xbe522446	-0.2052165
173	0x3e19a853	0.15005617
174	0x3e4448b5	0.1916836
175	0xbe5abaf0	-0.21360373
176	0x3d8736b7	0.06602233
177	0x3dfcb1a4	0.1233857
178	0x3c9eb220	0.019372046
179	0xbde5db92	-0.1122352
180	0xbd05d8c1	-0.032677416
181	0x3d7c62a9	0.061617527
182	0xbe2d5452	-0.16926697
183	0xbdf55d5b	-0.11980697
184	0xbe004a32	-0.12528303
185	0xbd917fdf	-0.071044676
186	0xbe0328e8	-0.12808573
187	0x3d0daa22	0.03458608
188	0x3e295a2f	0.16538309
189	0xbe3bb1ad	-0.18329497
190	0x3cb23f99	0.021758841
191	0xbdf4e7b1	-0.11958254
192	0x3e0a2007	0.1348878
193	0xbdc02cfb	-0.09383579
194	0x3ccf7bc8	0.025327578
195	0x3d979768	0.07401925
196	0xbdfaf196	-0.1225311
197	0xbe0d7700	-0.13814926
198	0x3e0572b2	0.13032034
199	0xbdf75d18	-0.12078303
200	0xbe5ccd73	-0.21562748
201	0x3e4a7425	0.19770868
202	0x3e3d8996	0.18509516
203	0xbe155a44	-0.14585215
204	0xbdf7b547	-0.12095123
205	0xbe28153e	-0.16414353
206	0x3e682b43	0.22672753
207	0xbe05e0e0	-0.13074064
208	0xbd1fefa5	-0.039046902
209	0x3d74279c	0.059608087
210	0xbc90c218	-0.017670676
211	0x3b5f9643	0.0034116663
212	0xbe35f314	-0.17768508
213	0x3d30a03a	0.043121554
214	0x3c9acf29	0.01889761
215	0x3e2a6f95	0.16644128
216	0xbcf14ed2	-0.02945653
217	0x3ba005fe	0.004883527
218	0x3da5d508	0.08097273
219	0xbde9a16a	-0.114077404
220	0x3d462dc5	0.048383493
221	0x3e1fa010	0.15588403
222	0x3e29bd01	0.16576006
223	0xb94b869d	-0.00019409736
224	0x3d0dd7d7	0.03462967
225	0xbc3cfade	-0.011534421
226	0x3db2cca1	0.08730436
227	0x3e222208	0.15833294
228	0xbdb88f83	-0.09011748
229	0x3e02f84b	0.12790029
230	0x3da4444d	0.0802084
231	0x3e5fdb95	0.21861108
232	0x3d993643	0.07481053
233	0xbe2f47cd	-0.17117234
234	0xbdb17207	-0.08664327
235	0xbe38f5b9	-0.18062486
236	0xbdb268c4	-0.08711389
237	0x3e2f8526	0.17140636
238	0x3e5101c9	0.20410837
239	0x3cf70f46	0.03015865
240	0x3e35cd3f	0.17754076
241	0xbe4b5582	-0.19856837
242	0xbe3f26ec	-0.18667191
243	0xbe595985	-0.21225555
244	0xbe232bb1	-0.15934636
245	0x3da84730	0.08216703
246	0xbd4485a9	-0.04797903
247	0x3e28b72f	0.16476129
248	0x3e677574	0.22603399
249	0x3d60ddf4	0.05489917
250	0x3df6e192	0.12054743
251	0x3e31616d	0.17322321
252	0xbd9ba3e0	-0.07599616
253	0x3c80ee82	0.01573873
254	0x3cee21b5	0.029068807
255	0xbe495718	-0.1966213

layers.0.bias f4 [128]
0	0xbb5c0e12	-0.0033577722
1	0x3e026a0c	0.12735766
2	0x3e4f93ac	0.20271176
3	0xbe36b1d1	-0.17841269
4	0xbd8692a9	-0.06570942
5	0xbde91081	-0.11380101
6	0xbe0fff88	-0.14062321
7	0xbec68e0a	-0.38780242
8	0x3eea5559	0.4576824
9	0xbe143aa9	-0.14475502
10	0xbeccc633	-0.39994964
11	0xbe28dc68	-0.16490328
12	0x3eba9eaa	0.36449176
13	0xbe52f349	-0.20600618
14	0x3ecf3910	0.40473223
15	0x3e466fc8	0.19378579
16	0x3eaff1f7	0.34364292
17	0x3e37b9c0	0.17941952
18	0x3e8ffdae	0.2812323
19	0x3c29244a	0.010323593
20	0x3ea5a104	0.32349408
21	0xbe701c08	-0.23448193
22	0xbe29f66d	-0.1659791
23	0x3e867515	0.26261202
24	0x3e31f272	0.17377642
25	0x3ed18785	0.40923706
26	0x3e3b4d2f	0.18291162
27	0xbd4460fc	-0.047944054
28	0x3e65f7e1	0.2245784
29	0x3e108476	0.1411303
30	0xbd5af7e6	-0.05345907
31	0xbeb865ad	-0.36015072
32	0x3ec336b3	0.3812767
33	0xbe319d8e	-0.17345259
34	0xbe39d541	-0.18147756
35	0xbc9f376c	-0.019435607
36	0x3d809715	0.062788166
37	0xbec53018	-0.38513255
38	0x3e3e6923	0.18594794
39	0x3e3f7810	0.18698144
40	0xbe8467a3	-0.2586032
41	0x3eb9c9d1	0.36286786
42	0x3e69f41b	0.22847025
43	0xbe863c85	-0.26218048
44	0x3d73957b	0.059468728
45	0xbe646f20	-0.22308016
46	0x3e2866c7	0.16445456
47	0xbea13ac7	-0.31490156
48	0x3e918258	0.28419757
49	0xbe87858c	-0.26469076
50	0x3e858631	0.26078942
51	0xbedb533c	-0.4283694
52	0xbe9d13c2	-0.30679137
53	0xbe8d73c9	-0.276274
54	0x3e0936cd	0.13399811
55	0x3e9ca65e	0.30595678
56	0xbeb85e72	-0.36009556
57	0x3e8c6920	0.27423954
58	0xbeb15f75	-0.3464314
59	0xbe801ecd	-0.250235
60	0xbe2fc8af	-0.17166398
61	0x3da4465a	0.08021231
62	0x3ea27c5a	0.31735498
63	0x3e9c57c5	0.30535713
64	0x3de0d2a1	0.10977674
65	0x3e08bfe4	0.1335445
66	0x3e3493be	0.17634484
67	0xbe1e09a9	-0.15433373
68	0xbe8281d8	-0.25489688
69	0xbe7e402c	-0.24829167
70	0x3d928630	0.071545005
71	0xbe582c16	-0.21110567
72	0xbd68e7fb	-0.05686186
73	0xbe41f124	-0.18939644
74	0xbeba6a1c	-0.3640908
75	0xbe4fefbb	-0.20306294
76	0x3eb64777	0.35601398
77	0x3d64451f	0.05572998
78	0xbed483b2	-0.41506726
79	0x3e26555e	0.16243502
80	0xbea7d2df	-0.3277807
81	0xbd84cc5e	-0.064842924
82	0xbebb1a75	-0.36543623
83	0xbe55d86d	-0.20883341
84	0x3e650139	0.22363748
85	0xbc473f01	-0.012161017
86	0xbe9a08a1	-0.30084708
87	0x3e6fb123	0.23407416
88	0x3ea66514	0.3249899
89	0x3e6abc82	0.22923473
90	0x3d990619	0.07471866
91	0x3de99858	0.114060104
92	0x3ea6c49a	0.3257187
93	0xbe34d049	-0.1765758
94	0xbe573d78	-0.21019542
95	0xbdf5272b	-0.11970361
96	0x3ecd4773	0.40093574
97	0x3ce15075	0.027504185
98	0x3da9789f	0.0827496
99	0xbe198ae1	-0.14994384
100	0xbe65df2b	-0.22448413
101	0x3ed2322a	0.41053897
102	0x3e7abf90	0.24487138
103	0xbe79113c	-0.2432298
104	0x3e4d4403	0.20045476
105	0xbec4864f	-0.3838372
106	0x3e51a811	0.20474268
107	0xbe08158f	-0.13289474
108	0x3ec3f765	0.38274685
109	0xbe8bc012	-0.27294976
110	0x3e64e189	0.2235166
111	0x3cd587f4	0.026065804
112	0xbe04d1da	-0.12970677
113	0xbea52e52	-0.32261902
114	0xbe5f49fc	-0.21805567
115	0xbec8cc7c	-0.3921851
116	0xbe9e1f7c	-0.30883396
117	0x3e5d20da	0.21594563
118	0x3d3bdf6d	0.045867372
119	0x3e1169e5	0.14200552
120	0x3e99de5e	0.30052465
121	0x3cf16caf	0.02947077
122	0x3c46a1ae	0.012123508
123	0xbcbb5fca	-0.022872824
124	0xbe92c9ad	-0.2866949
125	0x3ea53ee5	0.32274547
126	0x3e5e2f3a	0.21697703
127	0xbccdc9ee	-0.025120702

layers.1.weight f4 [128, 128]
0	0x3db4bab4	0.08824673
1	0xbd623086	-0.055222057
2	0x3de64991	0.112445004
3	0xbd566d68	-0.05235043
4	0x3d38876e	0.04505103
5	0xbd4cfae8	-0.05004397
6	0xbdd94661	-0.10609127
7	0x3dd6555d	0.104655005
8	0xbe0ddd6d	-0.13853998
9	0x3dc8961d	0.09794257
10	0xbc537aa5	-0.012907659
11	0xbddac6a9	-0.10682423
12	0xbdbc1848	-0.09184319
13	0xbe0fcd51	-0.14043166
14	0x3cbd84da	0.023134638
15	0xbc62bd24	-0.01383904
16	0xbd8f328f	-0.06992065
17	0xbe118a19	-0.14212836
18	0x3e043cd7	0.12913834
19	0xbd8a0792	-0.06739725
20	0xbc4a8886	-0.012361651
21	0xbbacb95a	-0.005271119
22	0x3d6017bc	0.054710135
23	0x3c048067	0.008087254
24	0x3dfc58f2	0.123216525
25	0xbdd9f060	-0.10641551
26	0xbde7128e	-0.11282836
27	0x3da8eff3	0.08248892
28	0x3d4df9fe	0.05028724
29	0xbd8a6d7f	-0.06759166
30	0xbd352a4a	-0.044229783
31	0x3dcfacf4	0.1014041
32	0xbd3f6542	-0.046727426
33	0xbe035a4c	-0.12827414
34	0xbdc76ba6	-0.09737329
35	0x3ced19d7	0.028942985
36	0x3d97f0d0	0.07418978
37	0x3dfbe4d6	0.12299506
38	0x3e1bf110	0.15228677
39	0xbde80d78	-0.11330694
40	0x3d162e4b	0.036665242
41	0xbdc75d06	-0.0973454
42	0xbc688eec	-0.0141942315
43	0x3dd24dc4	0.10268739
44	0x3d69ed55	0.057111103
45	0xbd3670e1	-0.044541243
46	0x3c8daafa	0.017293442
47	0xbd2c9a88	-0.04213956
48	0x3e057b7d	0.13035388
49	0x3da61b5b	0.081106864
50	0xbde10ec5	-0.10989145
51	0xbd4d9d82	-0.05019904
52	0x3e0aa036	0.13537678
53	0x3e3ed124	0.18634468
54	0xbd8170fc	-0.06320378
55	0xbdbd31e9	-0.09238035
56	0xbdab8411	-0.08374799
57	0xbd2b544b	-0.041828435
58	0x3d4a4dd9	0.049390648
59	0x3cb45850	0.022014767
60	0xbdcc776c	-0.099837154
61	0xbd607585	-0.054799575
62	0xbbb74b69	-0.0055937064
63	0x3e181447	0.14851485
64	0x3ccb3883	0.02480722
65	0x3e072531	0.13197781
66	0x3de3b137	0.111177854
67	0x3e0e247a	0.13881102
68	0x3d8980e2	0.067140356
69	0xbd3d8337	-0.046267714
70	0xbd3cbb84	-0.046077266
71	0x3a33fc53	0.00068659073
72	0xbd9e1b88	-0.07720095
73	0xbd305190	-0.043046534
74	0x3cdadc74	0.026716448
75	0x3e080ca8	0.13286078
76	0x3dc3c8d9	0.09559793
77	0xbd05c727	-0.03266063
78	0x3d8e11b3	0.069369696
79	0xbc1e4101	-0.009659053
80	0xbcc26298	-0.023728654
81	0xbe100163	-0.14063029
82	0x3e1f636b	0.15565269
83	0x3de13783	0.10996916
84	0x3dc9f222	0.09860636
85	0x3c06f42c	0.008236926
86	0x3d05a45f	0.03262746
87	0x3be3fca9	0.0069576097
88	0x3dffff7b	0.12499901
89	0x3de86718	0.113477886
90	0xbdd291dd	-0.102817275
91	0xbd272bb7	-0.040813174
92	0xbd970ac0	-0.07375097
93	0xbd365a8b	-0.044519942
94	0xbd91fcdb	-0.071283065
95	0x3df9f146	0.122042224
96	0xbde07660	-0.10960078
97	0xbd5d6d97	-0.05405959
98	0xbe15804a	-0.1459972
99	0x3d9cd008	0.07656866
100	0x3dc4d425	0.09610776
101	0xbdc2310e	-0.09482013
102	0x3ac5561e	0.0015055572
103	0xbd844cf9	-0.06459994
104	0x3de551ca	0.11197241
105	0x3dd95209	0.1061135
106	0xbaa79519	-0.0012785523
107	0x3d5efa03	0.05443765
108	0xbe111842	-0.1416941
109	0x3cab0f7f	0.020881413
110	0xbb4c7d20	-0.003120251
111	0x3d7856ce	0.06062966
112	0x3e107389	0.14106573
113	0xbd078f85	-0.033095855
114	0xbdc20f0a	-0.09475525
115	0xbcd727bf	-0.02626407
116	0x3c223d76	0.009902349
117	0x3d652c6a	0.05595056
118	0x3e181bc1	0.14854337
119	0x3dac11d3	0.08401837
120	0xbe026615	-0.12734254
121	0x3d301953	0.0429929
122	0x3d4e38bf	0.050347086
123	0x3e11f3e5	0.14253195
124	0x3e0e3e5b	0.13890974
125	0x3d939392	0.07205881
126	0xbdd76baf	-0.10518586
127	0x3d293584	0.041310802
128	0xbe102a46	-0.14078626
129	0x3d86b9a1	0.06578375
130	0x3daf7d1b	0.08568784
131	0xbc1f45a6	-0.009721195
132	0x3de0a54b	0.10969027
133	0xbdbb5122	-0.09146334
134	0xbd1b1115	-0.037858088
135	0xbd97b0ad	-0.07406745
136	0x3d273b29	0.040827904
137	0x3d3f1007	0.046646144
138	0xbd864669	-0.065563984
139	0xbdacc262	-0.08435513
140	0xbdc70e46	-0.09719519
141	0xbca22c68	-0.019796565
142	0x3af678ad	0.0018804275
143	0xbd1c0ef6	-0.038100205
144	0xbcfc422e	-0.030793276
145	0xbd9995b0	-0.07499254
146	0x3ddc621b	0.107609
147	0x3d6391e1	0.055559043
148	0x3e031b58	0.128034
149	0x3dc47cdd	0.09594128
150	0x3db64d7f	0.089015
151	0x3cae3281	0.021264317
152	0x3cae6736	0.02128945
153	0x3e160e6c	0.14653939
154	0x3df8785f	0.12132334
155	0xbd8458d4	-0.06462255
156	0xbe08ebd0	-0.13371205
157	0xbde7b082	-0.11312963
158	0xbdc5a3d8	-0.09650391
159	0xbdd1be01	-0.102413185
160	0x3e1c4049	0.15258898
161	0xbe15dd4c	-0.146352
162	0x3da31bad	0.07964263
163	0xbe18cca6	-0.14921817
164	0x3e009fdd	0.12560983
165	0xbe3fd470	-0.18733382
166	0x3dd6ab3e	0.104818806
167	0xbdd5276a	-0.10407908
168	0xbdd61ff5	-0.10455314
169	0x3dbbe347	0.09174209
170	0xbd9d878c	-0.07691869
171	0xbc89b9fb	-0.016812315
172	0xbd997ca6	-0.07494478
173	0x3e001519	0.12508048
174	0x3d6f6326	0.058444165
175	0x3de2b539	0.11069722
176	0x3c1825f1	0.00928639
177	0x3e004c9b	0.12529223
178	0xbd89d28e	-0.06729613
179	0xbe022037	-0.12707601
180	0x3d3cece4	0.046124354
181	0xbe09e892	-0.13467625
182	0x3e06ddd0	0.13170552
183	0xbc3e0c81	-0.011599661
184	0xbdfc5e65	-0.12322692
185	0x3e216e83	0.15764813
186	0x3d6a4aa7	0.0572001
187	0xbc9e8b80	-0.019353628
188	0x3d1b05ca	0.037847318
189	0x3dd79cd4	0.105279595
190	0x3dfe2278	0.12408918
191	0x3d08a6da	0.033362247
192	0xbe1af789	-0.1513349
193	0xbde3158c	-0.11088094
194	0x3e03ac37	0.12858663
195	0xbc6646de	-0.014054982
196	0xbc9b54c8	-0.018961325
197	0x3d9aec23	0.07564571
198	0x3dda1ec1	0.10650397
199	0xbdf381a7	-0.118899636
200	0xbdecbbdb	-0.11559268
201	0x3e03c8ef	0.12869619
202	0xbd5ee98f	-0.054421958
203	0xbd94f5b2	-0.07273425
204	0x3d9fbe8a	0.07800014
205	0xbd43f02e	-0.047836475
206	0x3bb561fe	0.005535363
207	0xbe007f27	-0.12548505
208	0xbd7597e9	-0.059959326
209	0x3d7ed05d	0.06221043
210	0x3d1bda1c	0.038049802
211	0xbe36bff7	-0.17846666
212	0x3d828f56	0.063749954
213	0x3df26fac	0.11837706
214	0xbd273c0d	-0.040828753
215	0xbded0ec1	-0.1157508
216	0xbd23baa6	-0.039972924
217	0x3d5a90e8	0.05336085
218	0xbd9bbe60	-0.076046705
219	0xbd334687	-0.043768432
220	0xbde91be6	-0.11382274
221	0x3d74dbd8	0.05977997
222	0x3d2baf0e	0.041914992
223	0xbe01237e	-0.12611195
224	0x3d69badc	0.05706297
225	0x3dfef642	0.12449314
226	0xbcd9c1c2	-0.026581649
227	0xbdca081d	-0.09864829
228	0xbe172ace	-0.14762422
229	0xbdce16e5	-0.100629605
230	0xbd0d8479	-0.034550164
231	0xbbfab010	-0.007650383
232	0xbe0ba005	-0.13635261
233	0xbdcf4e66	-0.10122375
234	0xbe02b181	-0.12763025
235	0xbd4d4b72	-0.05012078
236	0xbdec88fd	-0.11549566
237	0xbddddf14	-0.108335644
238	0x3da6dd35	0.08147661
239	0x3d56647f	0.052341934
240	0xbe05de6c	-0.13073128
241	0x3def97da	0.11698885
242	0x3d3aff3f	0.045653578
243	0x3d9cd3f5	0.07657615
244	0xbd8bd3b8	-0.068274915
245	0xbdd6d506	-0.1048985
246	0x3c77b180	0.015118003
247	0xbdabd764	-0.08390692
248	0x3ddd7724	0.1081374
249	0x3dc19abf	0.094533436
250	0xbd32b4b1	-0.043629352
251	0x3d62c110	0.0553599
252	0xbdf3ce1e	-0.11904548
253	0x3dd6ac26	0.104820535
254	0x3dbf6f71	0.09347428
255	0x3ca99619	0.020701455

layers.1.bias f4 [128]
0	0x3d03b581	0.032155517
1	0x3dad9533	0.08475723
2	0x3d96452f	0.073374145
3	0xbd519d4b	-0.051175397
4	0xbd906623	-0.07050731
5	0xbd8b36b5	-0.06797544
6	0xbc3d9f40	-0.011573613
7	0x3da3a428	0.07990295
8	0xbb9863db	-0.0046505756
9	0xbc9776f3	-0.018489337
10	0x3c92edf2	0.017935727
11	0x3caddbca	0.021222968
12	0x3b501e15	0.0031756212
13	0x3d9ba0e9	0.075990506
14	0x3da29f49	0.079405375
15	0xbb6c67b0	-0.0036072545
16	0x3d0c63c9	0.03427485
17	0x3d962ef5	0.07333175
18	0xbd86aa42	-0.06575443
19	0xbca7311f	-0.020409165
20	0xbcb03757	-0.021510763
21	0xbd806af9	-0.062704034
22	0xbd452b54	-0.048137024
23	0xbb9318f5	-0.004489059
24	0xbd60bc82	-0.054867275
25	0xbdaa0d20	-0.08303285
26	0x3dafd3ea	0.08585341
27	0x3d28e7d2	0.041236706
28	0x3d065f4a	0.03280572
29	0x3c9e9e76	0.01936267
30	0x3d53d1d4	0.05171378
31	0xbcb5411f	-0.022125779
32	0xbcdc0db6	-0.026862007
33	0xbb44eb67	-0.0030047537
34	0xbd58dc74	-0.052944615
35	0xbdb4b43d	-0.0882344
36	0xbd3b1af1	-0.04567999
37	0x3d73e41e	0.05954372
38	0x3d141188	0.03614953
39	0xbdac6f0f	-0.0841962
40	0x3c1223f3	0.008919704
41	0x3c490595	0.012269397
42	0x3db2e390	0.0873481
43	0x3df00a6c	0.11720738
44	0xbd6fd046	-0.058548234
45	0x3cc67204	0.024224289
46	0xbd07a1f1	-0.033113424
47	0x3cdf2e1c	0.027243666
48	0x3a214f89	0.0006153514
49	0x3d05088c	0.032478854
50	0x3d0e970a	0.03481201
51	0xbd79424b	-0.060854238
52	0x3c7744db	0.0150921
53	0x3af759e8	0.0018871399
54	0x3cfcf6df	0.030879436
55	0x3d7f329e	0.06230413
56	0xbdc203e9	-0.09473402
57	0x3da7e9e5	0.08198909
58	0x3dad265e	0.084545836
59	0x3d0487af	0.03235596
60	0x3da6f208	0.081516325
61	0xbd767154	-0.060166672
62	0x3d8f8419	0.070076175
63	0xbdcc5ecf	-0.09979021
64	0xbcd5f3f4	-0.026117302
65	0x3d9ba611	0.07600034
66	0x3d8d61fc	0.06903455
67	0xbd9b0ecb	-0.07571181
68	0xbcaaa495	-0.020830432
69	0x3d7458e2	0.059655078
70	0xbd094769	-0.033515368
71	0x3d1020d0	0.035187542
72	0x3b372e58	0.0027951207
73	0x3d8a9f05	0.06768612
74	0xbdb287cc	-0.087173074
75	0x3ccb30e6	0.02480359
76	0xbd6084f7	-0.054814305
77	0xbdafc26d	-0.08582006
78	0xbd290e6f	-0.04127353
79	0xbd2d909e	-0.042374246
80	0xbd6f447d	-0.058414925
81	0xbd0ab6de	-0.033865802
82	0x3cfe51a2	0.031044785
83	0xbd0a8bbc	-0.033824667
84	0xbdeb3d09	-0.11486251
85	0x3da16001	0.078796394
86	0xbc59f056	-0.013301929
87	0x3c8a6a3f	0.016896365
88	0xbd151879	-0.036400292
89	0x3ce4f928	0.027950838
90	0xbda39a42	-0.07988407
91	0xbd0882f9	-0.03332803
92	0xbd14ffac	-0.03637664
93	0xbceeb7f6	-0.029140454
94	0xbd4c5570	-0.049886167
95	0x3d97b4a4	0.07407501
96	0xbd37e8e7	-0.044899847
97	0xbd7a8f7d	-0.061171997
98	0xbd2b9f37	-0.041899886
99	0xbd1b8a2f	-0.03797358
100	0x3d01d934	0.03170128
101	0x3cd8801c	0.026428275
102	0xbdc5fca0	-0.09667325
103	0x3d3fb9e3	0.046808135
104	0x3d48a8f0	0.048989236
105	0xbd866ee3	-0.06564119
106	0xbd8f6458	-0.07001561
107	0x3e2394cf	0.15974735
108	0xbd4fcfba	-0.050735213
109	0x3d7fa01a	0.062408544
110	0xbd7febf0	-0.062480867
111	0x3a45a021	0.00075388147
112	0xbc89ed8a	-0.0168369
113	0x3d838fbc	0.064238995
114	0x3d52ea98	0.051493257
115	0xbd2be09f	-0.041962262
116	0x3cee693f	0.02910292
117	0xbd337d66	-0.04382076
118	0x3dbde3f1	0.09271992
119	0x3d3d3bb8	0.04619953
120	0x3d65d701	0.056113247
121	0x3d34e69d	0.044165242
122	0x3c61e029	0.013786354
123	0xbb9dc23e	-0.0048144152
124	0xbd9bf753	-0.07615533
125	0x3d57e85a	0.052711822
126	0xbd171888	-0.03688863
127	0x3d9a6756	0.07539241

layers.2.weight f4 [128, 128]
0	0x3dc3ff2d	0.09570155
1	0x3cbafab8	0.02282463
2	0xba89894e	-0.001049319
3	0xbd0b0573	-0.033940744
4	0xbd0c3342	-0.03422857
5	0x3dc81c48	0.09771019
6	0xbc73c0f4	-0.014877547
7	0xbb851b66	-0.004062104
8	0xbd617029	-0.055038605
9	0x3dc1e926	0.09468298
10	0xbd2ec95b	-0.042672496
11	0xbbe73afd	-0.0070565925
12	0x3cf3d06c	0.02976247
13	0x3dd33c28	0.10314208
14	0x3df99cbf	0.121881
15	0x3de39962	0.1111324
16	0x3d196cad	0.037457157
17	0xbdffc4e8	-0.12488729
18	0x3d8643ac	0.06555876
19	0xbd9f6a4a	-0.07783945
20	0xbd87f5a9	-0.06638653
21	0xbc45399a	-0.012037659
22	0xbbc9f19f	-0.0061628367
23	0x3dbaccef	0.09121119
24	0xbe071252	-0.13190582
25	0xbd7caee6	-0.061690234
26	0x3d6c175e	0.057639472
27	0xbdb50048	-0.08837944
28	0xbdf48fd3	-0.11941495
29	0xbdf3adfb	-0.118984185
30	0xbdc3ac53	-0.095543526
31	0xbe370b8d	-0.178755
32	0xbe1833b2	-0.1486347
33	0xbe21d2ee	-0.1580312
34	0x3d5c348c	0.05376105
35	0xbdf7735c	-0.1208255
36	0xbd2915bd	-0.041280497
37	0xbdaf8e91	-0.08572114
38	0xbcd23d50	-0.025664002
39	0x3d8cfa2d	0.06883655
40	0xbcd58b13	-0.026067292
41	0xbe0a3e86	-0.13500413
42	0x3d556430	0.0520975
43	0x3df95ff9	0.121765085
44	0x3d928963	0.07155111
45	0xbdd4d053	-0.10391297
46	0xbe0e0773	-0.13870029
47	0xbd67a9c9	-0.056558404
48	0xbd0d2ad3	-0.03446467
49	0x3d06d9c3	0.032922518
50	0xbd970374	-0.073737055
51	0xbde0cda3	-0.10976722
52	0x3d12a3f3	0.035800885
53	0x3dc26eb8	0.09493774
54	0xbe064eb2	-0.13115957
55	0xbd8860d1	-0.06659091
56	0x3dbd9c27	0.09258299
57	0xbe2cbce3	-0.1686893
58	0xbbd259e0	-0.0064194053
59	0xbd159e21	-0.036527757
60	0xbe162f66	-0.14666519
61	0xbdbbde19	-0.09173221
62	0x3dc366f4	0.09541121
63	0xbd43ce18	-0.04780397
64	0xbd8125ca	-0.06306036
65	0x3dd71de2	0.105037466
66	0x3d5e4364	0.054263487
67	0xbdb92887	-0.09040933
68	0xbd08e4f9	-0.03342149
69	0xbdb66b7b	-0.08907219
70	0x3dd2f1a6	0.10299997
71	0x3dc0a8be	0.09407185
72	0xbe160165	-0.1464897
73	0x3e185e30	0.1487968
74	0xbe2de4c4	-0.16981798
75	0x3d9cf26b	0.07663425
76	0x3dffd58f	0.12491905
77	0xbdf0350a	-0.117288664
78	0xbd33923b	-0.043840628
79	0x3d99da14	0.07512298
80	0xbddb42bd	-0.10706089
81	0xbd1d9706	-0.038474105
82	0xbcec7657	-0.028865023
83	0x3dea0d08	0.11428267
84	0xbcf866dd	-0.030322487
85	0xbdead057	-0.11465519
86	0x3dfb0a7a	0.122578576
87	0x3d58d012	0.052932806
88	0x3ddbe824	0.10737637
89	0x3d42bb67	0.047542002
90	0x3dfeb9fa	0.12437816
91	0xbd8a1c8e	-0.067437276
92	0xbcb4b164	-0.022057243
93	0xbde0f776	-0.109846994
94	0xbe0206ad	-0.12697859
95	0xbe150b15	-0.14555009
96	0x3da4db73	0.08049669
97	0xbd87c435	-0.066292204
98	0xbd45571f	-0.04817879
99	0x3ce1df07	0.027572168
100	0xbdfffd02	-0.12499429
101	0x3d192b6b	0.037394922
102	0xbaeb41a7	-0.0017948643
103	0xbe2841ba	-0.16431323
104	0x3e05da9f	0.13071679
105	0xbd6ba37c	-0.057528958
106	0xbdcfb001	-0.10140992
107	0x3e0fc195	0.1403869
108	0x3dd5b122	0.10434176
109	0x3cfc675e	0.030811008
110	0x3db1aece	0.086759195
111	0x3dd1a9fa	0.102374986
112	0xbddb5f8e	-0.10711585
113	0xbcdbb1b4	-0.026818134
114	0x3df962f6	0.121770784
115	0xbd4dfab9	-0.050287936
116	0x3dd43923	0.103624605
117	0xbcdf2725	-0.027240345
118	0x3d2fcd4e	0.042920403
119	0xbdd4c8fc	-0.10389897
120	0xbb290123	-0.002578803
121	0xbda91e73	-0.08257761
122	0xbe0b45c8	-0.13600838
123	0x3c80a4f0	0.015703648
124	0x3db810e3	0.08987596
125	0xbc19704f	-0.009365155
126	0xbe0314d4	-0.12800914
127	0xbe112716	-0.14175066
128	0x3e225ca7	0.15855657
129	0xbdd23ba8	-0.10265285
130	0x3ccb49bb	0.02481543
131	0xbdb2ea58	-0.08736104
132	0xbdb647b2	-0.089003935
133	0x3dbaa773	0.0911397
134	0x3b7242d4	0.0036966102
135	0x3db8ef0a	0.09029968
136	0xbe041901	-0.12900163
137	0x3cb67cfb	0.022276392
138	0xbe0a11a7	-0.13483296
139	0x3c70ba63	0.014692876
140	0x3d9d2f16	0.076749966
141	0xbdc430d4	-0.09579626
142	0xbda15cb2	-0.07879008
143	0x3de11fc3	0.10992386
144	0xbcf89079	-0.030342327
145	0xbe1b50c8	-0.15167534
146	0x3cd6b5ed	0.026209796
147	0xbda3eca9	-0.08004124
148	0x3cef0cdd	0.029180938
149	0x3dc98464	0.09839705
150	0xbda548e8	-0.080705464
151	0x3e1815b5	0.1485203
152	0xbc37cd17	-0.011218331
153	0xbcfa5a10	-0.030560523
154	0x3c2680b6	0.010162523
155	0x3c82ebbd	0.01598155
156	0xbd74e2c0	-0.05978656
157	0x3d4c6e7a	0.049910046
158	0x3e004ab9	0.12528504
159	0x3dcf3356	0.101172134
160	0xbc53c670	-0.012925729
161	0x3d9ea17a	0.07745643
162	0xbd6bc488	-0.057560474
163	0x3e1f3fb2	0.15551642
164	0x3d60cfb4	0.05488558
165	0x3cb28725	0.021792958
166	0xbd233aa8	-0.03985086
167	0x3d1dc2d4	0.03851588
168	0x3e06b07f	0.13153265
169	0x3e20310f	0.15643714
170	0x3ddfc0b0	0.10925424
171	0x3e01b4f1	0.1266668
172	0xbe04c7b8	-0.12966812
173	0x3d952f8a	0.07284458
174	0xbe00cdcd	-0.12578507
175	0x3d9d42c1	0.07678748
176	0xbe21a72b	-0.15786426
177	0xbb904f1f	-0.004403963
178	0x3d387d50	0.045041382
179	0x3daec08b	0.085328184
180	0xbcd2e1e0	-0.025742471
181	0x3dba816b	0.09106716
182	0xbe0d1a52	-0.13779572
183	0x3d66a15a	0.05630622
184	0x3d35380f	0.044242915
185	0xbe014290	-0.12623048
186	0xbd90840f	-0.07056438
187	0xbd6ab61f	-0.05730259
188	0x3cf9fa60	0.030514896
189	0x3d9142ef	0.07092845
190	0xbdb62feb	-0.088958584
191	0xbdc68c24	-0.096946985
192	0x3c8a659b	0.016894152
193	0x3d8592ad	0.06522117
194	0x3e008811	0.12551905
195	0x3dc7588e	0.09733687
196	0xbd0e5960	-0.034753203
197	0xbd5f5293	-0.05452211
198	0x3e04a1c7	0.12952338
199	0xbd8656b0	-0.06559503
200	0x3d918ef3	0.071073435
201	0xbd581aa1	-0.05275977
202	0x3de9876f	0.11402785
203	0x3df22159	0.11822767
204	0xbc763269	-0.015026667
205	0xbda835e0	-0.08213401
206	0xbde29739	-0.11064
207	0xbe0bd378	-0.13654888
208	0xbe161491	-0.14656283
209	0x3dd5dad2	0.10442127
210	0xbd1e15a3	-0.038594853
211	0x3cefe09f	0.029281912
212	0xbce74a14	-0.028233565
213	0x3db00775	0.08595172
214	0xbd2c5a54	-0.04207833
215	0xbb50704e	-0.003180522
216	0x3d380b50	0.044932663
217	0x3becbe6e	0.0072248494
218	0xbbfadc4b	-0.0076556555
219	0xbdf69a2b	-0.12041124
220	0xbdf80354	-0.1211001
221	0x3cf2efc4	0.029655345
222	0x3da02446	0.078194186
223	0x3b8ef8fb	0.004363177
224	0xbd9dcd4f	-0.07705175
225	0x3d8f596d	0.069994785
226	0x3d6d1677	0.057882752
227	0x3def3e81	0.116818435
228	0x3dccf077	0.100068025
229	0xbcb1c4dc	-0.021700315
230	0x3d9789f4	0.07399359
231	0xbe0124f6	-0.12611756
232	0xbce876e4	-0.028377004
233	0x3cd46edf	0.025931774
234	0xbd344c01	-0.044017795
235	0xbd0effb3	-0.034911823
236	0x3e026beb	0.1273648
237	0xbdd04edb	-0.101712905
238	0x3ce3c2d6	0.027802866
239	0x3bbd6ecb	0.00578103
240	0x3cb0b219	0.021569299
241	0x3c1dcd19	0.009631419
242	0x3dc10dc5	0.094264545
243	0x3defab41	0.11702586
244	0xbdef39c9	-0.116809435
245	0x3db442a6	0.08801775
246	0xbddaaa68	-0.10677034
247	0x3d03dbaa	0.03219191
248	0x3d2fc542	0.04291273
249	0x3c9f18e2	0.019421045
250	0x3d9b8182	0.07593061
251	0xbd014ead	-0.03156917
252	0x3dd0164a	0.10160501
253	0x3d558329	0.052127037
254	0x3e14057b	0.14455216
255	0x3e052234	0.13001329

layers.2.bias f4 [128]
0	0xbd550ac1	-0.05201221
1	0xbca6257f	-0.020281551
2	0x3d4cd305	0.05000593
3	0x3dd3daeb	0.1034449
4	0xbd2dd9dc	-0.042444095
5	0x3c4143b6	0.011795929
6	0xbda54eb4	-0.08071652
7	0x3d7dd9d1	0.061975304
8	0xbc99f3f5	-0.018793086
9	0xbd390355	-0.045169193
10	0x3dacd230	0.084385276
11	0xbd980ba2	-0.07424094
12	0xbdaf2525	-0.08552007
13	0x3aeb0817	0.0017931488
14	0xbd537976	-0.051629506
15	0xbd673f2e	-0.056456737
16	0xbd8327e9	-0.06404097
17	0xbd834c79	-0.064110704
18	0x3c44625e	0.011986343
19	0xbdb65e87	-0.089047484
20	0xbd74ffd7	-0.0598143
21	0x3d9e6fd6	0.07736175
22	0xbd4d51db	-0.05012689
23	0xbb9d6b7c	-0.004804073
24	0xbd81abb5	-0.06331579
25	0xbc30df41	-0.010795415
26	0xbdcd9bd1	-0.10039485
27	0x3ca31e4b	0.019911906
28	0x3d4745e9	0.048650656
29	0xbb37b24c	-0.0028029857
30	0x3d48d370	0.049029768
31	0x3d9203bb	0.07129618
32	0xbc6663bb	-0.0140618635
33	0xbd88e6b7	-0.0668463
34	0x3d4fbba3	0.050716054
35	0xbd91b025	-0.07113675
36	0xbdadd0f9	-0.08487124
37	0xbc66c365	-0.014084672
38	0xbd7f95c5	-0.06239869
39	0x3d3eb5b1	0.046559993
40	0xbb4563f1	-0.0030119384
41	0x3d380542	0.04492689
42	0xbcc94d49	-0.024572985
43	0x3ced0890	0.028934747
44	0xbd0d3536	-0.034474574
45	0xbce74a37	-0.02823363
46	0x3d543967	0.051812556
47	0xbcc4114a	-0.023934025
48	0xbdd76b07	-0.10518461
49	0xbd84f6cb	-0.064923845
50	0xbdc98901	-0.098405845
51	0xbda49ee4	-0.080381185
52	0xbdb02c83	-0.0860224
53	0x3d251c43	0.040310156
54	0xbdb8a5ed	-0.09016023
55	0xbdd5e4a3	-0.104439996
56	0x3d525b86	0.051356815
57	0xbd2b552c	-0.041829273
58	0xbce4e9ea	-0.02794357
59	0x3c736221	0.014854939
60	0x3b817fe5	0.003952014
61	0xbcf8f328	-0.030389383
62	0x3cb7d6e5	0.022441337
63	0x3d9b54b4	0.07584515
64	0x3da4dc22	0.080497995
65	0xbc51c92a	-0.012804309
66	0xbd01ab8e	-0.031657748
67	0xbcfebcfa	-0.03109597
68	0xbdb0a0a2	-0.08624388
69	0x3dc34dac	0.09536299
70	0x3d8f9644	0.07011083
71	0x3ca28e8e	0.019843366
72	0x3cec6c7a	0.02886032
73	0xbcb7eedb	-0.022452762
74	0xbc4f0ea2	-0.012637766
75	0xbd7048b4	-0.058663085
76	0x3d8af6b3	0.067853354
77	0xbd85cde1	-0.06533409
78	0x3dcd80cc	0.10034332
79	0x3cd2ddc4	0.025740512
80	0xbd9df132	-0.0771202
81	0xb93514a5	-0.00017269196
82	0x3d6bcab5	0.057566363
83	0xbc924635	-0.017855743
84	0xbd639c25	-0.055568833
85	0x3db619a6	0.08891611
86	0x3d5c887e	0.053841107
87	0xbd9d2b47	-0.0767427
88	0xbd935841	-0.071945675
89	0xb984ce5b	-0.0002533075
90	0x3ce7cc42	0.02829564
91	0x3d40f538	0.04710886
92	0xbd9ae64b	-0.07563456
93	0x3c3e94b3	0.011632132
94	0x3d3f1c05	0.04665758
95	0x3d681681	0.056662086
96	0x3c78e508	0.015191324
97	0xbdc05b5e	-0.09392427
98	0xbd98069f	-0.07423138
99	0x3ba424c7	0.005009267
100	0xbd8a3182	-0.06747724
101	0xbdbdc528	-0.0926612
102	0x3c300a6e	0.010744674
103	0xbd5b36fb	-0.05351923
104	0xbc84df75	-0.016219834
105	0x3d2a0150	0.041505158
106	0xbd1773b2	-0.03697557
107	0x3d017dc7	0.03161409
108	0xbd9463c2	-0.0724559
109	0xbd8865a0	-0.066600084
110	0x3e03cf73	0.12872104
111	0x3db0abdf	0.08626532
112	0xbdbd0020	-0.092285395
113	0x3c94b4d1	0.018152626
114	0xbd9fa2d5	-0.077947296
115	0xbd9c76b6	-0.0763983
116	0xbda7e677	-0.081982546
117	0x3d80f42f	0.06296574
118	0xbd701e53	-0.05862267
119	0xbd64fbeb	-0.05590431
120	0x3db7e531	0.08979262
121	0xbcd06ddb	-0.025443008
122	0xbd9048ea	-0.07045157
123	0xbd8caa0f	-0.068683736
124	0x3d360794	0.04444082
125	0x3db99b1a	0.090627864
126	0xbd91ef9c	-0.0712578
127	0xbd6c8eff	-0.05775356

layers.3.weight f4 [128, 128]
0	0xbe0866d7	-0.1332048
1	0x3c3c1230	0.011478946
2	0x3db089a4	0.08620003
3	0x3e19343e	0.14961335
4	0x3cc7df28	0.024398401
5	0x3de8fc81	0.11376286
6	0x3dd6ddd8	0.10491532
7	0xbda7571a	-0.0817091
8	0x3dd2a085	0.10284523
9	0x3e072e48	0.13201249
10	0xbde67ff1	-0.11254872
11	0xbc4b9a89	-0.012426981
12	0x3dec3b6b	0.115347706
13	0xbe1445b9	-0.14479722
14	0x3d99509b	0.074860774
15	0xbdccac0f	-0.09993755
16	0xbc69118e	-0.014225377
17	0x3e259437	0.1616982
18	0xbde43f90	-0.11144936
19	0xbd2551a8	-0.040361077
20	0xbd9a5eca	-0.07537611
21	0xbcb0574e	-0.021526005
22	0xbdc78648	-0.09742409
23	0xbe058f21	-0.1304288
24	0xbd50a14b	-0.05093507
25	0x3c8139d5	0.015774647
26	0xbe002aff	-0.12516402
27	0x3d9552ad	0.0729116
28	0xbdf3d9cb	-0.11906775
29	0x3e11cea8	0.1423899
30	0xbcb8476a	-0.02249499
31	0xbda6897f	-0.08131694
32	0xbdd30036	-0.103027746
33	0x3d3257f5	0.043540914
34	0xbdca126a	-0.098667935
35	0x3dcf1a37	0.10112422
36	0x3e1230cf	0.14276432
37	0x3e24ce17	0.16094242
38	0xbc86aa41	-0.016438605
39	0x3db3a9d0	0.087726235
40	0xbc4a7960	-0.01235804
41	0xbe16fbf0	-0.14744544
42	0xbdef3727	-0.11680441
43	0xbd24c247	-0.04022434
44	0x3c415640	0.011800349
45	0x3d2bdccd	0.04195862
46	0x3bcdff88	0.006286565
47	0x3e0259dd	0.12729593
48	0x3d828ebd	0.063748814
49	0xbe10e045	-0.14148052
50	0x3d928d9e	0.071559176
51	0x3cd5645a	0.026048828
52	0x3dc8d07a	0.09805389
53	0xbe3e4861	-0.18582298
54	0x3d493570	0.049123228
55	0x3d8862f3	0.06659498
56	0x3df3e705	0.11909298
57	0x3de56bd0	0.11202204
58	0xbe072162	-0.13196328
59	0xbe00accb	-0.12565915
60	0x3d1f56d5	0.03890117
61	0x3dbbbc80	0.09166813
62	0x3e03fdc2	0.1288977
63	0xbdbda0d0	-0.09259188
64	0xbe1471b0	-0.14496493
65	0x3d77eb79	0.0605273
66	0x3c95cc2a	0.01828583
67	0xbde1c593	-0.110240124
68	0x3d88fcd5	0.06688849
69	0xbdb76e77	-0.08956616
70	0x3d395c82	0.045254238
71	0xbe16250d	-0.14662571
72	0xbcef8cb0	-0.02924189
73	0x3d95b6ea	0.07310279
74	0xbd163490	-0.03667122
75	0x3d40b600	0.04704857
76	0xbd987bc9	-0.07445485
77	0xbda5b23e	-0.080906376
78	0xbc4d9763	-0.0125483
79	0x3c516994	0.012781519
80	0x3d8a7647	0.06760841
81	0xbd9e4512	-0.07728018
82	0x3c2394c1	0.009984196
83	0xbda12f3a	-0.07870336
84	0x3c8c9617	0.017161412
85	0xbdf648ed	-0.12025628
86	0x3df275ef	0.118389
87	0x3db1cef7	0.086820535
88	0x3dc1a71e	0.09455703
89	0xbe09e6d4	-0.1346696
90	0xbe1a7e86	-0.15087327
91	0x3c01a218	0.007912181
92	0x3bdfb748	0.0068272687
93	0xbdbee632	-0.0932125
94	0xbdf74f33	-0.12075653
95	0xbcc69581	-0.02424121
96	0xbd8c5973	-0.068529986
97	0xbd3516cb	-0.04421119
98	0x3d1fae1e	0.03898441
99	0xbc7469ca	-0.0149178
100	0x3da207ae	0.07911621
101	0xbd81434d	-0.06311665
102	0xbd12a4ab	-0.03580157
103	0xbcaefeec	-0.02136179
104	0x3cc1e79c	0.02367001
105	0xbd963ff5	-0.073364176
106	0xbe237fd9	-0.15966739
107	0xbe1d4f68	-0.15362322
108	0xbe1e5b1d	-0.15464444
109	0xbc937e99	-0.018004702
110	0x3dd87c28	0.10570556
111	0x3d3bdfc9	0.045867715
112	0x3d42625d	0.047457088
113	0x3c9bb7ac	0.01900848
114	0x3e0c7dd6	0.13719878
115	0x3d98eba8	0.07466823
116	0xbcd48432	-0.025941942
117	0x3e13321d	0.14374585
118	0xbcada9aa	-0.021199066
119	0x3cf11cf4	0.029432751
120	0x3ce7965f	0.028269945
121	0xbd94d269	-0.07266695
122	0x3e140f84	0.14459044
123	0x3e039ef0	0.12853599
124	0x3d9c9842	0.076462284
125	0xbdc3d018	-0.09561175
126	0x3de79ac8	0.11308819
127	0xbd3a594c	-0.045495316
128	0x3d374117	0.04473981
129	0xbe000baa	-0.1250445
130	0x3dc1d165	0.09463767
131	0x3e29ff8f	0.16601394
132	0xbd673fce	-0.056457333
133	0x3db5864f	0.08863508
134	0x3d82e78b	0.063918196
135	0x3dffdecd	0.12493668
136	0xbbf2217d	-0.007389246
137	0xbd830ea6	-0.06399278
138	0xbe0d7fb8	-0.13818252
139	0xbcdd0bc5	-0.026983151
140	0x3e09c1a2	0.13452771
141	0x3c91f9d6	0.017819326
142	0x3d2ba87d	0.04190873
143	0x3dc7eec7	0.0976234
144	0xbd19f5e4	-0.037588015
145	0xbc89c14d	-0.016815806
146	0x3ddffd62	0.10937001
147	0x3e0fc171	0.14038636
148	0x3defbab1	0.117055304
149	0x3d18388d	0.037163306
150	0xbe054391	-0.13014056
151	0x3e0e2ffa	0.13885489
152	0x3c009667	0.007848359
153	0xbb47033d	-0.003036692
154	0xbaf2cf0f	-0.0018524843
155	0x3de884ba	0.113534406
156	0xbdbda255	-0.09259478
157	0xbdcbd91d	-0.099535204
158	0x3cf867cb	0.03032293
159	0x3dfa30a1	0.122163065
160	0x3d87e68c	0.0663577
161	0x3e12b3ba	0.14326373
162	0x3dd87b79	0.105704255
163	0x3d94dfc6	0.07269244
164	0xbce8de40	-0.02842629
165	0xbca2dfed	-0.019882167
166	0xbdbdf54b	-0.092753015
167	0x3d0e4857	0.034736957
168	0x3e2a5632	0.16634443
169	0x3d35a268	0.044344336
170	0x3d4e979f	0.050437566
171	0x3caeede2	0.021353666
172	0xbb4bf1c2	-0.003111944
173	0x3d8900f0	0.06689632
174	0x3dec7a20	0.11546731
175	0x3cbd006f	0.023071496
176	0x3daddd91	0.08489526
177	0x3e179a99	0.14805068
178	0xbd959c95	-0.07305256
179	0x3e0c885e	0.13723895
180	0xbe22625a	-0.1585783
181	0x3da88d0b	0.08230027
182	0xbd78d99a	-0.060754396
183	0x3dbe5344	0.092932254
184	0x3d43421c	0.04767047
185	0xbd7e8e4f	-0.062147435
186	0x3e045629	0.12923492
187	0xbe1ae448	-0.15126145
188	0x3c6cc3db	0.014450992
189	0x3e1905e5	0.14943655
190	0xbe1a0c9e	-0.15043876
191	0x3e0aa83f	0.13540743
192	0xbdf3e6c2	-0.11909248
193	0xbd1a6f04	-0.03770353
194	0xbc4ab34b	-0.012371848
195	0xbbb7c351	-0.0056080003
196	0x3dd66ae4	0.104696065
197	0x3dab2029	0.083557434
198	0xbde3b466	-0.11118393
199	0xbe1e3430	-0.15449595
200	0x3e0cb20e	0.13739797
201	0xbd683a91	-0.05669648
202	0x3e0b0f6c	0.13580102
203	0x3d7677f8	0.060173005
204	0x3cd8dc61	0.026472272
205	0x3e160976	0.14652047
206	0x3dbd8e76	0.09255688
207	0x3bb7204f	0.0055885683
208	0x3e066739	0.13125314
209	0x3de7a223	0.11310222
210	0xbdc3bc51	-0.09557403
211	0x3df7fc38	0.12108654
212	0xbde07beb	-0.109611355
213	0x3dca2c5c	0.09871742
214	0x3d7581c4	0.059938207
215	0xbd267a40	-0.04064393
216	0x3e06916a	0.13141409
217	0x3d081e04	0.03323175
218	0x3de636db	0.112409316
219	0x3c457bbc	0.012053426
220	0xbdad2074	-0.084534556
221	0xbd72216d	-0.05911391
222	0xbc34a309	-0.011025199
223	0xbced50f7	-0.028969271
224	0x3ca078c2	0.019588832
225	0xbd9cffe3	-0.07665994
226	0x3d9eb350	0.07749045
227	0x3df7d667	0.12101441
228	0xbc8571b5	-0.016289571
229	0x3d7d8a26	0.061899327
230	0xbdf9cf44	-0.12197736
231	0x3cf1e63b	0.029528728
232	0xbda621cb	-0.08111914
233	0x3de7b3af	0.11313569
234	0x3dee490a	0.11635025
235	0x3deb8b5f	0.11501192
236	0x3ad94663	0.0016576763
237	0xbdacbb96	-0.08434217
238	0x3e145141	0.14484121
239	0xbe076b42	-0.1322451
240	0xbb1dfaf0	-0.002410587
241	0x3d1551bb	0.036454897
242	0x3d82cba5	0.06386498
243	0xbda0d6d2	-0.07853474
244	0x3d3d1574	0.046163037
245	0xbc82ea5d	-0.015980894
246	0x3d81c059	0.063355155
247	0x3deb3a97	0.114857845
248	0xbd8c9739	-0.06864781
249	0x3c7a09ad	0.015261096
250	0xbe12464b	-0.14284627
251	0x3d4e2fe5	0.050338645
252	0xbda4c187	-0.08044725
253	0x3da90085	0.08252052
254	0x3c9772d9	0.01848738
255	0xbc2bb98c	-0.01048125

layers.3.bias f4 [128]
0	0xbdc45024	-0.09585598
1	0xbdadae1e	-0.08480476
2	0xbc6a0d03	-0.014285329
3	0x3c85861f	0.016299305
4	0xbd481e88	-0.048857242
5	0xbd9700bc	-0.07373187
6	0xbca918ee	-0.02064177
7	0xbc39e3d6	-0.011345824
8	0x3ca680e4	0.020325132
9	0x3dc1e64b	0.09467753
10	0x3d061fa7	0.03274503
11	0x3da7e323	0.0819762
12	0x3d69f8a7	0.0571219
13	0x3d645f99	0.05575523
14	0xbc8d4258	-0.01724355
15	0xbda86bcf	-0.08223688
16	0xbd3719c2	-0.0447023
17	0xbc00929b	-0.0078474535
18	0x3cbcd975	0.02305291
19	0x3d0c5e1d	0.03426944
20	0xbc0b0a47	-0.008486337
21	0xbd72d24d	-0.05928259
22	0xbcdda435	-0.02705584
23	0xbd379134	-0.04481621
24	0xbd43b19b	-0.0477768
25	0xbd5658ca	-0.05233077
26	0x3ca5dca0	0.020246804
27	0xbdcdd36e	-0.10050093
28	0x3cbf8738	0.023379907
29	0xbd9d69e6	-0.07686214
30	0xbd6abf94	-0.05731161
31	0xbdbf46c5	-0.0933967
32	0x3d353df3	0.044248533
33	0x3dbac8a9	0.09120304
34	0xbda7ad99	-0.08187408
35	0x3d792e9d	0.06083547
36	0xbd3883c2	-0.04504753
37	0x3ca715e5	0.020396182
38	0x3d28f254	0.041246727
39	0xbcb120fe	-0.021622177
40	0x3c3f253c	0.011666592
41	0xbd66560a	-0.056234397
42	0xbd5bb970	-0.053643644
43	0x3d98f498	0.074685276
44	0x3b4e1483	0.0031445331
45	0x3c0662e8	0.008202292
46	0x3c7b5a53	0.015341359
47	0xbd26796e	-0.040643148
48	0x3d8ba376	0.06818287
49	0x3c1eeab4	0.009699512
50	0x3d004344	0.03131415
51	0x3d92228b	0.07135495
52	0x3d7625fb	0.060094815
53	0xbdab759a	-0.0837204
54	0x3d8523ea	0.06500991
55	0x3c5ddb36	0.0135410335
56	0xbd2810a4	-0.041031495
57	0xbd8411f8	-0.0644874
58	0x3c09e565	0.008416508
59	0xbbee4c24	-0.0072722603
60	0x3b56822d	0.00327314
61	0xbd17532d	-0.036944557
62	0xbb729340	-0.0037014037
63	0x3d577f5e	0.0526117
64	0xbd52c4f7	-0.05145737
65	0xbd149c18	-0.036281675
66	0xbc47e23b	-0.012199934
67	0x3d96ffe3	0.07373025
68	0x3cb7f54c	0.022455834
69	0x3d8abdd8	0.06774491
70	0xbcd05f4c	-0.025436066
71	0xbc800f61	-0.015632333
72	0x3d00b1a5	0.031419415
73	0xbd3a55b0	-0.045491874
74	0xbda5b65a	-0.080914214
75	0x3dab7223	0.08371379
76	0xbaa80d17	-0.0012821284
77	0xbbb499a9	-0.005511482
78	0x3d6a8cc6	0.05726316
79	0x3d5f6bbb	0.0545461
80	0xbcebf77e	-0.028804537
81	0xbd1ffdcd	-0.039060403
82	0xbd525f3d	-0.051360358
83	0x3da8598c	0.08220205
84	0xbd2d57e1	-0.042320136
85	0xbd4c3a4d	-0.049860287
86	0xbcc44680	-0.023959398
87	0x3d4bf4e9	0.04979411
88	0x3d09d05a	0.033645965
89	0xbd27345a	-0.04082141
90	0xbcaf8709	-0.021426694
91	0x3da8e3e9	0.082465954
92	0x3d93b47f	0.07212161
93	0x3d75582c	0.05989854
94	0xbd73d08f	-0.05952507
95	0xbce8c531	-0.02841434
96	0xbd345896	-0.044029795
97	0x3da83d7f	0.082148544
98	0xbd452dc4	-0.04813935
99	0xbd5a8c59	-0.053356502
100	0x3d461704	0.048361793
101	0xbdb4eea1	-0.08834577
102	0x3cefdd94	0.029280461
103	0x3c8a8591	0.016909393
104	0x3da2fa1e	0.07957862
105	0x3d812b93	0.06307139
106	0x3d12bd6e	0.035825185
107	0x3dc14353	0.09436669
108	0x3cb3c603	0.021945005
109	0x3d5b802a	0.053589024
110	0xbddf8b0c	-0.10915193
111	0x3d81786a	0.06321795
112	0x3c9146c3	0.017733937
113	0x3d45df86	0.04830887
114	0xbc69ac05	-0.014262204
115	0x3a6338bd	0.00086678175
116	0xbd9371fa	-0.07199474
117	0xbda6821b	-0.081302844
118	0xbd2aaa7d	-0.041666497
119	0xbd9269d6	-0.07149093
120	0x3c42daae	0.011892958
121	0x3bb9f3e7	0.0056748274
122	0xbda38af7	-0.0798549
123	0x3db0f103	0.08639719
124	0xb8538318	-5.042841e-05
125	0x3c862c8b	0.016378662
126	0xbd3400b1	-0.043945972
127	0x3d6b073b	0.057379942

layers.4.weight f4 [128, 128]
0	0xb94f391c	-0.00019762333
1	0x3c0c8645	0.008576934
2	0xbda6aa37	-0.08137935
3	0x3c4c5e3a	0.012473637
4	0x3e0aec8a	0.13566795
5	0xbe04be75	-0.12963279
6	0x3d97ffe0	0.07421851
7	0xbd274546	-0.04083755
8	0xbde4e0ad	-0.11175666
9	0xbda6a0f2	-0.08136167
10	0x3e0a4484	0.13502699
11	0xbdf8656d	-0.121287204
12	0xbdc15f24	-0.09441975
13	0x3c0a48c2	0.008440198
14	0x3d2676e3	0.040640723
15	0xbdd01b65	-0.10161475
16	0x3dff1b77	0.124564104
17	0x3e22f443	0.15913491
18	0xbd0d322a	-0.03447167
19	0x3da40962	0.08009602
20	0x3cf243c8	0.029573336
21	0xbdec3026	-0.11532621
22	0xbe12ef90	-0.14349198
23	0xbd84e399	-0.06488723
24	0xbc941fab	-0.018081507
25	0xbda3ef17	-0.08004587
26	0xbd049acc	-0.03237419
27	0xbdde376f	-0.10850417
28	0x3cb507ec	0.022098504
29	0xbd3a6015	-0.045501787
30	0x3d9fe137	0.07806628
31	0x3d3ddd13	0.04635341
32	0xbe056ef8	-0.13030612
33	0xbe05c90e	-0.13064978
34	0x3dac5efc	0.08416554
35	0xba806306	-0.0009795136
36	0x3dd60e90	0.10451996
37	0x3d8f70c2	0.07003929
38	0x3d3fc92a	0.046822704
39	0xbd962a3c	-0.07332274
40	0x3db423bf	0.087958805
41	0x3e007c56	0.1254743
42	0x3c9e8545	0.019350657
43	0xbd33b9b4	-0.043878272
44	0x3d0434c7	0.032276895
45	0xbe1bd6f6	-0.1521872
46	0xbe131f69	-0.14367451
47	0x3e0b5a81	0.13608743
48	0xbddb97f9	-0.10722346
49	0x3df616c3	0.1201606
50	0x3df48b6d	0.11940656
51	0x3e0ca3b5	0.13734324
52	0x3e051df9	0.12999715
53	0xbdd2e6a0	-0.102978945
54	0x3e003559	0.1252035
55	0xbdbd3bad	-0.09239898
56	0x3d51fb60	0.05126512
57	0x3d6054a9	0.05476824
58	0x3dfc0c68	0.12307054
59	0x3dfb600f	0.12274181
60	0x3da4e46f	0.08051383
61	0xbd7305ce	-0.059331708
62	0xbe20d663	-0.15706782
63	0xba85ab9c	-0.0010198238
64	0xbd1fa2c4	-0.038973585
65	0x3d149041	0.036270384
66	0xbdb0dd4d	-0.0863596
67	0xbe11679c	-0.1419968
68	0xbdfc2c33	-0.12313118
69	0xbcc37aa4	-0.02386219
70	0xbd9f5c8f	-0.07781326
71	0xbd5e8a69	-0.054331217
72	0xbd945add	-0.07243893
73	0xbe1138e1	-0.14181854
74	0xbcc934c4	-0.024561293
75	0x3d8ce2fa	0.0687923
76	0x3c69aef4	0.0142629035
77	0x3d99e946	0.075151965
78	0xbd673146	-0.056443475
79	0xbdccbb46	-0.09996657
80	0xbdfb55f1	-0.122722514
81	0xbc2db93d	-0.010603246
82	0x3d37fa26	0.044916295
83	0x3d3374b3	0.043812465
84	0x3d822548	0.06354767
85	0xbcc8d127	-0.024513794
86	0x3cd477ad	0.025935972
87	0x3e041e2c	0.12902135
88	0xbb835b79	-0.004008707
89	0xbd26808a	-0.04064993
90	0xbde025f4	-0.10944739
91	0xbd8cb424	-0.068702966
92	0xbe09f831	-0.13473584
93	0xbc096841	-0.0083866725
94	0xbd72fa3c	-0.059320673
95	0xbdd2b8d8	-0.102891624
96	0xbd9ba3cf	-0.075996034
97	0xbdafab13	-0.08577552
98	0xbe20ff1a	-0.15722314
99	0x3e134df0	0.143852
100	0xbd821ce7	-0.06353169
101	0x3cd39d89	0.025831955
102	0xbdbf5137	-0.093416624
103	0xbe0dd6d1	-0.13851477
104	0xbddf685e	-0.10908578
105	0xbd8ae4c0	-0.06781912
106	0xbd12bf62	-0.035827048
107	0xbd1202e3	-0.035647284
108	0xbddc35c3	-0.10752442
109	0xbd51a78c	-0.051185176
110	0xbdc771b4	-0.09738484
111	0xbdfaedfa	-0.12252422
112	0x3d9774b1	0.07395304
113	0xbe027f5c	-0.12743896
114	0xbe0b99c1	-0.13632871
115	0x3b6a2d5a	0.0035732598
116	0xbd4ada69	-0.0495247
117	0x3dfa1e73	0.12212839
118	0xbd942332	-0.072332755
119	0x3df71fb6	0.12066595
120	0x3c7cb17e	0.015423177
121	0xbd869ddc	-0.06573078
122	0xbc8652cd	-0.016396904
123	0x3d8e9eae	0.069638595
124	0x3cf5196c	0.029919349
125	0xbd9cc46e	-0.076546535
126	0x3ca3e9ce	0.020008948
127	0x3bf87de3	0.0075833662
128	0xbd07a686	-0.033117794
129	0xbe1c0f7d	-0.15240283
130	0x3d369b79	0.044581864
131	0x3dc62b24	0.09676197
132	0x3d5f073d	0.054450262
133	0xbc83e12c	-0.016098581
134	0x3d5c5478	0.053791493
135	0xbdcfb280	-0.10141468
136	0xbe0b0546	-0.1357623
137	0x3dbe85fc	0.09302899
138	0xbd3765b6	-0.044774733
139	0xbcaa7171	-0.020806046
140	0xbd69957f	-0.057027336
141	0xbcec00e4	-0.028809018
142	0xbe013e31	-0.1262138
143	0xbdee1843	-0.11625721
144	0xbdc7bdfa	-0.09753032
145	0x3d3921bd	0.04519819
146	0xbcb3551f	-0.021891175
147	0xbc97546d	-0.018472875
148	0x3e01f1f1	0.1268995
149	0xbba0c8e1	-0.004906759
150	0xbc31dfde	-0.010856597
151	0xbc91ac13	-0.017782247
152	0xbe10cf04	-0.1414147
153	0x3d33806b	0.04382364
154	0x3c75a263	0.014992329
155	0x3d825373	0.06363573
156	0xbdc103d5	-0.09424559
157	0xbd391adb	-0.045191627
158	0xbd809a31	-0.0627941
159	0x3d8a62d4	0.06757131
160	0xbcc32315	-0.02382044
161	0xbe047a73	-0.12937336
162	0x3dc3e37b	0.09564873
163	0x3dccf9bf	0.10008573
164	0x3dc1697f	0.0944395
165	0x3c64cb5e	0.013964502
166	0xbdcb60d4	-0.09930578
167	0x3dc98fe0	0.09841895
168	0xbdc9f80c	-0.09861764
169	0x3bf5ea36	0.0075047268
170	0xbd2f5e9d	-0.04281484
171	0xbcfe7102	-0.031059746
172	0xbdbe5967	-0.09294396
173	0x3dc222f7	0.09479325
174	0x3e25b612	0.16182736
175	0x3d8fe84e	0.070267305
176	0x3e1840f0	0.14868522
177	0x3dcf0522	0.10108401
178	0xbddb9f0f	-0.107236974
179	0xbc8f14aa	-0.017465908
180	0xbc824bf9	-0.015905367
181	0x3dd809ae	0.10548721
182	0x3dc4ed00	0.09615517
183	0xbb4ebcb8	-0.003154559
184	0xbcf96301	-0.030442717
185	0x3dae1220	0.08499551
186	0x3da69249	0.081333704
187	0xbcbfe54b	-0.023424765
188	0xbd4e6346	-0.050387643
189	0xbe107922	-0.14108709
190	0x3d8b5d53	0.068049096
191	0x3e0485c9	0.1294166
192	0x3e049a69	0.12949528
193	0x3d710e12	0.05885131
194	0xbdbeaa36	-0.09309809
195	0x3cab374f	0.020900397
196	0xbd81187d	-0.06303499
197	0xbd9d3b5f	-0.0767734
198	0x3de94b25	0.11391286
199	0x3b2ae392	0.0026075584
200	0xbd53afd1	-0.051681343
201	0x3e0ffc54	0.140611
202	0x3c6eaa4c	0.014566969
203	0xbde039e7	-0.10948544
204	0xbd8be8ea	-0.06831534
205	0xba3b303d	-0.0007140672
206	0x3ce60aa8	0.028081253
207	0x3dcda672	0.100415125
208	0x3de884c8	0.11353451
209	0xbdd74b35	-0.105123915
210	0xbdcce71d	-0.10005019
211	0x3de5dd27	0.11223822
212	0xbe13d0d6	-0.14435133
213	0x3cb2d0b7	0.021828039
214	0xbd638b05	-0.0555525
215	0xbde82dc6	-0.113368556
216	0xbacc0f7c	-0.001556858
217	0xbd8c4e88	-0.06850916
218	0x3dae4647	0.08509498
219	0x3dadc39d	0.08484576
220	0x3d47f90c	0.048821494
221	0x3c930537	0.017946823
222	0x3e01a0ca	0.12658992
223	0xbc9c8bfc	-0.019109719
224	0x3d45ae1a	0.04826174
225	0x3d1bfd57	0.0380834
226	0xbdee04b9	-0.116219945
227	0xbdf77648	-0.12083107
228	0x3da155b7	0.07877677
229	0x3dc9a51e	0.09845947
230	0x3ca12072	0.019668791
231	0xbe12e06f	-0.14343427
232	0x3decf116	0.11569421
233	0xbcf999dc	-0.030468874
234	0xbd1a3765	-0.037650485
235	0xbdb93012	-0.09042372
236	0x3da06687	0.078320555
237	0xbdabb0e8	-0.083833516
238	0xbde479dd	-0.11156056
239	0x3d7fd0d4	0.062455013
240	0x3dbb1156	0.09134166
241	0xbdedb2a4	-0.116063386
242	0xbc17eb70	-0.009272441
243	0xbdd104ab	-0.102059685
244	0xbe004ae4	-0.12528569
245	0x3e0e142c	0.13874882
246	0xbd762c5c	-0.0601009
247	0xbd9da0be	-0.07696675
248	0x3d688933	0.05677147
249	0xbdb1deed	-0.08685098
250	0xbcc326d7	-0.023822231
251	0xbcf3833e	-0.029725667
252	0x3cea7376	0.02861951
253	0x3d5acac1	0.053416017
254	0x3dade760	0.08491397
255	0x3e14a84f	0.1451733
