model_B/pinn_model160.pth (torch, 472610 bytes, 17 tensors)

layers.0.weight f4 [128, 6]
000000 20 46 31 3e dc b7 d5 bd 1d 74 51 3e 60 5f 37 be
       0.17311907 -0.10435459 0.2045445 -0.17907476
000010 ad 09 71 3d 48 5d 1a 3d 53 64 04 3e c4 93 d4 3d
       0.05884712 0.037686616 0.12928896 0.103797466
000020 7e ca ca bd a0 8a 14 3e 2f e1 69 bb dd 88 72 bd
       -0.099019036 0.14506006 -0.0035687198 -0.059212554
000030 60 1a 87 bd 70 67 47 be 85 65 09 be ef dc 34 be
       -0.065968275 -0.19473052 -0.13417633 -0.17662404
000040 7b e5 65 3e 81 cc bc 3b be f5 d0 3d 76 7e ce bd
       0.22450821 0.0057616835 0.102031216 -0.10082714
000050 f4 20 3b 3d ce 2b 37 3d 6a ea 1f 3e 79 0e 2e 3e
       0.045685723 0.04471951 0.15616766 0.16997708
000060 c2 b8 a7 bd 3c 46 dd bd c1 30 33 3e 51 61 21 be
       -0.08189537 -0.10804412 0.17499067 -0.1575978
000070 a1 e6 12 3e 5a 73 79 bd 55 73 09 3d f2 94 2b bd
       0.1434579 -0.060901023 0.033557255 -0.041890092
000080 8b 41 1c 3e d8 d5 2d be 1a ba d0 bd 4d f4 08 be
       0.15259378 -0.16976106 -0.10191746 -0.13374443
000090 70 2e 02 3e d7 8f 40 bd 17 01 43 3e 38 1b 24 bd
       0.12713027 -0.047012176 0.19043384 -0.04006502
0000a0 db 70 5e be 37 e2 96 3d 3c 48 3c be ed 64 3f 3e
       -0.21722738 0.07367366 -0.1838693 0.18690844
0000b0 30 f9 38 3e 55 db 15 3e 0a d0 3f 3e d5 f7 40 be
       0.18063807 0.1463445 0.18731704 -0.1884454
0000c0 0a 0a 0c be 17 00 3a be 69 2e 95 bd 30 14 7d bd
       -0.13675705 -0.18164097 -0.07284243 -0.06178683
0000d0 8d de dd ba c8 46 fb 3c bd 9f d3 3d ad 7c ec bd
       -0.0016927287 0.0306734 0.10333202 -0.115472175
0000e0 25 35 03 bd 76 26 3c bd ec 08 80 3d d0 6a 25 3d
       -0.032033104 -0.045935117 0.06251702 0.040385067
0000f0 c7 a7 cb 3d bb 89 24 3e 94 c2 99 bd 64 c7 79 bd
       0.0994411 0.16068165 -0.07507816 -0.06098117
000100 e8 43 00 3e 4c 54 41 be 89 ec db bd 95 07 17 3d
       0.12525904 -0.18879813 -0.10738475 0.036872465
000110 4b 14 f2 3d 89 e7 fe 3d 03 57 1c be fa 1f 9c bd
       0.11820277 0.124465056 -0.15267567 -0.076232865
000120 e5 6a 2b 3e 70 cf 60 be d6 2d 1d be d7 64 db 3c
       0.16739996 -0.21954131 -0.15349516 0.026781483
000130 6a a0 cb bc e7 20 c1 bd e3 66 87 bc a7 84 36 3e
       -0.024856765 -0.09430104 -0.016528552 0.1782404
000140 b6 8f 85 bd a2 ec 49 3e c9 46 b8 bd 32 00 8b bb
       -0.06521551 0.19719175 -0.08997876 -0.0042419666
000150 0b 67 1d 3c 46 ed fa bd 14 9a e1 3b 4e cd e1 3c
       0.009607087 -0.122522876 0.0068848226 0.027563717
000160 e9 40 65 bc f8 61 05 be f2 4c 2e 3e 71 e9 57 3d
       -0.013992527 -0.13025653 0.1702154 0.05271286
000170 96 75 02 be 51 8d 88 3d fa 84 d1 3d 05 91 ee 3c
       -0.12740168 0.06667579 0.102304414 0.029121885
000180 0f 41 f9 bd 39 75 81 bd c5 69 37 be 06 99 3a 3c
       -0.12170612 -0.063211866 -0.17911442 0.011389023
000190 e9 58 e9 bd 05 1b 65 bd e6 99 8a bd a3 b5 bc 3d
       -0.113939114 -0.05593397 -0.06767635 0.09214332
0001a0 96 d4 ab bc ac 6b a7 bd f4 1d 05 3e f9 a4 00 be
       -0.020975392 -0.08174834 0.12999707 -0.12562932
0001b0 5f 62 5a 3e c7 e8 2e 3e f0 82 37 bc 81 2e 8b 3d
       0.21326588 0.17080985 -0.0112006515 0.06795979
0001c0 d4 96 52 3e 87 6f 44 3e 70 a5 34 3e 0f 08 0b be
       0.20565349 0.1918317 0.17641234 -0.13577293
0001d0 fa 6c 07 be e2 9b ed 3d 1a d6 45 3e 07 54 c4 bd
       -0.13225165 0.11601998 0.19319955 -0.095863394
0001e0 4b e0 95 bd 6b 6e 21 3c 4e e1 ce 3d cd b0 c5 3d
       -0.07318171 0.009852986 0.10101567 0.09652863
0001f0 c9 c2 f1 bd 30 2f 4c be bb 57 ef 3d a0 fb 8d 3d
       -0.118047304 -0.19939876 0.11686655 0.06932759
000200 d7 0a 43 bd 2c b9 b6 bc 4c 24 7b bd cd be 8f bd
       -0.04761776 -0.022305094 -0.061313912 -0.07018814
000210 1e ca 93 bd 92 fb 43 be c1 4e 86 bc ad 0c 64 3e
       -0.07216285 -0.19138935 -0.016394975 0.2227046
000220 5b da 21 3e 55 d9 89 bc c8 de a2 bd ec 11 ea 3b
       0.15805952 -0.016827265 -0.079526484 0.0071432497
000230 2a dc 23 3e bb f6 af bd 09 c4 ec 3a a3 c6 12 3e
       0.16001955 -0.08591982 0.0018063794 0.14333586
000240 ee 45 1f 3e 9c b9 0d be d4 70 5f 3d 91 4e ed bc
       0.1555402 -0.13840336 0.05455096 -0.028968127
000250 47 24 82 3d de 54 6b 3d 13 71 b7 3d 1d de 8e bd
       0.063545756 0.057453983 0.08957114 -0.069759585
000260 f7 88 9b bd 92 88 1e bd df cc e0 bd 4d f1 fe bd
       -0.07594483 -0.038704462 -0.10976576 -0.12448368
000270 4a 13 2a bd 06 06 18 3e 1b 70 ea bd d0 1a ed 3d
       -0.0415223 0.14846048 -0.11447164 0.1157738
000280 56 d7 0c 3e f7 21 c0 3d 89 1b 8c bc 3f 87 2f 3e
       0.13754019 0.09381478 -0.017102974 0.17141436
000290 3f 79 10 bd 45 34 f9 bd 06 9b a0 3d 37 a6 1d be
       -0.03527188 -0.12168173 0.078420684 -0.15395437
0002a0 1a bd 28 3e a1 ea 50 3b 1d c3 d7 3d 42 e9 56 3d
       0.16478387 0.003187813 0.10535262 0.052468546
0002b0 40 09 52 be fa a9 19 3e fd 65 43 3e 52 80 5a be
       -0.20511341 0.15006247 0.19081874 -0.21338013
0002c0 cd 43 81 3d d6 a9 00 3e 49 e8 9d 3c a8 d9 e5 bd
       0.0631176 0.12564787 0.019275801 -0.11223155
0002d0 d9 9b 05 bd 9d 58 72 3d aa 31 2d be 38 75 f7 bd
       -0.03261933 0.05916654 -0.16913477 -0.120829046
0002e0 b6 2e 00 be 5b 83 91 bd b0 3f 00 be 1d 27 2b 3d
       -0.12517819 -0.07105132 -0.12524295 0.04178535
0002f0 7e 34 2a 3e 9b 7f 37 be 07 6b b5 3c 2b e7 f4 bd
       0.16621587 -0.17919771 0.022145761 -0.11958154
000300 21 1a 0e 3e c4 40 ab bd 02 d1 df 3c 91 1e 97 3d
       0.13877155 -0.083619624 0.027321342 0.07378877
000310 f2 71 ff bd ab 78 0d be ff 2b 01 3e 89 27 f8 bd
       -0.12472905 -0.13815562 0.1261444 -0.12116916
000320 66 18 58 be 0d c5 47 3e 49 ff 3c 3e 3e 5c 15 be
       -0.21103057 0.19508763 0.18456759 -0.14585969
000330 02 6c 00 be 22 27 26 be ea 64 64 3e ff 37 03 be
       -0.12541202 -0.16225865 0.2230412 -0.1281433
000340 87 74 20 bd 58 21 74 3d df 3d 31 bc 05 f7 2e 3b
       -0.03917363 0.05960211 -0.010817974 0.0026697528
000350 28 90 30 be 74 84 2c 3d 8a 6a 9d 3c 17 6e 2a 3e
       -0.17242491 0.042118505 0.01921584 0.16643558
000360 6b 3f d8 bc 32 5b b9 3c 44 8c a1 3d 5c 57 e4 bd
       -0.026397428 0.022626493 0.07888082 -0.11149475
000370 8e 10 44 3d e0 9d 1f 3e da 82 27 3e c1 61 aa bb
       0.04786735 0.15587568 0.1635851 -0.0051996415
000380 a9 d0 10 3d e8 a6 28 bc e8 5c b3 3d dc 24 22 3e
       0.035355244 -0.0102937 0.08757955 0.15834373
000390 97 47 b0 bd 4c 4d 06 3e af 84 a9 3d 67 7c 5f 3e
       -0.08607405 0.13115424 0.082772605 0.218248
0003a0 7f 17 99 3d c3 48 2f be 2b b0 aa bd ac 81 34 be
       0.07475185 -0.171176 -0.083343826 -0.17627591
0003b0 40 54 b2 bd da 59 2d 3e 46 94 50 3e d0 f3 f6 3c
       -0.08707476 0.16928807 0.20369062 0.030145556
0003c0 8c f9 32 3e f1 29 4a be 97 6b 3d be 9e d8 54 be
       0.17478007 -0.19742562 -0.18498074 -0.20785758
0003d0 51 0c 23 be d3 47 a8 3d db 20 38 bd f7 d1 2a 3e
       -0.15922667 0.082168244 -0.04495321 0.16681658
0003e0 54 8b 68 3e ce 3c 5a 3d bf ad f6 3d 24 62 31 3e
       0.227094 0.053280644 0.12044858 0.17322594
0003f0 e0 49 9b bd d4 49 52 3c 34 69 ee 3c cc 36 41 be
       -0.0758245 0.012834985 0.0291029 -0.1886856

layers.0.bias f4 [128]
000000 7a fe cd 3a 32 63 02 3e e2 24 4d 3e 09 83 36 be
       0.0015716099 0.12733153 0.20033601 -0.17823423
000010 ff 63 8b bd 8c c1 e9 bd ee 45 09 be 23 51 c7 be
       -0.06806182 -0.11413869 -0.13405582 -0.3892909
000020 dd d0 e5 3e 40 9e 18 be cd 5b ca be b9 b7 26 be
       0.44885913 -0.14904118 -0.39523163 -0.16281022
000030 96 8b b9 3e fa cc 50 be bd 09 ce 3e d2 4d 47 3e
       0.36239308 -0.20390692 0.40241805 0.1946328
000040 6b 14 af 3e fa 70 37 3e 0d 25 90 3e 5d fa 2c 3c
       0.34195265 0.17914191 0.28153268 0.010557738
000050 33 6b a3 3e 52 1a 6e be 6c e5 29 be dc e4 85 3e
       0.31917724 -0.23252228 -0.16591424 0.26151168
000060 19 18 31 3e 2d 2f d1 3e c7 8a 3a 3e 87 a9 42 bd
       0.17294349 0.40856305 0.18217002 -0.047524955
000070 7f 98 66 3e 8d c2 10 3e 9e ed 58 bd ee 1d b7 be
       0.2251911 0.14136715 -0.052960984 -0.35765022
000080 d1 88 bd 3e 3d 61 33 be ba bf 3a be b0 9a 92 bc
       0.37018445 -0.17517562 -0.182372 -0.017896026
000090 69 ba 76 3d 18 9e c4 be 64 f5 3d 3e c5 c8 3d 3e
       0.06023637 -0.38401866 0.1855064 0.18533619
0000a0 ed 47 84 be 05 87 b9 3e 79 1b 69 3e 34 31 86 be
       -0.25836125 0.36235824 0.22764386 -0.26209414
0000b0 24 fb 46 3d 1a bb 64 be cf 8b 25 3e 79 a5 a0 be
       0.04857935 -0.22336999 0.16166614 -0.31376246
0000c0 c0 48 90 3e 2b bf 86 be b1 47 85 3e b6 45 dc be
       0.28180504 -0.26317725 0.2603126 -0.43021935
0000d0 5d ac 9c be 09 a7 8c be c7 2c 09 3e 43 85 9d 3e
       -0.30600253 -0.27471188 0.13395987 0.30765733
0000e0 57 65 b7 be 8a ba 8c 3e e0 21 b1 be 6c 41 7f be
       -0.35819504 0.27486068 -0.34596157 -0.249273
0000f0 35 31 2f be 13 97 a3 3d 33 25 a2 3e 3f 99 96 3e
       -0.17108615 0.079877995 0.31669006 0.29413792
000100 ef 48 df 3d 50 92 08 3e 13 2d 35 3e 48 43 1d be
       0.10902583 0.13337064 0.17692976 -0.15357697
000110 5c 68 83 be d2 74 7c be f7 31 91 3d 59 54 57 be
       -0.25665557 -0.24653938 0.07089608 -0.2102827
000120 6f d4 69 bd 29 70 40 be e2 8f ba be d5 8c 50 be
       -0.057087358 -0.18792786 -0.364379 -0.20366223
000130 37 dd b5 3e e1 b4 74 3d e6 c4 d3 be 68 c1 2a 3e
       0.35520336 0.059742812 -0.4136116 0.16675341
000140 96 c9 a6 be bd fc 82 bd 50 5e bb be 83 16 59 be
       -0.32575673 -0.06395862 -0.36595392 -0.21199994
000150 4c 48 63 3e 3b 63 5c bc a9 b9 99 be 7b 6f 6e 3e
       0.22195548 -0.013451393 -0.3002446 0.23284714
000160 03 34 a6 3e fe 0f 69 3e d4 b4 94 3d 84 fe e6 3d
       0.32461557 0.22760007 0.07261053 0.11279014
000170 0d 8f a5 3e 0b fe 33 be ee ab 56 be 7d f5 f2 bd
       0.32335702 -0.17577378 -0.20964023 -0.118632294
000180 9f d9 cb 3e 81 14 eb 3c ee 05 a9 3d 40 e9 17 be
       0.3981447 0.0286963 0.08253084 -0.14835072
000190 da c9 64 be 4c d2 d0 3e 33 dc 79 3e 25 fa 77 be
       -0.22342625 0.40785444 0.24400406 -0.24216516
0001a0 f7 cb 4d 3e 0a 08 c4 be b3 e7 4f 3e c9 7d 06 be
       0.20097338 -0.38287383 0.2030323 -0.1313392
0001b0 73 bd be 3e f9 b1 8a be bd 21 61 3e 27 1a dc 3c
       0.37253913 -0.27088907 0.21985526 0.02686794
0001c0 c1 95 02 be ed fb a4 be ed 6c 5d be c9 41 c8 be
       -0.12752439 -0.32223454 -0.21623583 -0.3911269
0001d0 d0 41 9c be 4b 8b 5b 3e df 26 39 3d 72 e1 10 3e
       -0.3051896 0.21439855 0.045203086 0.141485
0001e0 ef b6 99 3e 83 26 00 3d 0b e3 49 3c 2a 28 bc bc
       0.3002238 0.031286728 0.012322198 -0.02296837
0001f0 46 fa 91 be 58 bd a4 3e cb e2 5d 3e 3e c2 d4 bc
       -0.28511256 0.32175708 0.21668546 -0.025971528

layers.1.weight f4 [128, 128]
000000 bb 2f c2 3d 5b 7e 67 bd fc cc ea 3d 82 c9 54 bd
       0.0948176 -0.056516986 0.11464879 -0.051949985
000010 bb bc 43 3d 09 1d 43 bd 8a 01 d6 bd 3c 9a d9 3d
       0.04778741 -0.047635112 -0.10449512 0.10625121
000020 6f b8 0d be 0e cb c8 3d 63 fc 72 bc 55 0b d6 bd
       -0.13839887 0.098043546 -0.0148306815 -0.1045138
000030 d8 9f bd bd 59 7e 10 be 91 b3 dd 3c 7b 2b 35 bc
       -0.092590034 -0.14110698 0.027063163 -0.01105773
000040 95 5b 92 bd b8 6d 11 be 40 6f 04 3e cb ca 8d bd
       -0.07146374 -0.1420201 0.12933064 -0.06923445
000050 18 2e 3c bc 4f bc b9 bb 6b aa 63 3d 11 cd 08 3c
       -0.011485599 -0.0056682 0.055582445 0.008349673
000060 3e 76 fd 3d ef 2e cf bd 99 29 e9 bd 37 39 a8 3d
       0.123760685 -0.10116374 -0.11384887 0.08214038
000070 4f 2e 50 3d 1c 17 8b bd 52 f1 3a bd 18 be ce 3d
       0.050825413 -0.06791517 -0.045640297 0.10094851
000080 59 47 3b bd 26 f9 03 be 56 17 c7 bd 5b 25 de 3c
       -0.04572234 -0.12888011 -0.09721248 0.027117422
000090 b3 1e 9b 3d 8d c0 fc 3d 3b a2 1b 3e bf b5 e7 bd
       0.07574215 0.12341414 0.15198605 -0.11313962
0000a0 bf 84 14 3d d8 f1 c5 bd a4 b8 69 bc 38 dd d2 3d
       0.03625941 -0.09665269 -0.014265213 0.102961004
0000b0 8b a3 5f 3d 13 f6 36 bd b2 48 93 3c 3d ec 29 bd
       0.054599326 -0.04466827 0.017979 -0.04148506
0000c0 96 f9 05 3e 66 d9 a7 3d 90 d5 d7 bd 9f f4 4b bd
       0.1308349 0.08195762 -0.10538781 -0.049793836
0000d0 78 42 0a 3e 3a 94 30 3e 9b cd 7d bd bc d2 bd bd
       0.13501918 0.17244044 -0.06196366 -0.0926871
0000e0 42 99 aa bd 12 f2 2a bd 99 7e 45 3d cb e2 ab 3c
       -0.08330013 -0.041734762 0.048216436 0.020982167
0000f0 3f 54 ca bd 61 9e 69 bd 0a 61 d7 bb 7f 08 17 3e
       -0.0987935 -0.057035808 -0.0065728473 0.14749335
000100 40 cd b4 3c 85 36 07 3e de ba e3 3d 24 8e 0e 3e
       0.022070527 0.13204391 0.111196265 0.1392141
000110 2f cd 89 3d ba 0d 40 bd 63 a3 38 bd 91 87 01 3a
       0.06728589 -0.04688809 -0.045077693 0.00049411604
000120 b4 f3 9b bd 50 61 32 bd 00 71 db 3c 1c 1a 08 3e
       -0.07614842 -0.043549836 0.026787281 0.1329121
000130 00 27 c4 3d 8d ca 0d bd ea 88 8a 3d 3a 9b 2e bc
       0.09577751 -0.034616996 0.067643955 -0.010657126
000140 1c f9 c3 bc 13 c6 10 be 67 f3 1a 3e 92 ce e0 3d
       -0.023922496 -0.1413806 0.15131913 0.109769
000150 44 ce cb 3d 5f 09 c2 3b da f3 07 3d 71 68 b2 3b
       0.099514514 0.0059215273 0.03319154 0.0054445793
000160 92 47 00 3e 28 38 e5 3d 77 a7 cc bd 60 93 29 bd
       0.12527302 0.111923516 -0.09992879 -0.041400313
000170 e1 cc 96 bd c5 d7 39 bd 89 98 92 bd 86 e1 fc 3d
       -0.07363296 -0.04537179 -0.07158 0.12347703
000180 5a 16 df bd 53 67 59 bd 11 86 15 be 79 a5 9b 3d
       -0.10892935 -0.053077053 -0.14601924 0.07599921
000190 2c d6 c3 3d 5d e8 ba bd c1 a4 30 3a 2f 26 88 bd
       0.095623344 -0.09126351 0.00067384174 -0.06647908
0001a0 90 5d e1 3d 30 c0 e0 3d 1c 96 86 ba c2 c9 61 3d
       0.11004174 0.10974157 -0.0010268125 0.055124052
0001b0 04 fb 11 be 43 64 a0 3c 1d 25 18 bb 7a f0 72 3d
       -0.14255911 0.019579059 -0.002321548 0.059311368
0001c0 08 b8 0d 3e 21 3d 05 bd a1 f2 be bd 2c 15 d7 bc
       0.13839734 -0.032529 -0.093236215 -0.026255213
0001d0 9e 80 2d 3c 19 7f 63 3d 5a 33 17 3e f1 51 aa 3d
       0.010589747 0.05554113 0.14765683 0.0831641
0001e0 76 18 02 be 99 db 1b 3d f9 7e 56 3d b2 10 0b 3e
       -0.12704644 0.03805122 0.052367184 0.13580588
0001f0 c9 1d 0e 3e 1e 82 91 3d 8b 4c da bd d1 62 27 3d
       0.1387855 0.07104896 -0.10659131 0.040865723
000200 53 71 0d be 4b f3 84 3d 0a a3 b5 3d fe 70 58 bc
       -0.13812761 0.06491717 0.08868988 -0.013210533
000210 bb 93 e1 3d ac 5f b3 bd 49 af 23 bd 1b 6b 99 bd
       0.110145055 -0.08758482 -0.039962087 -0.07491132
000220 dc 2e 28 3d ea 92 4b 3d c7 73 81 bd ea 96 ae bd
       0.041060314 0.049700655 -0.06320911 -0.08524878
000230 64 5e c2 bd ac 74 a1 bc 7f 4c 05 3b 9e 40 1c bd
       -0.0949066 -0.019708954 0.0020339785 -0.03814756
000240 82 23 fb bc 5d 9b 93 bd 1d 2c dc 3d 9c 84 89 3d
       -0.03065658 -0.072073676 0.107506014 0.06714746
000250 47 f0 03 3e 32 ed c4 3d 1e 93 b8 3d d8 79 b5 3c
       0.12884627 0.09615554 0.090124354 0.022152826
000260 0c a0 c4 3c 93 2a 16 3e 35 f0 f8 3d 6a 4d 7c bd
       0.024002098 0.14664678 0.12155191 -0.061597265
000270 84 98 08 be 7c 3c dc bd cf c9 bc bd 62 f3 d0 bd
       -0.1333943 -0.10753724 -0.092181794 -0.102026716
000280 fd ac 1c 3e 53 c9 17 be 84 48 a7 3d 98 2b 13 be
       0.15300365 -0.14822893 0.08168128 -0.14372098
000290 78 b2 02 3e 0a ee 41 be ce 0e bb 3d 7b 04 d3 bd
       0.12763393 -0.18938461 0.09133683 -0.10303589
0002a0 3d 03 bc bd fd 6b be 3d 78 d0 99 bd 92 60 8f bc
       -0.09180305 0.09297941 -0.075104654 -0.017502103
0002b0 5b 8a 9e bd 6c de fc 3d 95 22 6b 3d fb 2d e1 3d
       -0.07741233 0.12347111 0.057406027 0.10995098
0002c0 04 03 23 3c fb 07 06 3e 08 92 8f bd 2b d1 01 be
       0.009949449 0.13088982 -0.07010275 -0.12677447
0002d0 6b e3 31 3d dc 85 08 be 34 1b 05 3e c6 2b 3c bc
       0.043429773 -0.13332313 0.12998658 -0.011485046
0002e0 9a eb 01 be 5b 33 1c 3e 91 c1 6c 3d 25 0c af bc
       -0.12687531 0.15253966 0.057801787 -0.021368096
0002f0 7e d3 21 3d 5a 63 da 3d 64 d1 fd 3d 8d 6d 0b 3d
       0.039508335 0.10663481 0.12393454 0.034040023
000300 4a 60 1b be 98 a8 ea bd 2d c2 06 3e 42 19 60 bc
       -0.1517345 -0.11457938 0.1316001 -0.013677897
000310 aa 89 af bc bf 8f 9c 3d 22 c2 dc 3d 08 e9 f8 bd
       -0.021427948 0.07644605 0.107792154 -0.12153822
000320 0a 02 d7 bd 84 25 02 3e a8 49 60 bd 8a 5b 93 bd
       -0.10498436 0.12709624 -0.054757744 -0.07195194
000330 3c e6 a5 3d 01 6d 42 bd 3f d1 0b 3c 5f ef 01 be
       0.08100554 -0.047467235 0.008533775 -0.12688969
000340 87 9d 77 bd b6 18 7d 3d de 97 1e 3d 44 01 34 be
       -0.060452964 0.061791144 0.03871905 -0.17578608
000350 0f e3 6d 3d 47 98 f3 3d 52 cf 2b bd fa a2 eb bd
       0.058077868 0.11894279 -0.041945763 -0.11505695
000360 83 19 24 bd b3 ce 55 3d ef c7 9d bd af 87 27 bd
       -0.040063392 0.052199077 -0.0770415 -0.040900882
000370 1a da e2 bd 6a b1 7a 3d b7 5c 22 3d aa 47 03 be
       -0.11076756 0.06120435 0.0396392 -0.12820306
000380 c1 19 67 3d 38 83 01 3e c1 3d b9 bc fb 31 d0 bd
       0.056421045 0.12647712 -0.022612454 -0.10165783
000390 e3 db 15 be a2 a4 cf bd 76 9f 03 bd 34 de bf bb
       -0.14634661 -0.10138823 -0.032134496 -0.005855346
0003a0 86 a3 0c be 49 c8 ce bd a4 04 07 be d6 f9 56 bd
       -0.13734254 -0.10096795 -0.13185364 -0.052484356
0003b0 7e bd ea bd 06 45 dc bd 7d 08 aa 3d 62 bd 52 3d
       -0.11461924 -0.10755353 0.083024 0.05145014
0003c0 f2 ee 00 be c7 cb e9 3d d6 64 34 3d 83 c6 9d 3d
       -0.1259115 0.114158206 0.044041477 0.07703879
0003d0 05 5c 8c bd 8f 11 ce bd f2 e2 04 bb 98 6b a5 bd
       -0.06853489 -0.10061943 -0.0020276872 -0.080771625
0003e0 97 43 df 3d 14 7e b5 3d 75 c9 ec bc d3 d8 4c 3d
       0.109015636 0.08861938 -0.028904656 0.050011467
0003f0 55 03 f2 bd a3 1f d8 3d e6 30 c6 3d d7 d7 f9 3c
       -0.11817042 0.10552909 0.096772954 0.030498428

layers.1.bias f4 [128]
000000 a9 b1 05 3d 24 5d ac 3d 4b b9 95 3d d8 af 4b bd
       0.032640133 0.08416203 0.073107325 -0.049728245
000010 6f 69 8e bd b7 2f 8a bd 7d 33 5e bc af a7 a4 3d
       -0.069537036 -0.06747382 -0.01356208 0.080397956
000020 82 7c 6c bb d8 f0 99 bc 5c 09 88 3c 10 ad 86 3c
       -0.0036084955 -0.018791601 0.016606025 0.016439945
000030 35 88 65 3b 78 e4 9d 3d dc 78 a4 3d 2a aa d0 bb
       0.0035023813 0.077095926 0.080308646 -0.0063679414
000040 62 b4 0f 3d 14 3a 8e 3d 1a 84 85 bd c4 5b b5 bc
       0.035084136 0.06944671 -0.06519337 -0.022138484
000050 3d 49 ab bc d1 32 7c bd 50 13 42 bd d5 28 9d bb
       -0.020908946 -0.0615719 -0.0473817 -0.0047961273
000060 98 8d 63 bd 4a d4 a6 bd a7 24 ad 3d b3 e1 27 3d
       -0.055554956 -0.0814596 0.084542565 0.040986728
000070 5f d9 04 3d 02 67 93 3c f3 16 55 3d f4 af b4 bc
       0.032433864 0.017993454 0.05202384 -0.022056557
000080 27 bf a9 bc e2 38 5e bb 2b 06 65 bd 95 70 b3 bd
       -0.020721031 -0.0033908417 -0.055914085 -0.08761708
000090 f5 24 37 bd cc 1d 71 3d f7 a1 16 3d 15 80 a5 bd
       -0.04471298 0.058866307 0.036775555 -0.0808107
0000a0 b1 d5 99 3c 9c df 5b 3c e8 13 b4 3d 6f e0 ec 3d
       0.018778654 0.013420012 0.08792859 0.11566245
0000b0 2b e7 8c bd 6b 4e da 3c 89 9f 03 bd 66 d3 f4 3c
       -0.06880029 0.02664872 -0.032134566 0.029885959
0000c0 e7 13 1e 3b 42 c6 0e 3d e5 8d 0d 3d bd 61 77 bd
       0.002412075 0.034857042 0.03455915 -0.060395945
0000d0 22 2a 6c 3c d9 6f c0 3a bc 2b 04 3d d3 42 82 3d
       0.014414342 0.0014681771 0.03226827 0.06360402
0000e0 1b 4f c0 bd 29 97 a7 3d 56 b8 aa 3d 1d 14 06 3d
       -0.09390088 0.081831284 0.083359405 0.032734025
0000f0 9b 93 a7 3d 41 0b 7b bd 64 a9 8d 3d 60 da cc bd
       0.081824504 -0.06129003 0.06917074 -0.10002589
000100 dd 5d cd bc 52 93 9b 3d d8 18 8b 3d 81 87 99 bd
       -0.025069172 0.075964585 0.06791848 -0.074965484
000110 5c b9 b2 bc d1 68 78 3d 26 44 11 bd e7 f3 0f 3d
       -0.021816902 0.060646836 -0.035465382 0.035144713
000120 4d 78 56 3b 1d de 8e 3d 9a 5f b2 bd 5b 9f cd 3c
       0.0032725513 0.069759585 -0.08709641 0.0251004
000130 ec d7 5f bd 43 e7 ad bd c0 2d 2b bd d5 46 30 bd
       -0.05464928 -0.08491375 -0.041791677 -0.0430363
000140 70 00 72 bd 5e 0e ef bc 3d 08 f1 3c 80 a9 0e bd
       -0.05908245 -0.029181655 0.029422874 -0.034829617
000150 18 f8 e7 bd fc 69 9e 3d c0 31 66 bc 81 10 81 3c
       -0.11326617 0.07735059 -0.014049947 0.01575494
000160 a5 0d 16 bd f3 1e dd 3c 13 55 a3 bd 4f 5b 03 bd
       -0.036634106 0.026992297 -0.07975211 -0.0320695
000170 8c 8c 1f bd 32 96 f8 bc ed 57 49 bd fa 13 99 3d
       -0.038952395 -0.030345056 -0.04915612 0.07474513
000180 0d 8f 35 bd 59 a2 70 bd 25 02 2c bd e4 bd 1e bd
       -0.044325877 -0.058748577 -0.041994233 -0.038755313
000190 d2 a5 02 3d 85 e0 9c 3c 64 3e b6 bd b6 c1 39 3d
       0.03189642 0.019150028 -0.08898619 0.045350753
0001a0 9a 1b 41 3d 41 9b 87 bd 3f f9 90 bd f4 e8 24 3e
       0.047145464 -0.06621409 -0.0707879 0.1610449
0001b0 6b aa 54 bd e8 df 7a 3d 4d 0b 65 bd 13 3d cd 3a
       -0.051920336 0.06124869 -0.05591898 0.001565846
0001c0 10 b0 8f bc e7 49 83 3d d5 d1 4e 3d 5c 59 34 bd
       -0.017540008 0.0641058 0.05049308 -0.044030532
0001d0 fd 1c d8 3c 65 35 35 bd f6 1b bd 3d bc 9b 43 3d
       0.02638101 -0.044240374 0.09233849 0.04775594
0001e0 e1 47 6d 3d 53 35 2f 3d 26 93 56 3c f8 fc 94 bb
       0.057929877 0.042775463 0.013096606 -0.004546758
0001f0 8a 8f 9d bd a3 36 53 3d 40 e9 0e bd 72 6c 9a 3d
       -0.076933935 0.051565778 -0.034890413 0.075402156

layers.2.weight f4 [128, 128]
000000 1b cf c4 3d a1 fa b4 3c c8 37 bd ba d4 5b 05 bd
       0.09609815 0.022092165 -0.001443618 -0.032558277
000010 d4 e8 18 bd 6a 87 c5 3d 65 1a 87 bc 94 86 96 b8
       -0.037331417 0.09644969 -0.016492078 -7.1776245e-05
000020 f8 dd 5c bd 24 0e bf 3d 7c 89 33 bd 25 5f 0f bc
       -0.053922623 0.09328869 -0.043832287 -0.008750712
000030 b3 aa e2 3c 29 2a d4 3d 49 b5 f7 3d 76 3b e2 3d
       0.027669286 0.10359604 0.12095124 0.110464975
000040 16 5c 1f 3d d7 6c 00 be 2d 73 85 3d fe 8f 9e bd
       0.03890618 -0.12541519 0.06516109 -0.07742308
000050 21 3d 88 bd 07 e8 34 bc 23 f1 2e bc cc e1 b5 3d
       -0.066522844 -0.011041648 -0.010677609 0.08880958
000060 b3 e1 06 be 7a a0 80 bd d6 99 67 3d da 28 b8 bd
       -0.13172035 -0.062806085 0.056543194 -0.08992167
000070 97 6c f2 bd 71 c3 f6 bd 2f a1 c0 bd ad 69 37 be
       -0.11837118 -0.12048996 -0.09405743 -0.17911406
000080 b4 80 18 be 5e c8 21 be 5c 6c 57 3d c1 db f5 bd
       -0.14892846 -0.1579909 0.052593574 -0.12004805
000090 1d 06 29 bd ee a4 b1 bd 0d 97 d6 bc 3b 75 8e 3d
       -0.041265596 -0.08674036 -0.026195074 0.06955954
0000a0 68 5d cb bc cd a8 09 be 72 6d 5a 3d 6a 9e f6 3d
       -0.024824813 -0.13443299 0.05332703 0.12041934
0000b0 3d a0 8a 3d 09 0a d5 bd 5e da 0c be 45 6d 62 bd
       0.06768844 -0.10402305 -0.13755175 -0.05527999
0000c0 23 47 0d bd 0e db 01 3d bb ac 97 bd 4f 39 e0 bd
       -0.03449167 0.031703047 -0.074059926 -0.10948431
0000d0 fb 9c 11 3d 24 21 c1 3d 5a ef 04 be 20 2f 8b bd
       0.0355501 0.09430149 -0.1298193 -0.06796098
0000e0 50 f4 bd 3d 56 c3 2d be f1 ab fd bb af d3 10 bd
       0.092751145 -0.16969046 -0.0077414443 -0.035358127
0000f0 c7 99 15 be d6 bb ae bd dd 29 c7 3d 9b dc 42 bd
       -0.14609443 -0.085319206 0.09724782 -0.047573667
000100 5d 59 87 bd 89 59 d4 3d dc e2 64 3d 7b 75 b6 bd
       -0.066088416 0.1036864 0.055880412 -0.08909126
000110 be 58 03 bd 56 a4 a7 bd 8b 3c d1 3d d2 58 be 3d
       -0.032067053 -0.081856415 0.10216626 0.09294285
000120 81 f5 12 be 6b ea 18 3e 83 f8 2d be b9 b8 9f 3d
       -0.14351465 0.14933173 -0.16989331 0.07798905
000130 9d ce 01 3e e2 f3 f4 bd 85 3f 32 bd d2 5d 8f 3d
       0.12676473 -0.119605795 -0.04351761 0.07000317
000140 37 a7 de bd 84 be 21 bd 66 82 ee bc dd 6b ec 3d
       -0.108717375 -0.03948833 -0.029114913 0.11544011
000150 c6 97 f3 bc 9c 07 ec bd 29 9c fc 3d 03 a3 55 3d
       -0.029735457 -0.11524889 0.12334473 0.052157413
000160 61 e9 da 3d 16 a1 34 3d 1f da 00 3e a4 ab 83 bd
       0.10689045 0.044098936 0.12583207 -0.06429222
000170 6d bc bd bc ba c7 e3 bd 79 11 00 be 2c b2 16 be
       -0.023161137 -0.11122079 -0.12506665 -0.14716405
000180 72 d9 ac 3d 4b 2a 87 bd ca 3f 46 bd 56 9b eb 3c
       0.08439912 -0.065998636 -0.048400678 0.028760593
000190 a8 81 00 be f0 c7 1b 3d e4 73 e1 ba e6 25 27 be
       -0.1254946 0.038032472 -0.0017200676 -0.16323051
0001a0 1b ac 07 3e 8b 9a 68 bd e8 01 ce bd 81 08 11 3e
       0.13249247 -0.05678801 -0.10058957 0.141634
0001b0 5c f9 d1 3d e5 bc 04 3d 03 4d b3 3d eb 16 d2 3d
       0.1025264 0.032406706 0.08754923 0.102582775
0001c0 6c 83 da bd 4e 53 df bc 7d c5 f6 3d 2c 61 53 bd
       -0.10669598 -0.027261402 0.12049387 -0.051606342
0001d0 8d 94 da 3d 39 93 da bc 40 f4 3b 3d 0a 80 d2 bd
       0.10672865 -0.02668153 0.04588723 -0.10278328
0001e0 33 d1 a3 b8 88 8c aa bd f1 4d 0a be 9b da 89 3c
       -7.811412e-05 -0.083275855 -0.13506295 0.016827872
0001f0 ba 57 b6 3d 42 c5 20 bc b1 07 03 be 73 73 12 be
       0.08903451 -0.009812655 -0.12795903 -0.14301853
000200 dd 50 24 3e a6 59 d3 bd 5b 79 e0 3c 51 ee b6 bd
       0.16046472 -0.103198335 0.027401617 -0.08932174
000210 be eb b8 bd 38 46 b8 3d 54 81 a8 3b 6b ea ae 3d
       -0.09029339 0.08997768 0.0051423702 0.085408054
000220 b1 67 05 be f2 94 c0 3c a0 36 0b be 2c 45 6c 3c
       -0.13027836 0.023508523 -0.13595057 0.014420789
000230 33 48 9c 3d e4 86 c6 bd e9 5f a0 bd 21 94 e1 3d
       0.076309584 -0.09693697 -0.078307934 0.110145815
000240 9e dd f4 bc 41 74 1d be 84 e3 c4 3c 02 21 a4 bd
       -0.029890832 -0.15376379 0.02403427 -0.08014108
000250 d7 57 02 3d 9c f2 c7 3d 1d 8b a6 bd 8a 60 15 3e
       0.03182205 0.09763071 -0.081320025 0.14587608
000260 2f d4 26 bc 77 51 01 bd dd 89 2e 3c 1f f4 57 3c
       -0.010182424 -0.03157183 0.010652986 0.013180762
000270 e2 11 76 bd 2d c2 48 3d ae 97 fc 3d 63 02 ca 3d
       -0.060075648 0.049013305 0.12333618 0.098637365
000280 4f 25 69 bc 89 22 9a 3d d4 c6 70 bd ce c8 1e 3e
       -0.0142300865 0.07526118 -0.058783367 0.15506288
000290 49 2e 61 3d b3 35 b5 3c ca f0 23 bd f8 cd 1d 3d
       0.05497578 0.022120332 -0.040024556 0.038526505
0002a0 72 b7 07 3e f7 ad 21 3e f6 bb e0 3d 21 a0 01 3e
       0.13253573 0.15789019 0.10973351 0.1265874
0002b0 c6 ad 05 be a0 ac 96 3d eb ac f5 bd f2 79 9c 3d
       -0.1305457 0.07357144 -0.11995872 0.07640447
0002c0 2e 02 22 be 17 21 68 bb c1 fe 3b 3d ac 6c ac 3d
       -0.15821144 -0.0035420114 0.04589725 0.08419165
0002d0 ac a9 c8 bc 26 f2 bc 3d 1a 9f 0d be 43 1f 67 3d
       -0.024494968 0.09225874 -0.13830224 0.056426298
0002e0 13 41 32 3d 28 81 04 be e3 0c 8e bd b2 e0 65 bd
       0.04351909 -0.12939894 -0.06936052 -0.05612249
0002f0 4f a0 fa 3c 64 98 96 3d ad cb b8 bd 26 59 c6 bd
       0.03059402 0.07353285 -0.09023223 -0.096849725
000300 28 94 6b 3c 9f a5 86 3d fd 65 01 3e fb d7 c5 3d
       0.014378585 0.065745585 0.12636562 0.09660336
000310 6a db 0e bd c0 9c 74 bd 46 57 06 3e 24 f3 84 bd
       -0.03487722 -0.0597198 0.1311923 -0.06491688
000320 ea 50 90 3d d2 1e 59 bd 77 ec e8 3d fe 17 f3 3d
       0.07046683 -0.05300791 0.11373227 0.118698105
000330 36 ba 7d bc 7e 96 aa bd 64 5a e5 bd 3a a3 06 be
       -0.015486291 -0.08329485 -0.11198881 -0.13148203
000340 95 fa 15 be 86 c6 d7 3d d4 b8 25 bd 02 c0 ea 3c
       -0.1464637 0.10535912 -0.04045947 0.02865601
000350 71 d4 e2 bc 42 52 af 3d fb 82 27 bd 14 18 c0 ba
       -0.02768919 0.08560611 -0.040896397 -0.0014655613
000360 2b 6c 3c 3d 67 bf e0 3b c4 b2 c7 bb 69 e2 f4 bd
       0.046001595 0.0068587544 -0.0060943086 -0.11957247
000370 12 64 f8 bd 59 ee e1 3c 40 6c 9f 3d 99 9f 8a 3b
       -0.12128462 0.027579473 0.07784319 0.0042304513
000380 d6 f2 9b bd 32 08 90 3d 01 88 62 3d 9a 9e ef 3d
       -0.07614677 0.07032813 0.055305485 0.11700173
000390 cc 34 cc 3d f2 ac d8 bc 46 8c 99 3d a9 0c 02 be
       0.09971008 -0.026449654 0.07497458 -0.12700142
0003a0 7c c2 ee bc ce f3 d4 3c 66 39 28 bd 05 ed 08 bd
       -0.029145472 0.025995161 -0.041070364 -0.033429164
0003b0 c6 e2 02 3e ad 52 d0 bd 48 61 d4 3c 6f 15 fa 3b
       0.1278182 -0.10172019 0.025925294 0.0076319496
0003c0 35 9f b3 3c 1b b3 43 3c 81 bb be 3d ae b7 ee 3d
       0.021926502 0.011944558 0.09313107 0.11656128
0003d0 03 90 ee bd 1d 0b b3 3d 1d 1f da bd 1d e0 01 3d
       -0.11648562 0.08742354 -0.10650466 0.03170787
0003e0 00 87 25 3d 4d 69 92 3c 91 00 9c 3d d0 a5 01 bd
       0.04041195 0.017872477 0.076172955 -0.03165227
0003f0 3f c3 ce 3d 65 be 5a 3d 9a 1c 15 3e 4a ef 04 3e
       0.10095834 0.05340423 0.14561692 0.12981907

layers.2.bias f4 [128]
000000 5b 9b 58 bd 2a 68 a1 bc b2 d6 4e 3d b0 51 d1 3d
       -0.052882534 -0.01970299 0.05049772 0.10220659
000010 4f cf 2e bd ae fb 4f 3c 7f 1c a2 bd 1b 36 80 3d
       -0.042678174 0.012694282 -0.079155914 0.0626032
000020 d9 de 84 bc 3d ae 2c bd b3 7f ab 3d f5 74 99 bd
       -0.016219543 -0.042158354 0.08373966 -0.07493011
000030 f5 16 ad bd 7c b3 92 3a 03 a2 4b bd 54 76 68 bd
       -0.08451644 0.0011192407 -0.049715053 -0.05675347
000040 db a7 82 bd 18 2c 83 bd 37 f9 fd 3b 65 0b ab bd
       -0.06379672 -0.064048946 0.007750656 -0.08351783
000050 af e1 6c bd 2d 3d 9c 3d e1 33 50 bd 74 39 c0 bb
       -0.057832416 0.07628856 -0.050830726 -0.005866224
000060 77 29 7a bd 79 b0 2d bc d0 35 e2 bd 8e bd 9c 3c
       -0.0610747 -0.010601156 -0.1104542 0.019133355
000070 e6 58 46 3d 89 5a 95 3a 2d 9b 4a 3d ba 79 9a 3d
       0.048424624 0.001139478 0.049464393 0.07542749
000080 a9 78 4f bc e1 7f 8a bd e6 20 50 3d ed 65 8f bd
       -0.012663045 -0.06762672 0.050812624 -0.07001863
000090 b7 38 b0 bd e5 df 44 bc 9f a7 80 bd ef c8 35 3d
       -0.086045675 -0.012016271 -0.06281971 0.04438108
0000a0 7d 39 43 bb 48 c1 2b 3d 8f be b5 bc 10 2f ed 3c
       -0.0029788904 0.041932374 -0.022185592 0.028953105
0000b0 4c 6b 0e bd ce b6 cc bc 0a a8 55 3d aa 93 bd bc
       -0.034770295 -0.024989512 0.052162208 -0.0231417
0000c0 ef 18 d6 bd 6c d8 81 bd f6 b2 c7 bd 87 7a a1 bd
       -0.104539745 -0.06340107 -0.09750931 -0.07884698
0000d0 8a 1d ad bd 3e 8e 23 3d 09 9f ba bd 76 12 d4 bd
       -0.084529 0.039930575 -0.09112365 -0.10355084
0000e0 87 ad 56 3d fa 88 2e bd 50 3d e9 bc de 93 82 3c
       0.052411582 -0.0426111 -0.028471619 0.01593965
0000f0 4c 2c 54 3b a0 ae fd bc 5f d7 d5 3c 4e 44 97 3d
       0.0032375036 -0.030967057 0.026103674 0.07386075
000100 ad d4 a6 3d 94 3c 51 bc 41 c2 05 bd de 47 01 bd
       0.081460334 -0.012770791 -0.032655958 -0.03156268
000110 cc c5 ae bd 45 02 ba 3d cc ea 90 3d 36 3b aa 3c
       -0.085338205 0.09082464 0.07076034 0.020780187
000120 d9 ad ee 3c 21 c8 c4 bc 50 af 3b bc 24 e1 6e bd
       0.029135631 -0.02402121 -0.011455372 -0.05832018
000130 6f 35 89 3d 7d b8 84 bd cb 33 ab 3d 4a 21 ce 3c
       0.06699645 -0.06480501 0.08359488 0.025162358
000140 e7 55 9d bd 24 2a 67 39 8d 13 4c 3d 47 fb 8e bc
       -0.076824 0.00022045575 0.049823333 -0.017453803
000150 ed 5d 65 bd 0a 37 b5 3d e6 63 5c 3d c1 d6 9d bd
       -0.055997778 0.088483885 0.053806208 -0.07706977
000160 b9 14 8e bd 97 41 92 ba aa 97 e8 3c b0 fa 42 3d
       -0.06937546 -0.0011158463 0.028392632 0.047602355
000170 4b 33 9a bd e4 f1 85 3c e3 ca 38 3d 90 dd 59 3d
       -0.075293146 0.016350694 0.045115363 0.053189814
000180 2e e4 a4 3c 76 84 bb bd e1 c2 90 bd 9c 97 bd 3b
       0.020128336 -0.09156124 -0.0706842 0.0057858955
000190 41 f3 8a bd a8 35 bd bd 06 a0 7f 3c 15 7f 5b bd
       -0.06784678 -0.0923875 0.015602117 -0.05358799
0001a0 24 4f 8c bc b0 cb 2a 3d 3a f5 1b bd ce 87 0b 3d
       -0.017127581 0.041698158 -0.038075663 0.03406506
0001b0 b0 f6 91 bd 63 a2 98 bd e0 60 f2 3d f1 54 a9 3d
       -0.0712713 -0.07452848 0.11834884 0.082681544
0001c0 0f af ba bd e7 62 91 3c f9 5e 93 bd f7 19 9a bd
       -0.09115421 0.017747356 -0.07195849 -0.07524484
0001d0 07 85 a9 bd ba 8f 90 3d 83 9c 69 bd 90 6c 64 bd
       -0.08277326 0.07058664 -0.057034027 -0.055767596
0001e0 f1 83 b7 3d d3 cd d4 bc 58 1b 8f bd b6 8e 8e bd
       0.08960713 -0.02597705 -0.06987637 -0.06960814
0001f0 ce 51 36 3d 75 be b8 3d 76 51 90 bd 80 73 76 bd
       0.04451161 0.09020702 -0.070467874 -0.060168743

layers.3.weight f4 [128, 128]
000000 15 d1 07 be 4d 33 aa 3b 44 02 a8 3d 01 38 19 3e
       -0.13263352 0.005194104 0.08203557 0.1496277
000010 44 8a c7 3c 45 57 e7 3d 6b a8 ca 3d f4 c6 9b bd
       0.024357922 0.11295942 0.098954044 -0.07606307
000020 cd 8a d3 3d 33 76 06 3e a8 f0 e6 bd b9 5f 4e bc
       0.103292085 0.13131027 -0.1127637 -0.012596064
000030 19 38 ec 3d 56 59 12 be fd 1f 98 3d 9e fb cb bd
       0.11534137 -0.14291891 0.07427976 -0.099601015
000040 d6 03 7a bc 54 23 23 3e 6c 51 e4 bd 24 50 26 bd
       -0.015259704 0.15931445 -0.111483425 -0.04060377
000050 06 2d 9c bd ec 05 a3 bc 51 e0 c7 bd 57 2e 06 be
       -0.07625775 -0.019900285 -0.09759582 -0.13103615
000060 d5 75 50 bd b2 16 81 3c c4 9a 01 be 29 e6 9a 3d
       -0.050893623 0.015757892 -0.12656695 0.07563431
000070 44 b3 f1 bd 65 cf 0f 3e 40 47 bd bc 8e 03 a7 bd
       -0.1180177 0.14043958 -0.023105264 -0.08154975
000080 f7 c0 d1 bd 08 3a 2d 3d 48 76 c6 bd fd e6 ce 3d
       -0.10241883 0.04229167 -0.09690529 0.10102651
000090 77 f2 0c 3e 65 d0 1e 3e 8b ff 88 bc b0 0a b1 3d
       0.13764368 0.15509184 -0.016723415 0.086446166
0000a0 2e 96 82 bb e5 ed 16 be fb e2 ef bd 8a 3e 1e bd
       -0.003985188 -0.14739187 -0.11713215 -0.03863386
0000b0 d2 2d 2e 3c 09 2e 26 3d 73 25 00 3c 30 77 01 3e
       0.010631042 0.040571246 0.007821429 0.12643123
0000c0 0d 83 7c 3d f9 86 10 be 46 50 86 3d 4e 58 da 3c
       0.061648417 -0.14113988 0.0655828 0.026653435
0000d0 3d 4b c5 3d 7a 31 3d be b8 d0 4a 3d a2 68 84 3d
       0.09633491 -0.18475905 0.049515456 0.064652696
0000e0 67 50 f4 3d d0 a0 e5 3d 2e 9e 04 be 92 48 03 be
       0.11929398 0.11212313 -0.12950966 -0.12820652
0000f0 9f 9f 22 3d 2a b7 bc 3d a7 b5 03 3e a5 ed bd bd
       0.039703008 0.09214623 0.12862264 -0.09273843
000100 c1 6c 12 be ae 9d 80 3d 91 09 8d 3c 82 6d e0 bd
       -0.14299299 0.06280075 0.017216476 -0.10958387
000110 3f b5 83 3d 46 45 a5 bd 16 52 3c 3d 68 f5 13 be
       0.06431054 -0.080698535 0.04597672 -0.14449084
000120 a3 7d ef bc e6 d0 97 3d 28 e4 0c bd 49 ed 3d 3d
       -0.029234713 0.07412891 -0.034397274 0.04636887
000130 3e 62 9d bd 57 d7 a4 bd f2 ef 1f bc 71 09 6d 3c
       -0.07684754 -0.08048885 -0.009761797 0.014467583
000140 ec bc 8b 3d ec e9 99 bd 18 c3 cc 3b f0 cf a4 bd
       0.06823143 -0.0751532 0.006248843 -0.080474734
000150 92 12 85 3c 75 ca f5 bd 3c 1a f0 3d c5 64 b1 3d
       0.016244207 -0.12001506 0.11723754 0.086617984
000160 b8 65 c2 3d 58 f2 0a be 74 74 17 be 45 8e e3 3b
       0.094920576 -0.1356901 -0.14790517 0.00694445
000170 72 1d c0 3a 84 27 c0 bd 67 d3 f4 bd 0e 96 bd bc
       0.0014657213 -0.09382537 -0.11954384 -0.02314284
000180 05 3a 8d bd 78 53 48 bd d9 d2 28 3d e1 4f 87 bc
       -0.06895832 -0.048907727 0.041216705 -0.016517581
000190 30 40 a0 3d de a9 7f bd fa 45 2a bd ec 7e b1 bc
       0.07824743 -0.062417857 -0.04157064 -0.021666966
0001a0 cb 94 bd 3c 03 41 97 bd 3e 82 20 be 0d d2 1b be
       0.02314224 -0.07385447 -0.15674683 -0.15216847
0001b0 9b fa 1e be 14 08 98 bc 2e 30 e0 3d 34 38 3b 3d
       -0.15525286 -0.01855854 0.109466895 0.045707896
0001c0 86 9e 34 3d 2d 0e 89 3c 62 a8 03 3e c3 b0 99 3d
       0.044096492 0.016730392 0.12857202 0.07504418
0001d0 7b e3 d8 bc b5 a6 13 3e c7 cc b2 bc be 61 f2 3c
       -0.026475659 0.14419062 -0.021826161 0.029587623
0001e0 12 23 e4 3c ee 95 94 bd ab be 0e 3e d1 1d 04 3e
       0.027848754 -0.07255159 0.13939922 0.12901999
0001f0 22 b7 91 3d a4 16 c0 bd 3d d0 e7 3d 7c 94 34 bd
       0.07115008 -0.09379318 0.11319015 -0.04408692
000200 6c b7 34 3d 6b 49 fe bd 7e af b9 3d ee f3 28 3e
       0.044120237 -0.12416347 0.090666756 0.16499302
000210 0e d0 69 bd 50 3f b3 3d 66 b1 80 3d 33 82 fd 3d
       -0.057083182 0.0875231 0.06283836 0.12378349
000220 1a ae 02 bc 5f 3e 81 bd 8e 02 12 be 54 03 e0 bc
       -0.007976079 -0.063107245 -0.14258787 -0.027345337
000230 2f 83 0c 3e 63 b9 95 3c 1f b3 2b 3d 3a 46 c5 3d
       0.13721918 0.018276876 0.04191887 0.09632535
000240 80 ed 14 bd 61 c8 88 bc f1 58 e3 3d 73 40 11 3e
       -0.03635931 -0.01669711 0.111009486 0.14184742
000250 72 8e f3 3d e2 f2 18 3d ca 3d 04 be c2 f2 0e 3e
       0.11892404 0.037341006 -0.12914196 0.13959792
000260 d6 e6 05 3c e0 8b 00 bb 55 ff 43 bb d1 5b e4 3d
       0.008172711 -0.0019614622 -0.0029906828 0.11150325
000270 92 a3 c1 bd 9e 34 c7 bd 08 28 e1 3c c2 30 fb 3d
       -0.09455027 -0.09726833 0.027484909 0.12265159
000280 2b f9 87 3d 21 6a 14 3e 05 fd de 3d de f5 95 3d
       0.06639322 0.1449361 0.108881034 0.07322286
000290 ca 25 de bc 9d d7 ea bc e8 02 c0 bd 76 95 11 3d
       -0.027117629 -0.028667266 -0.09375554 0.035542928
0002a0 1a a0 27 3e a6 6f 37 3d 06 f2 4b 3d 28 a5 b8 3c
       0.16369668 0.04478421 0.04979136 0.02253969
0002b0 20 a9 40 bb a3 d5 86 3d f4 e9 ea 3d 7a 5a b4 3c
       -0.0029397681 0.06583717 0.11470404 0.022015799
0002c0 1f 38 af 3d 6b 11 16 3e 2f 19 95 bd 39 3d 0c 3e
       0.08555626 0.14655082 -0.07280194 0.1369523
0002d0 e3 76 21 be bc d9 b0 3d b8 48 7c bd 7b 64 bf 3d
       -0.15768008 0.086352795 -0.061592788 0.09345337
0002e0 11 23 40 3d 25 99 8d bd 57 fa 03 3e c1 99 1a be
       0.046908442 -0.069139756 0.12888466 -0.15097715
0002f0 e4 40 59 3c 56 53 19 3e 6d 94 1a be 93 5e 09 3e
       0.0132601 0.14973196 -0.15095682 0.13414983
000300 63 dc f1 bd a4 22 0e bd aa f4 f0 bb e0 dd f1 bb
       -0.118096136 -0.034701005 -0.007353385 -0.007381186
000310 d2 4b d8 3d ca 69 ab 3d 5f 99 e7 bd fe 5a 1e be
       0.105613366 0.08369787 -0.1130855 -0.15464398
000320 14 fd 0b 3e 03 0f 64 bd 53 b6 0d 3e 83 61 75 3d
       0.1367076 -0.05567838 0.13839082 0.059907448
000330 bf cb d3 3c 6c f5 15 3e b9 53 c6 3d 4a 57 c0 3b
       0.02585399 0.14644402 0.096839376 0.0058697807
000340 a8 a9 04 3e 6b dc e8 3d 01 4b c0 bd 75 19 fb 3d
       0.12955344 0.113701664 -0.09389306 0.12260715
000350 1a a6 e3 bd 7a 99 cb 3d d0 a3 74 3d 1a a0 fa bc
       -0.11115666 0.09941383 0.059726536 -0.03059392
000360 88 d2 03 3e d3 58 0d 3d da 52 e7 3d 94 90 6e 3c
       0.1287328 0.034508538 0.112950996 0.014560837
000370 eb 89 b1 bd e9 73 6c bd 7e 50 39 bc b8 a4 f1 bc
       -0.08668884 -0.057727728 -0.011310695 -0.02949749
000380 11 b4 99 3c 71 48 9a bd 69 78 9d 3d d1 0e f5 3d
       0.01876262 -0.07533348 0.07688982 0.11965717
000390 97 04 90 bc b2 e0 79 3d 32 af f5 bd ff 74 ef 3c
       -0.017580314 0.0610053 -0.119963065 0.029230593
0003a0 e3 87 a9 bd 9a 6a e6 3d 53 42 ed 3d 67 0b ea 3d
       -0.082778715 0.112508014 0.11584916 0.11427956
0003b0 82 d5 b2 3c 3f f8 ab bd 42 a7 0f 3e a6 11 06 be
       0.021830324 -0.083969586 0.14028648 -0.1309267
0003c0 5a 34 cd ba 76 36 14 3d 14 e9 84 3d a3 0d 9c bd
       -0.0015655861 0.03618475 0.064897686 -0.076197885
0003d0 ea 80 43 3d f3 94 81 bc ed 28 88 3d e1 ac e8 3d
       0.047730364 -0.015818095 0.06648431 0.11361099
0003e0 ce fc 95 bd e2 eb 68 3c 88 2b 14 be 66 aa 4f 3d
       -0.07323609 0.014216395 -0.14469731 0.050699614
0003f0 b7 9e a4 bd 98 d1 aa 3d 1a 95 8c 3c 4b d2 4b bc
       -0.08038085 0.08340758 0.01716094 -0.0124402745

layers.3.bias f4 [128]
000000 52 90 c3 bd 7e 82 ad bd 0f e1 5b bc 24 13 a2 3c
       -0.09549011 -0.08472155 -0.013420357 0.019784518
000010 25 7a 4a bd 7b 65 98 bd b1 ad b1 bc e9 bc 3f bc
       -0.049432892 -0.07441231 -0.021689268 -0.011702755
000020 2e 9f a4 3c de 3a c0 3d db 9f fa 3c 7a 9c a7 3d
       0.020095434 0.09386228 0.030593803 0.081841424
000030 e2 e7 63 3d 39 24 65 3d f4 f7 8f bc 89 fe a9 bd
       0.055641063 0.055942748 -0.017574288 -0.08300502
000040 26 b0 31 bd 70 d9 0c bc 09 e6 aa 3c f2 6d 10 3d
       -0.04338088 -0.008596763 0.020861642 0.035261102
000050 d5 26 1c bc 38 ed 6e bd 4e 05 dd bc e7 2f 37 bd
       -0.009530743 -0.0583317 -0.026980069 -0.044723418
000060 6a 86 49 bd 42 21 54 bd 2e 59 b2 3c 92 0c d0 bd
       -0.049200453 -0.05178953 0.02177104 -0.101586476
000070 3f 77 a7 3c 6f d6 9b bd 06 9e 52 bd 5f 98 be bd
       0.020442603 -0.07609259 -0.051420234 -0.09306406
000080 03 d8 33 3d b5 6d bc 3d 9a 46 a7 bd c6 d6 7a 3d
       0.043907177 0.092006125 -0.08167763 0.06123998
000090 05 0b 3d bd 54 ca ad 3c c4 ff 28 3d 5f e7 ac bc
       -0.046153087 0.021214642 0.041259542 -0.02110642
0000a0 84 dc 44 3c 8f dc 29 bd 9e 5a 59 bd 82 f1 98 3d
       0.012015466 -0.041470107 -0.053064935 0.07467939
0000b0 f3 62 ee 3a bc 8b de 3b 37 17 85 3c 7f c5 20 bd
       0.0018187448 0.00679156 0.016246421 -0.039250847
0000c0 31 2c 8b 3d 82 c6 d3 3b f4 90 d8 3c b6 cb 92 3d
       0.06795538 0.006462873 0.026436307 0.07167761
0000d0 ed 8e 80 3d 16 f8 a0 bd d4 47 84 3d 29 5f 60 3c
       0.06277261 -0.07859819 0.06459013 0.013694563
0000e0 b8 41 27 bd f8 73 84 bd 62 41 0b 3c bd e7 80 bc
       -0.04083416 -0.06467432 0.008499475 -0.015735501
0000f0 7d 2b 90 3b b9 39 10 bd 63 22 6d bb 41 5e 57 3d
       0.0043997155 -0.0352113 -0.0036183826 0.052580122
000100 90 62 5e bd a4 c5 14 bd b4 5b 4b bc 71 9c 93 3d
       -0.054293215 -0.036321297 -0.012412 0.07207573
000110 83 37 a8 3c e6 85 8b 3d f7 a5 c4 bc 8c 35 7f bc
       0.020534283 0.068126485 -0.02400492 -0.015576731
000120 d8 b4 01 3d a0 e2 3e bd f0 f4 a3 bd 3d 4b aa 3d
       0.031666607 -0.046602845 -0.080057025 0.08315132
000130 37 cb 36 bb 19 64 8c bb 03 cd 51 3d 09 0e 5f 3d
       -0.0027892122 -0.0042843935 0.051220905 0.054456744
000140 07 f4 e9 bc 58 52 07 bd fd b9 52 bd 4d e2 aa 3d
       -0.028558744 -0.033037513 -0.051446903 0.08343945
000150 cb b0 27 bd 1d e5 4f bd fb 76 c5 bc ed ff 49 3d
       -0.040940087 -0.05075561 -0.024104586 0.049316335
000160 8e 48 0a 3d 9c b2 33 bd 31 ac af bc 14 f8 ac 3d
       0.0337606 -0.043871507 -0.021444412 0.08445755
000170 01 d1 95 3d d0 54 a0 3d 20 ea 77 bd fc 62 d9 bc
       0.07315255 0.07828677 -0.060526013 -0.026536457
000180 c5 62 2d bd aa 94 a5 3d 85 0b 49 bd 4a 1d 52 bd
       -0.042330522 0.08084996 -0.04908325 -0.051297463
000190 8a 7b 43 3d 63 45 b5 bd 64 3f f2 3c 80 16 8c 3c
       0.047725238 -0.08851125 0.029571243 0.017100573
0001a0 50 e7 a0 3d 80 49 80 3d 9f 79 14 3d 28 48 bf 3d
       0.07856619 0.06264019 0.0362488 0.093399346
0001b0 7e 07 b5 3c 53 55 59 3d 65 24 dc bd 5e 70 85 3d
       0.0220983 0.053059887 -0.10749129 0.06515573
0001c0 4d 9c 82 3c 08 1c 47 3d c5 c7 5f bc 33 40 97 3b
       0.01594367 0.048610717 -0.013658469 0.0046158074
0001d0 2b 03 92 bd bf c6 a0 bd 21 c0 2a bd df 5d 8e bd
       -0.071295105 -0.07850408 -0.041687135 -0.06951498
0001e0 4a 56 44 3c 77 89 85 3b 04 25 a3 bd 0d e4 b1 3d
       0.011983464 0.004075225 -0.079660445 0.08686075
0001f0 6d ac be b9 70 88 72 3c 76 79 34 bd 26 45 7a 3d
       -0.0003636809 0.014803037 -0.044061147 0.0611011

layers.4.weight f4 [128, 128]
000000 d7 8b 58 3a 9b e7 14 3c d9 56 aa bd 8e ac 50 3c
       0.0008260584 0.009088422 -0.08317346 0.012736453
000010 16 24 0d 3e 24 33 03 be 63 82 9b 3d c5 ad 24 bd
       0.13783297 -0.12812477 0.07593229 -0.040204782
000020 c6 85 ea bd ea da b0 bd 8f f6 09 3e d4 a6 f7 bd
       -0.114512965 -0.086355045 0.13472961 -0.12092367
000030 e6 79 c2 bd 8e 82 02 3c 66 f0 8d 3c f6 e7 ce bd
       -0.094959065 0.007965697 0.017326545 -0.10102837
000040 96 71 fc 3d 9b 56 22 3e 98 80 18 bd 26 e4 a4 3d
       0.12326352 0.1585335 -0.03723201 0.08051328
000050 f4 95 de 3c 04 c1 ea bd 11 29 13 be ea 17 81 bd
       0.027171113 -0.11462596 -0.14371134 -0.06303389
000060 6b d8 86 bc 68 5f a3 bd d1 1b fe bc a1 19 de bd
       -0.016460618 -0.07977182 -0.031019123 -0.10844732
000070 9a 25 d2 3c 28 61 40 bd 66 d4 a1 3d a6 15 40 3d
       0.025652695 -0.046967655 0.0790184 0.046895646
000080 4b b5 03 be 83 95 03 be 08 46 ae 3d d8 2a a4 bb
       -0.12862127 -0.12850003 0.08509451 -0.00500999
000090 6e 35 e0 3d b1 af 8f 3d 2d cd 41 3d bd 59 86 bd
       0.10947691 0.07015932 0.04731481 -0.06560085
0000a0 01 54 b5 3d 8c 35 01 3e 4b 34 a2 3c a2 15 35 bd
       0.08853913 0.12618083 0.019800326 -0.044210084
0000b0 ed de 06 3d c2 ae 1b be f0 7d 12 be 0a f3 07 3e
       0.032927442 -0.15203384 -0.14305854 0.13276306
0000c0 40 ca d4 bd cb f4 f7 3d d2 d2 f2 3d 1c 2e 0c 3e
       -0.103901386 0.121072374 0.11856617 0.13689464
0000d0 9b e8 02 3e 5b 95 d6 bd 57 d6 ff 3d 3c bb c6 bd
       0.12784044 -0.10477706 0.12492054 -0.09703681
0000e0 1d 0d 53 3d 1e 57 64 3d 91 1c f8 3d 7f a8 fa 3d
       0.051526178 0.055747144 0.121148236 0.12239169
0000f0 67 f4 a1 3d 2c ee 71 bd 58 e8 25 be 3d 29 c3 b9
       0.07907944 -0.05906503 -0.16201913 -0.00037224023
000100 0a 55 0a bd f6 49 1a 3d de b2 af bd a0 bc 11 be
       -0.033772506 0.03766819 -0.08579038 -0.14232111
000110 ee 19 fe bd 66 f5 c1 bc 68 a4 a0 bd f9 a0 5e bd
       -0.124072894 -0.023676585 -0.07843858 -0.054352734
000120 c7 ec 8a bd fe 4b 12 be b6 11 a7 bc 2c a2 8e 3d
       -0.06783443 -0.14286801 -0.020394187 0.069645256
000130 3f 3b 61 3c 22 8f 94 3d 20 1e 76 bd 6d b5 ca bd
       0.0137470355 0.07253863 -0.060087323 -0.098978855
000140 9b f2 fb bd b1 d1 44 bc d6 9d 3a 3d f1 a6 2e 3d
       -0.12302133 -0.012012885 0.04556068 0.042639676
000150 65 80 82 3d 17 68 cd bc 5e de c0 3c 6f cd 04 3e
       0.063721456 -0.025074048 0.023543533 0.12968992
000160 26 c8 83 bb fa 2c 37 bd 09 8e e0 bd 69 31 8e bd
       -0.0040216623 -0.044720627 -0.10964591 -0.06943018
000170 4c 8a 0a be 5d bc 02 bc 52 1c 80 bd 84 e6 d0 bd
       -0.13529319 -0.00797948 -0.06255402 -0.10200217
000180 c3 47 9a bd cb 35 af bd cc ec 1f be d1 ce 12 3e
       -0.07533219 -0.08555182 -0.15617675 0.14336707
000190 2b 98 80 bd 7c 2b 93 3c 27 3c be bd 78 3f 0f be
       -0.06279024 0.01796507 -0.09288817 -0.13989055
0001a0 93 94 d7 bd 70 16 8e bd 93 f1 11 bd 97 fa 0f bd
       -0.10526385 -0.06937873 -0.035630774 -0.03515109
0001b0 67 3b db bd fa 47 60 bd fb 0c c5 bd 46 98 f9 bd
       -0.107046895 -0.054756142 -0.096216165 -0.12187247
0001c0 64 97 95 3d 7b 0b 03 be 3c 5c 0b be 53 a6 e3 3b
       0.07304266 -0.12797348 -0.13609403 0.0069473176
0001d0 3d 88 45 bd f9 77 fe 3d a3 f5 95 bd db b7 f7 3d
       -0.04822563 0.12425227 -0.07322242 0.120956145
0001e0 50 98 9b 3c 1c 3a 8f bd 68 85 91 bc 98 a6 8d 3d
       0.018993527 -0.06993505 -0.017763808 0.06916541
0001f0 6a 93 04 3d 56 12 9b bd 45 8f af 3c ea 72 07 3c
       0.032367148 -0.07571857 0.02143062 0.008267144
000200 4e d4 04 bd e7 a3 1c be 96 16 2a 3d e0 e0 c4 3d
       -0.032429032 -0.15296899 0.041525446 0.09613204
000210 24 41 5d 3d 75 ba 76 bc 39 17 5b 3d 9a f6 d0 bd
       0.0540172 -0.015059103 0.053488944 -0.102032855
000220 22 0b 0d be cc 81 bd 3d 82 38 39 bd ed 4c ac bc
       -0.13773778 0.092532724 -0.045219906 -0.021032775
000230 7b 3d 69 bd cc 6a e4 bc 56 11 03 be 1e 64 ee bd
       -0.056943398 -0.027882956 -0.12799582 -0.116401896
000240 e3 9d c9 bd 10 a2 38 3d 2a 47 b9 bc 2b 26 9a bc
       -0.098445676 0.04507643 -0.022616941 -0.018817028
000250 76 87 00 3e 94 dd a3 bb e5 1d 22 bc 81 b6 8e bc
       0.12551674 -0.0050007794 -0.009894823 -0.017421009
000260 0f 19 16 be 70 ba 31 3d ab d8 7f 3c 46 aa 80 3d
       -0.14657997 0.04339069 0.0156156225 0.06282477
000270 48 c2 be bd 29 75 3c bd 4c 3e 7e bd 7d 2a 91 3d
       -0.093144 -0.04601017 -0.06207113 0.07088182
000280 96 cd c1 bc 16 f7 04 be af 7a c2 3d 83 ad cc 3d
       -0.023657601 -0.12984881 0.09496056 0.09994032
000290 1f 72 9f 3d 39 39 6a 3c 47 78 cc bd 99 7f c7 3d
       0.07785439 0.0142958695 -0.099838786 0.09741134
0002a0 3b 1b c7 bd c0 d7 e8 3b 49 07 34 bd 0f 68 00 bd
       -0.09721991 0.0071057975 -0.04395226 -0.031349238
0002b0 97 ee c1 bd e6 68 c0 3d 7c 94 21 3e c9 da 8e 3d
       -0.094693355 0.09395008 0.15779299 0.06975324
0002c0 cc ce 19 3e 24 6a d1 3d a3 25 dc bd e1 f2 b4 bc
       0.15020293 0.10225323 -0.10749366 -0.02208847
0002d0 77 e5 94 bc 22 fe d6 3d 6e 93 c1 3d e5 d0 9b bb
       -0.018175824 0.10497691 0.09451948 -0.004755127
0002e0 8f e0 f8 bc d6 b9 ad 3d 90 21 aa 3d f8 72 c5 bc
       -0.030380515 0.08482711 0.08307183 -0.024102673
0002f0 8a 31 54 bd b2 20 10 be e8 77 8e 3d 41 97 04 3e
       -0.051805057 -0.14074972 0.06956464 0.12948324
000300 16 f9 04 3e a9 62 70 3d f0 80 bc bd 5b 95 a7 3c
       0.12985644 0.05868784 -0.092042804 0.02045696
000310 d5 d5 81 bd 80 b4 9d bd d6 4e e7 3d 27 3d 46 3b
       -0.06339613 -0.07700443 0.11294334 0.0030248852
000320 c9 37 50 bd 01 df 0f 3e b0 b9 62 3c 2f 65 de bd
       -0.05083445 0.14049913 0.013838217 -0.10859143
000330 43 d0 8b bd e6 5b eb 38 f9 54 df 3c 37 ec d1 3d
       -0.06826832 0.000112227906 0.027262198 0.102501325
000340 eb 8f f5 3d b1 08 d1 bd 5c 16 cc bd 58 e7 e6 3d
       0.11990341 -0.10206736 -0.09965202 0.11274594
000350 12 17 13 be 8c 6a b0 3c d0 a6 66 bd 59 2c e6 bd
       -0.1436427 0.02153518 -0.05631143 -0.112389274
000360 af 50 89 ba 63 95 8c bd 15 0a b1 3d d4 29 a3 3d
       -0.0010476316 -0.06864431 0.08644501 0.079669625
000370 2c 2c 47 3d 36 89 be 3c c8 9e fe 3d 8a 49 98 bc
       0.04862611 0.023258787 0.12432629 -0.018589754
000380 d2 b8 45 3d 1b c5 1d 3d 9f cd ec bd ea 78 f9 bd
       0.04827196 0.038518053 -0.115626566 -0.12181266
000390 86 33 a5 3d b9 37 c7 3d 7f 59 a5 3c d6 69 12 be
       0.08066468 0.09727425 0.020184277 -0.14298186
0003a0 ca 64 e8 3d b4 a4 f6 bc 0c 41 fe bc 1e ff b9 bd
       0.11347349 -0.030107833 -0.031036876 -0.09081863
0003b0 d0 f5 a4 3d 5a 7b ad bd 91 41 e1 bd 73 e6 80 3d
       0.080546975 -0.08470793 -0.10998834 0.06293955
0003c0 4b 59 b9 3d 7e e6 f2 bd 7d 27 1d bc 92 82 d3 bd
       0.090502344 -0.11860369 -0.009591934 -0.10327639
0003d0 a5 fc ff bd 72 b3 10 3e a6 c8 73 bd 4d e3 99 bd
       -0.1249936 0.14130953 -0.059517525 -0.07514057
0003e0 1b a2 70 3d c8 25 b1 bd 98 5f bf bc 37 49 fd bc
       0.058748346 -0.08649784 -0.023361012 -0.0309187
0003f0 9d df ed 3c e9 98 5b 3d 1e 23 b1 3d 57 b4 14 3e
       0.029037291 0.053612623 0.08649276 0.14521919
