model_B/pinn_model161.pth (torch, 472610 bytes, 17 tensors)

layers.0.weight f4 [128, 6]
0.17201523 -0.1066882 0.20471995 -0.1788 0.05884712 0.037698105 0.12875198 0.107508965
-0.10030361 0.14886698 -0.0035687198 -0.059212755 -0.06456388 -0.19528873 -0.13337806 -0.1774345
0.22450821 0.005755519 0.102279656 -0.10083608 0.045753524 0.045000143 0.15616766 0.169983
-0.081926584 -0.10793157 0.17491643 -0.15812267 0.1434579 -0.060906924 0.033075806 -0.042416397
0.153053 -0.17181984 -0.10191746 -0.13375007 0.12678483 -0.046749912 0.1895436 -0.03907345
-0.21722738 0.0736852 -0.18339698 0.18744192 0.18116917 0.14664973 0.18731704 -0.18844223
-0.1378562 -0.18128616 -0.07254383 -0.062361795 -0.0016927287 0.030658465 0.10215639 -0.11594614
-0.0321416 -0.04685492 0.06251702 0.04037961 0.10019933 0.16069353 -0.07651456 -0.061361976
0.12525904 -0.18878177 -0.101734035 0.035646915 0.11793259 0.12239592 -0.15267567 -0.07622304
0.16743477 -0.21997608 -0.15251486 0.027831934 -0.024856765 -0.094304025 -0.01678033 0.18399528
-0.066520184 0.1950402 -0.08997876 -0.0042428114 0.009209528 -0.124170825 0.0071941703 0.0274423
-0.013992527 -0.13027647 0.16915807 0.053112447 -0.12894118 0.06952583 0.102304414 0.029118136
-0.12181931 -0.06408035 -0.17983405 0.011684562 -0.113939114 -0.05595519 -0.06746849 0.09494593
-0.020020356 -0.081404984 0.12999707 -0.12564024 0.21289025 0.17338297 -0.012079716 0.06837858
0.20565349 0.19182779 0.17614134 -0.14033957 -0.13204944 0.1155959 0.19319955 -0.09586643
-0.073796295 0.007976927 0.10005538 0.09605824 -0.118047304 -0.1994111 0.117397614 0.06988343
-0.047697026 -0.021964379 -0.061313912 -0.07017409 -0.07180628 -0.19148606 -0.016669612 0.22284478
0.15805952 -0.0168271 -0.07956605 0.005749963 0.1599884 -0.08571128 0.0018063794 0.14332813
0.15525982 -0.13689104 0.05661245 -0.0287377 0.063545756 0.057460748 0.087072365 -0.070329316
-0.07608931 -0.039141633 -0.10976576 -0.12449951 -0.039600063 0.15059884 -0.11538432 0.11764907
0.13754019 0.093809485 -0.016607884 0.17251128 -0.033984467 -0.12150854 0.078420684 -0.15395747
0.1669916 0.0039595547 0.10466142 0.051723875 -0.20511341 0.15006764 0.19088 -0.21248402
0.06346588 0.12523215 0.019275801 -0.11222941 -0.03290259 0.060275327 -0.16952163 -0.12036746
-0.12517819 -0.07105489 -0.12548798 0.0389238 0.16732316 -0.18117388 0.022145761 -0.1195793
0.13860305 -0.08707122 0.02669497 0.07393187 -0.12472905 -0.13816057 0.12688135 -0.12094831
-0.21313716 0.19626915 0.18456759 -0.14586292 -0.12415562 -0.16183473 0.22266644 -0.13255236
-0.03917363 0.059595678 -0.011947133 0.0031965664 -0.17369303 0.04342559 0.01921584 0.1664271
-0.027768774 0.016277064 0.079030186 -0.11201651 0.04786735 0.15586658 0.16350752 -0.0046320767
0.035813775 -0.010610082 0.08757955 0.15835871 -0.086964086 0.12975942 0.08205355 0.21824269
0.07475185 -0.17118546 -0.08470452 -0.17781222 -0.08781162 0.16996713 0.20369062 0.0301319
0.17565803 -0.19754978 -0.18594873 -0.2094924 -0.15922667 0.082165845 -0.044350136 0.16590631
0.22675544 0.053728037 0.12044858 0.17322652 -0.075551376 0.014481573 0.029379485 -0.19318944
00000000: c324 303e 587f dabd 1ba2 513e 5917 37be
00000010: ad09 713d 5469 1a3d 8fd7 033e a92d dc3d
00000020: fb6b cdbd 9670 183e 2fe1 69bb 1389 72bd
00000030: 113a 84bd c5f9 47be 4294 08be 64b1 35be
00000040: 7be5 653e cb98 bc3b ff77 d13d 2683 cebd
00000050: 0c68 3b3d 1252 383d 6aea 1f3e 0610 2e3e
00000060: 20c9 a7bd 3a0b ddbd 4b1d 333e e9ea 21be
00000070: a1e6 123e 8a79 79bd 7f7a 073d d1bc 2dbd
00000080: edb9 1c3e 8af1 2fbe 1aba d0bd c7f5 08be
00000090: e2d3 013e d67c 3fbd b817 423e 7b0b 20bd
000000a0: db70 5ebe 44e8 963d 6bcc 3bbe c6f0 3f3e
000000b0: 6984 393e 592b 163e 0ad0 3f3e 00f7 40be
000000c0: 2d2a 0dbe 14a3 39be dc91 94bd 156f 7fbd
000000d0: 8dde ddba 7627 fb3c 5f37 d13d 2b75 edbd
000000e0: e9a6 03bd f2ea 3fbd ec08 803d 1765 253d
000000f0: 4e35 cd3d d88c 243e aab3 9cbd b256 7bbd
00000100: e843 003e 0250 41be ef59 d0bd 8002 123d
00000110: a486 f13d b6aa fa3d 0357 1cbe d31a 9cbd
00000120: 0574 2b3e 6941 61be db2c 1cbe ccff e33c
00000130: 6aa0 cbbc 7822 c1bd e776 89bc 4269 3c3e
00000140: bc3b 88bd 9eb8 473e c946 b8bd 4807 8bbb
00000150: 8fe3 163c 464d febd 13bd eb3b adce e03c
00000160: e940 65bc 3267 05be c637 2d3e 708c 593d
00000170: 2809 04be 8f63 8e3d fa84 d13d 2889 ee3c
00000180: 677c f9bd 8f3c 83bd 6b26 38be 9b70 3f3c
00000190: e958 e9bd 4531 65bd eb2c 8abd 0373 c23d
000001a0: bb01 a4bc a8b7 a6bd f41d 053e d6a7 00be
000001b0: e7ff 593e 4e8b 313e 00ea 45bc 120a 8c3d
000001c0: d496 523e 816e 443e 655e 343e 2db5 0fbe
000001d0: f837 07be 8bbd ec3d 1ad6 453e 9e55 c4bd
000001e0: 8322 97bd a8b1 023c d6e9 cc3d 2fba c43d
000001f0: c9c2 f1bd 6c32 4cbe 296e f03d 0b1f 8f3d
00000200: f55d 43bd a4ee b3bc 4c24 7bbd 6fb7 8fbd
00000210: 2c0f 93bd ec14 44be b68e 88bc 6c31 643e
00000220: 5bda 213e fdd8 89bc 86f3 a2bd 306a bc3b
00000230: 00d4 233e 6589 afbd 09c4 ec3a 9cc4 123e
00000240: 6efc 1e3e 2a2d 0cbe 75e2 673d 536b ebbc
00000250: 4724 823d f65b 6b3d ff52 b23d d108 90bd
00000260: b6d4 9bbd fa52 20bd dfcc e0bd 99f9 febd
00000270: ad33 22bd 9536 1a3e 9d4e ecbd fff1 f03d
00000280: 56d7 0c3e 301f c03d 420d 88bc cca6 303e
00000290: 4c33 0bbd 78d9 f8bd 069b a03d 07a7 1dbe
000002a0: d9ff 2a3e 27bf 813b ba58 d63d 6adc 533d
000002b0: 4009 52be 55ab 193e 0c76 433e 6995 59be
000002c0: 66fa 813d db3c 003e 49e8 9d3c 88d8 e5bd
000002d0: dec4 06bd 43e3 763d 1497 2dbe 3783 f6bd
000002e0: b62e 00be 3a85 91bd ec7f 00be 906e 1f3d
000002f0: c356 2b3e a585 39be 076b b53c fee5 f4bd
00000300: f5ed 0d3e 6552 b2bd 69af da3c 9869 973d
00000310: f271 ffbd f779 0dbe 2fed 013e bfb3 f7bd
00000320: a140 5abe c8fa 483e 49ff 3c3e 175d 15be
00000330: 4d45 febd 01b8 25be ac02 643e cebb 07be
00000340: 8774 20bd 991a 743d e8bd 43bc 7c7d 513b
00000350: 96dc 31be 08df 313d 8a6a 9d3c de6b 2a3e
00000360: 577b e3bc 7a57 853c 94da a13d e968 e5bd
00000370: 8e10 443d 7d9b 1f3e 846e 273e adc8 97bb
00000380: 77b1 123d e9d5 2dbc e85c b33d c928 223e
00000390: 3a1a b2bd a7df 043e b10b a83d 037b 5f3e
000003a0: 7f17 993d 3e4b 2fbe 9079 adbd 6814 36be
000003b0: 94d6 b3bd dd0b 2e3e 4694 503e 2dd7 f63c
000003c0: b3df 333e 7d4a 4abe 5869 3ebe 2d85 56be
000003d0: 510c 23be 9146 a83d 7da8 35bd 58e3 293e
000003e0: 9432 683e ee11 5c3d bfad f63d 4b62 313e
000003f0: aeba 9abd 1f44 6d3c 3fad f03c 74d3 45be

layers.0.bias f4 [128]
0.00024369478 0.12738052 0.20097063 -0.1782137 -0.06763496 -0.1140692 -0.13563429 -0.38875684
0.4519851 -0.14618501 -0.39696294 -0.16335699 0.36275175 -0.20456588 0.40300643 0.19427627
0.3424822 0.17912968 0.2814268 0.010145952 0.32067838 -0.23319535 -0.16594489 0.26186502
0.17291498 0.40886924 0.18252012 -0.04762343 0.22500238 0.14117417 -0.05304995 -0.35821754
0.37396228 -0.17517857 -0.18224968 -0.018302416 0.061286252 -0.38437384 0.18584763 0.18580657
-0.25823534 0.3625476 0.22844297 -0.2621099 0.0499986 -0.22327024 0.16260315 -0.31463024
0.28230828 -0.26366857 0.26046842 -0.4295062 -0.30611992 -0.27517298 0.13397826 0.30769986
-0.35891852 0.27479944 -0.3461588 -0.24964952 -0.1713149 0.0800469 0.3168874 0.3004732
0.10915089 0.13334729 0.17721434 -0.15375781 -0.25515252 -0.24717578 0.07108612 -0.21061634
-0.05715497 -0.18819052 -0.3642176 -0.20350775 0.35526317 0.0580276 -0.41400602 0.16459806
-0.3262629 -0.06415633 -0.36586368 -0.21098648 0.22240841 -0.013894719 -0.30038634 0.23317733
0.3245956 0.22796516 0.07318795 0.113050714 0.32401502 -0.17593065 -0.20983036 -0.11884694
0.39935395 0.028438404 0.08263074 -0.1487612 -0.22378874 0.40907025 0.24424806 -0.24230315
0.2009403 -0.38304245 0.2037142 -0.13177046 0.374294 -0.27138898 0.22077882 0.02672284
-0.1278033 -0.3223673 -0.21592782 -0.3914014 -0.30615854 0.21484755 0.0456786 0.14163457
0.30032513 0.030655956 0.012275575 -0.022786675 -0.2853941 0.3222946 0.21681948 -0.02623274
00000000: 5288 7f39 0a70 023e 3fcb 4d3e a77d 36be
00000010: 3384 8abd 1d9d e9bd b7e3 0abe 230b c7be
00000020: 976a e73e 86b1 15be ba3e cbbe 0e47 27be
00000030: 99ba b93e b879 51be dc56 ce3e 5cf0 463e
00000040: d459 af3e c56d 373e 2c17 903e 353b 263c
00000050: f52f a43e c3ca 6ebe 75ed 29be 2c13 863e
00000060: a010 313e 4f57 d13e 8ee6 3a3e c910 43bd
00000070: 0667 663e f68f 103e e84a 59bd 4a68 b7be
00000080: fc77 bf3e 0362 33be a99f 3abe f3ee 95bc
00000090: 4b07 7b3d a6cc c4be d74e 3e3e 1444 3e3e
000000a0: 6c37 84be d79f b93e f4ec 693e 4533 86be
000000b0: 55cb 4c3d f4a0 64be 7181 263e 3717 a1be
000000c0: b68a 903e 91ff 86be 1e5c 853e 3de8 dbbe
000000d0: c0bb 9cbe 79e3 8cbe 9931 093e d68a 9d3e
000000e0: 2bc4 b7be 83b2 8c3e ba3b b1be 20a4 7fbe
000000f0: 2c6d 2fbe a1ef a33d 113f a23e a0d7 993e
00000100: 808a df3d 318c 083e ad77 353e b072 1dbe
00000110: 5aa3 82be a61b 7dbe 9a95 913d cfab 57be
00000120: 541b 6abd 04b5 40be bb7a babe 5664 50be
00000130: 0ee5 b53e 59ae 6d3d 99f8 d3be 658c 283e
00000140: ee0b a7be 6564 83bd 7c52 bbbe d70c 58be
00000150: 08bf 633e ada6 63bc 3dcc 99be 0ac6 6e3e
00000160: 6531 a63e b36f 693e 90e3 953d 2287 e73d
00000170: 4ce5 a53e 2a27 34be c5dd 56be 0666 f3bd
00000180: 1f78 cc3e a8f7 e83c 4e3a a93d db54 18be
00000190: e028 65be a871 d13e 2a1c 7a3e 511e 78be
000001a0: 4bc3 4d3e 241e c4be 759a 503e d6ee 06be
000001b0: 77a3 bf3e 7ff3 8abe d813 623e dbe9 da3c
000001c0: dede 02be 540d a5be 2f1c 5dbe c465 c8be
000001d0: d0c0 9cbe ff00 5c3e 7c19 3b3d a708 113e
000001e0: 37c4 993e 3322 fb3c 7e1f 493c 1fab babc
000001f0: 2d1f 92be cc03 a53e ed05 5e3e 0be6 d6bc

layers.1.weight f4 [128, 128]
0.09257784 -0.05593645 0.11401536 -0.052011896 0.046933528 -0.048499778 -0.10503526 0.10544968
-0.13807048 0.09818381 -0.014346376 -0.105499506 -0.09203689 -0.14102931 0.026734868 -0.010311151
-0.070881575 -0.14206108 0.13010815 -0.068819955 -0.011726813 -0.0053364597 0.05508745 0.008264796
0.12378977 -0.101197325 -0.11347471 0.08187216 0.050919082 -0.06773795 -0.045549233 0.100683354
-0.045730367 -0.12879415 -0.09743065 0.027616577 0.07524234 0.12330654 0.15212512 -0.11323914
0.036556557 -0.096872814 -0.0141819855 0.10251297 0.055684727 -0.044792335 0.017834172 -0.04156818
0.13091162 0.081915334 -0.10596341 -0.049979493 0.13509716 0.18008651 -0.060603045 -0.09268647
-0.083400734 -0.041589826 0.048030823 0.02132068 -0.0992327 -0.056203164 -0.0058343005 0.1471802
0.022856943 0.13198112 0.11101688 0.1388914 0.0670914 -0.04663301 -0.04520962 -0.00052977545
-0.07649247 -0.043048285 0.026452448 0.13275832 0.09561231 -0.034206495 0.06819053 -0.010249431
-0.023922425 -0.14135732 0.15183568 0.109970935 0.09961417 0.0064021475 0.032667182 0.0063460083
0.12621559 0.11244932 -0.100625075 -0.041192777 -0.07366443 -0.0453557 -0.07181153 0.12305321
-0.10890067 -0.053320933 -0.1461234 0.076027475 0.09560758 -0.09219515 0.0009660311 -0.06634005
0.110922 0.10972131 -0.00085710234 0.054956574 -0.14200513 0.019184094 -0.0025737544 0.059436202
0.13970752 -0.032656085 -0.09363967 -0.02671324 0.010349482 0.05566197 0.14784971 0.083363816
-0.12685254 0.039925575 0.051552225 0.13857937 0.13875839 0.07171331 -0.106240064 0.04115638
-0.13852409 0.06533523 0.087303765 -0.011838078 0.1100762 -0.09081822 -0.039118722 -0.07485015
0.040677052 0.047698006 -0.0640152 -0.085190125 -0.0953711 -0.020396726 0.0022748127 -0.037789855
-0.03164837 -0.07295548 0.107813805 0.0641628 0.12893566 0.09541741 0.08916301 0.022275932
0.023580374 0.14681354 0.1209608 -0.062700614 -0.13297889 -0.10830699 -0.09330451 -0.10237745
0.15327671 -0.14759517 0.080863066 -0.14714788 0.1269922 -0.188746 0.094516516 -0.10489821
-0.095094815 0.09312985 -0.07568247 -0.01756944 -0.076809086 0.12311841 0.058640316 0.11017203
0.010472076 0.12788385 -0.06810937 -0.12698212 0.044226408 -0.13477969 0.13141134 -0.012009463
-0.12553795 0.15596257 0.05703559 -0.02077727 0.038633954 0.10654714 0.124276586 0.034126516
-0.15121208 -0.11281281 0.13046443 -0.014119194 -0.021257637 0.075201124 0.10739452 -0.12037278
-0.10785058 0.12736501 -0.05498067 -0.0727705 0.08006688 -0.047480486 0.007747432 -0.1264746
-0.060775105 0.061622076 0.038152557 -0.17705351 0.062717676 0.11920114 -0.041714873 -0.11510851
-0.03988983 0.053065047 -0.07737552 -0.041955277 -0.112296954 0.06026625 0.040172067 -0.12808186
0.05693511 0.12503752 -0.024555575 -0.10036249 -0.14726725 -0.10104526 -0.033020224 -0.007655942
-0.1358763 -0.10188701 -0.12872393 -0.051819652 -0.11492496 -0.10853679 0.08296366 0.05135487
-0.12633023 0.11511087 0.044744827 0.07668849 -0.06811526 -0.10240777 0.0029115654 -0.08213412
0.109419055 0.09026126 -0.036779646 0.050900232 -0.1184708 0.10543219 0.09540183 0.026337625
00000000: 7399 bd3d 9e1d 65bd e380 e93d 6d0a 55bd
00000010: 5f3d 403d b4a7 46bd ba1c d7bd 00f6 d73d
00000020: 5962 0dbe 9814 c93d 100d 6bbc 2010 d8bd
00000030: d67d bcbd fd69 10be 1503 db3c 1af0 28bc
00000040: 5c2a 91bd 7678 11be 123b 053e 7af1 8cbd
00000050: d221 40bc 78dd aebb 61a3 613d 1169 073c
00000060: 7e85 fd3d 8b40 cfbd 6e65 e8bd 97ac a73d
00000070: 8790 503d 32ba 8abd d591 3abd 1333 ce3d
00000080: c44f 3bbd 9de2 03be b889 c7bd 293c e23c
00000090: a818 9a3d 2488 fc3d b0c6 1b3e ece9 e7bd
000000a0: 54bc 153d 4165 c6bd 8f5b 68bc 52f2 d13d
000000b0: ab15 643d 2b78 37bd f818 923c 6543 2abd
000000c0: b20d 063e 3ac3 a73d 5803 d9bd 4cb7 4cbd
000000d0: e956 0a3e 9968 383e e63a 78bd 67d2 bdbd
000000e0: 01ce aabd 185a 2abd f8bb 443d b5a8 ae3c
000000f0: 843a cbbd 4a35 66bd a92d bfbb 68b6 163e
00000100: 7c3e bb3c 0f26 073e d15c e33d 8c39 0e3e
00000110: 3767 893d 4102 3fbd b92d 39bd a1e0 0aba
00000120: 16a8 9cbd 6653 30bd ceb2 d83c ccf1 073e
00000130: 63d0 c33d 1c1c 0cbd 7aa7 8b3d 3bed 27bc
00000140: f6f8 c3bc f9bf 10be d07a 1b3e 7138 e13d
00000150: 8402 cc3d 1bc9 d13b 06ce 053d 2df2 cf3b
00000160: a93e 013e d44b e63d 8514 cebd c2b9 28bd
00000170: 60dd 96bd e6c6 39bd ec11 93bd 5203 fc3d
00000180: 5107 dfbd 0d67 5abd 5fa1 15be 4bb4 9b3d
00000190: e8cd c33d d0d0 bcbd 403d 7d3a 4bdd 87bd
000001a0: 132b e33d 91b5 e03d 2aaf 60ba 251a 613d
000001b0: cb69 11be f627 9d3c 6fac 28bb 6073 733d
000001c0: 7d0f 0f3e 63c2 05bd 28c6 bfbd bad5 dabc
000001d0: e090 293c cefd 633d ea65 173e a6ba aa3d
000001e0: a2e5 01be 0089 233d 6d28 533d c0e7 0d3e
000001f0: ae16 0e3e 6ede 923d 6494 d9bd 9893 283d
00000200: 42d9 0dbe 7ace 853d 51cc b23d 7ff4 41bc
00000210: a16f e13d e7fe b9bd f43a 20bd 094b 99bd
00000220: fb9c 263d fc5e 433d 671a 83bd 2978 aebd
00000230: ec51 c3bd 0917 a7bc 0615 153b 89c9 1abd
00000240: b9a1 01bd af69 95bd 7ccd dc3d c967 833d
00000250: b607 043e 346a c33d 199b b63d 047c b63c
00000260: a12b c13c 4a56 163e 4cba f73d 2e69 80bd
00000270: 9e2b 08be 0ed0 ddbd 6f16 bfbd 45ab d1bd
00000280: 92f4 1c3e 3023 17be 899b a53d efad 16be
00000290: 3e0a 023e a246 41be e091 c13d dfd4 d6bd
000002a0: 12c1 c2bd ddba be3d 69ff 9abd c9ed 8fbc
000002b0: 154e 9dbd 8125 fc3d d430 703d e0a1 e13d
000002c0: 1293 2b3c fcf3 023e ed7c 8bbd 9a07 02be
000002d0: c026 353d b003 0abe b290 063e 57c3 44bc
000002e0: 058d 00be a7b4 1f3e 279e 693d 1835 aabc
000002f0: a33e 1e3d 6335 da3d b984 fe3d 3fc8 0b3d
00000300: 57d7 1abe 670a e7bd 7898 053e 3154 67bc
00000310: 7f24 aebc 0c03 9a3d a8f1 db3d 0186 f6bd
00000320: c4e0 dcbd f96b 023e 6933 61bd b308 95bd
00000330: 1bfa a33d e67a 42bd 2cde fd3b 8f82 01be
00000340: 51ef 78bd 6e67 7c3d db45 1c3d 844d 35be
00000350: 2072 803d ba1f f43d 37dd 2abd 03be ebbd
00000360: 8563 23bd bc5a 593d 0e77 9ebd 4cd9 2bbd
00000370: f2fb e5bd bed9 763d 778b 243d e427 03be
00000380: ca34 693d d609 003e c628 c9bc d98a cdbd
00000390: 3acd 16be d1f0 cebd 3740 07bd b2de fabb
000003a0: 2823 0bbe 23aa d0bd 35d0 03be d840 54bd
000003b0: c75d ebbd 8948 debd dae8 a93d 7c59 523d
000003c0: b65c 01be 3fbf eb3d 5a46 373d db0e 9d3d
000003d0: 0380 8bbd 2abb d1bd f6cf 3e3b ef35 a8bd
000003e0: 1917 e03d e5da b83d 41a6 16bd c37c 503d
000003f0: d2a0 f2bd d5ec d73d 0962 c33d 01c2 d73c

layers.1.bias f4 [128]
0.032614887 0.0846625 0.073176086 -0.050300438 -0.07009068 -0.06757206 -0.012994575 0.080326825
-0.004118325 -0.018542182 0.017588569 0.017658874 0.0032399162 0.076787286 0.08009758 -0.0044575166
0.035982687 0.07071261 -0.065506674 -0.021412518 -0.021932388 -0.06187106 -0.047574125 -0.004567624
-0.055413928 -0.08201162 0.08524546 0.04090243 0.032452766 0.018517992 0.052005574 -0.022029402
-0.02197411 -0.003353144 -0.05581326 -0.087728605 -0.045067817 0.058949143 0.036460817 -0.0816728
0.017101115 0.013307531 0.087765336 0.11594937 -0.06705995 0.026266405 -0.03268378 0.029274741
0.001641622 0.03476838 0.034481697 -0.060641058 0.014238044 0.001861345 0.031822566 0.06314906
-0.094165675 0.08175581 0.0836607 0.03219525 0.08151119 -0.061161015 0.06939559 -0.09982807
-0.025486609 0.07654249 0.069392525 -0.075170614 -0.021493645 0.06052732 -0.03440957 0.035119597
0.0031618504 0.070158914 -0.08721272 0.024898548 -0.0546842 -0.08506443 -0.041918863 -0.04277661
-0.058886472 -0.030997401 0.0297361 -0.034402244 -0.113696724 0.07774178 -0.013652933 0.015985329
-0.03656088 0.027392011 -0.07983252 -0.032388367 -0.037957717 -0.029532349 -0.049258962 0.07457829
-0.04440713 -0.059634678 -0.04233097 -0.038698733 0.031931482 0.018659923 -0.09034279 0.04489963
0.047810137 -0.06620457 -0.07068694 0.16006559 -0.051553458 0.06155294 -0.059254795 0.0014429723
-0.017183067 0.064081594 0.05117132 -0.042995065 0.027621597 -0.04409892 0.09253156 0.047495842
0.059251644 0.04312888 0.012750967 -0.0050262967 -0.076591834 0.051388286 -0.03516096 0.075506665
00000000: 3097 053d 8863 ad3d 58dd 953d d507 4ebd
00000010: b48b 8fbd 3863 8abd 33e7 54bc 6482 a43d
00000020: 04f3 86bb c6e5 97bc e715 903c 58a9 903c
00000030: c654 543b a742 9d3d 330a a43d 5c10 92bb
00000040: 9562 133d c6d1 903d 5d28 86bd 4e69 afbc
00000050: 8dab b3bc 826c 7dbd 16dd 42bd 02ac 95bb
00000060: b7f9 62bd b5f5 a7bd 2c95 ae3d 4e89 273d
00000070: 31ed 043d 0bb3 973c cc03 553d 0177 b4bc
00000080: 0c03 b4bc 6cc0 5bbb 729c 64bd 0eab b3bd
00000090: 0899 38bd a874 713d f057 153d 1244 a7bd
000000a0: a317 8c3c d507 5a3c 50be b33d dd76 ed3d
000000b0: ba56 89bd a52c d73c 6ddf 05bd 95d1 ef3c
000000c0: b22b d73a 4a69 0e3d ae3c 0d3d c262 78bd
000000d0: af46 693c 60f8 f33a 6158 023d 4b54 813d
000000e0: efd9 c0bd 976f a73d 4d56 ab3d 2bdf 033d
000000f0: 57ef a63d f983 7abd 461f 8e3d a972 ccbd
00000100: 4bc9 d0bc 4fc2 9c3d ab1d 8e3d 0df3 99bd
00000110: 7113 b0bc 7feb 773d 0df1 0cbd 91d9 0f3d
00000120: 0c37 4f3b 7aaf 8f3d 959c b2bd 0af8 cb3c
00000130: 8afc 5fbd 4336 aebd 1db3 2bbd 8736 2fbd
00000140: f132 71bd 43ee fdbc 1f99 f33c 5ee9 0cbd
00000150: d4d9 e8bd 1537 9f3d 8db0 5fbc aaf3 823c
00000160: dcc0 15bd 3665 e03c 3b7f a3bd aaa9 04bd
00000170: 8d79 1bbd d3ed f1bc c4c3 49bd 81bc 983d
00000180: 40e4 35bd 7e43 74bd 3d63 2dbd 9082 1ebd
00000190: 96ca 023d b2dc 983c a405 b9bd ade8 373d
000001a0: 90d4 433d 4396 87bd 50c4 90bd 3ce8 233e
000001b0: b829 53bd f01e 7c3d 28b5 72bd 1e22 bd3a
000001c0: 81c3 8cbc 363d 833d 0599 513d 981b 30bd
000001d0: b046 e23c 12a1 34bd 3081 bd3d 008b 423d
000001e0: dab1 723d e9a7 303d 6fe9 503c a2b3 a4bb
000001f0: 2edc 9cbd 867c 523d f004 10bd 3da3 9a3d

layers.2.weight f4 [128, 128]
0.09591632 0.022495145 -0.0011896243 -0.03274744 -0.03613776 0.09667817 -0.015850456 -0.0013637794
-0.054314747 0.093933046 -0.04311698 -0.0077853766 0.028425056 0.103656165 0.121455796 0.109942235
0.037806936 -0.124940336 0.06513435 -0.07750741 -0.06704403 -0.011570726 -0.009781369 0.0896248
-0.13187623 -0.06231256 0.05726194 -0.089406714 -0.119070336 -0.11989207 -0.094079986 -0.17878892
-0.148603 -0.15770593 0.053104576 -0.1205107 -0.041254815 -0.086180665 -0.025785707 0.06922534
-0.025518347 -0.13470885 0.052939035 0.12101266 0.06833541 -0.10413746 -0.13819955 -0.05587088
-0.034400005 0.032051757 -0.07394033 -0.109421 0.035904765 0.09409035 -0.13047998 -0.06748709
0.09303294 -0.16908197 -0.0074869297 -0.03536805 -0.14624634 -0.08744611 0.096784085 -0.046406984
-0.065245084 0.10416351 0.055857345 -0.08943741 -0.03263013 -0.08196715 0.10262337 0.09361991
-0.1446266 0.14932717 -0.16988447 0.07729415 0.12593281 -0.118889675 -0.04286704 0.07238991
-0.10799299 -0.0388568 -0.028788269 0.115397245 -0.030076448 -0.115068555 0.12339997 0.052183874
0.10681681 0.04465456 0.12560056 -0.06526442 -0.022892484 -0.1113335 -0.12606591 -0.14661232
0.083714016 -0.06611931 -0.048416067 0.028081942 -0.12550633 0.038633145 -0.0017236789 -0.16321588
0.1314953 -0.057283632 -0.1010043 0.14174372 0.103368275 0.03231267 0.08727713 0.10235784
-0.106769405 -0.026680136 0.121256985 -0.050882082 0.10651246 -0.027156346 0.045256887 -0.10353564
-0.0007778399 -0.08289839 -0.13502207 0.016257273 0.0888141 -0.009397664 -0.12832789 -0.14228365
0.15940829 -0.102831446 0.026545288 -0.08919689 -0.089890026 0.09040133 0.005104271 0.08676673
-0.13001148 0.023307195 -0.13539822 0.014474799 0.076572165 -0.09683399 -0.07830987 0.11045127
-0.030222189 -0.15313523 0.024775403 -0.07987973 0.031210467 0.09796754 -0.08071246 0.14828426
-0.010762025 -0.031673674 0.010981752 0.014164353 -0.059880767 0.050236516 0.12323589 0.09906103
-0.013909043 0.07604172 -0.05794679 0.15525433 0.05464933 0.021911612 -0.040489126 0.03834514
0.13151893 0.15747327 0.109486476 0.12702997 -0.12956873 0.07310736 -0.12226986 0.07576495
-0.15853202 -0.0036706803 0.0455658 0.084474556 -0.024896787 0.092149355 -0.13853782 0.05645659
0.043064125 -0.12801567 -0.06904747 -0.056640625 0.030331392 0.07111366 -0.08975868 -0.09786705
0.01578506 0.06702801 0.12576382 0.09655602 -0.034470614 -0.060333617 0.1307002 -0.06495986
0.07021337 -0.05281845 0.11306482 0.11851221 -0.015851399 -0.08303043 -0.11284885 -0.13324724
-0.14631797 0.10500813 -0.039590888 0.028964842 -0.028027644 0.08584677 -0.041672997 -0.0018060473
0.046294816 0.0071312096 -0.00670732 -0.12014781 -0.12099147 0.02862867 0.07808262 0.0042009284
-0.07686852 0.0701525 0.056267764 0.11694325 0.09967431 -0.025904847 0.07403588 -0.12680721
-0.0289901 0.02675598 -0.041595843 -0.034114182 0.12750393 -0.10200194 0.026642613 0.0070472085
0.022091458 0.011020346 0.09310231 0.11693318 -0.117559485 0.08810913 -0.10629544 0.031661853
0.041198753 0.019256294 0.07617179 -0.03161929 0.10149387 0.053179555 0.14565165 0.13001917
00000000: c76f c43d bd47 b83c 2bed 9bba 2e22 06bd
00000010: 3005 14bd 34ff c53d d1d8 81bc d8c0 b2ba
00000020: 2479 5ebd f85f c03d 6e9b 30bd 791c ffbb
00000030: aadb e83c af49 d43d d1bd f83d 6529 e13d
00000040: 72db 1a3d b8e0 ffbd 2865 853d 34bc 9ebd
00000050: 614e 89bd 2493 3dbc 0942 20bc 358d b73d
00000060: 900a 07be 743b 7fbd 7f8b 6a3d de1a b7bd
00000070: 26db f3bd f989 f5bd 02ad c0bd 7114 37be
00000080: 632b 18be aa7d 21be 2f84 593d 50ce f6bd
00000090: cffa 28bd 7d7f b0bd 8c3c d3bc 04c6 8d3d
000000a0: da0b d1bc 1ef1 09be 9ad6 583d 7cd5 f73d
000000b0: 6ff3 8b3d 0546 d5bd 2f84 0dbe ddd8 64bd
000000c0: 05e7 0cbd b448 033d 076e 97bd 1e18 e0bd
000000d0: e010 133d 71b2 c03d 8b9c 05be ac36 8abd
000000e0: 0e88 be3d d323 2dbe eb54 f5bb 17de 10bd
000000f0: 9ac1 15be f216 b3bd bc36 c63d 4015 3ebd
00000100: 379f 85bd ae53 d53d acca 643d f62a b7bd
00000110: 2ca7 05bd 65de a7bd 342c d23d ccbb bf3d
00000120: ff18 14be 39e9 183e 32f6 2dbe 654c 9e3d
00000130: 88f4 003e 6e7c f3bd 5995 2fbd 2941 943d
00000140: 6e2b ddbd 4f28 1fbd 60d5 ebbc 6455 ec3d
00000150: e262 f6bc 10a9 ebbd 20b9 fc3d c2be 553d
00000160: c6c2 da3d b3e7 363d 6f9d 003e 5aa9 85bd
00000170: 0589 bbbc d102 e4bd 6c17 01be 8a21 16be
00000180: 4172 ab3d 9069 87bd ed4f 46bd 1a0c e63c
00000190: bb84 00be ca3d 1e3d 11ed e1ba 1022 27be
000001a0: b4a6 063e 3ea2 6abd 58db cebd 4425 113e
000001b0: bfb2 d33d 4a5a 043d 5abe b23d fda0 d13d
000001c0: eba9 dabd 4d90 dabc 9555 f83d bb69 50bd
000001d0: 3423 da3d fc76 debc 495f 393d 7e0a d4bd
000001e0: f4e7 4bba a2c6 a9bd 3a43 0abe f92d 853c
000001f0: 2be4 b53d a9f8 19bc 6368 03be ceb2 11be
00000200: ed3b 233e 4b99 d2bd 8175 d93c dcac b6bd
00000210: 4318 b8bd 5524 b93d bb41 a73b c1b2 b13d
00000220: bb21 05be bbee be3c d5a5 0abe b527 6d3c
00000230: ded1 9c3d e650 c6bd ed60 a0bd 4734 e23d
00000240: 8694 f7bc 7bcf 1cbe c9f5 ca3c fc97 a3bd
00000250: 18ad ff3c 35a3 c83d 934c a5bd d4d7 173e
00000260: 3453 30bc 41bc 01bd ceec 333c 9a11 683c
00000270: 8945 75bd cec4 4d3d 1963 fc3d 82e0 ca3d
00000280: c1e2 63bc c3bb 9b3d 9d59 6dbd fefa 1e3e
00000290: fad7 5f3d fb7f b33c edd7 25bd cb0f 1d3d
000002a0: e6ac 063e ac40 213e 723a e03d 2514 023e
000002b0: aaad 04be 50b9 953d 9f68 fabd a72a 9b3d
000002c0: 3856 22be cc8f 70bb 34a3 3a3d ff00 ad3d
000002d0: 59f4 cbbc cdb8 bc3d dcdc 0dbe 063f 673d
000002e0: 0264 303d 8a16 03be c368 8dbd 0000 68bd
000002f0: 8a79 f83c 0aa4 913d 66d3 b7bd 856e c8bd
00000300: ac4f 813c fb45 893d 3bc8 003e 2abf c53d
00000310: 0f31 0dbd 6220 77bd 46d6 053e ad09 85bd
00000320: 07cc 8f3d 2958 58bd 878e e73d 88b6 f23d
00000330: cbda 81bc dc0b aabd 4c1d e7bd f771 08be
00000340: 61d4 15be 810e d73d 0e2a 22bd ad47 ed3c
00000350: 3b9a e5bc 6ed0 af3d 4eb1 2abd e4b8 ecba
00000360: a29f 3d3d ecac e93b 14c9 dbbb 0e10 f6bd
00000370: 60ca f7bd ac86 ea3c c8e9 9f3d f1a7 893b
00000380: 3e6d 9dbd 1dac 8f3d 0779 663d f17f ef3d
00000390: 0b22 cc3d 6736 d4bc 20a0 973d c0d9 01be
000003a0: a57c edbc 5b2f db3c 6760 2abd 50bb 0bbd
000003b0: 6490 023e 65e6 d0bd 9c41 da3c 45ec e63b
000003c0: 25f9 b43c ae8e 343c 6dac be3d aa7a ef3d
000003d0: 07c3 f0bd 8f72 b43d 6cb1 d9bd dcaf 013d
000003e0: 06c0 283d 60bf 9d3c f5ff 9b3d 3b83 01bd
000003f0: 05dc cf3d ced2 593d b525 153e bf23 053e

layers.2.bias f4 [128]
-0.05237446 -0.019661937 0.050139386 0.102292925 -0.04294391 0.012178996 -0.07960414 0.062424965
-0.018253012 -0.043154914 0.08419593 -0.07490342 -0.0848185 0.0013306675 -0.048131716 -0.05654999
-0.0640132 -0.06370668 0.008568064 -0.08552226 -0.058512606 0.07345567 -0.049891084 -0.0052155536
-0.061693966 -0.010568772 -0.10826869 0.019084193 0.048441146 0.0005244025 0.049290888 0.07345241
-0.013395823 -0.06738158 0.05091831 -0.07038233 -0.084125385 -0.012382443 -0.06273442 0.04499881
-0.0035485644 0.043795016 -0.023222195 0.028855119 -0.034629267 -0.025619848 0.05201817 -0.023740437
-0.10488019 -0.063664876 -0.0982456 -0.07908794 -0.084695846 0.040202595 -0.0910435 -0.10382746
0.05211144 -0.042438764 -0.028235314 0.015770867 0.0033922126 -0.030780567 0.02382423 0.07501933
0.08122132 -0.012809876 -0.03227463 -0.031832047 -0.085743785 0.09240143 0.07068601 0.02030375
0.02876612 -0.023371123 -0.011658326 -0.058383536 0.06751208 -0.065367796 0.08889957 0.025680324
-0.07716781 0.00015798841 0.053410392 -0.01770648 -0.05588102 0.08845156 0.05374959 -0.07692011
-0.07040664 -0.00084504543 0.02833128 0.04739236 -0.07546008 0.014381634 0.045671284 0.054480355
0.019836966 -0.09285874 -0.07186202 0.0053381687 -0.067780904 -0.09250432 0.014687273 -0.053448576
-0.016786296 0.04188102 -0.03793792 0.033175204 -0.07158861 -0.070195876 0.119471624 0.0836
-0.09118337 0.017776998 -0.072201885 -0.07530554 -0.082137525 0.07022987 -0.057139613 -0.055784855
0.089315645 -0.026413752 -0.06998661 -0.06894934 0.04446919 0.09034348 -0.07069377 -0.06046753
00000000: 9a86 56bd 1212 a1bc f55e 4d3d f47e d13d
00000010: f4e5 2fbd 698a 473c 7f07 a3bd 52b1 7f3d
00000020: 5787 95bc 35c3 30bd ea6e ac3d f766 99bd
00000030: 52b5 adbd cb69 ae3a c325 45bd f6a0 67bd
00000040: 5a19 83bd a678 82bd 1161 0c3c 4b26 afbd
00000050: eaaa 6fbd ed6f 963d 985a 4cbd 3ce7 aabb
00000060: d0b2 7cbd a528 2dbc fabb ddbd 7456 9c3c
00000070: 396a 463d 0e78 093a 3ee5 493d 386e 963d
00000080: 277a 5bbc 5bff 89bd b88f 503d 9c24 90bd
00000090: ee49 acbd bbdf 4abc e77a 80bd ac50 383d
000000a0: 088f 68bb 6762 333d 793c bebc 9261 ec3c
000000b0: 6bd7 0dbd b7e0 d1bc 0111 553d 4e7b c2bc
000000c0: 6dcb d6bd bb62 82bd fd34 c9bd dcf8 a1bd
000000d0: 0475 adbd 7aab 243d 0475 babd 7ea3 d4bd
000000e0: ce72 553d 45d4 2dbd bf4d e7bc e831 813c
000000f0: e24f 5e3b 8727 fcbc 082b c33c bca3 993d
00000100: 5d57 a63d 84e0 51bc 6732 04bd 5262 02bd
00000110: 709a afbd f63c bd3d d4c3 903d 0d54 a63c
00000120: eda6 eb3c cc74 bfbc 9002 3fbc 9323 6fbd
00000130: c643 8a3d 8ddf 85bd fa10 b63d 8b5f d23c
00000140: 280a 9ebd b1a9 2539 dbc4 5a3d 2e0d 91bc
00000150: 7fe3 64bd 1726 b53d 8828 5c3d 4a88 9dbd
00000160: 5b31 90bd 0a86 5dba 0017 e83c 7e1e 423d
00000170: d08a 9abd f2a0 6b3c d011 3b3d cb26 5f3d
00000180: 2281 a23c b92c bebd 652c 93bd ceeb ae3b
00000190: b7d0 8abd e872 bdbd e3a2 703c e5ec 5abd
000001a0: 6a83 89bc 6f8b 2b3d cb64 1bbd b9e2 073d
000001b0: 0d9d 92bd dbc2 8fbd 8aad f43d 7a36 ab3d
000001c0: 59be babd 11a1 913c 95de 93bd ca39 9abd
000001d0: b837 a8bd aed4 8f3d 3a0b 6abd a97e 64bd
000001e0: 1feb b63d a761 d8bc 2455 8fbd 5035 8dbd
000001f0: 5325 363d 0106 b93d e5c7 90bd cdac 77bd

layers.3.weight f4 [128, 128]
-0.132776 0.006763461 0.08387692 0.14981312 0.025103355 0.1132159 0.100052714 -0.07839444
0.1032767 0.1312955 -0.11284212 -0.013874881 0.11573679 -0.14318396 0.074351475 -0.09939358
-0.015167633 0.1598962 -0.11135956 -0.040259466 -0.07619495 -0.020719355 -0.09760341 -0.13068952
-0.050771 0.015574174 -0.12618276 0.074854985 -0.119556226 0.14206119 -0.021954998 -0.08044945
-0.10255996 0.04365927 -0.097740464 0.10099292 0.13860612 0.16020414 -0.016879931 0.08642315
-0.011033229 -0.14751802 -0.11662949 -0.040470272 0.010654745 0.040997393 0.0075510056 0.12679431
0.062234774 -0.1405608 0.06680061 0.026564023 0.09689567 -0.18552108 0.049617477 0.065421686
0.1196737 0.11295267 -0.13033646 -0.12796533 0.039507434 0.09232457 0.1287066 -0.09245258
-0.14325434 0.06051795 0.01728481 -0.10945509 0.06523886 -0.08481228 0.045435175 -0.14515871
-0.028841982 0.07369621 -0.034285195 0.046025515 -0.0764319 -0.08064852 -0.0107138585 0.014331433
0.06830235 -0.07537369 0.0070628994 -0.080062866 0.016216896 -0.12020753 0.11739675 0.0868957
0.09608184 -0.13571069 -0.14859308 0.007103097 0.0023724972 -0.09384292 -0.12018855 -0.02347496
-0.06860599 -0.047501054 0.040725283 -0.015650926 0.07901703 -0.06281327 -0.0400948 -0.021614574
0.023933996 -0.07376789 -0.15732418 -0.15257184 -0.15349337 -0.018054852 0.109080225 0.046047848
0.045343377 0.017592588 0.13152269 0.07534511 -0.02670825 0.14315057 -0.022382785 0.02977327
0.02796007 -0.07288329 0.14099081 0.12851374 0.072398044 -0.09419497 0.11350019 -0.044124253
0.04447016 -0.12430166 0.09080226 0.16551152 -0.05652853 0.08802164 0.06282994 0.12460482
-0.0074837143 -0.06364925 -0.1412079 -0.02747842 0.13645072 0.018048959 0.04183833 0.09702834
-0.03695851 -0.017304584 0.110307075 0.14100698 0.11743924 0.037866246 -0.12958877 0.13924883
0.008342221 -0.0025705234 -0.0024166217 0.112394914 -0.094098486 -0.09714827 0.028535003 0.12267946
0.06640479 0.14434294 0.10774573 0.07297966 -0.027411023 -0.026705954 -0.093485326 0.035023116
0.1647085 0.044497762 0.050138526 0.021720428 -0.003229947 0.06616524 0.11457697 0.0225426
0.08494243 0.14726105 -0.07344396 0.13722888 -0.15804377 0.08550861 -0.061176334 0.093063705
0.047331523 -0.067548655 0.12906344 -0.15140463 0.013798175 0.14970855 -0.15086326 0.13490659
-0.11884227 -0.036215108 -0.008798866 -0.006598432 0.10515621 0.08346162 -0.112421 -0.15451692
0.13707398 -0.05612845 0.13705231 0.05920271 0.026357338 0.14639145 0.0979086 0.005710735
0.13034795 0.113527566 -0.094969235 0.12192976 -0.11065402 0.0990756 0.05987174 -0.03383359
0.129699 0.033846494 0.11281893 0.013439196 -0.08660748 -0.058405414 -0.01117973 -0.029187236
0.01848119 -0.07591241 0.07784151 0.12002687 -0.01705378 0.061519958 -0.12062159 0.02928484
-0.08193835 0.112783514 0.11638594 0.1145721 0.017679293 -0.08381933 0.1416664 -0.13136236
-0.0024648593 0.036212828 0.06463428 -0.07665542 0.046917256 -0.016174799 0.064480476 0.114295766
-0.071314365 0.014786584 -0.14417456 0.05049602 -0.08046817 0.08321932 0.01787189 -0.011228983
00000000: 6ff6 07be 06a0 dd3b aac7 ab3d 9c68 193e
00000010: 8da5 cd3c bddd e73d 70e8 cc3d 448d a0bd
00000020: bc82 d33d 5472 063e c519 e7bd 7853 63bc
00000030: 6907 ed3d d19e 12be 9645 983d dc8e cbbd
00000040: aa81 78bc d4bb 233e 7b10 e4bd 1ce7 24bd
00000050: 190c 9cbd a3bb a9bc 4ce4 c7bd 79d3 05be
00000060: 41f5 4fbd d22a 7f3c 0e36 01be 924d 993d
00000070: e5d9 f4bd 7d78 113e f8da b3bc aec2 a4bd
00000080: f50a d2bd 10d4 323d 272c c8bd 60d5 ce3d
00000090: c3ee 0d3e 8e0c 243e c847 8abc 9ffe b03d
000000a0: b7c4 34bc f70e 17be 71db eebd 28c4 25bd
000000b0: 3d91 2e3c e2ec 273d 6d6e f73b 5ed6 013e
000000c0: e4e9 7e3d 2cef 0fbe c2ce 883d cb9c d93c
000000d0: 3d71 c63d 3df9 3dbe b23b 4b3d cefb 853d
000000e0: 7c17 f53d bb53 e73d ec76 05be 5809 03be
000000f0: 8cd2 213d aa14 bd3d aacb 033e c757 bdbd
00000100: 44b1 12be ace1 773d e098 8d3c fd29 e0bd
00000110: f49b 853d 10b2 adbd 3c1a 3a3d 7ca4 14be
00000120: 0546 ecbc 0aee 963d a26e 0cbd 4085 3c3d
00000130: 5488 9cbd 0d2b a5bd 2e89 2fbc 63ce 6a3c
00000140: 1ae2 8b3d 855d 9abd e56f e73b 00f8 a3bd
00000150: 4cd9 843c 5e2f f6bd b56d f03d 5ff6 b13d
00000160: 8ec6 c43d bef7 0abe c928 18be 19c1 e83b
00000170: e67b 1b3b b830 c0bd 6a25 f6bd 8f4e c0bc
00000180: 4c81 8cbd 7790 42bd 8ecf 263d 5f36 80bc
00000190: aed3 a13d 3ea4 80bd 723a 24bd 0c11 b1bc
000001a0: 3a11 c43c 9f13 97bd 9719 21be cb3b 1cbe
000001b0: 5e2d 1dbe c5e7 93bc 7465 df3d ab9c 3c3d
000001c0: fab9 393d 551e 903c e2ad 063e 894e 9a3d
000001d0: 43cb dabc 1096 123e 1a5c b7bc 13e7 f33c
000001e0: 840c e53c d643 95bd e55f 103e 1b99 033e
000001f0: 6d45 943d 4be9 c0bd ca72 e83d a2bb 34bd
00000200: 5826 363d de91 febd 89f6 b93d da7b 293e
00000210: 768a 67bd b144 b43d fcac 803d d030 ff3d
00000220: f239 f5bb 8a5a 82bd ce98 10be 6c1a e1bc
00000230: bdb9 0b3e 69db 933c ab5e 2b3d cbb6 c63d
00000240: ce61 17bd 58c2 8dbc ade8 e13d 2264 103e
00000250: fc83 f03d a319 1b3d ebb2 04be 3f97 0e3e
00000260: d0ad 083c 3a76 28bb 2f60 1ebb 4e2f e63d
00000270: b5b6 c0bd acf5 c6bd 3dc2 e93c 5e3f fb3d
00000280: 3cff 873d a3ce 133e cba9 dc3d 5c76 953d
00000290: 158d e0bc 72c6 dabc 3c75 bfbd 6674 0f3d
000002a0: 58a9 283e 4943 363d 0e5e 4d3d 0aef b13c
000002b0: 85ad 53bb a481 873d 55a7 ea3d 42ab b83c
000002c0: 4cf6 ad3d 9acb 163e c969 96bd ba85 0c3e
000002d0: 3ad6 21be 231f af3d 0994 7abd 2f98 be3d
000002e0: b3de 413d f356 8abd 3529 043e d109 1bbe
000002f0: be11 623c 334d 193e e67b 1abe f424 0a3e
00000300: 9363 f3bd 4b56 14bd 1e29 10bc a937 d8bb
00000310: 245c d73d eded aa3d fb3c e6bd af39 1ebe
00000320: 1f5d 0c3e f2e6 65bd 7157 0c3e 8a7e 723d
00000330: 58eb d73c a4e7 153e 4e84 c83d 1e21 bb3b
00000340: ef79 053e 2481 e83d 3b7f c2bd 4fb6 f93d
00000350: 939e e2bd 26e8 ca3d 123c 753d 1795 0abd
00000360: d1cf 043e 9fa2 0a3d 9c0d e73d 1330 5c3c
00000370: 435f b1bd 843a 6fbd 302b 37bc 121a efbc
00000380: dd65 973c f777 9bbd 5f6b 9f3d a6d0 f53d
00000390: 5eb4 8bbc 5afc 7b3d 7408 f7bd c3e6 ef3c
000003a0: 4bcf a7bd 0bfb e63d c05b ee3d c7a4 ea3d
000003b0: 2ad4 903c 78a9 abbd ff10 113e db83 06be
000003c0: 7a89 21bb e753 143d fa5e 843d 84fd 9cbd
000003d0: 4f2c 403d 0381 84bc 570e 843d e613 ea3d
000003e0: 440d 92bd 6e43 723c 7fa2 13be ead4 4e3d
000003f0: 7fcc a4bd e46e aa3d 1268 923c c5f9 37bc

layers.3.bias f4 [128]
-0.09576185 -0.08481257 -0.013429013 0.019090457 -0.04892043 -0.07429132 -0.021142747 -0.011807883
0.02016478 0.094433054 0.030534774 0.08200601 0.05585613 0.055895176 -0.016708985 -0.082476534
-0.043567818 -0.008306058 0.022095092 0.035045587 -0.008857451 -0.059360288 -0.027044276 -0.0446906
-0.048836377 -0.052215967 0.021566557 -0.10112729 0.021319227 -0.07633759 -0.052335985 -0.0935706
0.043487176 0.09184402 -0.081458 0.061038084 -0.045861665 0.02091322 0.0406677 -0.02117177
0.012081601 -0.04283219 -0.053392325 0.074722 0.0018937284 0.00766357 0.015680708 -0.04011415
0.06819447 0.00772607 0.027311033 0.07196594 0.062034797 -0.078868784 0.06481508 0.013734725
-0.04067031 -0.06475169 0.00865434 -0.013876871 0.004248711 -0.03584456 -0.0034969852 0.052575726
-0.053692687 -0.03612923 -0.012324375 0.07301403 0.020022903 0.06748233 -0.024154328 -0.015648546
0.031602327 -0.04624851 -0.080425404 0.08339385 -0.0024307745 -0.0051022978 0.054162577 0.05430434
-0.028372994 -0.034970623 -0.05140752 0.08357653 -0.04111005 -0.05037056 -0.024091598 0.049279228
0.03353191 -0.04272124 -0.021409566 0.084064305 0.07256742 0.076853044 -0.06018532 -0.02673286
-0.042230282 0.081722885 -0.048885085 -0.05130746 0.04798161 -0.088363074 0.029407363 0.017099895
0.07906828 0.0628121 0.03596052 0.093729906 0.022382198 0.05300872 -0.10839643 0.06472575
0.016508467 0.048976295 -0.0139198005 0.0031499623 -0.071575135 -0.07909203 -0.041636527 -0.07077065
0.011726407 0.004672877 -0.0794929 0.08689299 -0.00017485098 0.015366807 -0.043908156 0.061442323
00000000: ca1e c4bd 36b2 adbd 5d05 5cbc 9763 9c3c
00000010: ca60 48bd 0c26 98bd 8e33 adbc da75 41bc
00000020: 9c30 a53c 1e66 c13d 1024 fa3c c4f2 a73d
00000030: 66c9 643d 57f2 643d 48e1 88bc 75e9 a8bd
00000040: 2b74 32bd 2216 08bc c400 b53c f68b 0f3d
00000050: d81e 11bc c623 73bd f58b ddbc 7e0d 37bd
00000060: a708 48bd 69e0 55bd 59ac b03c d31b cfbd
00000070: a9a5 ae3c e256 9cbd 425e 56bd f1a1 bfbd
00000080: 9c1f 323d b818 bc3d 74d3 a6bd 1203 7a3d
00000090: 71d9 3bbd 3352 ab3c 2d93 263d 6b70 adbc
000000a0: e8f1 453c ce70 2fbd e9b1 5abd d907 993d
000000b0: fb36 f83a af1e fb3b d474 803c bc4e 24bd
000000c0: 8ba9 8b3d f92a fd3b 63bb df3c e162 933d
000000d0: 3318 7e3d f585 a1bd c5bd 843d 9d07 613c
000000e0: e995 26bd 899c 84bd efca 0d3c d15b 63bc
000000f0: c538 8b3b bfd1 12bd ad2d 65bb a559 573d
00000100: ddec 5bbd 3efc 13bd 2dec 49bc 6188 953d
00000110: 1207 a43c 2d34 8a3d 4cdf c5bc 6131 80bc
00000120: 7171 013d 146f 3dbd 13b6 a4bd 65ca aa3d
00000130: a14d 1fbb 2d31 a7bb 94d9 5d3d 3a6e 5e3d
00000140: 7b6e e8bc 5b3d 0fbd b190 52bd 2c2a ab3d
00000150: 0363 28bd 5c51 4ebd be5b c5bc 04d9 493d
00000160: c258 093d 78fc 2ebd 1d63 afbc e829 ac3d
00000170: 3a9e 943d 2165 9d3d e284 76bd dffe dabc
00000180: a9f9 2cbd 545e a73d ba3b 48bd c527 52bd
00000190: 5d88 443d b3f7 b4bd b6e7 f03c 1415 8c3c
000001a0: 8dee a13d a1a3 803d 574b 133d 77f5 bf3d
000001b0: df5a b73c ac1f 593d f3fe ddbd ef8e 843d
000001c0: c43c 873c 5e9b 483d e00f 64bc 996f 4e3b
000001d0: fc95 92bd 01fb a1bd 108b 2abd 34f0 90bd
000001e0: 1e20 403c ef1e 993b 2ccd a2bd f4f4 b13d
000001f0: 3458 37b9 0fc5 7b3c 0ad9 33bd f2aa 7b3d

layers.4.weight f4 [128, 128]
0.00059727655 0.009101265 -0.08262379 0.012529145 0.13794252 -0.12851207 0.07478882 -0.040389504
-0.113736086 -0.083673336 0.13477868 -0.121614285 -0.09495908 0.00828683 0.022141019 -0.101184346
0.12359437 0.15871957 -0.035483997 0.08022392 0.027882775 -0.11464464 -0.14386907 -0.061559416
-0.017356718 -0.07979953 -0.031119648 -0.10848181 0.02434417 -0.046292927 0.07867366 0.04680793
-0.12932673 -0.12850706 0.084718116 -0.0035082984 0.10841778 0.07018664 0.046987742 -0.066449426
0.08873959 0.12605093 0.019731836 -0.04424771 0.03256025 -0.15242897 -0.14364769 0.13660388
-0.10420476 0.12093073 0.11879391 0.13708866 0.1280269 -0.10377281 0.12499272 -0.096432306
0.05142008 0.05537376 0.12232364 0.12242343 0.07951812 -0.058990784 -0.16178256 -0.00065940345
-0.034455966 0.0369712 -0.086127415 -0.14217594 -0.12395186 -0.023696158 -0.07783065 -0.054234013
-0.06954896 -0.14259721 -0.020483276 0.06937766 0.013847189 0.07366482 -0.05880976 -0.099604435
-0.12297573 -0.011520518 0.045459263 0.043050192 0.063426256 -0.024932293 0.024285598 0.12963818
-0.0040026926 -0.043957725 -0.10924791 -0.06919667 -0.13497595 -0.007837069 -0.06210132 -0.10211151
-0.07462579 -0.08563621 -0.1562238 0.14344661 -0.062778845 0.020857168 -0.09302685 -0.14028631
-0.108395524 -0.06795226 -0.03538239 -0.035143465 -0.1069669 -0.05306665 -0.09605855 -0.12222915
0.07337339 -0.12780993 -0.13623545 0.0038536855 -0.048757173 0.12405941 -0.07297794 0.12122766
0.018070327 -0.06905656 -0.017111098 0.06917128 0.031015843 -0.07597867 0.020769203 0.00798699
-0.03358214 -0.15286615 0.04358817 0.09631949 0.05413648 -0.015606355 0.05370539 -0.10184655
-0.13730544 0.09278313 -0.044860266 -0.021310184 -0.056780044 -0.027984127 -0.12827319 -0.11614293
-0.098018326 0.04553844 -0.021163775 -0.01887556 0.12534128 -0.005096777 -0.010435212 -0.017833723
-0.1450883 0.044097546 0.0153041165 0.06292458 -0.09331046 -0.045762207 -0.062945575 0.06897709
-0.023549465 -0.131431 0.09504293 0.09967469 0.0777758 0.014011873 -0.09940802 0.09813615
-0.09744034 0.007049548 -0.04387102 -0.031194549 -0.09340484 0.09384692 0.1571193 0.06961389
0.14964679 0.101038724 -0.106918685 -0.020986147 -0.01718561 0.10536575 0.09570814 -0.0042238734
-0.030621432 0.08468016 0.08232773 -0.023834195 -0.05025411 -0.14060797 0.06917794 0.12968577
0.12913655 0.058920108 -0.0924207 0.020479938 -0.063134596 -0.0766369 0.11390831 0.0031027189
-0.05147116 0.14105959 0.014059884 -0.10910475 -0.0680111 -0.0010043193 0.027343621 0.10143798
0.11705964 -0.10331468 -0.09982012 0.11329091 -0.14377016 0.021753931 -0.056237977 -0.11302238
-0.0014116792 -0.06836125 0.08592025 0.08240377 0.048518218 0.021717496 0.12320775 -0.018915027
0.047966182 0.038615994 -0.115988605 -0.12134326 0.08019388 0.097628534 0.020201823 -0.14329617
0.11521858 -0.030462312 -0.03446578 -0.090888746 0.07894259 -0.08508773 -0.11037579 0.062395822
0.09065087 -0.11744773 -0.009615164 -0.102959156 -0.12467168 0.14020306 -0.059872523 -0.07588324
0.05767725 -0.08693694 -0.02377547 -0.030445825 0.029013244 0.053229664 0.08539714 0.14518507
00000000: 8d92 1c3a 791d 153c a936 a9bd 0b47 4d3c
00000010: ce40 0d3e ab98 03be e22a 993d 776f 25bd
00000020: 77ee e8bd ed5c abbd 6c03 0a3e e910 f9bd
00000030: e879 c2bd 7cc5 073c 1561 b53c bd39 cfbd
00000040: 0c1f fd3d 6287 223e ab57 11bd 704c a43d
00000050: 6b6a e43c cfca eabd 6a52 13be ba25 7cbd
00000060: ad2f 8ebc f06d a3bd a2ee febc b62b debd
00000070: 6d6d c73c a79d 3dbd a81f a13d acb9 3f3d
00000080: 3a6e 04be 5b97 03be b180 ad3d 7beb 65bb
00000090: 240a de3d 03be 8f3d 3876 403d a316 88bd
000000a0: 1abd b53d 7f13 013e a9a4 a13c 163d 35bd
000000b0: e65d 053d 5716 1cbe 6118 13be e3e1 0b3e
000000c0: 4e69 d5bd 88aa f73d 394a f33d f860 0c3e
000000d0: 7c19 033e d786 d4bd 2ffc ff3d 4d7e c5bd
000000e0: dd9d 523d 99cf 623d d184 fa3d 23b9 fa3d
000000f0: 65da a23d 52a0 71bd 54aa 25be d1db 2cba
00000100: b321 0dbd 1d6f 173d 9263 b0bd 9296 11be
00000110: 79da fdbd 721e c2bc ad65 9fbd 7c24 5ebd
00000120: af6f 8ebd 0105 12be 8bcc a7bc e015 8e3d
00000130: 52df 623c 95dd 963d 81e2 70bd 69fd cbbd
00000140: b3da fbbd 8ec0 3cbc 7e33 3a3d 6655 303d
00000150: a0e5 813d cf3e ccbc 97f2 c63c dfbf 043e
00000160: 0529 83bb 040d 34bd 5ebd dfbd fcb6 8dbd
00000170: 2337 0abe 0d67 00bc f45d 7ebd d71f d1bd
00000180: 68d5 98bd 0a62 afbd 22f9 1fbe abe3 123e
00000190: 3292 80bd a7dc aa3c dc84 bebd 37a7 0fbe
000001a0: 79fe ddbd 8e2a 8bbd 20ed 10bd 98f2 0fbd
000001b0: 7611 dbbd 6a5c 59bd 58ba c4bd 4753 fabd
000001c0: ca44 963d 9be0 02be 4e81 0bbe 1d8e 7c3b
000001d0: 9ab5 47bd dc12 fe3d 7575 95bd 3546 f83d
000001e0: 3908 943c 876d 8dbd 932c 8cbc aca9 8d3d
000001f0: f014 fe3c b49a 9bbd 2d24 aa3c dddb 023c
00000200: 6d8d 09bd f288 1cbe 8289 323d 2743 c53d
00000210: 37be 5d3d ccb1 7fbc 2ffa 5b3d ed94 d0bd
00000220: cc99 0cbe 1505 be3d 66bf 37bd b292 aebc
00000230: 3192 68bd f83e e5bc 0c5a 03be 58dc edbd
00000240: d5bd c8bd 8486 3a3d a75f adbc eba0 9abc
00000250: 7759 003e dd02 a7bb 74f8 2abc 0718 92bc
00000260: 0792 14be a19f 343d 1ebe 7a3c 9ade 803d
00000270: 8e19 bfbd 2771 3bbd 9ce9 80bd dc43 8d3d
00000280: cfea c0bc d995 06be dea5 c23d 3e22 cc3d
00000290: eb48 9f3d 0e92 653c 6f96 cbbd 9bfb c83d
000002a0: cd8e c7bd e5ff e63b 19b2 33bd b68b ffbc
000002b0: 094b bfbd d032 c03d e2e3 203e ba91 8e3d
000002c0: 023d 193e 64ed ce3d 2ff8 dabd 24eb abbc
000002d0: d6c8 8cbc 00ca d73d a102 c43d 6b68 8abb
000002e0: ccd9 fabc cb6c ad3d 719b a83d ee3f c3bc
000002f0: 41d7 4dbd 89fb 0fbe 2aad 8d3d 59cc 043e
00000300: 5f3c 043e 3656 713d 1047 bdbd 8bc5 a73c
00000310: b64c 81bd cff3 9cbd c348 e93d fc56 4b3b
00000320: 6cd3 52bd ed71 103e 6d5b 663c 5072 dfbd
00000330: 6749 8bbd 5da3 83ba bbff df3c b7be cf3d
00000340: f7bc ef3d a696 d3bd 7e6e ccbd 1105 e83d
00000350: 7c38 13be 4d35 b23c cb59 66bd 4778 e7bd
00000360: 1808 b9ba fc00 8cbd f5f6 af3d 4fc3 a83d
00000370: 0abb 463d e4e8 b13c 5854 fc3d b0f3 9abc
00000380: 3078 443d ce2b 1e3d 6f8b edbd d182 f8bd
00000390: b03c a43d 78f1 c73d 4b7e a53c 3bbc 12be
000003a0: b8f7 eb3d 198c f9bc fd2b 0dbd e123 babd
000003b0: a7ac a13d 7a42 aebd b40c e2bd c392 7f3d
000003c0: 2aa7 b93d 6f88 f0bd ec88 1dbc 40dc d2bd
000003d0: de53 ffbd 6491 0f3e e43c 75bd ac68 9bbd
000003e0: fb3e 6c3d ff0b b2bd c6c4 c2bc 8669 f9bc
000003f0: 2fad ed3c 5907 5a3d b2e4 ae3d 65ab 143e

layers.4.bias f4 [128]
0.010713629 0.05476672 0.05045426 0.026521472 -0.06842624 0.077925816 -0.0050365175 0.0066880314
-0.0912018 -0.043548416 0.07708662 0.028514827 0.092273526 -0.021593625 -0.0008187144 -0.06756202
-0.032931034 0.024810603 0.031910967 -0.021793433 0.009187825 0.02262229 -0.015147006 0.096061006
-0.0035627468 -0.09935618 0.020278059 0.09386401 0.019841777 0.034893025 -0.0054002786 -0.01702803
-0.035908446 -0.010647898 -0.012683469 -0.029661316 0.07211057 0.0146415895 0.018952614 0.04039298
-0.08803228 0.03724186 0.0663064 -0.0052424166 -0.07086659 -0.06477812 -0.036535595 -0.022769015
0.060232297 0.015001518 0.04101647 -0.03896601 0.11915314 0.07065594 -0.06264568 0.020584995
-0.06441037 0.070615016 -0.045563906 0.057837337 0.056577444 -0.01656862 0.037969764 0.026401084
0.063868575 0.009197647 0.07132203 0.069999024 -0.04859704 0.06550117 -0.074731804 0.00043489508
-0.03435909 0.052609406 -0.053280566 0.011834088 -0.058231067 -0.08595448 0.088111594 0.0009443208
-0.040616903 -0.048513774 -0.035173222 -0.060301572 0.0041008955 -0.08301133 0.013012382 -0.07874297
0.014464303 0.041075956 -0.06452089 0.05793171 0.011195573 0.038542647 0.048548944 -0.06842727
0.08852094 0.08471975 -0.03138191 0.06515622 0.037131194 0.021257263 -0.08950041 0.046222795
-0.059202086 -0.04994045 -0.06536876 -0.04164004 0.048374876 -0.015326259 -0.012364835 0.034322523
0.0075195977 -0.045620177 0.061467074 -0.07693156 0.071667336 -0.04075483 -0.0011588751 0.032977827
-0.010979191 -0.029349895 0.04219587 0.0523207 0.04970854 0.050356817 0.017894814 0.04537939
00000000: 3888 2f3c 1153 603d 20a9 4e3d 8f43 d93c
00000010: 0e23 8cbd 9297 9f3d 5f09 a5bb 4627 db3b
00000020: 02c8 babd d35f 32bd 97df 9d3d ed97 e93c
00000030: e7f9 bc3d 1de5 b0bc fe9e 56ba f55d 8abd
00000040: b1e2 06bd 9b3f cb3c 13b5 023d 2488 b2bc
00000050: 8888 163c 6152 b93c 262b 78bc a2bb c43d
00000060: f97c 69bb 417b cbbd 2c1e a63c c63b c03d
00000070: 398b a23c fdeb 0e3d d2f4 b0bb 5e7e 8bbc
00000080: bc14 13bd 8574 2ebc 53ce 4fbc 4afc f2bc
00000090: b5ae 933d 47e3 6f3c 8342 9b3c 1c73 253d
000000a0: 454a b4bd ec8a 183d a6cb 873d 94c8 abbb
000000b0: 8122 91bd 64aa 84bd 59a6 15bd 1686 babc
000000c0: 24b6 763d edc8 753c e300 283d d39a 1fbd
000000d0: 9006 f43d 10b4 903d 614c 80bd dda1 a83c
000000e0: 96e9 83bd 9b9e 903d 38a1 3abd d8e6 6c3d
000000f0: c0bd 673d eaba 87bc 2f86 1b3d 1647 d83c
00000100: 87cd 823d bab1 163c 4911 923d a65b 8f3d
00000110: b10d 47bd 7a25 863d fd0c 99bd a102 e439
00000120: 1ebc 0cbd f67c 573d b93c 5abd c3e3 413c
00000130: b383 6ebd e708 b0bd da73 b43d 4c8c 773a
00000140: e95d 26bd 61b6 46bd cc11 10bd c8fe 76bd
00000150: ce60 863b d801 aabd e331 553c ff43 a1bd
00000160: affb 6c3c 433f 283d 8723 84bd cd49 6d3d
00000170: a36d 373c e5de 1d3d 42db 463d 9923 8cbd
00000180: 774a b53d 8c81 ad3d 518a 00bd a070 853d
00000190: e116 183d b623 ae3c fe4b b7bd 1d54 3d3d
000001a0: e37d 72bd 5b8e 4cbd 0ee0 85bd bf8e 2abd
000001b0: bc24 463d fd1a 7bbc e095 4abc c695 0c3d
000001c0: f566 f63b 39dc 3abd e6c4 7b3d 4b8e 9dbd
000001d0: 53c6 923d 89ee 26bd 65e5 97ba c213 073d
000001e0: 11e2 33bc 316f f0bc 94d5 2c3d 3b4e 563d
000001f0: 2f9b 4b3d f342 4e3d 2598 923c bddf 393d
