model_B/pinn_model165.pth (torch, 472610 bytes, 17 tensors)

layers.0.weight f4 [128, 6]
0	0x3e35720a	0.17719284
1	0xbdddf06b	-0.10836872
2	0x3e523bfe	0.20530698
3	0xbe3931b5	-0.18085368
4	0x3d6cd007	0.057815578
5	0x3d1a58bd	0.037682284
6	0x3e08a2d2	0.13343361
7	0x3de39416	0.111122295
8	0xbde240fb	-0.1104755
9	0x3e1dadcd	0.15398331
10	0xbb62bed5	-0.0034598608
11	0xbd7287d3	-0.059211563
12	0xbd5ce9a5	-0.05393376
13	0xbe50cef1	-0.20391442
14	0xbe071baf	-0.13194154
15	0xbe32f329	-0.1747557
16	0x3e668ad5	0.22513898
17	0x3bbd53b0	0.0057777986
18	0x3dd5c3ad	0.10437713
19	0xbdcca3b6	-0.09992163
20	0x3d34ef7d	0.044173706
21	0x3d39eb41	0.04539037
22	0x3e1fd9a1	0.15610363
23	0x3e2e0dcc	0.1699745
24	0xbda6689c	-0.081254214
25	0xbddb1e7a	-0.10699172
26	0x3e2e7efd	0.1704063
27	0xbe23595a	-0.15952054
28	0x3e138605	0.14406593
29	0xbd796e41	-0.060896162
30	0x3cfe8940	0.031071305
31	0xbd1ce362	-0.038302787
32	0x3e1aee2e	0.15129921
33	0xbe3642b2	-0.1779888
34	0xbdd05f10	-0.10174382
35	0xbe08f291	-0.13373782
36	0x3e0205cd	0.12697525
37	0xbd3d5a3a	-0.046228625
38	0x3e3f511b	0.18683283
39	0xbd1788ab	-0.03699557
40	0xbe602b33	-0.21891479
41	0x3d96dcb8	0.073663175
42	0xbe32304b	-0.17401235
43	0x3e3bf530	0.1835525
44	0x3e3a9e32	0.18224409
45	0x3e1a8a96	0.15091929
46	0x3e4022c8	0.18763268
47	0xbe40f8c7	-0.18844901
48	0xbe07cf59	-0.1326269
49	0xbe4bbd13	-0.19896345
50	0xbd8dda87	-0.069264464
51	0xbd4ec87e	-0.050484173
52	0xb9a23ad8	-0.0003094289
53	0x3cfb5e8b	0.03068473
54	0x3ddded40	0.108362675
55	0xbdfc7137	-0.123262815
56	0xbccf56cd	-0.025309945
57	0xbd498615	-0.049200136
58	0x3d80abf9	0.06282801
59	0x3d256f20	0.04038918
60	0x3dc4b95a	0.096056655
61	0x3e317833	0.17331009
62	0xbd8939d9	-0.06700487
63	0xbd7cbf87	-0.061706092
64	0x3dfed58c	0.124430746
65	0xbe4158fe	-0.18881604
66	0xbdb5a50e	-0.08869372
67	0x3d0091bc	0.031388983
68	0x3dff816b	0.124758564
69	0x3df62b73	0.12020006
70	0xbe1cd7a1	-0.15316631
71	0xbd9c23ff	-0.07624053
72	0x3e305e34	0.17223436
73	0xbe6d2a3e	-0.23160645
74	0xbe1ba6e3	-0.15200381
75	0x3d0b0859	0.033943508
76	0xbcc4ef08	-0.02403976
77	0xbdc11ccf	-0.09429323
78	0xbcf4357b	-0.029810658
79	0x3e47f657	0.19527565
80	0xbd957c0f	-0.07299053
81	0x3e436de4	0.19084889
82	0xbdb90e6b	-0.09035953
83	0xbb8ad377	-0.0042366344
84	0x3c3cff24	0.01153544
85	0xbe109327	-0.14118634
86	0x3c80dd8d	0.015730644
87	0x3ce84666	0.028353881
88	0xbc5ef3f1	-0.013607965
89	0xbe055bd4	-0.13023311
90	0x3e25d2a2	0.16193631
91	0x3d4accda	0.049511768
92	0xbe0a367e	-0.1349735
93	0x3da02e01	0.078212745
94	0x3dd155c1	0.102214344
95	0x3cee9bd1	0.029127033
96	0xbe024a90	-0.12723756
97	0xbd91bf59	-0.07116575
98	0xbe3d623c	-0.18494505
99	0x3c5282db	0.012848581
100	0xbde8d605	-0.11368946
101	0xbd65084e	-0.055916123
102	0xbd91e89c	-0.07124445
103	0x3dcb1247	0.099155955
104	0xbcc1e0d4	-0.023666777
105	0xbda91726	-0.08256368
106	0x3e053d2d	0.13011618
107	0xbe00a231	-0.12561871
108	0x3e5c410d	0.2150919
109	0x3e2ed11a	0.17071953
110	0xbc900335	-0.017579654
111	0x3da47127	0.080293946
112	0x3e52a4d8	0.20570695
113	0x3e4470db	0.19183676
114	0x3e42679e	0.1898484
115	0xbe2344fe	-0.15944287
116	0xbe0739dd	-0.13205667
117	0x3de6ec43	0.11275532
118	0x3e45c225	0.19312342
119	0xbdc45277	-0.095860414
120	0xbd9b4b79	-0.07582755
121	0x3a1eaa11	0.00060525635
122	0x3dcaf00c	0.099090666
123	0x3dbc3065	0.09188918
124	0xbdf01693	-0.11723056
125	0xbe4c2ca2	-0.19938901
126	0x3df21997	0.11821287
127	0x3d9ebdc3	0.07751038
128	0xbd27bfd2	-0.04095442
129	0xbd016412	-0.031589575
130	0xbd7c1ffb	-0.061553936
131	0xbd8fc6ae	-0.07020317
132	0xbd93ad7a	-0.072108224
133	0xbe425e04	-0.18981177
134	0xbc843dd3	-0.016142761
135	0x3e631591	0.22176196
136	0x3e21d7bc	0.15804952
137	0xbc89daeb	-0.016828021
138	0xbda8d7f1	-0.082443126
139	0x3ad8fb8a	0.0016554457
140	0x3e24c879	0.16092099
141	0xbdaa93cd	-0.08328972
142	0x3b0265f8	0.0019897204
143	0x3e12c9d2	0.14334801
144	0x3e261a09	0.16220869
145	0xbe0a5daf	-0.135123
146	0x3d6a6e14	0.057233885
147	0xbcfd34a1	-0.030908884
148	0x3d828100	0.06372261
149	0x3d6b4ac2	0.05744434
150	0x3d9be1bc	0.07611415
151	0xbd93491c	-0.07191679
152	0xbd99d815	-0.075119175
153	0xbd23fe8c	-0.040037677
154	0xbde09fad	-0.10967956
155	0xbdfee549	-0.124460764
156	0xbd1e2f07	-0.038619068
157	0x3e21fd9a	0.15819398
158	0xbdee4f3d	-0.11636207
159	0x3dfac04a	0.122437075
160	0x3e0cd0c2	0.1375151
161	0x3dc0249f	0.09381985
162	0xbc93f620	-0.018061697
163	0x3e3314f0	0.17488456
164	0xbce19459	-0.027536558
165	0xbdf7c50d	-0.12098131
166	0x3da07129	0.078340836
167	0xbe1da75a	-0.15395871
168	0x3e32882f	0.17434762
169	0x3b924e6b	0.0044649146
170	0x3dd85a88	0.105641425
171	0x3d6531df	0.055955764
172	0xbe522446	-0.2052165
173	0x3e19a853	0.15005617
174	0x3e4a8a98	0.19779432
175	0xbe5f2f70	-0.2179544
176	0x3d80c766	0.06288032
177	0x3df6050d	0.12012682
178	0x3c9eb220	0.019372046
179	0xbde5db92	-0.1122352
180	0xbd1f8e9c	-0.038954362
181	0x3d8413c0	0.064490795
182	0xbe2ec1d3	-0.17066126
183	0xbdf360ec	-0.11883721
184	0xbe004a32	-0.12528303
185	0xbd917fdf	-0.071044676
186	0xbdffe626	-0.12495069
187	0x3d64fe9d	0.05590688
188	0x3e2ba799	0.16763152
189	0xbe4314c7	-0.19050895
190	0x3cb23f99	0.021758841
191	0xbdf4e7b1	-0.11958254
192	0x3e152f02	0.14568713
193	0xbdef16bc	-0.11674258
194	0x3cca3957	0.024685545
195	0x3d990dd4	0.07473341
196	0xbdfaf196	-0.1225311
197	0xbe0d7700	-0.13814926
198	0x3e09f309	0.13471617
199	0xbdfd1afe	-0.12358664
200	0xbe6110ed	-0.21979113
201	0x3e3f3bcf	0.18675159
202	0x3e3d8996	0.18509516
203	0xbe155a44	-0.14585215
204	0xbded7f5f	-0.1159656
205	0xbe2e0ca6	-0.16997012
206	0x3e6c0345	0.23048122
207	0xbe08b144	-0.13348871
208	0xbd1fefa5	-0.039046902
209	0x3d74279c	0.059608087
210	0xbcf9b7ce	-0.030483153
211	0x3a96c1cb	0.0011501847
212	0xbe38e225	-0.18055017
213	0x3d46d704	0.0485449
214	0x3c9acf29	0.01889761
215	0x3e2a6f95	0.16644128
216	0xbc109a76	-0.008825889
217	0xbbfe9bf7	-0.0077700573
218	0x3daf65a0	0.08564305
219	0xbdf34ecd	-0.118802644
220	0x3d462dc5	0.048383493
221	0x3e1fa010	0.15588403
222	0x3e2b7066	0.16742095
223	0x3c056b31	0.008143232
224	0x3d12924f	0.035784062
225	0xbc4d8600	-0.012544155
226	0x3db2cca1	0.08730436
227	0x3e222208	0.15833294
228	0xbdb9f5f9	-0.09080119
229	0x3e00dcd3	0.12584238
230	0x3da68dd4	0.0813252
231	0x3e62132a	0.22077623
232	0x3d993643	0.07481053
233	0xbe2f47cd	-0.17117234
234	0xbdab6888	-0.08369547
235	0xbe4317db	-0.19052069
236	0xbdbb85c8	-0.09156376
237	0x3e303a4a	0.17209736
238	0x3e5101c9	0.20410837
239	0x3cf70f46	0.03015865
240	0x3e352acf	0.17692111
241	0xbe4b09c1	-0.1982794
242	0xbe43fc61	-0.19139244
243	0xbe5d7c66	-0.21629485
244	0xbe232bb1	-0.15934636
245	0x3da84730	0.08216703
246	0xbd2fe588	-0.042943507
247	0x3e2882c0	0.16456127
248	0x3e65e4c3	0.22450547
249	0x3d5f30d1	0.054489914
250	0x3df6e192	0.12054743
251	0x3e31616d	0.17322321
252	0xbd9005f1	-0.07032383
253	0x3c63e0f5	0.013908614
254	0x3cdd2a22	0.02699763
255	0xbe498a5d	-0.19681688

layers.0.bias f4 [128]
0	0xbb2da705	-0.0026497256
1	0x3e045fdf	0.12927197
2	0x3e50d880	0.20395088
3	0xbe3610f5	-0.17779906
4	0xbd850db6	-0.06496756
5	0xbdeca433	-0.11554756
6	0xbe10da23	-0.14145713
7	0xbec74c89	-0.3892558
8	0x3eeda0fd	0.46411887
9	0xbe12c5ac	-0.14333218
10	0xbecef507	-0.40421316
11	0xbe2aceef	-0.16680501
12	0x3ebb16a8	0.36540723
13	0xbe521afa	-0.20518103
14	0x3ecfbf87	0.4057581
15	0x3e48ac71	0.19597031
16	0x3eb139ad	0.34614316
17	0x3e3847b0	0.17996097
18	0x3e903039	0.2816179
19	0x3c366c54	0.011134226
20	0x3ea89c7f	0.32931897
21	0xbe750dcc	-0.23931044
22	0xbe27c53c	-0.16383833
23	0x3e872df8	0.2640226
24	0x3e33a9c8	0.17545235
25	0x3ed258fb	0.41083512
26	0x3e3d349e	0.18477103
27	0xbd4341f5	-0.047670323
28	0x3e67b7ed	0.22628756
29	0x3e12b236	0.14325795
30	0xbd632c38	-0.055462092
31	0xbeb947e4	-0.3618766
32	0x3ec4d043	0.3844014
33	0xbe2e8bbd	-0.17045493
34	0xbe3e2b6f	-0.18571256
35	0xbcb4a520	-0.022051394
36	0x3d82e73e	0.06391762
37	0xbec63ea1	-0.38719657
38	0x3e401932	0.18759611
39	0x3e42dfa1	0.1903062
40	0xbe8590bc	-0.26086986
41	0x3ebada44	0.36494648
42	0x3e6ad91b	0.22934382
43	0xbe8702eb	-0.26369414
44	0x3d7d952d	0.061909843
45	0xbe6625f8	-0.22475421
46	0x3e2a6ed6	0.16643843
47	0xbea25a70	-0.31709623
48	0x3e92e456	0.28689831
49	0xbe88d7b4	-0.26727068
50	0x3e86f8b8	0.26361632
51	0xbedccdae	-0.4312567
52	0xbe9c77a2	-0.30560023
53	0xbe8e4a77	-0.27791187
54	0x3e0a422d	0.13501807
55	0x3e9e214c	0.30884778
56	0xbeb880f0	-0.36035872
57	0x3e8df8ea	0.2772897
58	0xbeb1b3c5	-0.34707466
59	0xbe808d59	-0.2510784
60	0xbe3177dc	-0.17330879
61	0x3da6eef7	0.08151048
62	0x3ea2065f	0.31645486
63	0x3e9b85ef	0.3037562
64	0x3ddb0852	0.10694946
65	0x3e076304	0.13221365
66	0x3e326a77	0.17423426
67	0xbe1ea4fa	-0.15492621
68	0xbe824d96	-0.25449818
69	0xbe80138d	-0.25014916
70	0x3d8fdb3e	0.07024239
71	0xbe59b297	-0.21259533
72	0xbd70f476	-0.058826886
73	0xbe44963e	-0.19197938
74	0xbebb722d	-0.36610547
75	0xbe51ad68	-0.20476305
76	0x3eb7b18b	0.35877642
77	0x3d53d95f	0.051720973
78	0xbed5c071	-0.41748384
79	0x3e229606	0.15877542
80	0xbea8924a	-0.3292411
81	0xbd80e980	-0.062945366
82	0xbebc1eec	-0.36742342
83	0xbe57b5a8	-0.2106539
84	0x3e6787f0	0.2261045
85	0xbc79a48d	-0.015236986
86	0xbe9a1098	-0.30090785
87	0x3e6fe3fc	0.23426813
88	0x3ea5d7ff	0.32391354
89	0x3e6c0653	0.23049287
90	0x3d9d8b53	0.076925896
91	0x3de96521	0.11396242
92	0x3ea8e223	0.3298503
93	0xbe36adbc	-0.17839712
94	0xbe54f0ab	-0.20794933
95	0xbdf99b12	-0.121877804
96	0x3ecc9b9e	0.39962476
97	0x3cca4c5b	0.024694612
98	0x3da692b2	0.08133449
99	0xbe264c79	-0.1624011
100	0xbe67b450	-0.22627378
101	0x3ed37784	0.4130212
102	0x3e79f558	0.24409997
103	0xbe7ad270	-0.24494338
104	0x3e4fad72	0.20281008
105	0xbec5fb50	-0.386683
106	0x3e55f54a	0.20894352
107	0xbe064c00	-0.13114929
108	0x3ec4fb94	0.3847319
109	0xbe8d0c4e	-0.2754845
110	0x3e6604e6	0.22462806
111	0x3ce978aa	0.02849992
112	0xbe07b7bf	-0.13253687
113	0xbea4b310	-0.32167864
114	0xbe65993d	-0.22421737
115	0xbec8eb2c	-0.39241922
116	0xbea1370a	-0.31487304
117	0x3e598dde	0.21245524
118	0x3d40f82f	0.047111686
119	0x3e1376e5	0.14400823
120	0x3e9ab66d	0.30217305
121	0x3cf98d53	0.030462896
122	0x3c4e2c3e	0.01258379
123	0xbcc0e606	-0.023547184
124	0xbe933e13	-0.28758296
125	0x3ea5f128	0.3241055
126	0x3e5d52f4	0.21613675
127	0xbccd08b4	-0.025028564

layers.1.weight f4 [128, 128]
0	0x3dbe0017	0.09277361
1	0xbd640e49	-0.055677686
2	0x3de29ec9	0.11065442
3	0xbd488b7d	-0.04896115
4	0x3d366da3	0.04453815
5	0xbd480636	-0.04883405
6	0xbdd19306	-0.102331206
7	0x3ddd06d4	0.10792318
8	0xbe0e1416	-0.1387485
9	0x3dcd922d	0.100376464
10	0xbc68fef8	-0.014220946
11	0xbdd09b91	-0.10185922
12	0xbdc27ddc	-0.09496662
13	0xbe0f8a30	-0.14017558
14	0x3cb5253c	0.022112481
15	0xbc81728a	-0.015801687
16	0xbd93c5ce	-0.072154626
17	0xbe152280	-0.14563942
18	0x3e017bbf	0.12644862
19	0xbd824cb8	-0.06362289
20	0xbc4f29e0	-0.012644261
21	0xbbe9d22d	-0.0071356506
22	0x3d6cc021	0.057800416
23	0x3c0a62fc	0.008446451
24	0x3df96b2a	0.12178643
25	0xbde0b49a	-0.10971947
26	0xbdec32fe	-0.115331635
27	0x3d9ef917	0.07762354
28	0x3d427d39	0.047482703
29	0xbd7e2d13	-0.062054705
30	0xbd45b258	-0.048265785
31	0x3dd43476	0.10361569
32	0xbd4b92a0	-0.04970038
33	0xbe011161	-0.12604286
34	0xbdc3d9c7	-0.09563022
35	0x3cdda584	0.027056463
36	0x3d9425f6	0.07233803
37	0x3dfde8e7	0.12397938
38	0x3e1b02be	0.15137765
39	0xbde2c508	-0.11072737
40	0x3d17cbfd	0.037059773
41	0xbdcbb2eb	-0.09946235
42	0xbc972a11	-0.018452676
43	0x3dda0032	0.106445685
44	0x3d818bb2	0.06325473
45	0xbd3737ba	-0.04473088
46	0x3c975ed8	0.018477842
47	0xbd22012a	-0.03955189
48	0x3e0756d5	0.13216718
49	0x3da9c795	0.082900204
50	0xbde452cf	-0.11148607
51	0xbd43660e	-0.04770475
52	0x3e0caa72	0.13736895
53	0x3e3c970b	0.18416993
54	0xbd825467	-0.06363755
55	0xbdbba8ad	-0.09163032
56	0xbda511ae	-0.08060013
57	0xbd28f5c0	-0.04124999
58	0x3d5444fb	0.051823597
59	0x3cc6daa0	0.02427417
60	0xbdc93bb6	-0.09825842
61	0xbd6d0e2e	-0.05787485
62	0xbc0c75e4	-0.008573029
63	0x3e176bff	0.14787291
64	0x3cb451d5	0.022011677
65	0x3e0434ed	0.12910815
66	0x3ddd5a3c	0.108082265
67	0x3e1124a5	0.14174135
68	0x3d8d003a	0.06884809
69	0xbd33051e	-0.043706052
70	0xbd3d3931	-0.04619712
71	0x3bb43fed	0.0055007846
72	0xbd9d3543	-0.076761745
73	0xbd310a85	-0.043222923
74	0x3ce2408e	0.027618673
75	0x3e09d3c3	0.13459687
76	0x3dbe7236	0.09299128
77	0xbd0c98e6	-0.034325503
78	0x3d8a7bc0	0.06761885
79	0xbc33224b	-0.010933469
80	0xbcb1672f	-0.021655647
81	0xbe0d968a	-0.13826957
82	0x3e226163	0.15857463
83	0x3ddd587c	0.10807893
84	0x3dcf6c0d	0.10128031
85	0x3bff598e	0.007792658
86	0x3d11e17c	0.03561543
87	0x3b4c3f58	0.0031165686
88	0x3dfa1f76	0.12213032
89	0x3de23148	0.11044556
90	0xbdceb414	-0.10092941
91	0xbd2b3937	-0.04180261
92	0xbd9c4a7f	-0.076313965
93	0xbd3c9052	-0.046036072
94	0xbd8cf606	-0.06882863
95	0x3e0035a4	0.12520462
96	0xbde63d70	-0.11242187
97	0xbd7d109a	-0.06178341
98	0xbe1b260a	-0.1515123
99	0x3d9e710f	0.07736408
100	0x3dc9d5e8	0.098552525
101	0xbdbf3e5f	-0.09338068
102	0xbb38a487	-0.0028174238
103	0xbd801a30	-0.06254995
104	0x3de95bf6	0.11394493
105	0x3dd77ada	0.10521479
106	0x3b360482	0.0027773683
107	0x3d72d804	0.05928804
108	0xbe14e1ec	-0.14539307
109	0x3cb73424	0.02236373
110	0xbb9c9a1b	-0.004779113
111	0x3d7a1938	0.061059207
112	0x3e0d5688	0.1380254
113	0xbcfbb05a	-0.03072374
114	0xbdbea23b	-0.09308287
115	0xbcbcee6a	-0.023062903
116	0x3c480d27	0.012210167
117	0x3d55dfb3	0.05221529
118	0x3e14d247	0.1453334
119	0x3da4e1dc	0.08050892
120	0xbe04809f	-0.1293969
121	0x3d415777	0.047202554
122	0x3d4d64cb	0.05014495
123	0x3e15fb58	0.14646661
124	0x3e1181ce	0.14209673
125	0x3d89c714	0.06727424
126	0xbddf2519	-0.10895748
127	0x3d36c215	0.044618685
128	0xbe0de4f2	-0.13856867
129	0x3d87d740	0.066328526
130	0x3db046cc	0.086072534
131	0xbc0bea7c	-0.008539792
132	0x3de4e8a1	0.11177183
133	0xbdbaec6b	-0.091271244
134	0xbd0cfda3	-0.034421574
135	0xbd98480a	-0.07435615
136	0x3d2ee472	0.04269833
137	0x3d40d1b9	0.047075007
138	0xbd8c891f	-0.06862091
139	0xbdacf42d	-0.0844501
140	0xbdc4897d	-0.09596536
141	0xbcb41ecb	-0.02198734
142	0x3bab6faa	0.0052318173
143	0xbd1b9263	-0.037981402
144	0xbcfd9543	-0.030954963
145	0xbd9acab7	-0.07558196
146	0x3ddd7380	0.108130455
147	0x3d6ec522	0.05829347
148	0x3e07e04d	0.13269158
149	0x3dc0bd15	0.094110645
150	0x3db62cb8	0.08895248
151	0x3cc088cc	0.02350273
152	0x3cc59498	0.024118707
153	0x3e1739c8	0.14768136
154	0x3df56f3e	0.119841084
155	0xbd88013d	-0.06640861
156	0xbe061f62	-0.13097909
157	0xbddd088e	-0.10792647
158	0xbdcc3577	-0.09971135
159	0xbdd4d168	-0.103915036
160	0x3e1f2db5	0.1554478
161	0xbe153c6f	-0.14573835
162	0x3da5248a	0.0806361
163	0xbe1dd3fc	-0.15412897
164	0x3e01ccd8	0.12675798
165	0xbe40a298	-0.18812025
166	0x3ddd3c73	0.108025454
167	0xbdd2f6f7	-0.10301011
168	0xbdda1dc8	-0.106502116
169	0x3dc1dbf2	0.09465779
170	0xbd9d51c9	-0.07681615
171	0xbc8b8ebf	-0.01703584
172	0xbd974008	-0.0738526
173	0x3df55408	0.11978918
174	0x3d7dc904	0.06195928
175	0x3de68351	0.11255515
176	0x3c61b553	0.013776141
177	0x3e01b4ff	0.12666701
178	0xbd8131a2	-0.06308295
179	0xbe033ab9	-0.1281537
180	0x3d3cbd38	0.04607889
181	0xbe0fc2e1	-0.14039184
182	0x3e0ca65e	0.13735339
183	0xbc34e270	-0.011040315
184	0xbdf9b506	-0.121927306
185	0x3e25b187	0.16181003
186	0x3d5f90ce	0.054581456
187	0xbca84e8a	-0.020545263
188	0x3d14cb0b	0.03632645
189	0x3dd7fd62	0.10546376
190	0x3dfead0a	0.12435348
191	0x3d0c20c9	0.034210954
192	0xbe1b8b9d	-0.15189977
193	0xbde6b073	-0.11264124
194	0x3e02f982	0.12790492
195	0xbc6a5a35	-0.014303734
196	0xbcb5b7b8	-0.02218233
197	0x3d97947f	0.0740137
198	0x3dddb76a	0.10825999
199	0xbdf3cc29	-0.11904175
200	0xbdf1f1f1	-0.11813725
201	0x3e022aac	0.1271159
202	0xbd6b5eac	-0.057463333
203	0xbd9b51a2	-0.075839296
204	0x3da1766f	0.078839175
205	0xbd4c5a1a	-0.049890615
206	0x3b1e8089	0.00241855
207	0xbe00702c	-0.1254279
208	0xbd7a66ef	-0.06113332
209	0x3d7bfb46	0.06151893
210	0x3d14f7b8	0.036369056
211	0xbe37503e	-0.17901704
212	0x3d8e5f6a	0.069517925
213	0x3defd1d2	0.11709942
214	0xbd29e3a1	-0.04147685
215	0xbdeca706	-0.11555295
216	0xbd20b98c	-0.03923945
217	0x3d5dcc7a	0.054150082
218	0xbd994cc9	-0.07485349
219	0xbd31e0ea	-0.043427385
220	0xbde77b5d	-0.113028266
221	0x3d6677ac	0.05626647
222	0x3d295839	0.0413439
223	0xbe0111ff	-0.12604521
224	0x3d6e7c45	0.05822398
225	0x3df4c507	0.119516425
226	0xbcf33596	-0.029688638
227	0xbdcb7bd0	-0.09935725
228	0xbe18f6fa	-0.14937964
229	0xbdc5789e	-0.096421465
230	0xbd1143a7	-0.03546491
231	0xbc58e693	-0.013238567
232	0xbe08ad2e	-0.13347313
233	0xbdd40638	-0.10352749
234	0xbdfd3d6a	-0.123652294
235	0xbd495660	-0.04915464
236	0xbde9bbf0	-0.11412799
237	0xbde6e8e3	-0.11274888
238	0x3dac176a	0.084029034
239	0x3d5523fb	0.052036267
240	0xbe092598	-0.13393247
241	0x3df16060	0.1178596
242	0x3d441d2d	0.047879387
243	0x3d9c43ca	0.07630117
244	0xbd8a010f	-0.06738483
245	0xbddbe5a5	-0.107371606
246	0x3c3d5d5d	0.011557904
247	0xbdaf473e	-0.0855851
248	0x3de6350f	0.11240589
249	0x3dc80434	0.09766427
250	0xbd52e055	-0.05148347
251	0x3d6c2607	0.057653453
252	0xbdf4b69b	-0.11948892
253	0x3dd83439	0.10556836
254	0x3db9495e	0.09047197
255	0x3cb57df0	0.022154778

layers.1.bias f4 [128]
0	0x3cf02bc4	0.029317744
1	0x3db121d0	0.08649027
2	0x3d993c8e	0.07482253
3	0xbd5616b1	-0.052267734
4	0xbd966400	-0.07343292
5	0xbd8e79ea	-0.06956847
6	0xbc258e4c	-0.010104727
7	0x3da85a92	0.082204
8	0xbbc4a787	-0.006001416
9	0xbc82d288	-0.01596953
10	0x3ca4b988	0.020108
11	0x3cdc82b3	0.026917791
12	0x3b17a28c	0.0023137657
13	0x3d9c94a4	0.076455384
14	0x3da1e92f	0.07905804
15	0xbb49b0bf	-0.0030775515
16	0x3d0b2df0	0.033979356
17	0x3d93252f	0.071848266
18	0xbd89c7c8	-0.067275584
19	0xbca364d7	-0.019945545
20	0xbcb4986a	-0.022045333
21	0xbd824e39	-0.06362576
22	0xbd4cbdae	-0.04998558
23	0xbbab55ff	-0.0052287574
24	0xbd6a2d51	-0.057172123
25	0xbdafdfe3	-0.08587625
26	0x3dad407d	0.08459566
27	0x3d1e89cd	0.038705636
28	0x3d0199df	0.031640884
29	0x3ca6f39f	0.02037984
30	0x3d499cbe	0.049221747
31	0xbcbc7a50	-0.023007542
32	0xbcf07823	-0.02935416
33	0xbb286f50	-0.0025701113
34	0xbd5085dd	-0.050908912
35	0xbdb12227	-0.08649092
36	0xbd449745	-0.047995824
37	0x3d8139c5	0.06309847
38	0x3d0c984d	0.034324933
39	0xbdb256ee	-0.08707987
40	0x3bf7a542	0.007557542
41	0x3bdffff0	0.00683593
42	0x3db259d3	0.08708539
43	0x3df9e4db	0.12201854
44	0xbd75e846	-0.060035966
45	0x3cb8bb47	0.022550238
46	0xbcfcf11e	-0.030876692
47	0x3ccc779d	0.02495938
48	0xb9fccf92	-0.00048219837
49	0x3ceb4657	0.028720064
50	0x3cf264eb	0.029589137
51	0xbd7bd9c4	-0.061486974
52	0x3c88b8f6	0.016689759
53	0x3b3cc1f2	0.0028802124
54	0x3ced9b25	0.029004643
55	0x3d714689	0.05890516
56	0xbdc3cede	-0.09560941
57	0x3da450b2	0.08023204
58	0x3dab1937	0.08354419
59	0x3d05eda0	0.03269732
60	0x3da551a6	0.08072214
61	0xbd6e5741	-0.05818868
62	0x3d93fa01	0.07225419
63	0xbdd5d046	-0.10440116
64	0xbcf080a5	-0.029358217
65	0x3d9d6ac3	0.07686379
66	0x3d919909	0.07109267
67	0xbd9c795c	-0.07640335
68	0xbc96733f	-0.0183655
69	0x3d6b89a9	0.05750433
70	0xbd0b52b7	-0.03401443
71	0x3d13edff	0.036115643
72	0x3b80ca4f	0.003930367
73	0x3d8adf9e	0.06780933
74	0xbdbb5f49	-0.091490336
75	0x3cbe68d2	0.023243342
76	0xbd63cd3c	-0.05561565
77	0xbdb49aa0	-0.08818555
78	0xbd33fb24	-0.04394068
79	0xbd33878c	-0.04383044
80	0xbd7017ca	-0.058616437
81	0xbd0d9d98	-0.03457412
82	0x3d020456	0.031742416
83	0xbd0127a6	-0.031531952
84	0xbdefb373	-0.11704149
85	0x3da5aee8	0.08090001
86	0xbc3ec94d	-0.0116446735
87	0x3c91a16f	0.017777173
88	0xbd08b7d7	-0.03337845
89	0x3cf2a6e7	0.0296206
90	0xbda19bb8	-0.07891029
91	0xbd0a269d	-0.03372823
92	0xbd0bfd75	-0.034177262
93	0xbcfbf378	-0.030755743
94	0xbd503efe	-0.050841324
95	0x3d94bc41	0.07262469
96	0xbd35f62b	-0.044424217
97	0xbd80ef8e	-0.062956914
98	0xbd1f5dda	-0.038907863
99	0xbd21b6eb	-0.039481085
100	0x3cf76377	0.030198796
101	0x3cfba46c	0.03071805
102	0xbdcd470d	-0.100233175
103	0x3d31dc25	0.043422837
104	0x3d4a712a	0.049424328
105	0xbd82a6ed	-0.06379495
106	0xbd88f062	-0.066864744
107	0x3e2047ba	0.15652362
108	0xbd4cc8e2	-0.049996264
109	0x3d81fd19	0.06347103
110	0xbd78f68c	-0.060782
111	0x3aa9b5f8	0.0012947908
112	0xbc6bd1a9	-0.014393249
113	0x3d839477	0.06424802
114	0x3d4ae060	0.049530387
115	0xbd2b1cfc	-0.04177569
116	0x3cfb1571	0.030649872
117	0xbd30298e	-0.04300838
118	0x3dc0a128	0.09405738
119	0x3d36e9c5	0.044656534
120	0x3d638679	0.055548165
121	0x3d3d3fc3	0.046203386
122	0x3c4e38f1	0.012586818
123	0xbb7a72fe	-0.0038215513
124	0xbd9ca5f5	-0.07648841
125	0x3d60bf66	0.05487003
126	0xbd1a78fb	-0.037713032
127	0x3d8edfd5	0.06976286

layers.2.weight f4 [128, 128]
0	0x3dc31e5c	0.09527275
1	0x3cc432c3	0.023949986
2	0x3b43b5c4	0.002986298
3	0xbd130cc6	-0.035900854
4	0xbd184793	-0.037177633
5	0x3dcb3013	0.09921279
6	0xbc8215be	-0.015879508
7	0x3bc5382d	0.0060186596
8	0xbd664748	-0.056220323
9	0x3dc43d78	0.09582037
10	0xbd1e98fb	-0.038720112
11	0xbb804b08	-0.0039151944
12	0x3cbebcd4	0.0232834
13	0x3dd5ada7	0.10433512
14	0x3df8e92a	0.121538475
15	0x3de9c9c5	0.114154376
16	0x3d1c5984	0.038171306
17	0xbe00e99b	-0.12589113
18	0x3d83df6a	0.06439097
19	0xbd9f68da	-0.07783671
20	0xbd8c2194	-0.06842342
21	0xbc3fd54c	-0.011708569
22	0xbc1419fb	-0.009039397
23	0x3dbd67dd	0.09248326
24	0xbe085171	-0.13312317
25	0xbd7ca051	-0.061676327
26	0x3d686690	0.056738436
27	0xbdbcc7ef	-0.09217822
28	0xbdf15db6	-0.11785452
29	0xbdf30af0	-0.118673205
30	0xbdd14d37	-0.10219806
31	0xbe35c741	-0.1775179
32	0xbe1a4eb0	-0.1506908
33	0xbe21a58f	-0.15785812
34	0x3d5e5f7b	0.054290276
35	0xbdf73685	-0.12070946
36	0xbd1b78bc	-0.03795694
37	0xbdad2b8f	-0.08455574
38	0xbcd6790a	-0.026180763
39	0x3d8cda55	0.06877581
40	0xbcdb86f5	-0.026797751
41	0xbe0958fb	-0.1341285
42	0x3d53c1dc	0.05169855
43	0x3dfbe9f8	0.123004854
44	0x3d914ff2	0.070953265
45	0xbdd8d1ee	-0.10586916
46	0xbe0db162	-0.13837197
47	0xbd684c39	-0.056713317
48	0xbd17e593	-0.037084173
49	0x3d0490c6	0.03236463
50	0xbd9796c9	-0.07401807
51	0xbde10e37	-0.109890394
52	0x3d13896a	0.03601972
53	0x3dc332e1	0.09531189
54	0xbe05eee2	-0.13079408
55	0xbd89d3cd	-0.06729851
56	0x3dbe95cd	0.09305916
57	0xbe301e72	-0.17199114
58	0xbbef7c13	-0.007308492
59	0xbd1359a9	-0.03597418
60	0xbe158ded	-0.14604922
61	0xbd8e492e	-0.06947552
62	0x3dc6c6d9	0.09705896
63	0xbd4e54db	-0.050373893
64	0xbd8236a6	-0.063580796
65	0x3dd61c07	0.104545645
66	0x3d63b279	0.055590127
67	0xbdb9398c	-0.09044179
68	0xbd002887	-0.03128865
69	0xbdc0e567	-0.09418755
70	0x3dd3a3f2	0.103340045
71	0x3dc4eba7	0.096152596
72	0xbe0d1e06	-0.13780984
73	0x3e174824	0.14773613
74	0xbe2c9160	-0.16852331
75	0x3d9d3331	0.076757796
76	0x3dff6327	0.12470084
77	0xbdfddc6e	-0.12395559
78	0xbd406c9d	-0.04697858
79	0x3d83fc57	0.064446144
80	0xbdda47d5	-0.10658232
81	0xbd10c9e7	-0.0353488
82	0xbcdfb48b	-0.02730777
83	0x3de83c7e	0.11339663
84	0xbd022b71	-0.03177971
85	0xbde96507	-0.113962226
86	0x3dfa78a1	0.122300394
87	0x3d5f1a5b	0.054468494
88	0x3de20639	0.11036343
89	0x3d43adab	0.047773045
90	0x3e004675	0.12526877
91	0xbd8c6ee9	-0.06857092
92	0xbcb06913	-0.021534478
93	0xbddae3a7	-0.106879525
94	0xbe00a340	-0.12562275
95	0xbe15ad65	-0.14616926
96	0x3da977da	0.08274813
97	0xbd8bc22e	-0.06824146
98	0xbd3e2d0b	-0.046429675
99	0x3cdf0e59	0.027228521
100	0xbe00314c	-0.12518805
101	0x3d1ab7cb	0.037772935
102	0xbb6ddaec	-0.0036293818
103	0xbe28b4f0	-0.16475272
104	0x3e03c023	0.12866263
105	0xbd767a06	-0.060174964
106	0xbdc553e2	-0.0963514
107	0x3e1030ce	0.14081118
108	0x3dd84d07	0.10561567
109	0x3d090c37	0.033458915
110	0x3daf6676	0.08564465
111	0x3dd2c481	0.102913864
112	0xbdd658b5	-0.10466138
113	0xbce278df	-0.027645526
114	0x3de96adf	0.11397337
115	0xbd4cfaae	-0.050043754
116	0x3de2c41f	0.110725634
117	0xbcd8c346	-0.026460301
118	0x3d38540c	0.04500203
119	0xbddabb1d	-0.1068022
120	0xb9a8d638	-0.00032203062
121	0xbda7529b	-0.081700526
122	0xbe0a10d6	-0.13482985
123	0x3c710843	0.014711442
124	0x3dbbc3d1	0.091682084
125	0xbc1231d1	-0.00892301
126	0xbe0495d9	-0.12947787
127	0xbe111b20	-0.14170504
128	0x3e24d504	0.16096884
129	0xbdd6b81f	-0.10484337
130	0x3c81715f	0.01580113
131	0xbdae20ff	-0.08502387
132	0xbda9c10f	-0.08288776
133	0x3dbc7cd4	0.092034966
134	0x3b5fa1bf	0.0034123508
135	0x3daa178b	0.08305272
136	0xbe015a23	-0.1263204
137	0x3cae4fa5	0.021278212
138	0xbe0cf77d	-0.13766284
139	0x3bd614f5	0.00653326
140	0x3da4313b	0.080172025
141	0xbdc0c4b0	-0.09412515
142	0xbd9ac0a3	-0.07556274
143	0x3dd4a84b	0.10383662
144	0xbcdc30d2	-0.026878748
145	0xbe15c1a6	-0.14624652
146	0x3ce13825	0.027492592
147	0xbdaa154e	-0.08304845
148	0x3c9649d5	0.018345753
149	0x3dc647f7	0.09681695
150	0xbda573e8	-0.08078748
151	0x3e1827fb	0.14859001
152	0xbc29e805	-0.010370259
153	0xbce65ea1	-0.028121294
154	0x3c35d6a6	0.011098539
155	0x3cadc000	0.021209717
156	0xbd76b710	-0.060233176
157	0x3d45c096	0.048279367
158	0x3e05606a	0.1302506
159	0x3dd86218	0.10565585
160	0xbc248a80	-0.010042787
161	0x3da43d03	0.080194496
162	0xbd6ee3a2	-0.058322556
163	0x3e1d7145	0.1537524
164	0x3d75c00b	0.0599976
165	0x3cbc1617	0.022959752
166	0xbd1132a5	-0.03544869
167	0x3d356542	0.04428602
168	0x3e089df9	0.13341512
169	0x3e240ea4	0.1602121
170	0x3ddacca2	0.10683562
171	0x3dfa5201	0.12222672
172	0xbe0812e9	-0.13288464
173	0x3d974d3e	0.0738778
174	0xbe0a0cf8	-0.1348151
175	0x3da44c31	0.08022345
176	0xbe20ac3f	-0.15690707
177	0xbc78230a	-0.015145073
178	0x3d3cdb9a	0.046107866
179	0x3db55617	0.08854311
180	0xbcd3a63b	-0.0258361
181	0x3dae232c	0.08502802
182	0xbe0db0af	-0.1383693
183	0x3d70d542	0.05879713
184	0x3d3562f7	0.044283833
185	0xbdf03178	-0.117281854
186	0xbd936a3f	-0.07197999
187	0xbd6d1f41	-0.057891134
188	0x3d153607	0.036428478
189	0x3d94b33e	0.0726075
190	0xbdbe3bdb	-0.0928876
191	0xbdc418d8	-0.09575051
192	0x3cb2b185	0.021813164
193	0x3d8d93aa	0.0691293
194	0x3e01eaf0	0.12687278
195	0x3dc47ede	0.095945105
196	0xbd1e977a	-0.038718678
197	0xbd291b58	-0.041285843
198	0x3e046340	0.12928486
199	0xbd89cf61	-0.067290075
200	0x3d90a79c	0.07063219
201	0xbd65aa01	-0.05607033
202	0x3dfc9b4d	0.12334309
203	0x3df20c32	0.11818732
204	0xbc446122	-0.011986049
205	0xbda040ad	-0.07824836
206	0xbdc6894b	-0.09694155
207	0xbe0ba358	-0.1363653
208	0xbe1fa54a	-0.15590397
209	0x3dd9b81e	0.10630821
210	0xbd217e3d	-0.03942703
211	0x3ccbe1ec	0.024888001
212	0xbcdd6445	-0.027025351
213	0x3dac8f96	0.08425824
214	0xbd29b5c5	-0.041433115
215	0xbbd7533c	-0.0065712016
216	0x3d162985	0.03666069
217	0x3bcb9ee2	0.0062140087
218	0xbc0e51dc	-0.008686509
219	0xbdf3a8c6	-0.11897425
220	0xbdfd457b	-0.12366768
221	0x3ce340a8	0.027740791
222	0x3da0bc30	0.07848394
223	0x3c199d29	0.009375849
224	0xbd9dbecb	-0.077024065
225	0x3d93d202	0.0721779
226	0x3d848368	0.06470376
227	0x3def4414	0.11682907
228	0x3dd56e06	0.10421376
229	0xbcdc776e	-0.026912417
230	0x3d99db16	0.075124905
231	0xbdfb2219	-0.12262363
232	0xbceccf50	-0.028907448
233	0x3cc8d02b	0.024513325
234	0xbd5e72b7	-0.05430862
235	0xbd0eb0c8	-0.03483656
236	0x3e032dec	0.12810487
237	0xbdcec265	-0.100956716
238	0x3cf43408	0.029809967
239	0x3b7777fa	0.003776072
240	0x3ca2bcb6	0.019865375
241	0x3c3824fb	0.011239286
242	0x3dc95240	0.09830141
243	0x3df14693	0.11781039
244	0xbdd47a08	-0.10374838
245	0x3dadce88	0.08486658
246	0xbdeb4a86	-0.114888236
247	0x3cf5c540	0.030001283
248	0x3d0c4175	0.034242112
249	0x3c7b329d	0.015331891
250	0x3d92cac0	0.07167578
251	0xbd0b5828	-0.03401962
252	0x3dc94f98	0.098296344
253	0x3d523af2	0.051325746
254	0x3e164f12	0.146786
255	0x3e075c80	0.1321888

layers.2.bias f4 [128]
0	0xbd535d46	-0.051602624
1	0xbcad462c	-0.021151625
2	0x3d4375f6	0.04771992
3	0x3dd58618	0.10425967
4	0xbd3dcb97	-0.046336737
5	0x3c1e1087	0.009647495
6	0xbda88a48	-0.082295
7	0x3d76b038	0.06022665
8	0xbcb473c1	-0.022027852
9	0xbd3bf50b	-0.045887988
10	0x3db23e30	0.087032676
11	0xbda05b1a	-0.07829876
12	0xbdb324a8	-0.08747226
13	0x3b89ffdd	0.0042114095
14	0xbd339ff8	-0.04385373
15	0xbd649c0a	-0.055812873
16	0xbd841a72	-0.064503565
17	0xbd8aa96a	-0.067705944
18	0x3c6be5d4	0.014398057
19	0xbdba5f17	-0.09100168
20	0xbd5eec0a	-0.054424323
21	0x3da70552	0.08155312
22	0xbd53fb15	-0.051753122
23	0xbba3b6a7	-0.004996139
24	0xbd84c137	-0.06482165
25	0xbc844307	-0.016145242
26	0xbdc38cb4	-0.09548321
27	0x3ca26c6a	0.019827086
28	0x3d467764	0.048453704
29	0xbb96eb28	-0.0046056695
30	0x3d45e076	0.048309766
31	0x3d8cc93f	0.06874322
32	0xbc7f9933	-0.01560049
33	0xbd8700a1	-0.06591917
34	0x3d44ff45	0.048095006
35	0xbd934e9a	-0.071927264
36	0xbdb14920	-0.086565256
37	0xbc8df58c	-0.017329
38	0xbd828877	-0.06373685
39	0x3d45dd0e	0.048306517
40	0xba219e15	-0.00061652187
41	0x3d413ec8	0.047179013
42	0xbc91a83a	-0.017780412
43	0x3ce1c81b	0.027561238
44	0xbd113104	-0.035447136
45	0xbcf5310e	-0.029930618
46	0x3d5a1059	0.053238247
47	0xbccbb4ff	-0.02486658
48	0xbddd49a6	-0.10805063
49	0xbd874a5b	-0.06605979
50	0xbdce3fd4	-0.10070768
51	0xbda738e1	-0.08165146
52	0xbdb1eaed	-0.08687387
53	0x3d335b27	0.0437881
54	0xbdbc559a	-0.09196015
55	0xbdd61f17	-0.10455149
56	0x3d46dc46	0.048549913
57	0xbd2b449f	-0.04181349
58	0xbccb1d46	-0.024794232
59	0x3c652a1d	0.013987091
60	0x3baf4a86	0.00534946
61	0xbcfdbf0c	-0.030974887
62	0x3cd50628	0.026003912
63	0x3da41a02	0.08012773
64	0x3da135d9	0.07871599
65	0xbc6a70e3	-0.014309141
66	0xbcefb47a	-0.029260863
67	0xbcfaf79c	-0.030635647
68	0xbdaea487	-0.08527475
69	0x3dc933a8	0.09824306
70	0x3d8927ea	0.06697066
71	0x3c9168a3	0.01775009
72	0x3cf086fa	0.029361237
73	0xbca45f36	-0.020064931
74	0xbc85132c	-0.016244493
75	0xbd77bff3	-0.06048579
76	0x3d8c473e	0.06849526
77	0xbd80b8cf	-0.062852494
78	0x3dd5dd1a	0.104425624
79	0x3ccc066b	0.024905404
80	0xbd9d84b9	-0.076913305
81	0xb929a2e1	-0.00016177773
82	0x3d4788a6	0.048714302
83	0xbc780755	-0.015138467
84	0xbd6177ca	-0.05504588
85	0x3db9727e	0.09055041
86	0x3d592f47	0.053023603
87	0xbda28cd8	-0.0793702
88	0xbd936c17	-0.07198351
89	0x3814f9da	3.5518642e-05
90	0x3ce2a00a	0.027664203
91	0x3d401800	0.04689789
92	0xbda08f35	-0.078398146
93	0x3c04b790	0.008100405
94	0x3d406a72	0.046976514
95	0x3d6309d5	0.0554293
96	0x3c8964ad	0.016771639
97	0xbdc2bd57	-0.0950877
98	0xbd884e0b	-0.066555105
99	0x3b88bb4a	0.004172717
100	0xbd85e3b5	-0.06537572
101	0xbdc05018	-0.09390277
102	0x3c188251	0.009308414
103	0xbd404866	-0.046944045
104	0xbc72f674	-0.014829267
105	0x3d4c68c6	0.049904607
106	0xbd0df256	-0.034654938
107	0x3cf6eb7a	0.03014158
108	0xbd948ee9	-0.072538204
109	0xbd8a5e98	-0.067563236
110	0x3e0568ab	0.13028209
111	0x3db58d8f	0.08864891
112	0xbdbf467c	-0.09339616
113	0x3c83be22	0.016081873
114	0xbdb6a8d8	-0.08918923
115	0xbd9d8da4	-0.076930314
116	0xbda9fcf6	-0.083002016
117	0x3d6de0e8	0.058075815
118	0xbd7362c5	-0.059420366
119	0xbd623824	-0.05522932
120	0x3dbbc712	0.09168829
121	0xbccc794f	-0.024960188
122	0xbd94e81a	-0.07270832
123	0xbd8c4d2b	-0.06850656
124	0x3d2e9f11	0.042632166
125	0x3dbcdafb	0.09221455
126	0xbd91e394	-0.07123485
127	0xbd6d695c	-0.057961807

layers.3.weight f4 [128, 128]
0	0xbe0befb3	-0.13665657
1	0x3c6079d9	0.013700926
2	0x3da9d852	0.08293213
3	0x3e143dcc	0.14476699
4	0x3cd50e74	0.026007868
5	0x3deb0edb	0.11477443
6	0x3ddbb3b3	0.10727634
7	0xbdaaa89b	-0.0833294
8	0x3ddbb42a	0.10727723
9	0x3e06ff97	0.13183437
10	0xbdddc284	-0.108281165
11	0xbc9551f3	-0.018227553
12	0x3de3d5cc	0.11124763
13	0xbe152f4b	-0.14568822
14	0x3da2c451	0.07947601
15	0xbdc5486c	-0.09632954
16	0xbc73bbe9	-0.014876344
17	0x3e233b37	0.15940557
18	0xbde1695d	-0.110064246
19	0xbd28b8e4	-0.04119195
20	0xbd9cad27	-0.07650214
21	0xbccfb597	-0.025355143
22	0xbdc34c72	-0.09536065
23	0xbe0b2e99	-0.13591994
24	0xbd4a34ea	-0.04936687
25	0x3c75e5bb	0.015008385
26	0xbdf9eaf1	-0.12203015
27	0x3d9c4135	0.07629625
28	0xbdedb971	-0.11607636
29	0x3e15148d	0.14558621
30	0xbc285773	-0.010274756
31	0xbd9c119b	-0.076205455
32	0xbdc8777b	-0.09788414
33	0x3d3160bc	0.043305144
34	0xbdc75c8c	-0.09734449
35	0x3dd4b349	0.103857584
36	0x3e140256	0.14454016
37	0x3e29c1d6	0.16577849
38	0xbcacba7e	-0.02108502
39	0x3dab7285	0.08371452
40	0xbc5537e5	-0.013013815
41	0xbe1d3ca6	-0.15355167
42	0xbde8f8db	-0.113755904
43	0xbd2f0970	-0.04273361
44	0x3b14c145	0.0022698205
45	0x3d387255	0.04503091
46	0x3c2200ff	0.009887933
47	0x3e064bd9	0.13114871
48	0x3d79b756	0.06096586
49	0xbe0e0c4e	-0.13871881
50	0x3d8d3503	0.06894877
51	0x3cfdf0ca	0.030998606
52	0x3dca77ba	0.09886117
53	0xbe3f9e8e	-0.18712828
54	0x3d57aa09	0.052652393
55	0x3d8a64a6	0.067574784
56	0x3dfc6bf0	0.12325275
57	0x3dec97b7	0.11552375
58	0xbe0aa7b9	-0.13540544
59	0xbe0020cd	-0.12512513
60	0x3d1adf8c	0.037810847
61	0x3dc668c8	0.09687954
62	0x3dfec4a2	0.124398485
63	0xbdbf421e	-0.09338783
64	0xbe18a315	-0.14905961
65	0x3d55b353	0.05217297
66	0x3c632dfd	0.013865945
67	0xbdd85bac	-0.1056436
68	0x3d90e3fc	0.070747346
69	0xbdb75a78	-0.089528024
70	0x3d3bcca8	0.045849472
71	0xbe1a6077	-0.15075861
72	0xbcd46870	-0.025928706
73	0x3d88e807	0.06684881
74	0xbd2ad6f5	-0.041708905
75	0x3d2b1b06	0.04177382
76	0xbd9e0777	-0.077162676
77	0xbd9797d4	-0.07402006
78	0xbc3be140	-0.011467278
79	0xb879ca1d	-5.955446e-05
80	0x3d921132	0.07132186
81	0xbd99b3a6	-0.07504968
82	0x3ba087b5	0.00489899
83	0xbda01234	-0.07815972
84	0x3c659331	0.014012144
85	0xbdf90792	-0.12159647
86	0x3dfb778d	0.12278662
87	0x3da28a87	0.07936578
88	0x3dd1282b	0.102127396
89	0xbe0d8460	-0.13820028
90	0xbe235548	-0.15950501
91	0x3b7a5f4a	0.003820377
92	0x3bfbe48d	0.0076871575
93	0xbdcb0d37	-0.0991463
94	0xbe010d26	-0.12602672
95	0xbcf565d4	-0.029955782
96	0xbd754138	-0.05987665
97	0xbd2e1c34	-0.042507365
98	0x3d27db32	0.040980525
99	0xbc211719	-0.009832167
100	0x3d9f5c5c	0.07781288
101	0xbd8360e2	-0.06414963
102	0xbd09349f	-0.03349745
103	0xbcf2d789	-0.02964379
104	0x3ca67516	0.020319503
105	0xbd8e8c59	-0.06960363
106	0xbe24a2c1	-0.1607771
107	0xbe1f934d	-0.15583535
108	0xbe1b945d	-0.15193315
109	0xbcf70c87	-0.03015734
110	0x3dd743b5	0.10510961
111	0x3d4808b3	0.04883642
112	0x3d46371c	0.0483924
113	0x3c6d7da1	0.014495284
114	0x3e0eb096	0.1393455
115	0x3d910075	0.07080165
116	0xbcf56513	-0.029955423
117	0x3e106f52	0.14104965
118	0xbccd1d70	-0.025038451
119	0x3cf8324d	0.030297423
120	0x3d0d7705	0.034537334
121	0xbd958992	-0.0730163
122	0x3e188954	0.14896137
123	0x3e04dafb	0.1297416
124	0x3da056a4	0.078290254
125	0xbdc40cff	-0.09572791
126	0x3de50bc1	0.111838825
127	0xbd2ed0ec	-0.042679712
128	0x3d35a7f0	0.04434961
129	0xbe0119a9	-0.12607445
130	0x3dc37666	0.09544067
131	0x3e29421f	0.1652913
132	0xbd73e3e5	-0.05954351
133	0x3db24951	0.0870539
134	0x3d83d529	0.064371414
135	0x3dfa5442	0.12223102
136	0xbc1290a9	-0.0089456225
137	0xbd7ea4f7	-0.06216904
138	0xbe0cbedc	-0.13744682
139	0xbc8b6611	-0.017016442
140	0x3e07e76b	0.13271873
141	0x3c8017ab	0.015636286
142	0x3d2ac298	0.041689485
143	0x3dc46c24	0.09590939
144	0xbd13fd0e	-0.036130004
145	0xbc72be60	-0.014815897
146	0x3de3417c	0.110964745
147	0x3e0fea78	0.14054286
148	0x3df7aee0	0.12093902
149	0x3d21b1f3	0.039476346
150	0xbe03f6d6	-0.12887129
151	0x3e0eb6a7	0.13936864
152	0x3bb1e1b1	0.005428516
153	0xbaa7fdc7	-0.001281672
154	0xbb1e8473	-0.0024187833
155	0x3de57f69	0.11205942
156	0xbdb95b0a	-0.090505674
157	0xbdd1ce6d	-0.10244451
158	0x3d0b16a2	0.03395713
159	0x3df76902	0.120805755
160	0x3d86e394	0.06586376
161	0x3e1303cf	0.14356922
162	0x3dd3f401	0.103492744
163	0x3d9572dc	0.07297298
164	0xbce67cea	-0.028135736
165	0xbc9da976	-0.019245844
166	0xbdbaf052	-0.09127869
167	0x3d1598d5	0.036522705
168	0x3e2ea246	0.1705409
169	0x3d396c1a	0.04526911
170	0x3d4920fc	0.049103722
171	0x3cc2aefe	0.023765083
172	0xb9107398	-0.00013775972
173	0x3d875764	0.06608465
174	0x3ded52bc	0.11588046
175	0x3cb4ce08	0.0220709
176	0x3db1beb7	0.08678954
177	0x3e16521e	0.14679763
178	0xbd947fce	-0.07250939
179	0x3e0c118f	0.13678573
180	0xbe2108b1	-0.15725972
181	0x3da9eccc	0.082971185
182	0xbd7d30a6	-0.061813973
183	0x3dc5f335	0.09665529
184	0x3d3db6e0	0.04631698
185	0xbd806fa0	-0.06271291
186	0x3e0501d0	0.12988973
187	0xbe1980d1	-0.14990546
188	0x3c728105	0.0148012685
189	0x3e186de5	0.14885671
190	0xbe1a3dda	-0.15062657
191	0x3e08b611	0.13350703
192	0xbdf2fc23	-0.118644975
193	0xbd1535bc	-0.0364282
194	0xbc2204be	-0.009888826
195	0xbbd4b517	-0.006491314
196	0x3dd2e5c7	0.10297733
197	0x3dabb329	0.083837815
198	0xbde005d4	-0.109386116
199	0xbe219c97	-0.1578239
200	0x3e0b316c	0.13593072
201	0xbd6605a9	-0.05615774
202	0x3e086df7	0.13323198
203	0x3d7ada37	0.061243262
204	0x3cd405c0	0.025881648
205	0x3e16b83c	0.14718717
206	0x3dbc3fe9	0.091918774
207	0x3b4d84b1	0.0031359608
208	0x3e05708f	0.13031219
209	0x3de6d4c9	0.11271054
210	0xbdbe8e3f	-0.09304475
211	0x3dfa3ebd	0.12218998
212	0xbddff634	-0.109356314
213	0x3dcca4ed	0.099923946
214	0x3d76bd3c	0.06023906
215	0xbd3adc83	-0.045620453
216	0x3e0653d8	0.13117921
217	0x3d133699	0.03594074
218	0x3dd785a2	0.10523535
219	0x3c4da246	0.012550896
220	0xbda8a5a7	-0.08234721
221	0xbd703288	-0.05864194
222	0xbc232752	-0.009958105
223	0xbcf07b7b	-0.029355755
224	0x3cc29997	0.023754878
225	0xbd9f7f3f	-0.07787942
226	0x3d9d6ef6	0.0768718
227	0x3df84e76	0.1212434
228	0xbc86d5fa	-0.016459454
229	0x3d74f25a	0.059801437
230	0xbdf8e387	-0.121527724
231	0x3cf6b54b	0.030115744
232	0xbda80dfb	-0.082057916
233	0x3de9c629	0.11414749
234	0x3deaf6d3	0.11472859
235	0x3deae6d4	0.11469808
236	0xbb11f5ac	-0.0022271676
237	0xbdad5248	-0.084629595
238	0x3e14c136	0.14526829
239	0xbe0af31c	-0.13569301
240	0xb995ba11	-0.00028558125
241	0x3d17c60f	0.037054118
242	0x3d7ff9dc	0.062494144
243	0xbdac8a71	-0.08424843
244	0x3d43d2f1	0.04780859
245	0xbc68000b	-0.0141601665
246	0x3d86e213	0.06586089
247	0x3de8836c	0.11353192
248	0xbd8b462b	-0.06800493
249	0x3c695d80	0.014243484
250	0xbe126323	-0.1429563
251	0x3d542bba	0.051799513
252	0xbda675f6	-0.08127968
253	0x3da715ff	0.08158492
254	0x3c8c706c	0.01714345
255	0xbc735e55	-0.0148540335

layers.3.bias f4 [128]
0	0xbdcd7d73	-0.10033693
1	0xbdaa977b	-0.08329674
2	0xbc84ff26	-0.016234946
3	0x3c64b497	0.013959072
4	0xbd506b5d	-0.05088364
5	0xbd977d1f	-0.07396912
6	0xbc8c2117	-0.017105622
7	0xbc1e9574	-0.009679187
8	0x3ca2068d	0.019778514
9	0x3dc613d4	0.09671751
10	0x3d113e8c	0.03546004
11	0x3da97048	0.08273369
12	0x3d6a4e3c	0.057203516
13	0x3d665dbd	0.05624174
14	0xbc8b1ee1	-0.016982498
15	0xbda49b33	-0.080374144
16	0xbd31e096	-0.043427072
17	0xbbfa7ada	-0.0076440396
18	0x3c85b199	0.016320037
19	0x3d052838	0.03250906
20	0xbc0535f9	-0.008130544
21	0xbd6228dd	-0.05521475
22	0xbcdf9a29	-0.027295189
23	0xbd353dbf	-0.04424834
24	0xbd3fc93a	-0.046822764
25	0xbd49d26b	-0.049272936
26	0x3ca8305f	0.020530878
27	0xbdcc6115	-0.099794544
28	0x3cbee464	0.023302265
29	0xbda02515	-0.07819573
30	0xbd672084	-0.056427494
31	0xbdc0cd93	-0.0941421
32	0x3d28eb6c	0.04124014
33	0x3dc04a58	0.0938918
34	0xbda9339e	-0.08261798
35	0x3d6e6856	0.05820497
36	0xbd33a3d9	-0.04385743
37	0x3c9d7c07	0.01922418
38	0x3d3217ef	0.043479856
39	0xbcb798ae	-0.02241167
40	0x3c200407	0.009766585
41	0xbd670e7f	-0.05641031
42	0xbd654226	-0.055971287
43	0x3d9f1b06	0.07768826
44	0xbbb43822	-0.0054998556
45	0x3c06c6bf	0.008226096
46	0x3c5b3e4d	0.013381553
47	0xbd29f103	-0.041489612
48	0x3d89db44	0.06731275
49	0x3b9bf0ab	0.0047589145
50	0x3d239d12	0.039944716
51	0x3d9526c2	0.07282783
52	0x3d7ca5e2	0.061681636
53	0xbdaccc0d	-0.08437357
54	0x3d86f806	0.065902755
55	0x3c7072bc	0.014675792
56	0xbd335791	-0.04378468
57	0xbd8118bd	-0.063035466
58	0x3c1cd54d	0.009572339
59	0xbb2a013a	-0.0025940672
60	0x3b8e48e4	0.0043421853
61	0xbd15c22a	-0.036562122
62	0xbbac3c58	-0.005256217
63	0x3d5b1abd	0.053492296
64	0xbd4eda31	-0.050501052
65	0xbd0fee83	-0.035139572
66	0xbc43ac1a	-0.011942888
67	0x3d978b26	0.07399587
68	0x3cbe7839	0.023250686
69	0x3d8d778d	0.06907568
70	0xbca80ba5	-0.020513365
71	0xbc79fcb5	-0.015258004
72	0x3d0315c7	0.03200319
73	0xbd31a607	-0.043371227
74	0xbdabc707	-0.08387571
75	0x3da75450	0.08170378
76	0xba406ade	-0.0007340143
77	0xbb6e5202	-0.0036364798
78	0x3d740e8d	0.05958419
79	0x3d69fb23	0.05712427
80	0xbcf166a1	-0.029467883
81	0xbd21c4c1	-0.03949428
82	0xbd516981	-0.051126007
83	0x3db61f31	0.08892668
84	0xbd27a55e	-0.04092919
85	0xbd4d09ab	-0.05005805
86	0xbccccbbf	-0.024999497
87	0x3d5ab771	0.0533976
88	0x3d016226	0.031587742
89	0xbd1ee8b0	-0.038796127
90	0xbcab6e07	-0.020926489
91	0x3dadb45b	0.08481666
92	0x3d8e77e1	0.06956459
93	0x3d6fad68	0.058514982
94	0xbd6a3035	-0.05717488
95	0xbcd456ac	-0.025920235
96	0xbd33e2e0	-0.043917537
97	0x3da8cf0e	0.082426175
98	0xbd43d93d	-0.047814596
99	0xbd3e2c26	-0.046428822
100	0x3d48b4d3	0.049000572
101	0xbdb24856	-0.08705203
102	0x3cf539bb	0.029934755
103	0x3c86e1bb	0.016465059
104	0x3da39b0d	0.07988558
105	0x3d804bb4	0.06264439
106	0x3d06d17a	0.032914616
107	0x3dc4c376	0.09607594
108	0x3ca04046	0.019561898
109	0x3d51415a	0.051087715
110	0xbde11508	-0.109903395
111	0x3d693cd4	0.056942776
112	0x3c9cca10	0.01913932
113	0x3d3e4448	0.046451837
114	0xbc765bd2	-0.01503654
115	0xb9852e0d	-0.00025402047
116	0xbd9292dd	-0.07156918
117	0xbdb213be	-0.08695172
118	0xbd22725b	-0.03965984
119	0xbd929bf6	-0.071586534
120	0x3c45a71e	0.01206377
121	0x3ba59c59	0.0050540385
122	0xbda2abf0	-0.07942951
123	0x3db074a6	0.08615999
124	0xba60e7b0	-0.0008579446
125	0x3c65573c	0.013997849
126	0xbd3f9686	-0.04677441
127	0x3d6cc909	0.05780891

layers.4.weight f4 [128, 128]
0	0xbacc57ac	-0.0015590093
1	0x3c1e3956	0.009657225
2	0xbdad35c3	-0.0845752
3	0x3c3a3f4d	0.011367631
4	0x3e091e0a	0.13390365
5	0xbe039e4d	-0.12853356
6	0x3d995ccf	0.07488405
7	0xbd25230f	-0.040316638
8	0xbde1cc34	-0.11025277
9	0xbda3a1fe	-0.07989882
10	0x3e0bca2d	0.13651343
11	0xbdf96bfc	-0.121787995
12	0xbdbf2f1e	-0.09335159
13	0x3bf1cb7a	0.0073789926
14	0x3d3c4909	0.04596809
15	0xbdce9f26	-0.10088949
16	0x3e00899e	0.12552497
17	0x3e2484e1	0.16066314
18	0xbd017c24	-0.03161253
19	0x3da11290	0.07864869
20	0x3d00c42e	0.03143709
21	0xbdeecbbe	-0.116599545
22	0xbe131ddd	-0.1436686
23	0xbd878cd7	-0.0661866
24	0xbc8b62af	-0.01701483
25	0xbda2d372	-0.07950486
26	0xbd089d5c	-0.033353195
27	0xbde0d6d6	-0.10978477
28	0x3ccb53d2	0.024820242
29	0xbd451826	-0.048118733
30	0x3d9f0ce6	0.07766132
31	0x3d3a9b88	0.045558482
32	0xbe04042a	-0.12892213
33	0xbe0a5e6a	-0.13512579
34	0x3da98c1f	0.08278679
35	0x3a87429a	0.0010319531
36	0x3dd89073	0.105744265
37	0x3d8d9533	0.06913223
38	0x3d4f6367	0.050631907
39	0xbd99087d	-0.07472322
40	0x3db7e66f	0.089794986
41	0x3dfdf5a4	0.12400368
42	0x3c91af64	0.017783828
43	0xbd2c1614	-0.042013243
44	0x3cf3aaf4	0.029744603
45	0xbe1afcba	-0.1513547
46	0xbe11761a	-0.14205208
47	0x3e0acfa5	0.13555773
48	0xbdde357f	-0.10850047
49	0x3df3eebb	0.119107686
50	0x3df78a4b	0.12086924
51	0x3e0d898a	0.13821998
52	0x3e0359b9	0.12827195
53	0xbde2d3de	-0.11075567
54	0x3e013794	0.12618858
55	0xbdc1a199	-0.094546504
56	0x3d4ccbf4	0.049999192
57	0x3d5a9696	0.053366266
58	0x3df93511	0.12168325
59	0x3dfda62d	0.12385211
60	0x3da60bf6	0.0810775
61	0xbd55f78e	-0.05223804
62	0xbe1c9fcc	-0.15295333
63	0xba115a31	-0.00055447506
64	0xbd19a58a	-0.037511386
65	0x3d1ae0af	0.03781193
66	0xbda01409	-0.078163214
67	0xbe12b6da	-0.14327565
68	0xbdfbcf1b	-0.122953616
69	0xbcbb6710	-0.022876292
70	0xbd9c23de	-0.076240286
71	0xbd5f933b	-0.05458377
72	0xbd9929f7	-0.07478707
73	0xbe102bb3	-0.1407917
74	0xbcc5c6ca	-0.024142642
75	0x3d8e34a9	0.06943638
76	0x3c7fdd8b	0.015616785
77	0x3d9d8433	0.076912306
78	0xbd69fe07	-0.057127025
79	0xbdcaccde	-0.099023566
80	0xbdff036e	-0.12451826
81	0xbc46672e	-0.012109561
82	0x3d354533	0.044255447
83	0x3d3724c0	0.044712782
84	0x3d7f3be9	0.062312994
85	0xbcbeb77b	-0.02328085
86	0x3ccb20da	0.024795938
87	0x3e038595	0.12843926
88	0xbb8a2f99	-0.0042171
89	0xbd41255d	-0.047154773
90	0xbde1e830	-0.110306144
91	0xbd8a3214	-0.06747833
92	0xbe0b2557	-0.13588463
93	0xbc1ed1ae	-0.009693546
94	0xbd69c0f2	-0.057068773
95	0xbdd4de0a	-0.10393913
96	0xbd9b699c	-0.07588503
97	0xbdad01a9	-0.08447582
98	0xbe204f8e	-0.15655348
99	0x3e142c33	0.14469986
100	0xbd852a1a	-0.06502171
101	0x3cbc8c46	0.023016106
102	0xbdbbd21c	-0.091709346
103	0xbe0e3611	-0.13887812
104	0xbddc6cb0	-0.10762918
105	0xbd8af9f9	-0.0678596
106	0xbd1613fa	-0.036640145
107	0xbd063760	-0.032767653
108	0xbddbbf69	-0.10729868
109	0xbd3b8c2f	-0.045787986
110	0xbdc2f188	-0.09518725
111	0xbdfd780f	-0.12376415
112	0x3d98b8a4	0.074570924
113	0xbe03b241	-0.12860967
114	0xbe0d38d5	-0.13791211
115	0x394b4c21	0.00019387949
116	0xbd47489d	-0.048653234
117	0x3dfe36d3	0.12412801
118	0xbd9053d0	-0.07047236
119	0x3df7fb50	0.12108481
120	0x3c956e33	0.018241024
121	0xbd822057	-0.063538246
122	0xbc89cad3	-0.016820347
123	0x3d912680	0.070874214
124	0x3cff1722	0.03113896
125	0xbd9d47b8	-0.07679695
126	0x3ca2d328	0.019876078
127	0x3c0d94e9	0.00864146
128	0xbd0af685	-0.033926506
129	0xbe1bca11	-0.15213801
130	0x3d346d5d	0.04404961
131	0x3dc66024	0.09686306
132	0x3d58b75a	0.052909233
133	0xbc85ddfc	-0.016341202
134	0x3d5ff50f	0.054677065
135	0xbdce1183	-0.10061934
136	0xbe0dfd17	-0.13866077
137	0x3dc03af9	0.09386248
138	0xbd3551c0	-0.044267416
139	0xbcb51861	-0.022106351
140	0xbd66dfc1	-0.056365732
141	0xbcebbabb	-0.028775563
142	0xbe02ae82	-0.12761882
143	0xbdee44e3	-0.11634233
144	0xbdc5ec32	-0.09664191
145	0x3d3c6d9e	0.046002977
146	0xbca8d0d6	-0.020607393
147	0xbc99b468	-0.018762782
148	0x3e030344	0.12794214
149	0xbbc3df87	-0.0059775743
150	0xbc3824a1	-0.011239202
151	0xbc9045b7	-0.017611368
152	0xbe10a9bb	-0.14127247
153	0x3d3663bd	0.04452871
154	0x3c61d191	0.013782875
155	0x3d861f7b	0.06548973
156	0xbdc1f0ba	-0.09469743
157	0xbd3b80bb	-0.045777064
158	0xbd7fe79d	-0.062476743
159	0x3d87f5e1	0.066386946
160	0xbca92726	-0.02064855
161	0xbe09b3d3	-0.13447504
162	0x3dc31f64	0.09527472
163	0x3dcd852a	0.10035165
164	0x3dc33b0d	0.095327474
165	0x3c602d02	0.013682606
166	0xbdcd341a	-0.10019703
167	0x3dc64106	0.09680371
168	0xbdcafe30	-0.09911764
169	0x3be83119	0.007085931
170	0xbd2b94f2	-0.041890092
171	0xbcf615b1	-0.03003964
172	0xbdc6a1f4	-0.09698859
173	0x3dbf94fb	0.09354588
174	0x3e269040	0.16265965
175	0x3d8c043e	0.06836747
176	0x3e1a0299	0.15040053
177	0x3dcdbe2b	0.10046037
178	0xbdd9f016	-0.10641496
179	0xbc8f1b81	-0.01746917
180	0xbc85ee40	-0.016348958
181	0x3dd60bf6	0.104515
182	0x3dc5e16d	0.09662137
183	0xbb800800	-0.0039072037
184	0xbcf73fe5	-0.030181834
185	0x3dab99f9	0.08378977
186	0x3da9d3ee	0.082923755
187	0xbcb08223	-0.021546429
188	0xbd4f866f	-0.050665315
189	0xbe10c0c4	-0.14136034
190	0x3d8d2e33	0.068935774
191	0x3e054bc7	0.13017188
192	0x3e042601	0.12905122
193	0x3d794fda	0.060867168
194	0xbdbe3543	-0.092875026
195	0x3ca903c6	0.020631682
196	0xbd80811e	-0.06274627
197	0xbd9cf1a2	-0.07663275
198	0x3de8e21e	0.113712534
199	0x3b75e505	0.003752054
200	0xbd514c56	-0.05109819
201	0x3e10bc98	0.14134443
202	0x3c4d3868	0.012525655
203	0xbde2d8f6	-0.11076538
204	0xbd8ab19c	-0.067721575
205	0xbae0518e	-0.0017114149
206	0x3ce52758	0.027972862
207	0x3dcda3e5	0.10041026
208	0x3de75d93	0.11297145
209	0xbdd92f0a	-0.10604675
210	0xbdc79c00	-0.097465515
211	0x3de764fa	0.112985566
212	0xbe12a85d	-0.14322038
213	0x3cb083c3	0.021547204
214	0xbd5fb363	-0.054614436
215	0xbde7c40e	-0.11316691
216	0xbb061355	-0.00204583
217	0xbd8b0312	-0.06787695
218	0x3dabb07e	0.083832726
219	0x3dae55d1	0.08512462
220	0x3d47b897	0.048760023
221	0x3c8c7f88	0.017150655
222	0x3e00fb21	0.12595798
223	0xbca83987	-0.020535244
224	0x3d4920b7	0.049103465
225	0x3d1e33c9	0.038623605
226	0xbdef9907	-0.116991095
227	0xbdf8ad08	-0.12142378
228	0x3d9c7798	0.07639998
229	0x3dc9903d	0.098419644
230	0x3ca76773	0.02043507
231	0xbe11b3c2	-0.14228728
232	0x3decad97	0.11556547
233	0xbcfa7138	-0.030571565
234	0xbd1d92b0	-0.03846997
235	0xbdb8d5e7	-0.09025174
236	0x3d9f3e32	0.07775535
237	0xbda72006	-0.08160405
238	0xbde54072	-0.111939326
239	0x3d81096b	0.063006245
240	0x3dbbaa9b	0.091634
241	0xbdf0500a	-0.11734016
242	0xbc2410c1	-0.01001376
243	0xbdd47f87	-0.103758864
244	0xbe01a17a	-0.12659255
245	0x3e103650	0.14083219
246	0xbd753933	-0.059869003
247	0xbda27460	-0.07932353
248	0x3d672829	0.056434784
249	0xbdb0c493	-0.086312436
250	0xbcc3dd56	-0.023909252
251	0xbcea7690	-0.028620988
252	0x3cee61dc	0.029099397
253	0x3d48d9b2	0.049035735
254	0x3db06f34	0.0861496
255	0x3e1517b3	0.14559822
