real_btcusdt_call_pricing_mlp_6inputs/result_19/pinn_model169.pth (torch, 472610 bytes, 17 tensors)

layers.0.weight f4 [128, 6]
000000 7f ee 3e 3e be 0c e5 bd aa e8 51 3e 02 f1 3b be
       0.18645667 -0.11184071 0.2049891 -0.18353656
000010 35 db 6d 3d bd 58 1a 3d 9b e9 1d 3e 57 b4 d9 3d
       0.05807038 0.037682284 0.15421145 0.106301
000020 62 dd e7 bd 8c 58 2e 3e cc 63 3f bb d3 87 72 bd
       -0.11321522 0.17025965 -0.002920377 -0.059211563
000030 6e 18 42 bd 7f 1d 5c be 03 28 04 be c9 27 29 be
       -0.04738658 -0.21495627 -0.12905888 -0.16519083
000040 c5 12 67 3e b0 53 bd 3b 87 6c e6 3d f1 ff bf bd
       0.22565754 0.0057777986 0.11251169 -0.09374989
000050 62 b2 2b 3d 92 2f 2a 3d 66 2d 1f 3e cc 0d 2e 3e
       0.041918166 0.041549273 0.15544662 0.1699745
000060 ee c2 be bd ca f5 ee bd 93 aa 2d 3e b7 f0 20 be
       -0.09314524 -0.11667974 0.169596 -0.15716825
000070 d5 18 14 3e 41 6e 79 bd e1 86 e8 3c c1 f2 22 bd
       0.14462598 -0.060896162 0.028384628 -0.03978229
000080 bb fe 1b 3e 31 df 46 be ea 6b d0 bd 91 f2 08 be
       0.1523389 -0.19421078 -0.10176833 -0.13373782
000090 f6 97 05 3e fc c4 3b bd ff a3 3b 3e b8 51 2a bd
       0.1304625 -0.045842156 0.18324278 -0.04158184
0000a0 b8 2f 60 be b8 dc 96 3d 57 fc 31 be e9 0e 3a 3e
       -0.21893203 0.073663175 -0.17381416 0.1816975
0000b0 92 3b 3e 3e 8a 77 1f 3e 73 7c 3d 3e c7 f8 40 be
       0.18577412 0.15572944 0.18504505 -0.18844901
0000c0 0e 55 0b be 53 2d 73 be 9e 56 7a bd 41 9d ef bc
       -0.13606665 -0.23747759 -0.06111776 -0.02924979
0000d0 7f 70 e1 ba 8b 5e fb 3c 6b e6 e4 3d 17 65 10 be
       -0.0017199664 0.03068473 0.11176761 -0.14101063
0000e0 f0 6d e4 bc 36 0e 5c bd c6 b3 83 3d 20 6f 25 3d
       -0.027884454 -0.05372449 0.064307734 0.04038918
0000f0 30 3e ac 3d 50 2d 55 3e a3 7c 81 bd 2d cf 9c bd
       0.08410299 0.20818067 -0.06322601 -0.07656703
000100 4a 1a ff 3d fe 58 41 be c1 cd b7 bd 21 66 01 3d
       0.12456186 -0.18881604 -0.08974791 0.03159154
000110 07 6e 01 3e f0 87 ea 3d a7 fc 1c be ff 23 9c bd
       0.12639628 0.11451709 -0.15330754 -0.07624053
000120 7c d7 40 3e e8 66 7a be 0f 49 13 be 58 53 36 3d
       0.18832201 -0.24453318 -0.14383338 0.044513077
000130 00 27 c3 bc cf 1c c1 bd 4c b2 12 bd 33 12 57 3e
       -0.023822308 -0.09429323 -0.03581457 0.21003036
000140 13 c5 a2 bd f4 4e 4a 3e c5 db b8 bd 77 d3 8a bb
       -0.07947745 0.1975668 -0.09026293 -0.0042366344
000150 3e ee 41 3c ca 95 35 be 18 61 db 3c ea bb 02 3d
       0.0118365865 -0.17732921 0.026779696 0.03191749
000160 32 13 65 bc d4 5b 05 be 78 af 20 3e 95 f9 22 3d
       -0.013981627 -0.13023311 0.15691936 0.0397888
000170 8e 34 07 be 15 66 c7 3d 6c 8c d1 3d d1 9b ee 3c
       -0.13203642 0.097362675 0.102318615 0.029127033
000180 54 4f 05 be fa 87 a3 bd 33 75 3c be 0f 6b c1 3c
       -0.13018543 -0.0798492 -0.18404083 0.02361062
000190 55 81 ea bd 4e 08 65 bd 7f a6 83 bd 3b 7f c5 3d
       -0.114504494 -0.055916123 -0.06428241 0.09643408
0001a0 37 14 fe bc 85 8d 9f bd ba 48 06 3e 31 a2 00 be
       -0.031015499 -0.077906646 0.1311368 -0.12561871
0001b0 00 e4 5c 3e 05 ae 2e 3e 17 68 96 bc 94 f8 be 3d
       0.2157135 0.1705857 -0.01836018 0.09324756
0001c0 18 7e 52 3e db 70 44 3e 9d 34 49 3e dc 12 26 be
       0.20555913 0.19183676 0.19648977 -0.16218132
0001d0 c1 23 0e be 73 72 e3 3d b8 cd 45 3e 77 52 c4 bd
       -0.13880827 0.11105814 0.19316757 -0.095860414
0001e0 80 59 9f bd bb 39 09 bc 9c 1b bf 3d ae 1b ba 3d
       -0.07780743 -0.00837558 0.09331438 0.09087311
0001f0 b2 ba ee bd a2 2c 4c be 1c f7 fe 3d 17 3a b3 3d
       -0.11656703 -0.19938901 0.12449476 0.08751314
000200 37 0c 12 bd 7e 27 28 bd ea d9 6e bd ae c6 8f bd
       -0.03565618 -0.041053288 -0.058313288 -0.07020317
000210 9f d4 ab bd 37 dc 43 be 07 76 3e bc 51 95 5e 3e
       -0.08390164 -0.19126974 -0.01162482 0.21736647
000220 78 00 22 3e eb da 89 bc e8 b5 a9 bd 10 28 95 bb
       0.15820491 -0.016828021 -0.08286649 -0.004551895
000230 41 17 26 3e d5 8c ad bd ae 79 8b 3a d2 c9 12 3e
       0.16219808 -0.08474127 0.0010641122 0.14334801
000240 2a 47 2e 3e d1 75 14 be d6 ba 70 3d 43 d5 c0 bc
       0.17019334 -0.14498068 0.05877193 -0.023539191
000250 e4 e5 81 3d c2 4a 6b 3d d5 87 a3 3d e0 a7 9b bd
       0.06342676 0.05744434 0.07984892 -0.07600379
000260 7f e1 a1 bd 1f a7 1a bd 85 11 dd bd 49 e5 fe bd
       -0.07904338 -0.037757035 -0.10794357 -0.124460764
000270 65 00 1e bd 71 02 24 3e 61 47 e8 bd f5 39 0e 3e
       -0.038574595 0.16016556 -0.113417394 0.13889296
000280 ae 8f 0d 3e 9f 24 c0 3d e7 0b a3 bc 2a ef 35 3e
       0.1382434 0.09381985 -0.019903136 0.17767015
000290 0f c7 fc bc 8d fa ee bd f6 e2 a0 3d 5a a7 1d be
       -0.030856637 -0.116688825 0.07855789 -0.15395871
0002a0 c1 5a 39 3e 6e 38 29 3b 1f bf d9 3d 10 40 91 3d
       0.18101026 0.0025820988 0.106321566 0.07092297
0002b0 da 03 53 be 53 a8 19 3e 52 df 57 3e 96 23 68 be
       -0.20606938 0.15005617 0.21081284 -0.22669825
0002c0 cc 90 73 3d fd 11 f4 3d 4f 91 a1 3c 92 db e5 bd
       0.05946426 0.119174935 0.019722609 -0.1122352
0002d0 0e d5 34 bd 17 12 8b 3d c8 3f 33 be 89 16 fb bd
       -0.044148497 0.0679056 -0.175048 -0.122601576
0002e0 7f c2 ff bd df 7f 91 bd 64 b9 07 be 33 2c 8f 3d
       -0.12488269 -0.071044676 -0.13254315 0.06990852
0002f0 ac ea 26 3e 58 9d 61 be af c2 a9 3c b1 e7 f4 bd
       0.16300458 -0.22032678 0.020722715 -0.11958254
000300 dc f8 23 3e 8e 91 16 be f8 a8 d7 3c 34 44 c0 3d
       0.16012901 -0.14703962 0.026325688 0.09388009
000310 9e dc f9 bd 00 77 0d be 0c 50 0d 3e 67 fd fd bd
       -0.122002825 -0.13814926 0.13800067 -0.12401848
000320 21 e7 62 be 8c e4 41 3e d9 06 3d 3e 44 5a 15 be
       -0.22158481 0.1893484 0.18459643 -0.14585215
000330 07 3b db bd 53 08 34 be e0 6a 6f 3e 42 4f 0b be
       -0.10704618 -0.175813 0.23380613 -0.13604453
000340 00 43 22 bd 9c 27 74 3d a0 8f 12 bd 6f f9 6d 3a
       -0.039614677 0.059608087 -0.035781503 0.0009078001
000350 14 15 3f be 5b 28 4f 3d b1 55 a6 3c 95 6f 2a 3e
       -0.18660384 0.050575595 0.020304533 0.16644128
000360 ff 2f 0a 3c 41 b8 21 bd f0 af ab 3d 4a 28 f6 bd
       0.008434295 -0.03948236 0.08383167 -0.12019403
000370 fd 66 46 3d 10 a0 1f 3e ea ed 2a 3e 4d d8 c8 3c
       0.04843806 0.15588403 0.1669232 0.024517203
000380 98 7d 03 3d ef f4 a1 bc c9 fb b2 3d 08 22 22 3e
       0.032102197 -0.019770114 0.087394305 0.15833294
000390 42 56 c8 bd ef 05 fb 3d d7 4b a6 3d b8 98 70 3e
       -0.09782077 0.12256991 0.08119934 0.23495758
0003a0 36 4f 98 3d cd 47 2f be 4a a7 8c bd 59 d3 51 be
       0.07436983 -0.17117234 -0.06867845 -0.20490779
0003b0 e3 22 d6 bd d7 44 38 3e b0 08 52 3e 46 0f f7 3c
       -0.10455873 0.1799501 0.20511127 0.03015865
0003c0 29 c7 34 3e 8a 97 4d be a9 6f 3a be 68 66 59 be
       0.17654099 -0.20077339 -0.18206657 -0.21230471
0003d0 7d f7 23 be 30 47 a8 3d 6c 62 23 bd 00 39 22 3e
       -0.16012378 0.08216703 -0.039888784 0.15842056
0003e0 36 00 65 3e 63 26 7c 3d be 7f f5 3d 6d 61 31 3e
       0.22363362 0.061560046 0.119872555 0.17322321
0003f0 e9 2f 76 bd 8e 5f 49 3c 35 20 be 3c 05 1c 46 be
       -0.060104284 0.012290848 0.023208717 -0.19346626

layers.0.bias f4 [128]
000000 83 8f 3d 3b d9 39 ff 3d fa 6d 57 3e ac 55 33 be
       0.002892465 0.124622054 0.21038046 -0.1751315
000010 b7 6d 88 bd 4a 30 ef bd ae 6c 10 be ec 9a c8 be
       -0.066615514 -0.11679132 -0.14103958 -0.39180696
000020 83 22 f1 3e 09 15 0e be 44 3d d3 be 39 ab 2e be
       0.47096643 -0.13875212 -0.4125768 -0.17057504
000030 2c b3 bd 3e 9b ee 5c be 97 e6 d0 3e 32 af 4a 3e
       0.3705076 -0.21575396 0.40800926 0.19793394
000040 4e 26 b2 3e a6 ea 31 3e 0e 64 93 3e 63 76 75 3c
       0.3479485 0.17374668 0.28787273 0.014981839
000050 fd 3d ac 3e ed e9 85 be 27 64 25 be 13 9b 8b 3e
       0.33641043 -0.26155034 -0.16151486 0.2726675
000060 b9 92 35 3e 80 80 d4 3e e6 f3 3d 3e 10 da 56 bd
       0.17731752 0.41504288 0.18550071 -0.052454054
000070 a1 a0 6b 3e 45 8e 17 3e cc 2f 75 bd 83 37 b9 be
       0.23010494 0.14800365 -0.059860036 -0.36175165
000080 78 52 c4 3e 2b d0 29 be 96 49 3a be 6b f8 e0 bc
       0.3834417 -0.16583316 -0.18192133 -0.027462205
000090 34 d1 8a 3d e2 d4 c7 be d3 a2 40 3e 84 b2 4a 3e
       0.067781836 -0.39029604 0.18812113 0.19794661
0000a0 dc 60 87 be e5 ab bc 3e f0 e9 70 3e f8 38 88 be
       -0.26441085 0.36849895 0.2352674 -0.26605964
0000b0 6e 06 91 3d 56 13 6a be 8f 9f 2f 3e 4e 41 a1 be
       0.070813045 -0.22858939 0.1715071 -0.31495136
0000c0 d8 15 95 3e c8 b1 88 be 9f 4e 89 3e 12 25 de be
       0.29118228 -0.26698136 0.26817796 -0.43387657
0000d0 34 c5 98 be 80 65 8e be 8f 66 0e 3e 72 19 a3 3e
       -0.29837954 -0.27811813 0.1390631 0.3185535
0000e0 65 a5 bd be 69 fc 8f 3e 59 e2 b3 be 85 8d 82 be
       -0.3704025 0.2812226 -0.35133627 -0.25498596
0000f0 0b 69 33 be 58 a3 a6 3d 4f af a1 3e a0 9d 9a 3e
       -0.1752054 0.08136624 0.31579062 0.30198383
000100 e1 fd d2 3d c5 2e 02 3e 6c 5d 30 3e 44 01 1e be
       0.1030233 0.12713154 0.17223138 -0.1543017
000110 aa ac 81 be 3b 61 80 be 3a 5f 9c 3d 8c 94 5b be
       -0.25327045 -0.2507418 0.076353505 -0.21443385
000120 73 13 82 bd 9b 00 4e be d1 fd bc be 22 8c 54 be
       -0.06351366 -0.20117418 -0.36912397 -0.20756581
000130 db cd ba 3e 47 7c 3c 3d 4b 3d d7 be 79 9a 1b 3e
       0.3648518 0.046016958 -0.4203895 0.15195645
000140 f5 d7 aa be 14 45 7d bd dd 29 bd be fa 15 55 be
       -0.33367887 -0.061833456 -0.36946002 -0.20809165
000150 56 a0 6c 3e bb 29 9f bc eb 4e 9c be ec e9 70 3e
       0.23108038 -0.019429078 -0.3052896 0.23526734
000160 d0 11 a4 3e 30 eb 70 3e 17 63 a5 3d a3 e2 fa 3d
       0.3204484 0.23527217 0.080755405 0.12250259
000170 a8 b9 aa 3e 4b b2 3a be 09 18 59 be cc 81 01 be
       0.3334477 -0.18232076 -0.21200575 -0.1264717
000180 38 f5 cd 3e f1 99 a9 3c 50 e2 9f 3d 64 55 36 be
       0.4022615 0.020703288 0.078068376 -0.17806011
000190 c3 5a 6c be 29 16 d7 3e 92 99 7b 3e 53 c1 7d be
       -0.23081498 0.42009094 0.24570301 -0.24780779
0001a0 13 44 50 3e 5e df c7 be a6 4c 60 3e 1a ea 02 be
       0.20338468 -0.39037603 0.21904239 -0.12784615
0001b0 89 5b c4 3e 72 e5 8e be 5f 12 69 3e ae 11 fa 3c
       0.38351086 -0.27909428 0.22760914 0.030526008
0001c0 f7 b7 0b be 59 f2 a3 be 82 4b 6a be 1e ed c8 be
       -0.13644396 -0.32020834 -0.22880366 -0.39243406
0001d0 25 ae a1 be 98 60 54 3e 4f e0 23 3d 3a 95 10 3e
       -0.31578174 0.20739973 0.04000884 0.14119425
0001e0 d8 d0 9b 3e 85 be 01 3d 53 55 01 3c 7a 34 c7 bc
       0.30432773 0.031675834 0.007893878 -0.024317015
0001f0 e2 26 95 be 93 f5 a6 3e 79 27 58 3e 37 df d6 bc
       -0.29131228 0.32609233 0.21108808 -0.026229484

layers.1.weight f4 [128, 128]
000000 77 4a ad 3d 2f 8c 65 bd 66 df e0 3d 6e a5 46 bd
       0.08461469 -0.056041893 0.1098011 -0.04849761
000010 49 a7 30 3d fb a5 55 bd e7 9b d4 bd 3e 7e e4 3d
       0.043128286 -0.052160244 -0.103812985 0.11156891
000020 cf 20 0d be 87 4b cb 3d ce 1c 7c bc 13 e7 c6 bd
       -0.13782047 0.09926515 -0.015387727 -0.09712043
000030 7f ee c1 bd 44 8a 0d be bf b3 b8 3c c5 ef 98 bc
       -0.09469318 -0.13822275 0.022546647 -0.018669019
000040 ab 44 90 bd ce 89 16 be f7 9a fd 3d af d2 88 bd
       -0.070443474 -0.14701006 0.12383073 -0.0668081
000050 69 b7 6d bc 25 02 10 bc 96 8c 72 3d e6 5d fe 3b
       -0.01450906 -0.008789574 0.059216104 0.0077626584
000060 ad 9d f4 3d 81 32 e8 bd 25 f8 e8 bd 13 94 a1 3d
       0.11944137 -0.11337758 -0.11375455 0.07889571
000070 c3 54 37 3d 82 18 81 bd 5e eb 4d bd 83 9e e2 3d
       0.04475857 -0.063035026 -0.05027329 0.1106539
000080 71 45 50 bd 72 31 00 be 50 10 c5 bd 42 e7 f8 3c
       -0.050847474 -0.12518862 -0.09622252 0.03038371
000090 22 b4 8d 3d fd 3e 00 3e ba 7e 1e 3e 71 16 df bd
       0.06919123 0.12524028 0.1547803 -0.10892952
0000a0 e4 80 1a 3d 0c 6b cf bd c8 f1 a8 bc 40 89 e7 3d
       0.037720576 -0.101278394 -0.020623103 0.11305475
0000b0 c8 6a 85 3d ca b2 34 bd df 0d 9f 3c ec ae 24 bd
       0.065145075 -0.04411582 0.019415794 -0.04020588
0000c0 63 d1 07 3e f5 8b a6 3d 1d ba e9 bd 38 09 45 bd
       0.13263468 0.081321634 -0.114124514 -0.048104495
0000d0 9a 6f 0e 3e 6e 7a 31 3e a8 57 86 bd 5a 7e b7 bd
       0.1390976 0.1733186 -0.06559688 -0.089596465
0000e0 ac da a1 bd 81 34 1c bd 84 9a 63 3d d9 f3 e2 3c
       -0.079030365 -0.03813601 0.05556728 0.027704166
0000f0 cf df cc bd 47 fc 74 bd 11 17 3f bc 6e b8 1b 3e
       -0.100036256 -0.059810903 -0.011663214 0.15207073
000100 48 8e a4 3c 81 80 04 3e 70 9f db 3d be 0f 12 3e
       0.020087376 0.12939645 0.1072377 0.14263818
000110 43 bf 8c 3d a9 dd 2c bd 90 23 47 bd a9 e0 8f 3b
       0.06872418 -0.04220358 -0.0486179 0.0043907952
000120 44 ad a2 bd 66 3b 36 bd 97 c8 e3 3c 41 0d 0b 3e
       -0.07943204 -0.04449024 0.02780561 0.13579275
000130 8d 9a bb 3d 60 5e 0e bd 3b 06 86 3d de d9 19 bc
       0.091603376 -0.03475797 0.06544157 -0.0093903225
000140 dc 7d a9 bc 25 7e 0a be 30 6a 26 3e 76 76 d7 3d
       -0.020689897 -0.13524683 0.16251445 0.105206415
000150 5f 8c d0 3d c7 b7 ed 3b 95 40 22 3d 56 d4 3f 3a
       0.10183024 0.007254574 0.03961237 0.00073177123
000160 a1 c0 f4 3d a5 8d df 3d a7 e0 c9 bd 03 1d 2a bd
       0.119508035 0.109156884 -0.09857302 -0.041531574
000170 2d 56 9d bd c6 23 38 bd 2e cc 82 bd 21 85 02 3e
       -0.07682452 -0.04495599 -0.063866004 0.12746097
000180 37 00 ea bd dd 87 6e bd 80 8d 1b be 36 be 9e 3d
       -0.11425822 -0.058235038 -0.15190697 0.077511236
000190 13 22 cd 3d 65 a1 c4 bd 3a 5e 94 bb a4 fd 6c bd
       0.10016265 -0.09601096 -0.0045278342 -0.057859078
0001a0 1e a8 ea 3d b5 04 ca 3d 87 27 86 3b 15 fe 7b 3d
       0.11457847 0.09864179 0.0040940675 0.06152161
0001b0 41 d6 15 be 50 99 f1 3c 41 a9 d7 bb 24 4f 83 3d
       -0.14632513 0.02949205 -0.006581456 0.06411579
0001c0 b3 6f 07 3e 18 54 f1 bc 30 7d c5 bd e7 0d ae bc
       0.13226204 -0.029459044 -0.09643018 -0.021246864
0001d0 25 34 36 3c c6 3e 52 3d de d7 19 3e a8 89 a4 3d
       0.011120831 0.051329397 0.15023753 0.08034068
0001e0 89 cf 05 be 89 f2 52 3d 99 78 47 3d 11 ee 1c 3e
       -0.1306745 0.05150083 0.048698995 0.1532519
0001f0 f8 1c 13 3e 60 8e 80 3d fb 59 de bd 3e 64 32 3d
       0.1436652 0.06277156 -0.10857006 0.04355263
000200 42 09 12 be 0d f1 86 3d f3 68 82 3d 4a c1 e2 3c
       -0.14261344 0.065889455 0.06367674 0.027680058
000210 e8 0f f0 3d 82 47 cb bd 41 d0 98 bc c2 8c 78 bd
       0.11721784 -0.099257484 -0.01865399 -0.060681112
000220 0e 4d 2d 3d 4c 5a 50 3d c3 19 ac bd 8b 72 7a bd
       0.042309813 0.050867364 -0.08403351 -0.061144393
000230 6e a4 bb bd f7 30 b2 bb 7b b3 59 3c a8 94 3f bd
       -0.09162222 -0.005437966 0.01328742 -0.04677263
000240 cd 12 19 bd 3b 89 d6 bd a4 e8 c2 3d 2d c8 92 3d
       -0.037371445 -0.104753934 0.09517029 0.07167087
000250 60 c7 1a 3e 59 82 a5 3d ab 8c e1 3d 7b ff b5 3c
       0.15115118 0.080815025 0.110131584 0.02221655
000260 f2 29 19 3d e6 e1 0b 3e a2 c4 e5 3d 3f 35 b5 bd
       0.037393518 0.13660392 0.11219145 -0.088480465
000270 85 bd e7 bd 23 8e 9b bd 29 2f 02 be 54 9c e9 bd
       -0.11315445 -0.0759547 -0.12713303 -0.1140677
000280 9f b8 29 3e 9d 1e 05 be e2 11 c7 3d 70 74 32 be
       0.16574334 -0.1299996 0.09720208 -0.1742723
000290 a6 26 ea 3d 4e 01 3c be ca 2c 04 3e 96 b0 b7 bd
       0.11433153 -0.18359873 0.1290771 -0.08969228
0002a0 ea c0 02 be 1a 75 da 3d 4e 91 ce bd dd 0b e7 bb
       -0.12768903 0.106668666 -0.100863084 -0.0070509748
0002b0 b8 f2 67 bd 38 7b c0 3d 88 d4 9a 3d fb 41 fa 3d
       -0.05662796 0.09398502 0.07560068 0.12219616
0002c0 b7 f9 0d 3d 9a f0 f3 3d e2 2e 27 bd 23 38 01 be
       0.034661975 0.119111255 -0.040816195 -0.1261907
0002d0 35 14 80 3d a8 48 24 be 7d 91 2a 3e 41 03 a3 bb
       0.06253854 -0.16043341 0.16657062 -0.004974753
0002e0 a3 d2 c7 bd fb be 3c 3e 3d e0 20 3d b8 ee 46 38
       -0.09756973 0.18432228 0.03927635 4.7429203e-05
0002f0 6b 20 dc 3c 05 7a ac 3d 4c ce d0 3d f6 c9 93 3c
       0.026870927 0.08421711 0.10195598 0.018040638
000300 f7 c4 37 be fb a0 10 be 29 53 dd 3d 59 3b ce 3b
       -0.1794623 -0.14123909 0.10806877 0.006293696
000310 86 b1 1c bd 00 98 a6 3d e6 5e ce 3d 33 2c e9 bd
       -0.038255237 0.081344604 0.10076694 -0.113853835
000320 8a 65 13 be f9 1f 0f 3e 00 b8 8d bd a8 78 b8 bd
       -0.14394203 0.1397704 -0.06919861 -0.09007388
000330 d9 ef 96 3d 95 c2 89 bd 3a 3e 67 bc 77 d4 0a be
       0.07369966 -0.06726567 -0.014113957 -0.13557611
000340 51 f3 2e bd 20 d4 a0 3d ad e9 21 3d 30 45 46 be
       -0.042712513 0.0785296 0.03952949 -0.1936233
000350 a2 b7 c3 3d e4 78 bd 3d cd 96 b3 bc b6 1a 0d be
       0.095565096 0.09251574 -0.021922493 -0.1377972
000360 61 28 6a bd 23 c8 fe 3c 59 be 50 bd 8f 20 8b bd
       -0.057167415 0.031101292 -0.05096278 -0.067933194
000370 6d 45 f0 bd 8c b7 14 3d c5 80 7c 3d f3 64 06 be
       -0.11731992 0.036307856 0.06164624 -0.13124447
000380 0c c1 4b 3d 37 28 a4 3d 23 4d 84 bd c0 f1 a7 bd
       0.04974465 0.08015483 -0.06460025 -0.08200407
000390 6c 79 12 be 69 01 ae bd 4b 31 88 bd 01 90 29 bd
       -0.14304131 -0.08496363 -0.06650027 -0.0413971
0003a0 a2 0b f9 bd 56 ef cb bd 5c a1 da bd 61 7f 83 bc
       -0.12160422 -0.09957759 -0.10675308 -0.01605195
0003b0 6d 27 f1 bd 75 20 07 be 8d b3 b5 3d 5c af 84 3d
       -0.11775098 -0.13195975 0.08872137 0.0647876
0003c0 89 6b 21 be 4f 62 0b 3e a1 2a 68 3d 6a 8c c2 3d
       -0.15763678 0.1361172 0.05668128 0.09499438
0003d0 2c 19 8e bd d0 ba 0b be 10 0c 4b bb da b3 e6 bd
       -0.06938395 -0.13645482 -0.0030982532 -0.11264773
0003e0 d5 6d 07 3e 2a bf e8 3d 62 8e 9b bd 3d 97 82 3d
       0.13225491 0.11364587 -0.07595517 0.06376503
0003f0 2b 44 cb bd 43 55 bd 3d d6 bd 5e 3d 42 86 0a 3d
       -0.099251114 0.09244778 0.05438026 0.033819444

layers.1.bias f4 [128]
000000 9f bd e0 3c 2a 2c a4 3d df a6 9f 3d 98 f1 5a bd
       0.027434168 0.08016236 0.077955 -0.053453058
000010 95 5d a0 bd 4d 0c 95 bd 03 52 28 bc d3 94 af 3d
       -0.07830349 -0.07277737 -0.010273459 0.08573308
000020 99 9a 08 bc d2 93 82 bc 0e a9 cb 3c ed 46 0c 3d
       -0.00833764 -0.015939627 0.024860885 0.034247328
000030 63 fe 4c bb bd 52 a1 3d e4 e7 85 3d d4 8c ab ba
       -0.0031279556 0.07877109 0.0653837 -0.0013088235
000040 27 76 e0 3c 96 8a 88 3d a6 01 88 bd 55 d0 7f bc
       0.02740009 0.06667058 -0.066409394 -0.015613635
000050 8b 2a c5 bc 97 2a 83 bd e5 f1 55 bd dd 23 c8 ba
       -0.024068138 -0.06404608 -0.05223264 -0.0015269477
000060 e9 3e 73 bd 56 c1 b4 bd 99 7e b8 3d 5d 7c ec 3c
       -0.059386168 -0.088259384 0.090085216 0.028867895
000070 0a 7a 0b 3d a9 aa c0 3c 04 20 37 3d 57 eb c5 bc
       0.034051932 0.023518877 0.044708267 -0.02416007
000080 44 bb 08 bd 32 0e 30 39 84 a7 42 bd 3f 24 b3 bd
       -0.033381715 0.00016789956 -0.047523037 -0.08747148
000090 1f e3 4f bd 4e ba 83 3d cf 1a c7 3c a3 42 ba bd
       -0.05075371 0.06432019 0.024304776 -0.09094741
0000a0 35 55 30 bb c5 8a 37 3b b6 f2 af 3d 31 11 f8 3d
       -0.0026906256 0.0028006297 0.08591215 0.12112654
0000b0 41 ce 60 bd ce be a5 3c a7 98 03 bd b3 3b ac 3c
       -0.0548842 0.020232584 -0.032128002 0.02102456
0000c0 97 c1 ab bb a1 02 fa 3c cc 8e b0 3c 6f d3 7b bd
       -0.0052415836 0.030518832 0.021552466 -0.061480936
0000d0 15 66 67 3c 41 d2 7e 3b 28 bb e1 3c a5 e0 60 3d
       0.014123459 0.0038882645 0.027555063 0.054901738
0000e0 47 73 cb bd de 34 a4 3d de 38 b0 3d 5c d9 09 3d
       -0.09934097 0.08017896 0.086045966 0.033654556
0000f0 16 1f 9c 3d d7 d5 5d bd d9 68 99 3d c9 ec cd bd
       0.07623117 -0.05415901 0.07490701 -0.10054929
000100 08 c9 12 bd b8 aa a9 3d 78 1f 94 3d f1 a9 a4 bd
       -0.03583625 0.08284515 0.07232565 -0.08040226
000110 6e 25 6c bc 52 88 52 3d 78 28 11 bd 92 8f 22 3d
       -0.014413221 0.051399536 -0.035438985 0.0396877
000120 0b 58 e8 3b ca d1 8e 3d e0 10 c0 bd 21 29 ad 3c
       0.0070905737 0.06973608 -0.09378219 0.021137776
000130 c8 9e 71 bd 20 1c b9 bd 5c 7d 34 bd 73 4c 43 bd
       -0.058989316 -0.090385675 -0.044064865 -0.04768033
000140 4c 8f 6d bd 12 29 05 bd db 86 19 3d 36 e8 e6 bc
       -0.057997987 -0.03250987 0.037482124 -0.028186899
000150 78 8d f0 bd 64 13 af 3d 99 27 5c bc 66 30 ac 3c
       -0.11745733 0.0854862 -0.013437175 0.021019172
000160 4b 37 f4 bc f5 1a 01 3d 0d df 97 bd 70 3f 0a bd
       -0.029811522 0.03151985 -0.074155904 -0.033751905
000170 8b be 00 bd 81 14 f8 bc 79 d3 34 bd 51 d5 90 3d
       -0.031431716 -0.030283215 -0.04414699 0.07071937
000180 fd 92 2f bd 05 f4 87 bd 51 f6 17 bd 38 ef 36 bd
       -0.04286479 -0.0663834 -0.03710014 -0.04466173
000190 2c a0 df 3c f2 85 20 3d 75 2b ca bd 07 ea 22 3d
       0.027298056 0.03919024 -0.0987157 0.039773967
0001a0 ff 26 4d 3d 11 32 72 bd af 53 81 bd 23 cd 1d 3e
       0.050086018 -0.05912978 -0.063147895 0.15410285
0001b0 a2 4d 48 bd 72 72 85 3d f3 3f 8f bd ab 2a e5 39
       -0.04890216 0.06515969 -0.06994619 0.00043710074
0001c0 fa bd 16 bc 6b c7 81 3d e0 cd 32 3d 10 d5 2a bd
       -0.009200567 0.06336864 0.04365337 -0.0417071
0001d0 40 ad 01 3d ab 6e 1b bd 6e 82 ca 3d bb 34 2d 3d
       0.031659365 -0.037947338 0.09888159 0.042286616
0001e0 1e f1 83 3d 42 87 44 3d ee e3 3f 3c ca 92 ee bb
       0.06442474 0.047980554 0.0117120575 -0.007280682
0001f0 9a a9 9f bd 31 75 6c 3d ad 73 43 bd a5 b6 8c 3d
       -0.07796021 0.05772895 -0.04771774 0.06870774

layers.2.weight f4 [128, 128]
000000 55 e0 c0 3d ac 85 e3 3c 1c 14 02 3d b4 6f 15 bd
       0.09417788 0.0277737 0.03175746 -0.03648348
000010 2b 78 5b bd 65 e2 cc 3d 17 a1 76 bc f1 df de 3c
       -0.053581398 0.10004119 -0.015053055 0.027206393
000020 7d 31 6f bd 39 93 c1 3d 0d b8 1a bd 8b 1f 29 bb
       -0.058396805 0.094519086 -0.03777318 -0.0025806155
000030 17 2d cc 3b 0c 68 d8 3d 48 2a eb 3d d8 51 02 3e
       0.006230961 0.1056672 0.11482674 0.12726533
000040 f6 05 0f 3d e5 3e 0a be 63 80 71 3d 0b 48 98 bd
       0.034917794 -0.13500555 0.05896033 -0.07435616
000050 8e 06 2f bd ce 3c cb bb 9c 1f 4d bc 25 fe b8 3d
       -0.04273086 -0.006202317 -0.012519743 0.09032849
000060 6c fd 08 be 46 c5 84 bd 0e 5b 60 3d b9 c7 d4 bd
       -0.13377923 -0.064829394 0.054774337 -0.103896566
000070 93 1b ea bd e4 4a f3 bd 47 4a da bd 3c 58 3e be
       -0.114310406 -0.11879519 -0.106586985 -0.18588346
000080 66 0c 1f be b8 48 23 be b5 46 59 3d 9a 2b ed bd
       -0.15532073 -0.15945709 0.053045947 -0.11580582
000090 ca 05 0f bd cd 0c a8 bd 3a b9 0e bd e1 44 90 3d
       -0.03491763 -0.082055666 -0.034844615 0.070443876
0000a0 41 4e e2 bc fd a8 09 be 53 bb 5a 3d 99 44 fa 3d
       -0.027625205 -0.1344337 0.053401303 0.12220115
0000b0 ba 06 95 3d 0d ed de bd 4b 5e 04 be a0 f3 60 bd
       0.072766736 -0.108850576 -0.12926595 -0.05491984
0000c0 f7 9c 2c bd 84 51 2b 3d 33 21 92 bd f5 2e ea bd
       -0.04214188 0.041825786 -0.071352385 -0.114347376
0000d0 9b 64 05 3d 0f 55 dc 3d 55 43 03 be 20 64 91 bd
       0.032566648 0.10758411 -0.12818654 -0.070991755
0000e0 9d f6 c3 3d 41 70 48 be f8 0f 0c bc 89 96 13 bd
       0.09568522 -0.19574071 -0.008548729 -0.036032233
0000f0 f4 cc 16 be 95 0f 85 bd 2c 47 d7 3d 31 6c 6a bd
       -0.14726621 -0.06497113 0.10511622 -0.057232086
000100 73 93 9c bd b0 ca ce 3d 33 34 55 3d 5a 5b b1 bd
       -0.07645311 0.10097253 0.052051734 -0.08660002
000110 18 f9 e8 bc 83 ad d2 bd 0a e2 ce 3d 1b c2 c9 3d
       -0.02843909 -0.10287001 0.10101707 0.09851476
000120 43 90 fd bd a8 71 19 3e 40 8d 2e be 34 30 a0 3d
       -0.12381031 0.14984763 -0.1704607 0.07821694
000130 c1 87 01 3e dc 32 07 be c2 1e 8e bd 27 5b 60 3d
       0.12649442 -0.13202995 -0.0693946 0.05477443
000140 6d 5b df bd df 10 00 bd 08 30 dd bc 26 46 e8 3d
       -0.1090611 -0.03126609 -0.027000442 0.11341505
000150 e2 22 02 bd 9c 8b e9 bd cc 9a f9 3d 53 2f 6e 3d
       -0.031771548 -0.114035815 0.12187728 0.0581506
000160 aa 2a fa 3d 50 e7 3f 3d d4 4d 06 3e f6 0b 8b bd
       0.12215169 0.046851456 0.13115627 -0.06789391
000170 d8 f8 aa bc 49 38 ca bd 80 34 fc bd 5d 9e 14 be
       -0.020870611 -0.09874017 -0.12314701 -0.14513536
000180 69 a7 b1 3d 85 8d 98 bd 6e 8d 56 bd 36 d3 f6 3c
       0.08674509 -0.07448868 -0.05238097 0.03013001
000190 d6 a2 02 be eb 12 21 3d 36 1d 09 bc da 54 2e be
       -0.1275743 0.039324682 -0.008368781 -0.17024556
0001a0 ec 96 01 3e 2d 1b 7a bd 9c 08 a6 bd 97 69 10 3e
       0.12655228 -0.061061073 -0.08107111 0.1410278
0001b0 40 88 dd 3d 50 3d 10 3d 63 50 a7 3d e0 83 db 3d
       0.10817003 0.035214722 0.081696294 0.107185125
0001c0 8a a3 ce bd a8 6c 10 bd 72 cd df 3d e5 b0 60 bd
       -0.10089786 -0.035259873 0.109278575 -0.0548562
0001d0 6c 3d e2 3d 6d 28 b0 bc f2 23 4d 3d c7 f6 db bd
       0.110468715 -0.021503652 0.05008311 -0.107404284
0001e0 0b 11 79 3b bd 65 a3 bd 56 d8 00 be ee 56 83 3c
       0.0038004543 -0.079783894 -0.12582526 0.016032662
0001f0 82 ad d0 3d 78 4f 06 bc d0 df 04 be 4a 6a 16 be
       0.10189344 -0.008197658 -0.12976003 -0.14688984
000200 ff d9 24 3e 3f dd dc bd e6 6e 44 3c 05 10 aa bd
       0.16098784 -0.10784387 0.011989331 -0.08303837
000210 a1 54 a7 bd b7 2c b9 3d 67 c9 47 3b 40 82 ab 3d
       -0.081704386 0.09041732 0.0030485035 0.083744526
000220 4a 99 fa bd 97 97 8e 3c 7c e3 0c be e2 ac 6a 3b
       -0.12236269 0.017406268 -0.13758653 0.0035808613
000230 98 0e a3 3d 18 80 ba bd 60 90 9a bd 52 09 d6 3d
       0.07961768 -0.09106463 -0.075470686 0.104509965
000240 0c d8 c8 bc f6 b6 0e be 86 3e fc 3c fd 94 aa bd
       -0.024517082 -0.13936982 0.030791532 -0.083291985
000250 11 f8 14 3b b5 3a ce 3d 79 d7 9f bd 4b 9f 1a 3e
       0.0022730867 0.10069791 -0.0780477 0.15099828
000260 22 6b e1 bb d5 f7 e0 bc 3f db ff 3b 5a 0f c4 3c
       -0.0068792263 -0.027461926 0.0078081186 0.023933101
000270 a6 0d 6d bd 63 fc 3e 3d 5b 03 07 3e 7f af d9 3d
       -0.057874344 0.046627413 0.13184874 0.10629176
000280 5c 43 0f bc e3 d3 9f 3d 09 99 77 bd 6c 9f 21 3e
       -0.008744087 0.07804086 -0.06044868 0.15783471
000290 bd dd 87 3d 04 73 98 3c 5c c1 f8 bc 5e e3 40 3d
       0.0663409 0.018609531 -0.030365638 0.047091834
0002a0 0d 6b 09 3e a5 65 21 3e 44 e8 d3 3d bd 68 fa 3d
       0.13419743 0.1576143 0.103470355 0.122270085
0002b0 99 ea 0c be 54 df 9c 3d 2d 2c 0b be 86 f4 a9 3d
       -0.13761367 0.07659784 -0.1359107 0.08298592
0002c0 af 21 1f be f9 7a a6 bc cf b3 4c 3d 5c f0 b5 3d
       -0.15540193 -0.02032231 0.049976166 0.088837355
0002d0 7c 6b ea bc 16 9f aa 3d 14 e3 0a be 5c e1 6b 3d
       -0.028615706 0.083311245 -0.13563186 0.057587966
0002e0 32 ac 3f 3d 87 3c e6 bd aa 75 9a bd 9c 96 74 bd
       0.046795078 -0.112420134 -0.07541974 -0.059713945
0002f0 09 4a 1c 3d 90 e2 96 3d b0 06 c3 bd 39 a9 cf bd
       0.038156543 0.07367432 -0.0952276 -0.101396985
000300 f8 08 c6 3c 24 4f 88 3d 0c a6 01 3e bf 44 cc 3d
       0.024174199 0.0665572 0.12660998 0.0997405
000310 1d 9f 2a bd 72 d2 28 bd ef c3 ff 3d 7e 71 92 bd
       -0.04165565 -0.04121632 0.12488543 -0.07150553
000320 da 48 a6 3d d1 a8 6a bd 2a fe 08 3e 02 bb f4 3d
       0.08119364 -0.057289902 0.13378206 0.119497314
000330 96 ae 39 bc 2a 17 9c bd ec 7d c0 bd e6 93 0a be
       -0.011333128 -0.07621606 -0.09399018 -0.13532981
000340 3d ac 22 be f3 06 e0 3d 44 45 2f bd 0c 35 cd 3c
       -0.15886016 0.109388255 -0.042790666 0.025049709
000350 f6 1d c8 bc 26 b2 ad 3d b2 34 27 bd cf 3d 28 bc
       -0.024428349 0.08481245 -0.04082174 -0.010268643
000360 a4 02 f8 3c eb df a4 3b 2a a9 19 bc 78 dd f3 bd
       0.030274697 0.005031576 -0.009378711 -0.11907476
000370 94 1f 01 be eb fa ef 3c 56 01 a7 3d a9 6c 38 3c
       -0.12609702 0.029294452 0.08154552 0.011256375
000380 8d a9 a4 bd 8c 91 9b 3d 08 e8 8e 3d ee 56 f9 3d
       -0.08040152 0.0759612 0.0697785 0.12174784
000390 5b f1 d7 3d 40 4f f1 bc 1d f6 9c 3d d3 d3 fa bd
       0.10544082 -0.029456735 0.0766413 -0.122474335
0003a0 d4 15 ec bc f4 78 da 3c 1a 12 67 bd 87 37 14 bd
       -0.028819002 0.026669003 -0.056413747 -0.036185768
0003b0 59 00 00 3e 9c 24 d4 bd 5f f0 02 3d 1a 59 c8 3a
       0.12500133 -0.10358545 0.031967517 0.0015285343
0003c0 88 b1 90 3c f2 f0 10 3c 45 e5 c5 3d c6 82 e8 3d
       0.017662778 0.008846508 0.0966287 0.11353068
0003d0 21 72 c0 bd 2d 0c ad 3d 79 c7 eb bd 19 c8 fb 3c
       -0.09396768 0.08449588 -0.11512656 0.030735062
0003e0 1e 24 12 3d 6a 34 5c 3c aa 3b 91 3d 7c 4f 18 bd
       0.035678975 0.013440231 0.07091458 -0.037185177
0003f0 e1 10 c9 3d 94 26 4c 3d 01 12 1c 3e 6a 15 04 3e
       0.098176725 0.04984148 0.15241243 0.12898794

layers.2.bias f4 [128]
000000 1e e1 5b bd 45 28 d3 bc 48 d5 40 3d 68 3b d7 3d
       -0.053681485 -0.025776038 0.0470784 0.10509378
000010 e4 06 31 bd 84 11 6d 3c 47 ee ac bd e7 69 66 3d
       -0.043219462 0.014469508 -0.08443885 0.05625334
000020 bc fb a6 bc c1 8d 4c bd bc 53 a8 3d 5f 51 9d bd
       -0.020383708 -0.049939875 0.08219096 -0.07681536
000030 48 a4 b9 bd 1d a5 c5 3b 13 bd 02 bd b5 5e 6a bd
       -0.09064537 0.006031646 -0.031918596 -0.057219226
000040 63 d2 88 bd a3 b1 8e bd 4f a6 85 3c 24 04 c3 bd
       -0.06680753 -0.06967475 0.016314654 -0.09522274
000050 ca 9a 78 bd 7d ec 9a 3d d4 b9 54 bd 9c cc 1c bc
       -0.060694493 0.07564638 -0.051935032 -0.009570267
000060 61 2a 8a bd a1 8b b9 bc b9 dc ba bd c8 d2 b2 3c
       -0.067463644 -0.022649588 -0.09124131 0.021829024
000070 8e 19 58 3d 33 4e 0e bc 4e 8a 2e 3d c9 84 90 3d
       0.052758746 -0.008685636 0.042612366 0.07056577
000080 59 7e 78 bc e9 fc 88 bd 4b 31 49 3d 66 25 a4 bd
       -0.015166842 -0.06688864 0.049119275 -0.08014946
000090 36 0e ac bd bb af a7 bc 39 61 82 bd 96 0c 56 3d
       -0.08401148 -0.020469537 -0.063662 0.052258097
0000a0 15 32 1b 3b a1 2a 3e 3d 73 87 54 bc 07 86 dd 3c
       0.0023680974 0.046427373 -0.012971747 0.027041448
0000b0 98 1c 1b bd ae fd f5 bc cc 32 64 3d e9 a6 ba bc
       -0.037869066 -0.03002819 0.055712506 -0.022784667
0000c0 4d a4 de bd a6 fe 8d bd 4b a8 d7 bd b1 1a b8 bd
       -0.10871182 -0.06933336 -0.10530146 -0.08989466
0000d0 1a 02 ac bd dd e9 3b 3d 45 c8 c6 bd 3d 40 da bd
       -0.08398838 0.045877326 -0.09706167 -0.10656784
0000e0 d3 ea 35 3d 01 cb 21 bd f0 30 d7 bc 0b 9e 92 3c
       0.0444134 -0.03950024 -0.026268452 0.017897626
0000f0 89 43 e6 3b 26 89 06 bd db e9 e1 3c 99 3b ae 3d
       0.007027094 -0.03284564 0.027577331 0.08507461
000100 15 36 95 3d 88 26 7e bc 3d 92 c4 bc 77 6a e1 bc
       0.07285706 -0.015512116 -0.023995513 -0.027516587
000110 03 a4 aa bd dd 8a d5 3d 4f da 89 3d e3 e7 63 3c
       -0.08332064 0.10426877 0.06731092 0.013910267
000120 f5 c3 fd 3c 3b 60 a8 bc 99 58 a1 bc 31 8f 81 bd
       0.030977229 -0.020553699 -0.019695567 -0.0632614
000130 06 07 91 3d 74 34 84 bd ef 7c ea 3d 3d bf a4 3c
       0.07081418 -0.06455317 0.114496104 0.02011072
000140 fe db 8e bd 04 e6 aa 39 f9 2c 5d 3d e0 14 90 bc
       -0.06975554 0.00032596302 0.053997967 -0.017588079
000150 c7 1d 5b bd ef 5b bc 3d a6 85 59 3d 2e 53 ad bd
       -0.053495195 0.091972224 0.053105973 -0.08463131
000160 45 e4 97 bd 2e 21 62 bb 37 30 d1 3c 8d 80 3a 3d
       -0.07416586 -0.003450464 0.025535686 0.04553275
000170 12 10 a6 bd e1 23 80 3c 48 1d f3 3c d9 f4 89 3d
       -0.08108534 0.015642108 0.029677048 0.06736154
000180 81 53 9c 3c f5 48 ca bd 93 24 81 bd d7 fb 8b 3b
       0.019082787 -0.09877197 -0.06305804 0.004271965
000190 42 bd 8a bd 40 f6 c8 bd 7a db f8 3b ee 11 4a bd
       -0.06774379 -0.098125935 0.007594523 -0.049333505
0001a0 9d 36 80 bc f5 39 3f 3d a9 93 0b bd 9e c1 b4 3c
       -0.015651042 0.04668613 -0.034076367 0.02206498
0001b0 4b dc 9b bd 76 b6 8d bd b9 39 09 3e 91 f0 b3 3d
       -0.07610377 -0.06919567 0.13400926 0.08786119
0001c0 2b 14 c2 bd 24 37 67 3c 0f 73 b6 bd ae ab 9e bd
       -0.09476503 0.014112268 -0.089086644 -0.07747589
0001d0 5c a0 b2 bd 68 c1 3a 3d 6f ce 77 bd 2c cf 5d bd
       -0.087219924 0.045594603 -0.060499605 -0.054152653
0001e0 06 ef c4 3d 4a f5 9d bc 66 ac 95 bd b5 15 85 bd
       0.096159026 -0.019282002 -0.07308273 -0.06498281
0001f0 cf 70 20 3d 19 2c c2 3d 2b 80 8c bd 57 53 6a bd
       0.039170083 0.09481067 -0.068603836 -0.057208385

layers.3.weight f4 [128, 128]
000000 9f b0 08 be 3e 48 63 3a d0 b7 94 3d 01 d7 19 3e
       -0.13348626 0.0008670128 0.07261622 0.15023424
000010 bb a9 c6 3c 82 a2 eb 3d f5 9a d5 3d df f5 b5 bd
       0.024250856 0.11505605 0.10429946 -0.08884787
000020 db 27 d3 3d 56 be 07 3e 3d b7 dc bd 0c 20 56 bc
       0.10310336 0.13256201 -0.107771374 -0.013069164
000030 6c f6 e1 3d 61 f7 0f be 59 f1 a7 3d b2 e3 c6 bd
       0.11033329 -0.14059211 0.0820033 -0.09711398
000040 9e e0 70 bc 4a 92 3b 3e e8 e2 da bd 79 1d 2b bd
       -0.01470199 0.18317524 -0.1068781 -0.041776154
000050 c2 37 8c bd 62 4a ae bc b3 52 c2 bd 6b 0b 03 be
       -0.068465725 -0.021275703 -0.0948843 -0.12797324
000060 ff b0 54 bd e0 1a 93 3c 73 7a f4 bd f6 86 88 3d
       -0.05192661 0.017957151 -0.11937418 0.06666367
000070 98 77 ef bd 46 f9 0e 3e 4d a4 7a bc cd 86 9e bd
       -0.116927326 0.13962278 -0.015297961 -0.07740555
000080 97 92 d1 bd eb 27 3d 3d d1 80 d0 bd 7e 09 d5 3d
       -0.10233038 0.046180647 -0.1018082 0.10402201
000090 a2 b6 0d 3e 7d 99 2a 3e f1 c2 8a bc b8 5e b6 3d
       0.138392 0.16660114 -0.016938658 0.08904785
0000a0 4e 35 58 bc 9f f9 18 be c1 09 ec bd 41 44 0c bd
       -0.013196303 -0.14938973 -0.11525298 -0.03424478
0000b0 82 8a 88 3b 33 ff 41 3d f6 33 33 3c 74 7c 05 3e
       0.004166902 0.047362518 0.010937681 0.13035756
0000c0 de 54 73 3d cc 1b 19 be 86 29 91 3d 49 7a 01 3d
       0.059407108 -0.1495201 0.07087998 0.03161076
0000d0 12 57 d0 3d 00 50 30 be 0a b3 4e 3d dc 19 84 3d
       0.10172857 -0.17218018 0.050463714 0.06450245
0000e0 79 c6 f9 3d c5 f2 ef 3d fb 0d 08 be a4 a3 ff bd
       0.12196059 0.117162265 -0.13286583 -0.12482384
0000f0 45 15 31 3d 35 ea c5 3d 12 d4 f8 3d 5d b0 cb bd
       0.043233175 0.09663812 0.12149824 -0.09945748
000100 e7 91 12 be fc 9f 59 3d a3 fb a6 3c a3 9d e7 bd
       -0.1431347 0.05313109 0.020383662 -0.11309364
000110 8c f1 87 3d 02 63 ba bd a6 6a 37 3d f6 3c 1c be
       0.06637868 -0.091009155 0.044779442 -0.1525763
000120 12 d8 ed bc 26 6f 83 3d cc 70 25 bd ca 98 2f 3d
       -0.029033694 0.06417684 -0.040390775 0.04287032
000130 34 14 99 bd b2 a5 9a bd 22 c2 e4 bb 27 e7 71 bc
       -0.074745566 -0.07551135 -0.0069811502 -0.014764584
000140 0e 6f 7b 3d 86 0e a4 bd 49 67 44 3c 8f a0 8d bd
       0.061385207 -0.080105826 0.011987516 -0.0691539
000150 9d c4 d6 3c 9b c1 f7 bd 18 0f 03 3e 54 a2 aa 3d
       0.0262168 -0.12097474 0.12798727 0.08331743
000160 18 d0 c1 3d f8 72 f9 bd b6 20 26 be 10 78 0c 3c
       0.09463519 -0.12180132 -0.16223416 0.008573547
000170 d9 98 ff 3b 77 a5 c5 bd aa a4 ef bd 99 65 04 bd
       0.0078002033 -0.096507005 -0.11701329 -0.032323454
000180 f3 24 63 bd e5 7f 43 bd 00 28 23 3d a0 55 29 bc
       -0.05545516 -0.04772939 0.03983307 -0.010335356
000190 e4 d4 ac 3d cc 83 86 bd f9 0f 1b bd e3 e2 d7 bc
       0.08439043 -0.06568107 -0.03785703 -0.026353305
0001a0 4a 69 a1 3c cc 68 7b bd e3 ca 22 be da ef 21 be
       0.019703526 -0.06137924 -0.15897708 -0.15814152
0001b0 d4 15 28 be 7d 0b c7 bc ad a8 db 3d dc 90 4c 3d
       -0.16414577 -0.02429747 0.10725532 0.049942836
0001c0 5f 84 4c 3d 0a ee a7 3c c7 14 0b 3e 32 e3 91 3d
       0.049930926 0.020499248 0.13582145 0.07123412
0001d0 e4 20 d6 bc ea 4e 14 3e cf 7a 19 bc e4 22 fb 3c
       -0.02613873 0.14483228 -0.009367659 0.030656286
0001e0 b6 75 f4 3c 21 bd 80 bd 7a af 1c 3e 8f 8f 0b 3e
       0.029841285 -0.062860735 0.15301314 0.13628982
0001f0 bc 35 9d 3d 92 bd be bd 8e 02 d3 3d 55 66 86 bd
       0.07676265 -0.093135014 0.10303222 -0.06562487
000200 e4 c9 39 3d 15 c9 02 be 8f fd d4 3d 37 6d 29 3e
       0.045358554 -0.12772019 0.10399925 0.16545568
000210 31 4e 6e bd f3 99 b2 3d f1 46 81 3d 5d 27 01 3e
       -0.058180038 0.0872077 0.06312359 0.12612672
000220 67 96 36 bc 21 9a 5f bd a3 4b 0f be c9 44 9d bc
       -0.011144257 -0.05459035 -0.13993697 -0.019197838
000230 b6 bb 07 3e 4b a9 4c 3c 5e d9 20 3d a2 5b bd 3d
       0.132552 0.012491534 0.039269798 0.09245993
000240 f8 02 f0 bc 7e 6a 82 bc 7e fc df 3d 97 6e 11 3e
       -0.02929829 -0.01591992 0.10936831 0.14202343
000250 c2 c0 ee 3d 73 79 25 3d ae 2f 06 be d2 d3 0e 3e
       0.116578594 0.040399026 -0.13104126 0.1394799
000260 a8 61 2c 3b cd 97 f7 3b a3 79 d1 bb 6b 1f e6 3d
       0.0026303325 0.007555938 -0.006392674 0.11236461
000270 aa 8b be bd 67 f2 d0 bd d0 72 14 3d c2 af fe 3d
       -0.093039826 -0.102024846 0.036242306 0.12435867
000280 62 c8 7f 3d bd a3 14 3e 4d 30 c7 3d 2c d7 8d 3d
       0.06244696 0.14515586 0.097260095 0.069258064
000290 01 e4 e5 bc 4d ef 9a bc 3c 18 b5 bd ca 4e 1f 3d
       -0.028062822 -0.018912936 -0.08842513 0.0388935
0002a0 e3 40 2e 3e fe 56 41 3d 0d 22 45 3d 42 11 a9 3c
       0.1701694 0.047202103 0.048128176 0.020638112
0002b0 c7 09 ba 3a 75 3a 86 3d 4d 60 e9 3d 2e b9 b0 3c
       0.0014193588 0.065541185 0.11395321 0.021572676
0002c0 87 aa b7 3d a5 c5 16 3e 93 0f 90 bd 04 b3 09 3e
       0.089680724 0.14723833 -0.070342205 0.13447195
0002d0 89 ca 1d be 9d 9b a9 3d cd b7 81 bd 4b b2 c7 3d
       -0.15409292 0.08281634 -0.06333885 0.097508036
0002e0 b3 41 35 3d 81 80 81 bd 25 ff 07 3e 56 e0 17 be
       0.04425211 -0.06323338 0.13280924 -0.14831671
0002f0 d1 ef 88 3c b3 3e 16 3e f2 fd 14 be e7 cc 07 3e
       0.016715916 0.14672355 -0.14549997 0.13261758
000300 98 c2 00 be bf fe 39 bd de c1 76 bc a8 0b 6e ba
       -0.12574232 -0.04540896 -0.01506087 -0.00090807164
000310 57 3c cf 3d 01 56 ab 3d 56 e5 d4 bd 5f 41 27 be
       0.10118931 0.08366013 -0.10395305 -0.16333531
000320 e8 8f 09 3e 36 b2 5f bd c9 bf 03 3e 9a 4d 72 3d
       0.13433802 -0.054613315 0.12866129 0.059156038
000330 62 a1 f1 3c c0 c0 14 3e 83 23 aa 3d 0a a4 8f 3b
       0.029495899 0.14526653 0.083075546 0.0043835687
000340 82 37 0c 3e 32 28 e9 3d be a3 ce bd cd 26 f8 3d
       0.1369305 0.1138462 -0.10089825 0.12116776
000350 dd 54 e2 bd 7d 0d d1 3d 42 1f 73 3d 97 41 48 bd
       -0.11051343 0.10207651 0.05935598 -0.048890676
000360 fc eb 0e 3e 5d f0 1a 3d b7 d0 c1 3d 6e 7a 28 3c
       0.13957208 0.037826885 0.09463637 0.010283096
000370 85 40 a3 bd 8a bc 75 bd 5f 5e 15 bc c2 00 ef bc
       -0.079712905 -0.059994258 -0.009116738 -0.029175166
000380 5d 93 05 3d 07 ea a0 bd b4 e1 9d 3d 73 f5 f4 3d
       0.03261124 -0.07857137 0.07709065 0.11960878
000390 23 3d 6c bc 0a 56 6a 3d ba 05 fb bd 25 31 00 3d
       -0.014418873 0.05721096 -0.12256952 0.031296868
0003a0 9f f6 a4 bd 64 28 e9 3d e7 20 e7 3d dc 2a dd 3d
       -0.08054852 0.11384657 0.112855725 0.107991904
0003b0 9a b5 d8 ba 0e c0 b4 bd 2d d9 15 3e 79 f3 12 be
       -0.0016533614 -0.08825694 0.14633627 -0.1435069
0003c0 60 6d e9 3a 5a e0 1b 3d 90 36 88 3d 28 c4 ad bd
       0.0017809086 0.038055755 0.06651032 -0.084846795
0003d0 06 8c 33 3d 64 9c 86 bc 07 44 6c 3d df 61 dd 3d
       0.04383471 -0.016431995 0.057682063 0.10809683
0003e0 48 f3 52 bd 11 43 06 3c 1f 77 15 be d4 45 5c 3d
       -0.051501542 0.008194701 -0.14596222 0.05377753
0003f0 63 43 ab bd ff 62 a3 3d 6e d5 6b 3c 46 ac 39 bc
       -0.08362462 0.079778664 0.014394147 -0.011332577

layers.3.bias f4 [128]
000000 9d b1 c1 bd 15 71 a4 bd f9 a2 a0 bc b6 3e 83 3c
       -0.09457705 -0.08029381 -0.019608961 0.016021114
000010 7f 36 42 bd 29 2a 90 bd c3 ac 8d bc fd d0 0a bc
       -0.047415253 -0.070392914 -0.017294293 -0.008472678
000020 9c 1b a5 3c 55 58 c6 3d ea d3 13 3d 48 eb b0 3d
       0.020154767 0.09684817 0.03609077 0.08638626
000030 d0 f6 71 3d 6f 1c 6d 3d f8 07 a0 bc 43 85 9b bd
       0.05907327 0.057888445 -0.01953505 -0.07593777
000040 8b cd 2e bd d6 0f 00 bc 9b 50 6c 3c 3c 58 0d 3d
       -0.04267649 -0.007816276 0.014423515 0.034507975
000050 56 f6 05 bc 98 d4 68 bd fd bd de bc 71 84 41 bd
       -0.008176407 -0.05684337 -0.027190203 -0.047245447
000060 b3 b2 30 bd 65 51 4e bd 1c b2 69 3c df 59 d0 bd
       -0.04313917 -0.050370593 0.014263656 -0.101733916
000070 1d 04 ac 3c b4 28 9f bd b3 f5 70 bd da 95 c5 bd
       0.020998055 -0.077714354 -0.058828067 -0.096477225
000080 d2 51 2c 3d a9 33 cb 3d c4 1d ab bd d1 8f 6a 3d
       0.042070217 0.09921963 -0.08355287 0.05726606
000090 cc 02 3b bd b0 1b da 3c 94 20 29 3d bc 9c b2 bc
       -0.045656964 0.02662453 0.041290835 -0.021803252
0000a0 73 67 c4 3b 4c 2c 27 bd 8a d2 62 bd c3 06 a0 3d
       0.0059937774 -0.04081373 -0.055376567 0.0781379
0000b0 d3 dd 0a bb af dd 34 3c fc 9d 73 3c 62 14 4c bd
       -0.0021189346 0.011039182 0.014869209 -0.049824126
0000c0 e5 fa 90 3d 77 90 b9 3b 83 b8 17 3d 0f 7e 9b 3d
       0.07079104 0.0056629735 0.0370412 0.07592403
0000d0 f8 d9 85 3d 44 24 aa bd 5b 89 8c 3d e2 4e 81 3c
       0.06535715 -0.08307698 0.06862136 0.015784685
0000e0 15 e3 52 bd 00 02 76 bd a6 cc 29 3c f5 d9 5a bb
       -0.051486094 -0.0600605 0.010363733 -0.0033394073
0000f0 aa 48 52 3b 7a b7 04 bd 18 bf f1 ba c5 6f 52 3d
       0.0032086768 -0.03240154 -0.0018443791 0.051376123
000100 0b 76 4f bd 46 61 0c bd bf 6b 2a bc ab 0b 97 3d
       -0.050649684 -0.034272455 -0.010401665 0.07375272
000110 32 68 c8 3c 00 bf 9b 3d 88 35 9f bc be f8 96 bc
       0.024463747 0.0760479 -0.019434705 -0.018429156
000120 36 55 db 3c 6f b6 35 bd 75 3f a9 bd 11 6c a7 3d
       0.02677403 -0.044363435 -0.082640566 0.08174909
000130 f9 4e ed 3a 7b e8 e0 bb 15 14 7e 3d bd fb 77 3d
       0.0018105201 -0.0068636513 0.06203087 0.06054281
000140 0a 22 04 bd b5 a4 22 bd 6a e1 45 bd 5e 7d a4 3d
       -0.032259025 -0.039707858 -0.048310675 0.080317244
000150 ab 6b 16 bd 5a ab 52 bd 0e f9 c5 bc 77 cb 4c 3d
       -0.036723774 -0.051432945 -0.02416661 0.049998727
000160 ff d0 de 3c 1c 77 22 bd 52 ab c5 bc c4 76 b2 3d
       0.027199266 -0.039664373 -0.024129543 0.08714059
000170 c7 ee 95 3d d7 5f 6c 3d 37 d4 72 bd d6 77 e9 bc
       0.07320934 0.057708587 -0.059284415 -0.028499525
000180 d3 10 42 bd 10 ab af 3d 95 27 46 bd df ba 28 bd
       -0.047379326 0.085775495 -0.048377592 -0.04119384
000190 6b 2f 47 3d d8 2d b5 bd 33 a9 fb 3c 0f 56 b6 3c
       0.048629206 -0.088466346 0.030720329 0.022257833
0001a0 ce b6 a7 3d 33 e5 7e 3d 35 96 ff 3c 49 cb c3 3d
       0.08189164 0.0622303 0.031199554 0.09560258
0001b0 82 49 c0 3c 0e 40 39 3d 16 7a e0 bd 24 d4 2f 3d
       0.023472551 0.045227103 -0.10960786 0.042926922
0001c0 2a 2c a5 3c a1 ea 41 3d be 66 93 bc 3a 1e ea ba
       0.02016266 0.0473429 -0.017993327 -0.0017861791
0001d0 79 41 8f bd 09 26 a5 bd 51 02 1f bd b1 e9 8a bd
       -0.0699491 -0.08063895 -0.03882057 -0.06782854
0001e0 37 e5 5f 3c e5 58 c5 3b ad aa aa bd 03 eb 9b 3d
       0.013665489 0.00602256 -0.08333335 0.07613184
0001f0 00 d5 9e 3a 07 7c 4b 3c ed 06 4d bd 20 62 6e 3d
       0.0012117922 0.012419707 -0.050055433 0.058199048

layers.4.weight f4 [128, 128]
000000 a8 8a b8 ba 26 2d f6 3b 1c b2 a4 bd 08 f6 57 3c
       -0.0014079409 0.0075127063 -0.08041784 0.013181217
000010 bd a3 0a 3e e3 29 04 be 34 d7 9a 3d 8a 6d 1f bd
       0.13539024 -0.12906604 0.07560578 -0.038922824
000020 02 46 df bd 52 c8 ac bd 05 ce 09 3e 2d b7 f4 bd
       -0.10902025 -0.084366456 0.13457496 -0.119490005
000030 5b 44 bf bd 6c 8f e5 3b f7 e7 2d 3d 84 28 d1 bd
       -0.0933921 0.0070056226 0.042457547 -0.10212806
000040 8d 4a fe 3d e1 cc 23 3e 11 65 08 bd a0 1e a7 3d
       0.12416563 0.15996124 -0.03329951 0.08160138
000050 88 21 33 3d 49 ba ed bd 07 3e 11 be 8d 86 87 bd
       0.04373315 -0.11607797 -0.14183818 -0.066174604
000060 74 72 90 bc 89 9c a2 bd f0 68 03 bd 02 ec dd bd
       -0.0176327 -0.07940013 -0.032082498 -0.108360305
000070 bc 72 c6 3c 74 a0 3e bd 4a eb 9e 3d 76 c5 37 3d
       0.024224631 -0.04653974 0.077597216 0.044866048
000080 de 3c 03 be 54 85 10 be f8 5f af 3d fd c0 76 3b
       -0.12816188 -0.1411336 0.085632265 0.003765165
000090 9e e5 d5 3d 5e 13 8d 3d a1 15 57 3d 60 f9 95 bd
       0.10444187 0.068884596 0.05251086 -0.07322955
0000a0 46 5c b5 3d 60 20 00 3e d9 8f 97 3c 6f f5 28 bd
       0.088554904 0.1251235 0.01850121 -0.04124969
0000b0 55 a1 d3 3c 82 0b 1e be f1 3f 03 be 94 07 0b 3e
       0.025833765 -0.15434077 -0.1281736 0.1357711
0000c0 27 23 da bd bb ee f1 3d fd 1a f6 3d 54 64 0a 3e
       -0.10651236 0.11813112 0.12016866 0.13514835
0000d0 b6 ad 04 3e 15 57 e0 bd 2f 8c 00 3e 39 c8 c1 bd
       0.1295689 -0.109541096 0.12553476 -0.094620176
0000e0 fc be 4f 3d e5 6b 53 3d 95 69 fd 3d 43 8f ff 3d
       0.050719246 0.051616568 0.12373654 0.12478497
0000f0 48 5e aa 3d 88 ad 55 bd b7 1e 15 be 38 e5 3a ba
       0.08318764 -0.052167445 -0.14562498 -0.0007129493
000100 52 4d 19 bd 1a 76 15 3d 14 a2 9f bd 48 6c 10 be
       -0.037427254 0.036489584 -0.07794586 -0.14103806
000110 cf d8 f6 bd e6 73 c9 bc 39 dc 9d bd ff fb 66 bd
       -0.12053072 -0.024591397 -0.0770802 -0.056392666
000120 02 18 a3 bd 8d b3 10 be e4 8e bd bc 40 44 8b 3d
       -0.079635635 -0.14130993 -0.023139425 0.06800127
000130 6f f2 75 3c 83 5a 96 3d 7d e0 62 bd 98 60 ba bd
       0.015011414 0.073414825 -0.05538987 -0.09100455
000140 16 98 f9 bd 27 27 0f bc 88 db 2e 3d 8d 7a 3f 3d
       -0.12187211 -0.008737362 0.04268983 0.046747733
000150 0d ce 80 3d ce 9c bf bc ee 08 e5 3c c1 ed 01 3e
       0.06289301 -0.0233902 0.02795836 0.12688352
000160 d6 b8 55 bb 02 09 3e bd 49 1d e6 bd 68 7c 89 bd
       -0.0032611392 -0.04639531 -0.112360545 -0.06713182
000170 8e d0 0a be 45 76 0a bc ee e7 5f bd 7a 9b d7 bd
       -0.1355612 -0.008451049 -0.054664545 -0.10527702
000180 e0 5e a1 bd 94 5a af bd f3 37 23 be cb d5 14 3e
       -0.07879424 -0.08562198 -0.15939312 0.1453468
000190 f2 d2 8d bd c9 3f b5 3c 21 87 bf bd 31 f3 0b be
       -0.06925 0.022125142 -0.09351946 -0.13666989
0001a0 0f b9 d8 bd 12 6d 8d bd c8 d0 13 bd 58 07 0d bd
       -0.10582172 -0.06905569 -0.03608778 -0.03443083
0001b0 b7 27 dd bd d2 68 45 bd 9a 1c ca bd 73 6c fa bd
       -0.10798591 -0.048195668 -0.098687366 -0.12227716
0001c0 51 20 8a 3d 4b 3f 05 be b3 d2 0b be 81 92 84 bb
       0.06744445 -0.13012426 -0.13654594 -0.004045785
0001d0 25 0a 45 bd b8 91 f9 3d ef 81 8c bd 72 ed fd 3d
       -0.048105378 0.12185997 -0.0686072 0.12398805
0001e0 cf 70 65 3c 00 bf 84 bd 01 69 94 bc b2 9e 94 3d
       0.014003946 -0.06481743 -0.018116476 0.07256831
0001f0 02 38 f6 3c 9c 0c 9c bd 07 a6 a2 3c 63 5a 20 3c
       0.030056003 -0.076195925 0.019854559 0.009787175
000200 b5 64 02 bd 1e 8b 18 be e4 d5 36 3d f0 ed c3 3d
       -0.031834323 -0.14896819 0.044637576 0.09566867
000210 ff 5a 58 3d 63 fb 89 bc 83 2e 5c 3d 9e 4c da bd
       0.052821156 -0.016843503 0.053755295 -0.10659145
000220 d7 75 12 be 48 44 b3 3d 53 d9 3c bd 22 d2 a5 bc
       -0.14302765 0.08753258 -0.046105694 -0.0202418
000230 cf 4d 73 bd cf 4a ef bc 54 12 02 be 6e c7 ea bd
       -0.059400376 -0.029210476 -0.12702304 -0.114638194
000240 d3 87 c6 bd de 38 34 3d 34 c4 b6 bc ac 6e 81 bc
       -0.09693875 0.043999545 -0.022310354 -0.015799843
000250 22 89 04 3e 7b 01 96 bb c1 30 4f bc a8 48 81 bc
       0.12942937 -0.004577813 -0.012645901 -0.015781716
000260 b5 f9 12 be aa 0e 36 3d b2 88 66 3c 65 12 8f 3d
       -0.14353068 0.04444758 0.014070677 0.0698593
000270 44 84 c5 bd 00 a1 1c bd ee 05 80 bd ca a0 88 3d
       -0.09644368 -0.03823948 -0.06251131 0.06671293
000280 47 5f c8 bc 94 dc 0d be 62 d9 c5 3d f5 9a c9 3d
       -0.024459494 -0.13853675 0.09660603 0.09844009
000290 d1 31 bf 3d 8c 73 3b 3c 4c 55 cf bd fc d1 cc 3d
       0.093356736 0.011441123 -0.10123691 0.10000989
0002a0 b8 ba cb bd 1c 91 f8 3b be 3c 24 bd 85 c8 f7 bc
       -0.09947723 0.0075856578 -0.04009699 -0.030246982
0002b0 56 b7 cb bd 7a 6b bb 3d 33 12 2e 3e 74 39 88 3d
       -0.09947078 0.09151359 0.1699913 0.06651583
0002c0 31 ec 1a 3e 6c 04 cc 3d 7f e1 de bd 6a 99 a2 bc
       0.15129162 0.09961781 -0.10882854 -0.019848544
0002d0 ff ee 6d bc 0f ee da 3d db 44 c9 3d 29 7d 23 bb
       -0.014522313 0.10689937 0.09827586 -0.0024946427
0002e0 96 4f e9 bc b4 02 ac 3d 0e 3d ab 3d ff 94 8d bc
       -0.028480332 0.08398953 0.08361255 -0.017282961
0002f0 4b e8 49 bd 17 9e 0f be 40 52 92 3d cf a7 02 3e
       -0.049293797 -0.1402515 0.07144594 0.12759326
000300 11 8a 05 3e b4 1f 77 3d e0 55 c1 bd 2b 60 b6 3c
       0.1304095 0.06033297 -0.094402075 0.022262653
000310 d8 ce 79 bd 74 11 a1 bd d5 62 e7 3d 29 ce 26 39
       -0.060988277 -0.07864657 0.112981476 0.00015907794
000320 cd 03 4f bd f6 d7 0c 3e 65 48 b0 3c 86 96 ee bd
       -0.050540734 0.13754258 0.021518895 -0.11649804
000330 6d a1 92 bd 60 3e 01 bc 23 3d ee 3c 83 b1 ce 3d
       -0.07159696 -0.0078884065 0.029081887 0.100924514
000340 65 c6 eb 3d 77 bc d1 bd 2b 61 cf bd 24 4d db 3d
       0.1151245 -0.10241025 -0.10125955 0.10708073
000350 db 5f 13 be f9 cf a6 3c 53 61 4f bd a1 dc e3 bd
       -0.14392035 0.020362841 -0.050629925 -0.11126066
000360 dc 3d 87 bb 2c 6f 8c bd b8 57 a7 3d e7 f5 a8 3d
       -0.0041272473 -0.06857142 0.08171028 0.08250027
000370 0f 20 43 3d 93 02 8f 3c fa 89 fd 3d 41 38 a4 bc
       0.047637995 0.017457282 0.123798326 -0.020046355
000380 51 c6 44 3d 64 ca 15 3d ee dc f5 bd d9 3a f6 bd
       0.04804069 0.036569968 -0.120050296 -0.12022943
000390 93 e4 a0 3d e7 e8 ca 3d 24 e6 8c 3c 00 40 0e be
       0.07856097 0.09907704 0.017199583 -0.13891602
0003a0 18 8c e7 3d 4d 82 06 bd 9a b6 1b bd 5f 9b c4 bd
       0.11306018 -0.03283911 -0.03801594 -0.09599947
0003b0 66 b0 a1 3d a1 2a ab bd d7 6a ea bd c4 53 7e 3d
       0.078949735 -0.0835774 -0.11446159 0.062091604
0003c0 e2 f3 b1 3d 29 4b f0 bd e0 da 3d bc 26 02 d6 bd
       0.08689095 -0.11733086 -0.011587828 -0.104496285
0003d0 5e 37 05 be 0d cd 0f 3e f8 f8 6f bd fd 8d a6 bd
       -0.13009402 0.14043064 -0.058587044 -0.08132551
0003e0 09 96 57 3d 57 c1 b4 bd 07 a0 d6 bc cd 92 de bc
       0.05263332 -0.08825939 -0.026199354 -0.02716961
0003f0 f1 72 dd 3c ca f2 3b 3d 26 31 b0 3d 0b 7b 12 3e
       0.027032347 0.04588584 0.08603124 0.1430475
