btcusdt_call_pricing_mlp/result_14/pinn_model.pth (torch, 331682 bytes, 19 tensors)

fcs.0.weight f4 [100, 2]
00000000: 83db 7fbe 7928 99be f155 8cbe 32a9 c0be
00000010: 9277 e43e 1c53 033f 004d f2be d141 cf3e
00000020: 6b2c 093e 5e8a 24bf 0bca 2ebf 42dc 8a3e
00000030: 7a26 f9bb 54e4 36bf 6fbb 93be 85e9 e33e
00000040: dee7 a13e 5731 5a3e b993 213f 3352 3a3f
00000050: 886e cbbe e70d a73d 8031 dcbe 8a33 263f
00000060: 3415 c83e 455a 24bf 0ee3 a83e 6c0a 0b3f
00000070: babe 1a3f f58d 27bf eac2 ee3e 8c4a 5c3e
00000080: 01bd f93e a4a0 5bbb 5951 be3e f6a0 3bbf
00000090: 632d 053f d241 543d eb5b 0cbf 6707 643e
000000a0: 8e8f 26bf f275 ad3e 8c11 5e3d 65be afbe
000000b0: 3143 283f 6818 27be 4d9e 3bbe fe52 15bf
000000c0: a513 bbbd fe42 d3bd ab3c aa3e 160d 15bf
000000d0: 2ead 3e3e 818b 38bf 213b 20bf 5681 053e
000000e0: 032f fabe 511e 12bf df52 25bf 1d7a 82bd
000000f0: 9d0a 01bf cb99 31bf f210 4f3e afa8 8fbe
00000100: ac42 6ebe 78db 11be 223b eabc fd49 4ebf
00000110: a31a 1abf a97d 373e 0f96 403e a9ff 06bd
00000120: 9459 2a3f f0ab c5be 7460 8cbe 64ee 94bd
00000130: 9e64 87be 583f 1f3f f6d4 1b3f 891b a43e
00000140: b76a 823d 6774 21bf c2d1 d1bd d9c8 543f
00000150: 0239 d43d 002e 03bf d903 823e fb1f cb3d
00000160: 0a13 86bd 4ec1 b2be ef41 14bf a84e b23e
00000170: 98d0 86be 828e f0be e34b 30bf 14ea a23d
00000180: 0fa1 893e 53e7 963e c978 81be 2058 0a3f
00000190: 9b0d 013f 9123 273f fd19 5fbd 86ba 4ebf
000001a0: aa81 66be 9872 31bf cefa f83e 0abc 44be
000001b0: db3b 123e 4499 1f3f 5900 08bf f817 c3bc
000001c0: 8488 73be faf4 ea3e 10f7 f93d 6b28 aebd
000001d0: 4c9a 823d e9d3 ff3e 4bbc a0be 2803 febe
000001e0: 034b 95be f06e 19be 3fbe 003f 2cbc 19bf
000001f0: dc8c a73e 02bb fbbd c8ae 503e 28c3 e4bd
00000200: 1e8f b0be a7b1 223f cdca e43d fdb5 dabe
00000210: e591 0b3d 7e98 49be c1bd 84be 1f86 15bf
00000220: d753 fa3e d14d 18bf cbcf 1c3d c10a 283f
00000230: c405 2cbf 68e2 fd3e 8b0a 11bf 698f a5be
00000240: cc47 7d3e 81db e63e c9dc 1b3e 8443 19bf
00000250: 5d80 31bf 3128 883d 83c4 28bf 7422 b83e
00000260: 8693 02bf 4376 373f b0ad 633e c587 52bf
00000270: 6759 c73d 8dcb 40bf a518 24bf 8ced 21bf
00000280: ce6e 01bf 62b3 253f 3abb 02bf 15fc f4be
00000290: 34b7 093f 9466 0bbf f7d3 17bf accb 173f
000002a0: 61e1 9abe 4078 41be c9d9 043f c34e ebbe
000002b0: 92b5 11be fe12 5abe 6e61 143f 4aba 03be
000002c0: 7349 fc3d 46cd 9d3e 74ea 303e 4e05 133f
000002d0: 622b 503e 6265 bf3e b08a 893e 0074 343f
000002e0: ee7a a0be 664c 293f 3fbb bbbe d4e4 a4bd
000002f0: 475a d7be 931a 22bf b648 0d3e 4524 bf3e
00000300: ef3d 163f c551 dd3e 0252 b93e 1c81 1e3f
00000310: 4431 4ebe 66ee 443e 5823 d73e 69cc f53e
-0.24986081 -0.2991369 -0.27409318 -0.37629086 0.44622475 0.5129869 -0.4732437 0.404799
0.1339585 -0.6427363 -0.68277043 0.27121168 -0.0076034637 -0.7144215 -0.28853938 0.445141
0.31622213 0.21307884 0.6311603 0.72781676 -0.39732766 0.081569485 -0.43006516 0.6492239
0.39078677 -0.6420024 0.3298573 0.5431278 0.60447276 -0.65450984 0.46633083 0.21512812
0.4877701 -0.0033512497 0.37171438 -0.7329248 0.5202238 0.051820584 -0.54827756 0.22268449
-0.650628 0.33879048 0.054215953 -0.34324947 0.65727526 -0.16317904 -0.18322106 -0.5832976
-0.09134606 -0.10315512 0.3324941 -0.5822309 0.1862075 -0.72087866 -0.62590224 0.13037619
-0.48863992 -0.5707751 -0.64579576 -0.063709475 -0.5040682 -0.69375294 0.20221308 -0.28058383
-0.23267621 -0.14243877 -0.02859265 -0.8058165 -0.60196894 0.1791903 0.18807243 -0.03295866
0.66542935 -0.3860774 -0.27417338 -0.07272032 -0.26443952 0.6220603 0.6087183 0.32052258
0.063680105 -0.6306824 -0.10245086 0.8311897 0.10362436 -0.51242065 0.2539356 0.09918209
-0.065466 -0.34913105 -0.57913107 0.34825635 -0.2633102 -0.46983725 -0.68865794 0.07954803
0.2688069 0.2947336 -0.25287464 0.5404072 0.50411385 0.65288645 -0.054468144 -0.8075336
-0.225104 -0.6931548 0.4862885 -0.19212356 0.14280646 0.6234324 -0.5312553 -0.02381514
-0.23782545 0.45890027 0.122053266 -0.08503803 0.06377086 0.49966362 -0.31393656 -0.49611783
-0.29158792 -0.14983726 0.5029029 -0.6005275 0.32724655 -0.12291528 0.20379174 -0.111700356
-0.3448419 0.63552326 0.11171494 -0.4271697 0.034074683 -0.19687077 -0.2592602 -0.5840778
0.4889209 -0.5949374 0.038284104 0.6564141 -0.671963 0.49586797 -0.5665671 -0.32335976
0.2473442 0.45089343 0.15220942 -0.59868646 -0.6933649 0.06648291 -0.65924853 0.35963786
-0.5100635 0.7166483 0.22234225 -0.8223842 0.09733849 -0.75310594 -0.64100105 -0.6325309
-0.505597 0.6472684 -0.51066935 -0.47848573 0.5379517 -0.54453397 -0.5930781 0.59295154
-0.30250075 -0.18893528 0.51894814 -0.45958528 -0.1422942 -0.21296307 0.57961166 -0.12864032
0.12318697 0.30820674 0.17276937 0.5742997 0.20329049 0.37382036 0.26863623 0.704895
-0.31343788 0.661322 -0.36666295 -0.08051458 -0.42061064 -0.633218 0.13797268 0.3733236
0.58688253 0.43226448 0.3619538 0.61915755 -0.20135981 0.19231567 0.42019153 0.48007515

fcs.0.bias f4 [100]
00000000: eee0 993e aec0 073f 2c35 d33e 6145 62be
00000010: fe9e db3e 7893 e2bd cca3 09be 6c0c d53e
00000020: a4ae afbe 1770 b2be 2a45 b93e 4c0d ddbe
00000030: 892e 36bf 4712 05bf cdac 26bf 596b 813e
00000040: 35f6 ea3e 34bb f33e a336 93be 82de f03e
00000050: 9ee6 37bf 9f4b 6e3d 0bff babe 6b4b 32bf
00000060: 262e 8ebe 99e2 233f b8b8 9b3e e5c4 093f
00000070: 7203 993e 7454 523d 67ca 37be 6494 713d
00000080: 25c2 e5bd 3fde 043f c61c ae3d 73fb f13e
00000090: 382b d6be e85d e43e b5a0 503e e2f7 823e
000000a0: 2b91 ca3e 12fc 9a3e 32c0 40be ab1f 283f
000000b0: 68ba 2abe c901 443f cc37 02bf dfe7 06bf
000000c0: c2c1 09bf 3c13 b23d c249 313f 93bd babe
000000d0: 81b2 453f a467 2e3f 6bde 093e 6247 313f
000000e0: 5a66 f23e ed7d 123f a1a4 9bbe d331 333f
000000f0: e768 b7be fc73 8ebe a630 883e 3264 d43e
00000100: 330a fe3e cb48 c0be 1223 03bf d64b 86be
00000110: 9ffa 033f 4989 a6be 9a85 1fbf 06b8 49be
00000120: 15ca 95bd 461e 1fbf c7d4 603e b2c0 33bf
00000130: de0f 333f 1953 85be 2206 353f b709 4f3e
00000140: 5e48 143f 0cd1 13bf 69ec 143c 28b2 29bf
00000150: b369 31bf 7a2c 063f 4a92 1b3d efea ed3e
00000160: 73a5 22be b93c 06be 9c99 703e 1c22 8a3e
00000170: d032 c7bc 4dfa 05bf 0250 5a3d 73fd 053f
00000180: 0977 763e 35c2 34bf bb88 e33e d536 4cbe
0.3005442 0.5302838 0.41251504 -0.22096778 0.4289474 -0.11063284 -0.1344139 0.4161104
-0.34312928 -0.34851143 0.3618558 -0.43174207 -0.71164757 -0.51981014 -0.65107423 0.25277212
0.45890966 0.47603762 -0.28752622 0.4704476 -0.7183627 0.058177587 -0.36522707 -0.6964633
-0.27769583 0.64017636 0.30414367 0.5381606 0.2988544 0.051350072 -0.17948304 0.058979407
-0.11218671 0.5190162 0.08501582 0.47262153 -0.41829848 0.44602895 0.20373805 0.25579745
0.3956388 0.3027044 -0.18823317 0.6567332 -0.16672671 0.76565224 -0.5086639 -0.5269756
-0.53811276 0.08695075 0.6925317 -0.3647276 0.772255 0.68126893 0.13463752 0.69249547
0.47343713 0.572234 -0.3039904 0.699979 -0.35822222 -0.27822864 0.26599616 0.41482693
0.49617156 -0.37555537 -0.5122539 -0.26229733 0.5155429 -0.32526615 -0.62313235 -0.19699106
-0.07313935 -0.6215557 0.21956168 -0.70215905 0.69946086 -0.2603996 0.7071248 0.2021855
0.57922924 -0.57740855 0.009089568 -0.6628747 -0.6930191 0.52411616 0.03798131 0.46468303
-0.15883426 -0.13109101 0.23496097 0.26979148 -0.024316221 -0.52335054 0.053298958 0.5233986
0.24068846 -0.70608836 0.44440255 -0.19942792

fch.0.0.weight f4 [100, 100]
00000000: 631e c7bb 8fa0 afbd b289 063d 9bd4 313d
00000010: df89 29bd 89f1 89bd accf e13b 747f 19bd
00000020: 3b2f c3bc 0de3 203d 76fe a2bd 2176 9d3d
00000030: bf53 3b3d b7ac 163c 0177 a73d 1531 a2bc
00000040: 3375 dbbd 0815 9c3d db76 683b 4f27 5ebd
00000050: d203 d23d 08af 27bd a874 1b3d 4809 a4bd
00000060: c47c 44bd 6066 4b3d 2ae5 a13c 438c 11bd
00000070: e687 45bd 8bb6 3abd f947 ac3d ab45 bb3c
00000080: 402a 04bd d96b adbc 65da 8ebd 24d6 be3d
00000090: a972 66bc 4d03 afbd 60cc 93bd 8dbb bf3c
000000a0: b591 0f3e 7b4c bbbd 8dbc 563d 894f d2bd
000000b0: 912e bb3d 104b cfbd c792 973d 0189 66bd
000000c0: dcd3 f5bc fa1b 0fbc 0e5c 213d e4ae 99bd
000000d0: 96fd c43b 7e8d 5bbd b010 6dbd 6b0a 17bd
000000e0: 20e3 ecbb e174 a63d b15c 8939 5369 603c
000000f0: 9558 8e3c ebb6 cf3d 4121 50bd 95e8 143d
00000100: 54e7 9b3c 8dcf 923d 698f efbc b75b 163d
00000110: 0541 56bd 08fa 9bbc 15a6 2a3c d555 ab3d
00000120: 1fb2 c2bc 92e3 c6bd 6939 b63d bfff 47bc
00000130: 3a6d 80bd caca 633c fde7 36bd 6e1e 373d
00000140: 8852 553d 76de 6b3d febe 9c3d 6b83 66bd
00000150: aa55 3a3c 7b07 0e3d 6b00 983d 9ca9 04bd
00000160: 086f 073c dd84 803d cd60 493d 0fcb 8e3d
00000170: 2ecf ca3a f853 8bbd 7852 a93d baf4 af3d
00000180: c49c debd 9d8e d2bd a2a9 9cbd ba4a e0bd
00000190: ebc9 83bd fb39 94bd dc4d d8bd 7d6e 3b3d
000001a0: 2afe cabc ff2b a03a 71ac bdbb 13aa 153d
000001b0: df25 e03d bcd9 35bd 47e3 4a3d bd6b 5c3d
000001c0: ba2f 183d 0235 83bb 3288 e2bb 27d4 8f3d
000001d0: afd6 693d 5510 943c a60c c63d 389b 56bd
000001e0: 84d3 773d 1d7f a8bd 4bef 76bd f459 d9bc
000001f0: 17ac 44bd 63de bfbd d64f d13a 5638 d0bd
00000200: 1cbb 863d 17ab b23b 8514 bcbd cf1d a3bd
00000210: 12f6 263d 03e9 15be b4a3 8bbb 60cc 583d
00000220: 014e a43d 6c65 113d 87a7 6fbd 4724 6d3d
00000230: ad25 19be e433 ec3c 4c14 c3bc 745f 16bd
00000240: e4af 8abd f107 c33c ea23 463c b19e a53d
00000250: 3c48 643d 967c 053d aabf 37bc 558e f53c
00000260: 8a28 543d 8da9 92bc 3380 6e3d e162 8dbb
00000270: f59f acbc 9f92 833d 39a2 dfbc dcf6 aebd
00000280: df15 29bd c134 5b3b ab48 c8bd 2869 6abd
00000290: c287 f33c fcb0 22bc f02d e13d 4768 bf3d
000002a0: d095 87bb 5d49 cf3d 0e4f 713d c6f9 3f3d
000002b0: d2b2 a9bd af58 a5bd b860 1b3d 1ef7 c8bd
000002c0: 347b 623d e22a 4bba 4075 f3bd 308d 4dbd
000002d0: 5b8a d83c e2e7 8ebd 3a66 a8bd 67a1 853d
000002e0: 7a1e c9bb c2e4 b53d 7a40 6bbd 3b41 8d3d
000002f0: 6484 e73c 9a3d c23d 738b a2bd 021c 4e3d
00000300: ec40 a3bc f1e8 043d c132 20bc 7b2c bb3b
00000310: a021 58bc 76db b03d 0e13 333d 7c20 01bd
00000320: cce6 74bc 6bfa c1bd 4bd1 38bd adbc 46bd
00000330: 467e 82bd 3dd4 87bd 9c5d 073c 557d 17bc
00000340: b664 e83b 6f1c d0bd 9151 72bd e533 4abb
00000350: 9d8e 25bd 3e3f 013b 265d c93d 935d 933a
00000360: 620e ccbd 386d f93c ee2a 6f3d c645 803c
00000370: 69e4 9dbc 62b2 513c e25c a6bd ae03 25bd
00000380: aeae adbd 64ca 0cbd 6993 6c3d 841a 2bbd
00000390: cdce 72bd 9f51 49bd ed11 8fbd 0aea 173d
000003a0: 806e adbd 03c4 a93d a6c7 c23d 6396 e53a
000003b0: 3a40 c13d cafe b23d cda2 973d eca6 ac3d
000003c0: cca7 ae3b a27a 5a3d c4d6 173d 57c6 fc3a
000003d0: af0e 623d e13e f33c 3a75 9dbb 5796 023d
000003e0: 6dd6 863d 7e3c b7bc 9c14 76bd b1f1 e6bd
000003f0: 8adb 6e3d 50dc 96bc 3f7b afbd b3ab 7b3d
-0.0060766204 -0.08575546 0.03284616 0.043415647 -0.04139125 -0.06735522 0.0068912115 -0.037475064
-0.023826232 0.039279032 -0.07958691 0.07688547 0.045734163 0.009196452 0.08176995 -0.019798795
-0.10715713 0.07621199 0.0035471234 -0.054236706 0.10254635 -0.040938407 0.03795305 -0.08009583
-0.04797055 0.04965818 0.019762594 -0.035534155 -0.048225306 -0.045584243 0.08412165 0.022860369
-0.032266855 -0.02116959 -0.06975249 0.09318188 -0.014065423 -0.085455514 -0.07216716 0.02340486
0.14020427 -0.09145447 0.05242591 -0.102690764 0.09139741 -0.10121739 0.074010424 -0.056283
-0.030008249 -0.0087346975 0.03939443 -0.07504061 0.006011675 -0.053601734 -0.057877243 -0.03687517
-0.007229224 0.08127762 0.00026199737 0.013696986 0.017376224 0.10142311 -0.050812963 0.03635462
0.019031204 0.071684934 -0.029243188 0.03670856 -0.0523081 -0.019040123 0.010415574 0.083659805
-0.023766575 -0.09711374 0.08897669 -0.012206971 -0.06270833 0.013903329 -0.044654835 0.044706754
0.05208066 0.057585202 0.07653616 -0.056277674 0.011372963 0.034675103 0.07421955 -0.032388315
0.008266218 0.06275342 0.049164582 0.06972324 0.0015473121 -0.06803125 0.08267683 0.085916
-0.108697444 -0.102811076 -0.076495424 -0.10951753 -0.06434997 -0.072376214 -0.105617255 0.045759667
-0.024779398 0.0012220143 -0.005788379 0.03653915 0.10944723 -0.0443971 0.049533155 0.053813685
0.03715489 -0.0040041218 -0.0069132084 0.07022887 0.057089504 0.018074194 0.09670381 -0.052394122
0.06050445 -0.0822737 -0.0602868 -0.02653215 -0.04801568 -0.09368589 0.0015969228 -0.10166995
0.06578657 0.0054525244 -0.09183601 -0.0796467 0.040762015 -0.14639668 -0.0042614583 0.052929282
0.080226906 0.035497114 -0.058509376 0.057895925 -0.14955778 0.028833337 -0.02381339 -0.036712125
-0.0677183 0.023807498 0.0120935235 0.080869086 0.05573295 0.032589518 -0.01121513 0.029975096
0.051796474 -0.017903114 0.05822773 -0.004314766 -0.021072367 0.0642445 -0.027299033 -0.085431784
-0.041280624 0.0033448192 -0.09779485 -0.05722919 0.02972782 -0.009929892 0.1099509 0.09346061
-0.004137732 0.10121415 0.058913283 0.046869062 -0.082860604 -0.08073556 0.037934035 -0.09812759
0.055293277 -0.00077502255 -0.11887598 -0.050183475 0.02643316 -0.06977822 -0.08222623 0.06524926
-0.0061376663 0.08881523 -0.057434537 0.06897207 0.028261371 0.09484406 -0.07936754 0.05031968
-0.019928418 0.032448713 -0.009777726 0.0057120896 -0.013191611 0.08635609 0.043719344 -0.03152512
-0.014947604 -0.094715916 -0.045121472 -0.04851978 -0.06371741 -0.06632278 0.008262064 -0.00924619
0.007092084 -0.10161673 -0.05915982 -0.0030853685 -0.04041921 0.0019721533 0.0983222 0.0011243097
-0.09963681 0.030447587 0.05839055 0.01565827 -0.019273954 0.012798877 -0.08123185 -0.040286712
-0.08480583 -0.034372702 0.05775777 -0.041773334 -0.05927925 -0.049150106 -0.06985841 0.03708843
-0.08468342 0.082893394 0.09510736 0.0017516132 0.09436078 0.087400034 0.07404099 0.08430275
0.0053300615 0.053339608 0.03707005 0.0019285184 0.055189785 0.029693069 -0.0048052343 0.031881656
0.06583867 -0.022367712 -0.06007825 -0.11276568 0.058314838 -0.0184156 -0.08568429 0.061443042

fch.0.0.bias f4 [100]
00000000: 3e9e 653d be20 0dbe 8b27 123d 2ee7 a1bd
00000010: 21c1 a03d 7c7e 63bd fa3d 5a3d 5381 7dbd
00000020: ccf9 b9bd 34c2 12bd 483f e6bc 8161 00bd
00000030: 8721 bebd 6490 5f3d 6b9a 8cbd b441 acbd
00000040: 7204 b33d fe43 a23d 87cb 403d b30c 64bb
00000050: 4e4c ef3d 4cb0 94bd a54d 0ebd a791 24bd
00000060: 8b0b 9b3c be79 a0bd 0fcc f2bd 2031 38bd
00000070: d5c9 c33d 4a1e 4f3d c8d5 873d 170e 74bd
00000080: 99d2 2a3d 4561 b5bd 5556 703d 46c5 643d
00000090: c3bf 3d3d 25ce 7c3d 6850 a5bd 6aad 67bd
000000a0: 6467 87bd 35bc 94bb ec85 da3c f58c dfbd
000000b0: 7df1 3ebd 3ab2 d3bd 3911 1dbd 6e2b be3a
000000c0: 25ca 213d a3f0 123c 5a8e ccbc 4765 24bb
000000d0: d352 743d 5e9b b7bc d982 343d 8961 843d
000000e0: 6b1b 473d c965 c73c 1d98 103c b54f 61bd
000000f0: 8a14 76bd bad3 053d aa50 a6bd 5372 e3bb
00000100: 911d a33d 7b8e 7a3d 887a a5ba 777d 81bd
00000110: ea38 1fbd 16e4 2e3d 9a32 4abd 0369 9cbd
00000120: ea65 abbd 7ee0 ec3d 6f9c 1e3c bcbc 063d
00000130: 4368 b5bd 16de a23d d7c3 353d 914b a13d
00000140: 7a0d b93c 33e1 b6bd 8430 853d 274a e1bd
00000150: fa61 c2bb e720 dd3d e6ac 91bd cd8a c3bc
00000160: e2d7 77bd b51c bb3d b7e9 23bc 7bac ecbc
00000170: c2d3 b1bd 10dd 54bd 9ccf 68bd 945e fcbc
00000180: 2438 fbbb e0b9 2d3b 3cc8 763d c65f 62bc
0.056059115 -0.13782021 0.035682242 -0.07905422 0.078493364 -0.055540547 0.05328176 -0.06189091
-0.09080848 -0.035829738 -0.028106347 -0.031342987 -0.092837386 0.05458106 -0.068653904 -0.084109694
0.08741082 0.07923125 0.0470691 -0.0034797608 0.11684476 -0.072601885 -0.034742016 -0.040177967
0.018926403 -0.078357205 -0.11855327 -0.044968724 0.09559981 0.050565995 0.066325724 -0.05958375
0.041704748 -0.08856443 0.058676083 0.055852197 0.046325456 0.061720032 -0.08071977 -0.056561865
-0.06611517 -0.0045390376 0.026675187 -0.10915557 -0.04661702 -0.103367284 -0.038346503 0.0014508793
0.03949942 0.008968505 -0.024970222 -0.002508478 0.0596493 -0.022412952 0.0440701 0.06463916
0.048610132 0.024340527 0.008825329 -0.055007655 -0.06007818 0.03267262 -0.08120854 -0.0069411187
0.07964624 0.061171036 -0.0012625018 -0.06322759 -0.038872637 0.04269799 -0.049364664 -0.07637217
-0.08369048 0.11566256 0.009680851 0.032894835 -0.08857777 0.07952516 0.04437622 0.07875741
0.022589434 -0.08929672 0.06503394 -0.110004716 -0.00593209 0.10797291 -0.07113056 -0.023869896
-0.060508616 0.09136335 -0.010004452 -0.028890839 -0.08682968 -0.051968634 -0.056838617 -0.030806817
-0.0076666046 0.0026508495 0.060249552 -0.0138167795

fch.1.0.weight f4 [100, 100]
00000000: c38a a53d 7e93 873c 56f7 63bd 714e 8a3d
00000010: 8b59 813d 0c1c dcbd 5989 023e 55ba 95bd
00000020: 2ec5 433a 10ca cd3d c4d5 093c d7a6 aabc
00000030: e9d1 e4b9 ecf3 3f3d 0c32 6b3c 931f d5bd
00000040: a62a 57bd 1a31 4e3d 89ad dcbd bd27 763d
00000050: cb70 0fbd e7c0 8b3c 517f 4f3d bf32 35ba
00000060: eb89 01be e378 cabd cfed 7c3c 6996 af3d
00000070: e3b5 a6bd 4ee2 bfbd bef9 79bd 397a 06bc
00000080: 0f5e 993d b31c c23d 0909 e13d 83be 86bd
00000090: e35d e4bc 23ac 5cbd 091f 81bd 706e c8bd
000000a0: ff50 863c ae9c c9bd 84a8 3ebd ffe1 b53d
000000b0: 008b aa3b d16c 0b3d 6328 423d 0898 3bbd
000000c0: 7d62 933c 45a1 adbc efb7 f3bd 687e 69bd
000000d0: 99e8 ec3d 3f3c d53c bf97 9cbd d2b3 50bd
000000e0: 410f 813d 6414 bfbd 0209 b43d 7708 22bd
000000f0: 9b3b 3d3c e1de f8bd 6910 883d ec0b 8c3d
00000100: 57d6 e3bc 9527 613d 4ccb 31bd 5705 033e
00000110: 65ad 76bc 4852 f1bb 2931 1abc 0015 aebd
00000120: 2ee2 c6bc 0357 71bd 6cd7 f13b 5981 f5bd
00000130: d283 1b3c 2f1d 22bd 7ece ba3c 9ea6 883d
00000140: 6a02 97ba d4a9 2dbc 6e11 cdbc 8c3c ca3d
00000150: c6ea 20bd f641 e5bc caf0 1f3d b4a7 88bd
00000160: 3e13 673c 43a2 c3ba 7aab 443d f1ef 033c
00000170: 3c27 d83d 7d98 623d 19d9 fb3c 6383 9b3d
00000180: f4eb 94bd 1dfc 24be 9be0 303d a7e4 873d
00000190: 6720 1cbc f8e6 73bc bc05 813d ce9f 133e
000001a0: 36a9 99bd 490c 583d 6446 8dbd e145 a9bd
000001b0: 072b 33ba bba2 90bd 1aeb b0bd c8e6 b2bd
000001c0: 4276 c3ba c6da e0bc 5e66 a73d 6491 bb3d
000001d0: 748b 9ebc 4640 9e3d 9478 a7bd 62eb bf3d
000001e0: 3209 fd3c 31f0 a53d 9f20 02bd 60ea 96bb
000001f0: b7a2 4cbc 01b7 b83c abd2 c53c 1691 0abe
00000200: c137 dcbc d71e b03d f06d 4cbd f454 e13c
00000210: 5744 22bd 523f a7bd 45b7 80bc 988a a73d
00000220: 870f 413d d449 90bc ee71 e13d 2dff d53d
00000230: f1b6 1e3d 1dc2 c2bd 68be 333d 735f dabd
00000240: 7fef c0bd ae7c 15bd c7f6 bebd 9ccf 6fbd
00000250: 9055 923d 0fb2 13bd d7f3 64bd 93e3 bd3b
00000260: f18f 913d 4586 5a3c 72a9 7bbd 9ac2 42bd
00000270: 13d4 6bbd d88c ba3d 137b 963d d796 913d
00000280: dbc7 853d 9e8c 5a3d e310 a4bd 73f5 a9bd
00000290: 0c68 963d ec68 ea3c bbc6 02be 05a1 ee3c
000002a0: 9f7c 673d cb19 9f3d bce0 8fbd 3963 5d3d
000002b0: d955 bbbd d844 a83c 9e56 6bbd 6de5 e9bc
000002c0: 9d87 173d b1d6 a3bd 51c4 8a3d 8ec7 d23d
000002d0: c151 86bd 888e 423d be63 c1bd 66e6 e7bd
000002e0: 3100 693c 42c4 0dbb 9c88 393c d741 a0bc
000002f0: cf1e 89bd 2391 afbd 5d13 2a3d 3a82 d5bb
00000300: 1cca a73c 1484 273d b413 b13c a2a0 93bb
00000310: 16e3 d53d 9830 0d3e 30f3 42bd e3b0 6a39
00000320: c4aa 08ba cb45 4e3d 4838 7cbd a6df 8b3d
00000330: 58ce 64bd 5038 05bd 6bc7 19bd ecc5 5ebc
00000340: 71bf debc ab3a 993d d19d 04bd 44bb b1bd
00000350: 6266 bd3d 067b bd3d 5fb7 0c3d 619b 6cbd
00000360: a857 8a3d c1c7 6cbd 3621 22bd 537a 5cbd
00000370: 0eb5 adbd 9c84 4ebd b820 8cbd 362e ac3d
00000380: ce9c b63c 5dad 1abd 07fa 5cbd 5567 353c
00000390: c2e3 c1bd 06de 9f3c 1cb2 c7bd 998a 82bd
000003a0: 964c 50bc 80a2 073d 99eb a53c 6c62 cb3d
000003b0: 87fd 0abd 3aa3 ba3d 246b 113d 494c bdbd
000003c0: ee77 a8bc 4ae6 a63d 0ed6 c83d ff36 09bd
000003d0: 1532 363c 27ae cd3d aae4 473c 5c8d 8dbd
000003e0: e36f 823d 5365 8cbc 3c00 07bd 005b 9d3d
000003f0: 1fa6 003c 9769 5e3d e5c8 08bb dfda 503d
0.08083107 0.016549822 -0.0556558 0.06753243 0.06315907 -0.10747537 0.12747706 -0.07310931
0.0007468042 0.10048306 0.008412782 -0.020831509 -0.00043643944 0.04686348 0.014355194 -0.10406413
-0.052530907 0.050339796 -0.10775287 0.06009649 -0.035019677 0.017059756 0.050658528 -0.0006912164
-0.12650268 -0.098863386 0.015437557 0.0857361 -0.08140161 -0.09369336 -0.06102919 -0.008207851
0.074886434 0.0947813 0.109880514 -0.06579306 -0.0278768 -0.0538751 -0.063047476 -0.09786689
0.016396044 -0.098443374 -0.046547428 0.08880996 0.0052045584 0.034039322 0.047401797 -0.045799285
0.017991299 -0.021195063 -0.11900317 -0.057005316 0.11567802 0.026029704 -0.07646131 -0.05095274
0.063017376 -0.09330061 0.087907806 -0.039558854 0.011549856 -0.12151886 0.06643755 0.068382114
-0.027812166 0.05496939 -0.04340677 0.12795006 -0.015055989 -0.007364545 -0.009411135 -0.08500099
-0.024277773 -0.05892087 0.0073804166 -0.11987562 0.009491878 -0.039578613 0.022803541 0.06672405
-0.0011521105 -0.010599572 -0.025032725 0.0987483 -0.039286397 -0.027985554 0.039047994 -0.06672612
0.014103709 -0.0014925677 0.048015095 0.008052812 0.10554358 0.055321205 0.030743169 0.075934194
-0.07271567 -0.16111799 0.04318295 0.06635409 -0.00952921 -0.01488661 0.06299922 0.1441643
-0.075029776 0.05274609 -0.068981916 -0.082652815 -0.00068347197 -0.070622884 -0.08638592 -0.08735424
-0.0014912563 -0.02744807 0.08173822 0.091585904 -0.019353606 0.07727103 -0.08177295 0.093710676
0.030888174 0.081024535 -0.03176939 -0.0046055764 -0.012489966 0.0225482 0.024148306 -0.13531908
-0.026882054 0.08599632 -0.049909532 0.02750633 -0.039615955 -0.08166374 -0.01571239 0.081807315
0.04713395 -0.017613329 0.110080585 0.104490615 0.038748685 -0.095096804 0.043882757 -0.10662737
-0.0942068 -0.036495857 -0.09324413 -0.0585476 0.07145226 -0.03605848 -0.055896606 0.005794951
0.07107533 0.013337676 -0.061440893 -0.047548868 -0.057575297 0.09108895 0.07347693 0.071088485
0.0653226 0.05335676 -0.080110334 -0.08298769 0.07344064 0.028614484 -0.12771122 0.029129514
0.056515332 0.077685915 -0.070252866 0.054049704 -0.091472335 0.02054064 -0.05745565 -0.028551782
0.036994565 -0.079999335 0.06775726 0.10291968 -0.06558562 0.04749921 -0.094428524 -0.11323242
0.014221237 -0.0021631871 0.011324074 -0.019562645 -0.066953294 -0.085726045 0.041522373 -0.0065157684
0.020482115 0.040897444 0.02161584 -0.004505233 0.10443704 0.13788068 -0.047595203 0.00022381874
-0.00052134343 0.05035953 -0.06157711 0.06829767 -0.055860847 -0.032524407 -0.037543695 -0.013596993
-0.027190896 0.07481893 -0.032377068 -0.08678296 0.092480436 0.092519805 0.034354564 -0.05776537
0.06755 -0.057807688 -0.039582454 -0.053827595 -0.08481799 -0.050419435 -0.06842178 0.084072515
0.022291567 -0.03776299 -0.053949382 0.011072 -0.094672695 0.019515049 -0.097507685 -0.06374092
-0.012713572 0.033113956 0.020253943 0.09930882 -0.03393319 0.09113164 0.035502568 -0.09243066
-0.020565 0.08149393 0.09806453 -0.033499714 0.011120339 0.100429825 0.012200514 -0.06911728
0.06368997 -0.017138159 -0.032959208 0.076833725 0.007852106 0.054299917 -0.0020871696 0.05098998

fch.1.0.bias f4 [100]
00000000: 7fde 13bd c29a 8bbd 99c3 d83c 6db1 0dbd
00000010: 9f75 bcbd 1801 5539 e44a 4c3c e7cf dbbd
00000020: cb44 6bbd f5a4 44bd 8d9d 9e3c 01d0 ac3d
00000030: b5c4 833c f895 e03a bec2 e33c 9db9 3b3d
00000040: ed1e 533d 4be9 9ebc b6d4 f2bc 6800 32bd
00000050: e234 8dbd ebe0 d2bb fce5 ca3c 06a9 56bd
00000060: 5fa5 07bd 8ebd 3a3c bfb3 543d 48f2 44bd
00000070: fafa f23d 02f4 813d 2927 b83d a57a a13c
00000080: fb31 e3bd 0a82 083e 5b29 4b3d ba33 ef3a
00000090: 0712 b1bc 6348 0c3b d559 a83d e207 163b
000000a0: 9cdd 583b f7b9 c8bc e467 a43b 97a1 c8bd
000000b0: b943 9c3d ea28 ef3b 0f80 ef3d f22f d63d
000000c0: 388b dbbb 501f a23d 21ca 053d e067 a03d
000000d0: 21d6 a83d 0e72 183d 7cf7 bf3d f12d c43d
000000e0: cdfe 4abc cd31 1abd 2d86 7cbd add6 3f3d
000000f0: 2ade 403d 5d53 adbd 908f 3c3c d639 953d
00000100: 8631 a33c bd90 d8bc 0f56 473c c5e3 7a3d
00000110: 6c65 b7bd 4714 fe3c 92b6 cabc 763e afbd
00000120: 425e b1bd 0d39 5d3c 7e81 783c 1f8e c03d
00000130: 6ad9 5dbd 3dc6 3a3c 71fa 0f3d e866 033d
00000140: 4bf9 7f3d 876e 833b 656e 8fbd 072d dc3d
00000150: 6528 26bc 1845 9b3d 0113 5ebd c914 ef3c
00000160: 6c40 17bd 63d0 16bc 9d7d a33d 928e 87bd
00000170: 6605 9f3d b79a 273c 1d6c d8bd e02d a43d
00000180: b2fd fa3d 9ba5 913d d67b 013d 0656 433d
-0.03610086 -0.06816627 0.026460456 -0.034593035 -0.09202122 0.0002031367 0.012469027 -0.107330136
-0.057438653 -0.048008878 0.019362235 0.08438111 0.016085008 0.0017134538 0.027802821 0.04583131
0.051543165 -0.019398352 -0.029642444 -0.04345742 -0.06894852 -0.0064355037 0.024767868 -0.052407287
-0.033116695 0.011397732 0.05192923 -0.04808262 0.11864276 0.06345369 0.08991844 0.019711802
-0.110935174 0.13330856 0.049599987 0.0018249669 -0.021615041 0.002140545 0.08220259 0.0022892882
0.0033091074 -0.024502737 0.0050172675 -0.09796446 0.076301046 0.0072985785 0.11694347 0.104583636
-0.006699946 0.07916129 0.03266347 0.078323126 0.08243967 0.037218146 0.09373376 0.09579075
-0.012389851 -0.03764515 -0.061651397 0.04683559 0.047086872 -0.08463166 0.011508837 0.07286422
0.019921076 -0.026436204 0.012166514 0.061252374 -0.089548916 0.031015528 -0.02474526 -0.08556835
-0.086605564 0.0135023715 0.015167592 0.094021074 -0.05416242 0.011399803 0.03515095 0.03208056
0.062493604 0.0040109786 -0.07003478 0.10750776 -0.010141467 0.07581538 -0.054217342 0.029184716
-0.03692667 -0.009204957 0.07982943 -0.0661899 0.077647015 0.010229758 -0.10567496 0.080165625
0.1225542 0.07111665 0.03161224 0.04768946

fch.2.0.weight f4 [100, 100]
00000000: f330 94bd 9a71 b73d 60af 8c3d f3d8 d83a
00000010: 2e1f c13c c7e2 923c f08d d9bd 8f5c cebd
00000020: 3135 833d 1703 a63c 2627 2abd c7e0 a3bd
00000030: 057c ea3c a97b fd3c d69f e9bd 6e93 9c3d
00000040: 22c8 39bd f43d 3bbd 7736 03bd d220 7f3d
00000050: fd0f a4bd 5fca 3bbd 8012 3d3d aef8 4b3d
00000060: 8d3a d4bc 0599 debc bbdb febb 3270 77bd
00000070: 41b8 83bd 522b ac3c 31cd f0ba cff4 12bd
00000080: 9179 2d3c fe41 5cbd 4acf 84bd 143e b43d
00000090: 93f2 ba3d 8d42 77bd b885 453c 492d 923d
000000a0: fb41 243d d71d 383c 6d1c 933c f1f8 1c3c
000000b0: cbf3 c0bd 9417 863d cb9f a3bd e33c 773d
000000c0: 3573 853d 5062 6b3d a545 08bd a861 e73c
000000d0: d6c5 38bd b548 4e3d 4c43 653d e176 973d
000000e0: e04f 0c3c 755b f63c a0b3 cf3b 633a d9bd
000000f0: 08c9 86bd 38dd 013d 0942 4d3d 0736 473d
00000100: d8f5 b2bc ef7d 2dbd 5de5 89bd 5643 b2bd
00000110: aea2 673d 3683 7dbd bc5a 42bd 5886 5bba
00000120: 8009 c63c 009b 4bbd d34a 82bd e64a d83d
00000130: ae81 92bb 70df adbd 872c 813d e87a 3cbd
00000140: 8806 66bd 649f cfbd 27dd f53c f871 473d
00000150: e363 bc3d 8815 9ebd 52b0 353a c31e f93a
00000160: bd99 98bd 340a b4bd b556 23bd 2534 5cbd
00000170: 81e1 9c3d 4072 1f3d cd73 89bd c069 433d
00000180: 942b 033d 224d 36bd dd7f 2bbd 5247 83bc
00000190: 5064 a43d 4600 4f3d 0b81 9bbd 7fa3 c5bd
000001a0: f748 533c 81d0 59bd 2426 7b3c 0178 813c
000001b0: 9d61 dfbd 4512 90bc 60ca 953b 0d4b 1d3d
000001c0: 88b2 2f3c d492 48bc e2a8 463c f4c9 0f3d
000001d0: 5fb5 dbba e64f 9cbd 7c3a f93c eef9 aa3d
000001e0: d854 bf3c e9f5 513d 6b10 7dbd 70bc 883d
000001f0: 92ad 6d3d 0f39 b6bd 8c2c 573d b095 52bc
00000200: a8f6 7f3b f6ea f7bc 35be dd3b 3a87 35bd
00000210: c50b 683d 9078 9f3d d79e d83d ec7f e33c
00000220: e04d ecbd bb21 35bd e000 8e3d 34c1 923d
00000230: e407 b9bc 2da2 2cbd 5290 043b 004f 5e3d
00000240: f9ea d4bd bb2d 98bd 27f1 cebd 9cdd 5e3d
00000250: a1a1 16bd f11f 05bd 1fa4 a7bc f181 963d
00000260: b167 28bd 9590 fe3c 9fca efbd 9506 b03c
00000270: ad6b b03c 6a91 053d 72dd 93bd 7b14 0dbd
00000280: 636d a03d 67db 59bd 032f ddbd 3d9e 043d
00000290: a059 a8bd ee27 c33c b734 df3d 185b bbbd
000002a0: 2efd 5a3c 3a4f 913d 3474 493d 0688 f3bb
000002b0: 4592 bb3d ae13 99bc 26fe 41bd a8ed cfbd
000002c0: 9a86 afbc e241 bdbd 3d30 d8bd 2f94 0b3d
000002d0: 0031 1abd e2f6 133d fc94 64bd 8b27 5bbd
000002e0: 6e50 40bd 538d ac3d 434a b4bd 2f02 a43d
000002f0: 6f71 9cbd 964a 8bbd 1b22 bb3d c984 aa3c
00000300: 1c4d 483d cf19 b9bd 6ae3 303d ef1c f33c
00000310: 0c8d b1bc 788d b23c 863f d03c 8fbc 903d
00000320: d69d ccbd e30e dc3d b0a2 8abc df18 18bd
00000330: 3aab 243e 08f8 b0bc a028 ef3d 46bc c6bc
00000340: 6dc8 d83d 29d1 393d 6863 f7bc 9bfb 1d3e
00000350: 616b 92be ed76 063d a7fe 363e e095 883d
00000360: 6b9c a9bd 8414 b5bc 8148 e83d 8222 fabc
00000370: ec0f 293d 28c8 193e 2ff2 edbc ec28 abbd
00000380: 4f82 2f3e f0fe 9c3c 3033 2b3d d719 253e
00000390: 1ab9 803d e53f 3cbd 8ca9 c83d d974 1bbe
000003a0: 0796 a23d 28ce a73c 4559 6f3d 3b7f bb3d
000003b0: bfda 183d f7d2 803d d31d 4fbd aa3f e0bc
000003c0: aa2e 00be 9689 b73d 7cc2 973d ffa4 f6bd
000003d0: e81c 35bd 20d4 20be 3f46 f53c 08db c43d
000003e0: d593 d3bc 4059 e93c b8a1 4ebb e940 b13c
000003f0: 7495 9bbd 93c1 793c e130 64bc 5bf3 933d
-0.07235899 0.08957215 0.068693876 0.0016544148 0.023574438 0.017930401 -0.106227756 -0.10076248
0.0640663 0.020265145 -0.04154124 -0.08001857 0.02862359 0.030942755 -0.114074394 0.076453075
-0.045356877 -0.04571338 -0.032034364 0.06228716 -0.08010862 -0.045847293 0.04616022 0.049797706
-0.025906825 -0.027172575 -0.0077776588 -0.060409732 -0.06431628 0.02101675 -0.0018371699 -0.035878
0.010588066 -0.053773873 -0.0648485 0.08800903 0.091282986 -0.060366202 0.012055807 0.07137544
0.040101986 0.011237583 0.01795789 0.009580837 -0.094215 0.06547466 -0.079894625 0.0603608
0.065161146 0.057466805 -0.033269543 0.028244808 -0.045110546 0.050362308 0.055972382 0.07395721
0.008563966 0.030072907 0.0063385516 -0.106068395 -0.065813124 0.03170511 0.050111804 0.04863551
-0.021845743 -0.042356428 -0.06733201 -0.087042496 0.056551628 -0.06189271 -0.047449812 -0.0008374206
0.024174452 -0.049708366 -0.06361928 0.10561161 -0.0044710254 -0.08489883 0.06307321 -0.04601565
-0.056158572 -0.10137823 0.03001268 0.048692673 0.091987394 -0.077189505 0.0006930876 0.001900636
-0.07451198 -0.087910086 -0.039877612 -0.053760666 0.07660199 0.038927317 -0.0671154 0.047708273
0.03202398 -0.044507153 -0.041869987 -0.01602522 0.080269456 0.05053737 -0.07592972 -0.09650325
0.012895814 -0.05317736 0.015328918 0.015804293 -0.1090729 -0.017586837 0.004571244 0.038401652
0.0107237175 -0.012242038 0.012125226 0.035104707 -0.0016762427 -0.07632427 0.030423395 0.083484516
0.023355886 0.05125991 -0.061783236 0.066765666 0.058026858 -0.08897602 0.052532718 -0.012853071
0.003905693 -0.030263405 0.006767059 -0.044318415 0.05665185 0.07786667 0.10577171 0.027770959
-0.11538291 -0.04422162 0.06933761 0.07165757 -0.02258677 -0.04214685 0.0020227623 0.05427456
-0.1039638 -0.074305974 -0.1010459 0.054410562 -0.036775235 -0.032501165 -0.020464001 0.07349003
-0.041114513 0.031074801 -0.11708569 0.021487514 0.021535719 0.03260938 -0.07219972 -0.03444336
0.07833364 -0.053187754 -0.107999824 0.03237747 -0.082202196 0.02382275 0.108987264 -0.09148234
0.013366027 0.070951894 0.049183086 -0.0074319867 0.09158758 -0.018686142 -0.047361515 -0.10152751
-0.021426488 -0.09241082 -0.10556076 0.034076866 -0.037644386 0.036124118 -0.055806145 -0.053504508
-0.046951704 0.08425393 -0.08803227 0.08008229 -0.07638823 -0.068013355 0.091373645 0.02081527
0.048901662 -0.09038126 0.04318563 0.029676883 -0.021673702 0.021795973 0.025420915 0.07067215
-0.09991042 0.10745027 -0.016923279 -0.037133094 0.16080943 -0.021602646 0.116776705 -0.024259698
0.10585103 0.045365486 -0.030198768 0.15428011 -0.2859755 0.03282826 0.1787058 0.066692114
-0.082817875 -0.02210451 0.11341954 -0.030534033 0.04127495 0.1501776 -0.029046146 -0.083574146
0.17139553 0.019164532 0.041796863 0.16123138 0.06285305 -0.045959372 0.097979635 -0.15181293
0.07938772 0.020484045 0.058434743 0.09155127 0.037317988 0.06290238 -0.050565552 -0.027374107
-0.12517801 0.08961789 0.07410142 -0.12043189 -0.04421702 -0.1570592 0.029940723 0.096120894
-0.025827328 0.02848494 -0.0031529497 0.021637397 -0.07596865 0.015243906 -0.013927669 0.07224151

fch.2.0.bias f4 [100]
00000000: e8e7 9dbd b217 42bc ffdb 0c3d f028 d5bc
00000010: edf0 a1bd 3f8d 453d 7666 d7bc f9c4 a33d
00000020: ab7b 20bc 7b4a b73d b305 393d 7994 a4bd
00000030: c0b3 d73d d5ed 46bc 8cd2 5d3d 280f a3bd
00000040: f94f 6c3d 875f 3c3d 045a a2bc d35e 813d
00000050: 00d0 3abc 7296 e33d df96 af3d 1732 2b3c
00000060: db1c 733d 00b6 7cbd 9507 84bd e246 9b3d
00000070: 8b6a a53c 155c 24bd d66e 9d3d 82ce 7bbd
00000080: 90f3 5d3d 89d3 bdbd e983 993d d6ef f9bd
00000090: 7efa e83d 1a8e b93c 2ab9 82bd 955e b1bd
000000a0: d406 46bd 63d3 21bd e44c 6cbd c630 e63d
000000b0: 99c1 7a3d 6158 85bd 3114 973d 1630 84bd
000000c0: 429c 6bbd 1eb1 babd 5674 923d 29ac a83d
000000d0: 94c4 2fbd 52cf fb3c 83b6 163d 351c f8bc
000000e0: a21b a7bc 4076 39bd 3254 623d 1e38 fd3c
000000f0: c2dc 8d3d e5b3 033d 6284 64bc d492 c7bd
00000100: 9cfb fc3c ced8 923d bcd6 1abd 34de bf3d
00000110: 54ba 083d 886f 1a3d c4ff 91bc 27b8 843d
00000120: 1892 563d f7af cc3c 0579 8d3c 8745 253a
00000130: 2ad7 083d d217 983d 8233 f7bc 6e12 353d
00000140: e7bc 8b3d 4e94 963b b8b5 8ebd 1651 0b3d
00000150: 7863 26bc bc31 c5bd 6a91 d3bc 2719 b0bd
00000160: 5980 bebc b247 803d d6cb b93d 2d2a a5bd
00000170: 710b 4a3d 7576 f3bc 22f1 fa3c 9cc7 083d
00000180: d9c0 9a3d e1b6 a73c 833e aa3d b44f ae3d
-0.07710248 -0.01184647 0.034389492 -0.026020497 -0.07907281 0.048230406 -0.026293974 0.07996554
-0.00979511 0.08949753 0.04517145 -0.080361314 0.105323315 -0.0121416645 0.05415587 -0.07961875
0.057693455 0.04598954 -0.019818313 0.063169144 -0.01140213 0.111126795 0.08573698 0.010448954
0.05935369 -0.061697006 -0.06446759 0.07581879 0.020192405 -0.04012688 0.07687156 -0.061476238
0.054187357 -0.09268863 0.07495863 -0.12203948 0.113759026 0.022650767 -0.063829735 -0.08660618
-0.048346356 -0.039508235 -0.057690516 0.112397715 0.061219785 -0.065109976 0.07376898 -0.06454484
-0.057522066 -0.09115814 0.071510956 0.08235962 -0.04291208 0.030738506 0.03679515 -0.030286888
-0.020398919 -0.045278788 0.055256076 0.030910548 0.06926872 0.032153983 -0.013947578 -0.09744802
0.030881695 0.071702585 -0.037802443 0.09368554 0.03338082 0.03770402 -0.017822154 0.06480437
0.05238542 0.02498625 0.01726962 0.0006304611 0.03340832 0.07426418 -0.030175928 0.04420703
0.0682314 0.004595316 -0.06968254 0.034012876 -0.010155551 -0.09628627 -0.025826175 -0.085985474
-0.02325456 0.06263675 0.09072082 -0.08064685 0.049327318 -0.02971957 0.03063256 0.033393487
0.07556314 0.020472946 0.083127044 0.08511296

fch.3.0.weight f4 [100, 100]
00000000: be2c d73d 831c 893d f3e4 04bd 90f8 eebc
00000010: 1da9 03bd 690b a73d e899 8bbd 9ac4 933d
00000020: a90a ca3c 43eb c2bc 7c98 f8bd 70b7 843d
00000030: dc07 5e3b f817 83bc 7a27 2bbb 689d 37bd
00000040: a22e d53c 3757 34bd f9a7 a93d ac5a 61bd
00000050: 71cf f93d e1c8 e73d cef0 753b 7d62 333d
00000060: f60c ad3c 4ff6 453c e3e9 babc 7928 b5bc
00000070: b145 2f3d 3e3c 923c 14d9 973d 2c70 6dbc
00000080: 255e c1bd 3506 b3bd 8c3b 4e3d 83e0 d1bc
00000090: 6cbe 0dbd e335 a93d 83aa 983d c576 c6bb
000000a0: 720e 493d f748 b9bd 5101 28bd 092f 413d
000000b0: 08ce 913d 9346 92bd c903 9ebc d370 403d
000000c0: 4508 363d 52d9 b3bd c485 0abd f1ac 6fbd
000000d0: bd41 66bd 0385 33bd 4038 d0bd 46c4 783d
000000e0: 43ab 9bbd b6db a1bd 783f a7bc 7244 b73d
000000f0: 4c8e 72bd f55b 233c c5a1 19bd 7562 10bb
00000100: 6efe 8b3d b25c 2fbd 739d 8b3d f4d7 64bd
00000110: 8221 89bc 5bcd 073c eed6 5bbd 8738 743d
00000120: a658 b2bd 7bc6 3ebd a88e 21bd 7380 713c
00000130: b273 a53a 31b3 6abd dc34 bfbd 2275 afbd
00000140: ef86 8abd 07af 0fbd c404 793d 47b7 d5bc
00000150: a292 c03d f059 963d e868 c4bc 705a 84bd
00000160: a866 2dbc 3290 a73c 8f8d c0bd 0780 c2bc
00000170: 57e0 963d 4eab abbc 7bf5 a4bd 2c80 14bd
00000180: 1f7c c8bd 610f c6bd 2e38 be3c a88a 65bd
00000190: 69f3 40bd f7a3 793d 806e 0dbd c574 af3d
000001a0: 0d3a b4bd 45d2 e83c f526 783d 3b88 a1bc
000001b0: 7244 93bc 651f 243d 6762 87bd 8492 a43d
000001c0: 719a 99bd 62ef 95bd 74c9 b73c aca3 79bd
000001d0: 45ce 8e3c d7a1 3a3c e450 d6bb 9255 a03d
000001e0: f51b 173d 0091 5a3d f4b0 b3bc a4f9 6abc
000001f0: af4b 52bd 6f38 b9bd 7c81 ab3c dce1 9b3c
00000200: 34a3 813d 3c84 1e3c fb55 9d3b dd6e 023d
00000210: e64b 0b3d f596 073d 4a49 f1bb 646d b63d
00000220: f8b8 083d c22e 6cbd 90c6 52bd 7c93 933d
00000230: 3a37 9abc 9a2f dfbc 3ac9 523d 271b 63bd
00000240: c503 123d 860a 193d 855f c9bc a981 6abd
00000250: 385f 9c3d 980d cabd ad4d bcbd 3984 95bd
00000260: 1003 8ebd 1d63 873d 6c77 86bd 327b 9cbd
00000270: a558 2fbc fd83 b53d d5f1 7cbd bf96 263c
00000280: c03d a33d 5bd6 db3c eda4 5abd 9d18 c33d
00000290: cc0d 2c3c 0480 05bd 58ef 85bd d69f 8d3c
000002a0: 5283 973d 7722 363d ae4d 53bd 5c4d a9bd
000002b0: 996d 85bd 13a0 40bc dc52 a63d 3ac7 12bb
000002c0: 4200 7ebd 6c20 cbbb 328c 47bb a2eb 43bc
000002d0: b2a8 89bd fb6a 4dbd c6c5 af3d b2f8 a6bd
000002e0: 45f0 bcbd c260 82bd a347 07bd 639b c1bd
000002f0: b0b9 9bbb 192f 0a3c ed19 a2bd 8017 b5bd
00000300: 6a45 553d d9a0 903d 790b 93bd be89 53bd
00000310: 92e7 3fbd 7d40 d9b8 a3ee 2e3b 5a27 9dbd
00000320: a322 6e3b d562 35bd 38d0 b8bc 176a 803d
00000330: dbd0 adbd 2452 433d 940a 5fbd 1d89 a6bd
00000340: 39eb aebd d2f1 40bd a4c2 623d 2c7d bb3c
00000350: a8b7 9b3d d157 64bd 0356 b03c b0e8 bb3d
00000360: 7927 45bb 5bd7 a63d 6b44 a5bc 9798 92bc
00000370: ca10 39bd 7227 803d cef9 3abc d197 28bd
00000380: ec5f 91bc 817c 093d 25c2 03bc 7839 9ebc
00000390: a3d0 6c3d f70c 263d ac0f 30bd 38c3 13bc
000003a0: 6718 a8bb 3779 ecbc e9f4 c83d 86ab ab3d
000003b0: d3f9 11bc f734 883d c74e fa3c 61d9 51bd
000003c0: 49c2 b1bd e771 d43d ba3c 6e3c 70d5 413d
000003d0: 8943 263d 7b0b 1d3d c6b2 003d 3f4d 25bd
000003e0: a3c4 2d3d fffd dcbd 293e ee3c 6714 803c
000003f0: 84af c23c f17a 99bd f4b4 e1bb 0dba cabc
0.10506581 0.06694891 -0.032444905 -0.029171258 -0.0321437 0.08156473 -0.06816465 0.07215233
0.024663286 -0.023793822 -0.12138459 0.064803004 0.0033879196 -0.01600264 -0.002611606 -0.04482785
0.026023213 -0.044028487 0.08283991 -0.055018112 0.121977694 0.113176115 0.0037527564 0.043795098
0.021124344 0.01208265 -0.022816604 -0.022114025 0.042791072 0.017850991 0.07414451 -0.014492076
-0.09441785 -0.08741418 0.050349757 -0.02561975 -0.03460543 0.08262231 0.074543975 -0.006056639
0.04908604 -0.0904712 -0.04101688 0.047163997 0.071193755 -0.07142367 -0.019288914 0.046982598
0.04444148 -0.08781685 -0.033818975 -0.05851454 -0.056215037 -0.04382802 -0.10166979 0.060734056
-0.07601025 -0.07903235 -0.020416006 0.08948602 -0.059217736 0.009970655 -0.03750779 -0.0022031341
0.06835638 -0.04281301 0.068171404 -0.05587001 -0.01673961 0.008288707 -0.05367177 0.05962422
-0.087083146 -0.046576004 -0.03944269 0.014740097 0.0012622981 -0.057299796 -0.09336254 -0.08567263
-0.06764018 -0.03507903 0.06079556 -0.02608837 0.09402968 0.07341373 -0.023975804 -0.06462562
-0.010583557 0.0204545 -0.09402 -0.023742689 0.07367008 -0.020955708 -0.08054634 -0.036255047
-0.09789299 -0.09670902 0.023220148 -0.056040436 -0.047107134 0.060947385 -0.03452921 0.08567194
-0.08800135 0.028420577 0.060584027 -0.01971828 -0.017976973 0.040069003 -0.06610566 0.08035758
-0.075001605 -0.07321049 0.022434928 -0.060947105 0.017432341 0.011391125 -0.0065404046 0.07828821
0.036891896 0.05336094 -0.021934964 -0.0143417455 -0.05134171 -0.09043967 0.020935766 0.019028597
0.06329957 0.009675082 0.0048015094 0.03184401 0.03400793 0.03310295 -0.007363473 0.08907583
0.033379525 -0.05766178 -0.051458895 0.07205865 -0.018825162 -0.027244378 0.051461436 -0.055445816
0.035648126 0.03736355 -0.02458168 -0.05725256 0.07635349 -0.09865874 -0.09194503 -0.0730061
-0.06934178 0.06610701 -0.06565747 -0.07640685 -0.010702287 0.088630654 -0.061754066 0.010167777
0.07970762 0.026835611 -0.05337994 0.09526179 0.010501336 -0.03259279 -0.06539792 0.01728813
0.07398094 0.044466462 -0.051587753 -0.08266708 -0.06515045 -0.011756915 0.08121273 -0.002239658
-0.062011965 -0.0061989333 -0.0030448553 -0.011958035 -0.06721629 -0.050150853 0.08582644 -0.081529036
-0.09225515 -0.06366111 -0.033027302 -0.09453466 -0.0047523603 0.0084340805 -0.07915101 -0.08842373
0.05206815 0.07061929 -0.071799226 -0.051645033 -0.046851702 -0.00010359378 0.0026692532 -0.07673521
0.0036336563 -0.044283707 -0.022560224 0.06270235 -0.08487102 0.047685757 -0.054453447 -0.08131621
-0.08540959 -0.047105618 0.055361405 0.022886835 0.07603389 -0.05574781 0.021525389 0.09175241
-0.0030083342 0.081465445 -0.020174226 -0.017895026 -0.045182027 0.062575236 -0.011412097 -0.04116041
-0.017745934 0.033566 -0.008041893 -0.019314513 0.05781616 0.040539708 -0.042983696 -0.009018712
-0.005129862 -0.028866393 0.09812338 0.08382325 -0.00890966 0.06650727 0.030555142 -0.0512327
-0.08679635 0.10373288 0.0145408455 0.04732269 0.04059175 0.038341027 0.03142049 -0.04035687
0.042423856 -0.107906334 0.029082375 0.015634729 0.023765333 -0.07494152 -0.0068880264 -0.024746919

fch.3.0.bias f4 [100]
00000000: 2355 1b3d 7c2f 7cbd 0167 683c 6187 babd
00000010: d124 9fbb a2ec 013b ea39 4b3d 1adc 80bd
00000020: c384 b73d 4842 123d aec8 8c3d a2f9 243d
00000030: 913d 1a3d fec3 3e3d 0df6 71bd 07a8 ad3c
00000040: 813d 85bd ac31 df3c 9304 97bd 4193 a2bc
00000050: 54d7 7dbd 1d27 a63d c5b1 b33c 59ff b6bd
00000060: 29b8 173a dfe3 20bd 8c4d 9d3d 187d 413c
00000070: fa33 833d e205 6ebd 7097 27bd cbe3 e9bc
00000080: 26df b0bc 8c46 823d b294 a8bd 9e4a 603d
00000090: 554c 973d 5416 04bb a4b8 3b3d a1df 68bc
000000a0: 9a1e 01bc 710c 07bd 42e7 5abd 9d9e dab8
000000b0: dff1 75bc 9f8a 3c3d c3ef c8bc b162 97bd
000000c0: bd79 c8bc ad86 99bd 1981 063c fb22 0dbd
000000d0: 8e5e 833d 1887 423d 7fa1 e33c c587 9c3d
000000e0: 6f8b 653d 0f3e a23d f4b0 c2bc 05bc aebd
000000f0: f0cf aebd e969 c63d e51d 6ebb a95c 863d
00000100: 04a2 6b3d 56ac c63d 8d49 bf3d 0d67 103c
00000110: 2c0b cebd c226 9c3d 4fea a3bd 3d7b a53c
00000120: 8e94 f43c 501d a9bd 6be4 41bd 3d7c da3d
00000130: 7d2d fe3c 82cb d4bd 9504 8cbd aa68 593d
00000140: f77d 823d 661d 793d ec92 203d 7be3 acbc
00000150: e32b 6f3d e360 efbb cc8a a7bd 80f5 b3bd
00000160: e4cc 273c ca66 dd3b 8037 c03d 8a2a 89bd
00000170: f388 9c3d b08b 22bd 883b ec3c 1218 65bd
00000180: 73a6 a93d a7af c93c aef5 bd3d f2bc ab3d
0.03792299 -0.061568722 0.014184714 -0.09107853 -0.004856684 0.0019824882 0.049615778 -0.06291981
0.08960869 0.035707742 0.06874214 0.04027713 0.03765637 0.04657363 -0.059072543 0.021198286
-0.065058716 0.027245365 -0.07373919 -0.019845607 -0.06197293 0.08112929 0.021935353 -0.089354225
0.0005787635 -0.039279815 0.076808065 0.01180961 0.06406398 -0.05811108 -0.040915906 -0.028551003
-0.02159078 0.06361112 -0.082314864 0.05475866 0.07387606 -0.002015491 0.045830384 -0.014213474
-0.007880831 -0.03297085 -0.0534432 -0.00010424594 -0.01501128 0.046030637 -0.02452839 -0.07391871
-0.024472112 -0.074963905 0.00820949 -0.034457188 0.06414519 0.047492117 0.027786968 0.076430835
0.056041177 0.07921993 -0.023766018 -0.08531956 -0.08535755 0.096881695 -0.0036333736 0.06560642
0.057527557 0.09700839 0.093402006 0.008813632 -0.100607246 0.0762458 -0.08003675 0.020200366
0.029855993 -0.08257544 -0.047336977 0.10668228 0.03102755 -0.103903785 -0.068368115 0.05307833
0.06371682 0.060819052 0.039202616 -0.021104565 0.058391463 -0.007305251 -0.0818077 -0.0878706
0.010241721 0.006756638 0.09385586 -0.06697567 0.076433085 -0.039683998 0.02883698 -0.05593116
0.08283701 0.02461989 0.09275375 0.08385648

fch.4.0.weight f4 [100, 100]
00000000: e2e2 693c b9fa d5bc 86ff d03b 71d1 7e3d
00000010: dd95 733d 1dee afbd f373 3e3d 45c7 afbd
00000020: 2c79 ccbd 8d0c 0a3d 8d8c cfbc aa65 c5bc
00000030: 0202 08bd 49bd d43d b563 b93d 2d9d 9cbd
00000040: 4367 dabc c0fb 603d da8d 90bd 3b5c 3fbc
00000050: a7a2 9b3d 80bd 4f3d 0c6c de3c cd84 e23b
00000060: f44f 2cbd b726 063c 102d 8dbd e0ac 463c
00000070: a9c0 c8bd c8fd 763c 6b92 e23c de98 83bc
00000080: 5f6c 22bd ed86 813d bf54 293d 0b1a 08bd
00000090: 282a 473d 1056 fbbc 43ee 9a3d 4954 5a3c
000000a0: bf03 7e3d eb9c 973c 9876 a23d 0aa3 8bbd
000000b0: c1c9 bfbd e132 88bd afce e0bc 4c13 24bd
000000c0: 3bea bcbd 5489 9e3d 0ca0 b4bd e73f 96bb
000000d0: 5df2 573d cc7e 85bd 9ac1 db3c c9d9 cc3d
000000e0: d8c5 bdba e58b 113d a5a2 7fba fef0 c0bd
000000f0: 8fc1 f4bb a6a0 393d d149 9fbd 9617 c9bd
00000100: e921 fcbc 0a2e f3bc 04e0 c63d 008e 703d
00000110: 61d5 d53c 36dc 423c 08b0 163d eac3 733d
00000120: eefb 9e3c 9ade 553d 65f5 b0bd 5e5e 9cbc
00000130: 792b ad3d 79a5 1bbd f23e b0bd 818d 16bd
00000140: b852 be3d 1c88 72bd 68dd 283b b848 973c
00000150: aac9 543d c8d3 65bd 076c 99bd 0331 f03c
00000160: 86e2 81bd ad63 a8bd 72a4 1d3d 1572 a5bd
00000170: 9f05 813d 62cd b9bd 2ad3 9c3d fa09 edbc
00000180: 08a6 143d d6cd 3bbc 3270 49bd c5dc a1bd
00000190: d12f 813d db00 83bd e1be 85bd 8331 acbd
000001a0: 29b3 b9bd 0e2f c03d 4295 afbd 912b 22bd
000001b0: 2851 96bd 1aa3 823d 5db8 73bd 0a3e 47bc
000001c0: 504f ad3d ff0f 2b3c fd8a cbbc bc53 85bd
000001d0: 58e2 cb3d 1953 bd3d 96a0 2cbc 6855 1a3d
000001e0: 8e0c b0bc c4f2 84bd cac4 463d 0851 a43c
000001f0: af24 f9bc 1145 803d cfa7 ccbc 9f8e 9d3d
00000200: 4b77 f53c 3c38 c43d 9337 803c 08f8 ca3c
00000210: 084a a6bc f3d4 be3d 8b77 a53c 1214 413d
00000220: d390 3d3c 45e2 993d 850b 8a3d 64b6 88bc
00000230: a367 b5bd 15eb 923d e0ea 963d 990b 123d
00000240: d4b1 5b3c 7804 b53c 3b78 5ebd 579a 203d
00000250: 7e9e cc3d d763 85bc 680c a6bd c53f b4bc
00000260: f819 ff3c b1ef 783d 0b65 6ebd 1065 a9bd
00000270: 8b3a 773a 006e 6a3c 2d98 c7bd f333 63bd
00000280: 119e 6cbd 6688 f9bc 6c1f 88bd 5729 24bd
00000290: 3560 d0bc 71f6 cabc 25a9 ef3b 74b0 e53b
000002a0: 2f85 a6bc 95d6 84bd 6ff5 6c3d 1619 d53b
000002b0: 21a2 b0bd c06c 2dbd 70d3 a8bd 6aeb bcbd
000002c0: d9e7 87bc 4131 b5bc b330 263d 09b4 78bd
000002d0: 6507 20bd ccac 84bd d56a 8dbc dcb0 a23b
000002e0: 16d6 d23d 6ad4 c53c 9571 7c3d b048 463c
000002f0: 7c14 683c afd2 773d f315 b13d d765 87bd
00000300: 94a9 c93d b59f 663d 7b38 2f3d b985 cbbc
00000310: dc7a 9dbd c614 913d 9bed 84bd 68df 9fbc
00000320: 638b 81bd cbf3 62bd a4fe d9bc 7216 633d
00000330: 33ef 94bd 4592 f8bc 8370 14bd ddc2 ac3d
00000340: 594a 083c 5a85 8bbd f313 393d 8224 cc3d
00000350: 7f73 823d e97a 893d 2d59 cf3b f6fb 49bd
00000360: 3fd4 a13d 379a 413d 6dbe 953d 027f 8fbd
00000370: 788e 2abd bbc1 443d 862f a4bd 3559 833d
00000380: cbae 1bbd 0dde c03c a22d d1bd cfda febc
00000390: 68fc 2cbd ef3d 063c 0aef 04bc 9804 a53d
000003a0: 4ba2 c3bc 6eb2 80bd cc32 b43d 0ebf a9bd
000003b0: deec 45bd 1eae 3b3d 1f3b cb3b 2c43 7cbd
000003c0: 654b 8cbd 533f c33d 362d 60bd b482 8a3d
000003d0: ceaa 8e3c 2b08 813d 71f4 14bd 6ee3 3a3d
000003e0: 7cb6 1abd aca4 a5bd 56a0 9ebd 979e e63c
000003f0: 291c 993d 1d7a 2fbd ddd9 bbbb 1ea5 efbd
0.0142752845 -0.02612053 0.006378117 0.062211458 0.059469093 -0.085903384 0.046497297 -0.085829295
-0.09984049 0.033703376 -0.025335575 -0.024096329 -0.03320504 0.10387666 0.09052221 -0.076471664
-0.026660567 0.054927588 -0.07058306 -0.011679704 0.07599383 0.05071783 0.02715113 0.0069128037
-0.042068437 0.008187941 -0.068933606 0.012126178 -0.09802372 0.015075155 0.027657708 -0.016064104
-0.039654132 0.06324563 0.041340586 -0.03322796 0.048624188 -0.030680686 0.07564976 0.013325759
0.06201529 0.018507442 0.07932776 -0.068182066 -0.093646534 -0.066503294 -0.027442304 -0.040057465
-0.092243634 0.07741037 -0.08819589 -0.0045852545 0.05272137 -0.06518325 0.026825715 0.10002477
-0.0014478518 0.035533804 -0.0009751714 -0.094209656 -0.007469363 0.045319222 -0.07777751 -0.09818952
-0.030777888 -0.02968504 0.09710696 0.05872917 0.026102724 0.011893323 0.03678897 0.05951301
0.019407239 0.052214243 -0.08640555 -0.019087967 0.084555574 -0.037999604 -0.08605756 -0.036756042
0.09293121 -0.059211835 0.0025766734 0.018467292 0.051950134 -0.056110173 -0.07491308 0.029320246
-0.06342034 -0.08222137 0.038486905 -0.080784 0.062999 -0.09072377 0.07657464 -0.028935421
0.036291152 -0.011462649 -0.049179263 -0.079034366 0.063079484 -0.063966475 -0.06530548 -0.08407881
-0.09067375 0.09383975 -0.085733905 -0.03959233 -0.07339698 0.063787654 -0.059501994 -0.012160787
0.08462393 0.0104408255 -0.024846548 -0.06510112 0.09955281 0.09244365 -0.010536334 0.037679106
-0.021490362 -0.06491616 0.048527516 0.02005817 -0.030413 0.06263173 -0.024982361 0.076932184
0.02996411 0.09581038 0.0156515 0.024776474 -0.020298973 0.093179606 0.020198604 0.04713828
0.011570173 0.075138606 0.067404784 -0.016688533 -0.08857658 0.071737446 0.073690176 0.03565559
0.013409097 0.022096857 -0.05431388 0.03920969 0.099911675 -0.016282959 -0.08107835 -0.022003064
0.031140313 0.060775463 -0.05820183 -0.08271229 0.0009431026 0.014308453 -0.09745822 -0.055469465
-0.05776793 -0.030460548 -0.06646618 -0.040078487 -0.0254365 -0.024775716 0.007313865 0.0070095602
-0.020327179 -0.06486241 0.05785125 0.0065032346 -0.08624674 -0.04234004 -0.082434535 -0.09224589
-0.016590046 -0.022118213 0.040573787 -0.06071857 -0.039069552 -0.06478271 -0.017262856 0.004964931
0.1029474 0.024149138 0.061631758 0.012102291 0.01416504 0.060503658 0.086467646 -0.06611221
0.098467976 0.056304652 0.042778473 -0.024844037 -0.07689449 0.0708404 -0.06490632 -0.019515708
-0.06325414 -0.05540828 -0.02661068 0.055441327 -0.07272186 -0.030343184 -0.036240112 0.08435605
0.008318507 -0.06812544 0.04518504 0.09967901 0.063696854 0.067128964 0.0063277693 -0.049312554
0.07901811 0.04726621 0.073117115 -0.07006647 -0.041639775 0.04803632 -0.08016877 0.06413499
-0.038008492 0.023543382 -0.10213782 -0.031110195 -0.0422329 0.008193477 -0.008113632 0.08057517
-0.023881098 -0.06284033 0.08798751 -0.08288394 -0.048321597 0.045820348 0.006202116 -0.061587498
-0.06850318 0.095335625 -0.054730617 0.06763211 0.01741543 0.06300386 -0.03636593 0.04562705
-0.037771687 -0.08088049 -0.077454254 0.028151793 0.07476074 -0.042841066 -0.0057327584 -0.117014155
