real_btcusdt_call_pricing_mlp_6inputs/result_13/pinn_model163.pth (torch, 472610 bytes, 17 tensors)

layers.0.weight f4 [128, 6]
000000 52 d2 2e 3e 45 71 de bd 45 b1 52 3e b9 d9 35 be
       0.17072418 -0.10861448 0.20575435 -0.17758836
000010 ad 09 71 3d e3 60 1a 3d e4 9b 02 3e a5 15 e5 3d
       0.05884712 0.037690055 0.1275478 0.11185769
000020 a8 86 d1 bd cd ef 1d 3e 2f e1 69 bb 8f 88 72 bd
       -0.10230762 0.15423508 -0.0035687198 -0.059212264
000030 79 a5 7e bd a6 46 49 be ae 94 08 be 9c ec 34 be
       -0.062169526 -0.19655856 -0.13337967 -0.17668384
000040 7b e5 65 3e 3c fb bc 3b 97 ce d1 3d 40 7d cd bd
       0.22450821 0.005767254 0.10244482 -0.10033655
000050 78 ce 3a 3d 87 47 39 3d 6a ea 1f 3e f2 0e 2e 3e
       0.04560706 0.04523423 0.15616766 0.16997889
000060 a6 a4 a7 bd 4c a8 dd bd bb bf 31 3e e3 85 21 be
       -0.08185701 -0.10823116 0.17358296 -0.1577373
000070 a1 e6 12 3e 29 74 79 bd d6 9d fb 3c c8 52 33 bd
       0.1434579 -0.060901795 0.03071491 -0.04378012
000080 3f 9e 1c 3e 49 4e 30 be 1a ba d0 bd 47 f4 08 be
       0.15294741 -0.17217363 -0.10191746 -0.13374434
000090 84 6d 00 3e be 12 41 bd c1 fb 41 3e 1e 87 1e bd
       0.12541777 -0.047137015 0.18943693 -0.038703077
0000a0 db 70 5e be ad e2 96 3d d4 11 39 be b3 f0 41 3e
       -0.21722738 0.07367454 -0.18073207 0.18939476
0000b0 09 a9 38 3e 95 dd 17 3e 0a d0 3f 3e da f7 40 be
       0.18033232 0.1483062 0.18731704 -0.18844548
0000c0 95 56 10 be 07 27 3e be 88 d1 92 bd 70 84 7c bd
       -0.14095528 -0.18569575 -0.07168871 -0.06164974
0000d0 8d de dd ba 10 41 fb 3c 8f f6 d0 3d af 57 f2 bd
       -0.0016927287 0.030670673 0.10203277 -0.118331306
0000e0 e9 74 f9 bc 50 05 40 bd ec 08 80 3d 1c 6a 25 3d
       -0.030451255 -0.046880066 0.06251702 0.040384397
0000f0 b6 1b cf 3d f5 bb 25 3e 37 ab 99 bd b1 74 7f bd
       0.10112707 0.16184981 -0.0750336 -0.062367145
000100 e8 43 00 3e 18 54 41 be 71 b8 c3 bd 14 c1 0f 3d
       0.12525904 -0.18879735 -0.09556664 0.035096243
000110 09 c9 ef 3d 90 8a f8 3d 03 57 1c be 3b 1f 9c bd
       0.11708266 0.12135804 -0.15267567 -0.07623144
000120 df d7 2b 3e b3 8e 62 be b4 dc 1a be 2d 4d e0 3c
       0.16781567 -0.22124748 -0.15123254 0.02738055
000130 6a a0 cb bc e6 1f c1 bd 7d 34 97 bc 6d a5 3f 3e
       -0.024856765 -0.09429912 -0.018457646 0.18715449
000140 a0 d2 89 bd 79 c5 43 3e c9 46 b8 bd 6f dc 8a bb
       -0.06729627 0.19118299 -0.08997876 -0.0042377035
000150 2d 85 07 3c e9 b1 03 be 04 1f 18 3c d3 8a e6 3c
       0.008271498 -0.12860836 0.009284738 0.028142368
000160 e9 40 65 bc dd 61 05 be bd 3a 2b 3e b7 a3 59 3d
       -0.013992527 -0.13025613 0.16721626 0.053134646
000170 08 74 06 be bd dd 93 3d fa 84 d1 3d d6 91 ee 3c
       -0.131302 0.072200276 0.102304414 0.029122274
000180 36 3d fb bd 7a ff 84 bd 8d 05 3b be f6 fc 55 3c
       -0.122675344 -0.06494041 -0.18263836 0.013060799
000190 e9 58 e9 bd d5 1c 65 bd 90 36 88 bd 5d 5c c6 3d
       -0.113939114 -0.0559357 -0.06651032 0.09685586
0001a0 fa 5b a7 bc 29 ad a7 bd f4 1d 05 3e 21 a5 00 be
       -0.0204296 -0.081873246 0.12999707 -0.12562992
0001b0 68 ca 5b 3e d8 6e 32 3e 3d 24 7e bc 46 f2 8f 3d
       0.2146393 0.17425096 -0.01551157 0.07028632
0001c0 d4 96 52 3e b3 6f 44 3e 4b e7 39 3e 62 6b 12 be
       0.20565349 0.19183235 0.18154638 -0.14298776
0001d0 9d 4b 06 be de 5e eb 3d 1a d6 45 3e f8 53 c4 bd
       -0.13114782 0.11492704 0.19319955 -0.09586328
0001e0 27 80 9b bd 59 1a d9 3b 85 eb cb 3d 09 f1 c2 3d
       -0.075928025 0.0066254553 0.09957031 0.0951863
0001f0 c9 c2 f1 bd a0 2f 4c be b6 65 f4 3d 3e cd 96 3d
       -0.118047304 -0.19940042 0.11933462 0.073633656
000200 f5 48 44 bd b7 fd b8 bc 4c 24 7b bd 90 be 8f bd
       -0.04792114 -0.022581918 -0.061313912 -0.07018769
000210 c7 ad 93 bd 3c dc 43 be 60 7d 8e bc c7 a5 63 3e
       -0.0721088 -0.19126981 -0.017393768 0.22231208
000220 5b da 21 3e fb da 89 bc c1 69 a3 bd fb a3 a2 3b
       0.15805952 -0.01682805 -0.07979155 0.0049633957
000230 0b 41 23 3e bc 6f ae bd 09 c4 ec 3a ec c6 12 3e
       0.1594278 -0.085174054 0.0018063794 0.14333695
000240 6a 2f 1d 3e 0e 24 0b be f7 bd 74 3d ec 9b f2 bc
       0.15350118 -0.13587973 0.059751477 -0.029615365
000250 47 24 82 3d 72 53 6b 3d 67 56 ab 3d f0 de 92 bd
       0.063545756 0.057452627 0.08366089 -0.07171428
000260 85 a2 9a bd 3c 6b 22 bd df cc e0 bd e2 ef fe bd
       -0.075505294 -0.039653048 -0.10976576 -0.12448098
000270 b3 fe 12 bd a5 35 1f 3e fa e5 eb bd 7e 9e f5 3d
       -0.03588743 0.15547808 -0.11518474 0.119931206
000280 56 d7 0c 3e ec 21 c0 3d f3 8a 84 bc a8 2e 31 3e
       0.13754019 0.0938147 -0.016179537 0.17302954
000290 f8 d7 d2 bc 48 2a f6 bd 06 9b a0 3d 03 a7 1d be
       -0.025737748 -0.12019783 0.078420684 -0.15395741
0002a0 73 2d 2e 3e 79 04 a5 3b 35 93 d5 3d 00 d9 4f 3d
       0.17009525 0.0050359336 0.10428468 0.050744057
0002b0 40 09 52 be ea a9 19 3e c7 d0 43 3e a2 1d 5a be
       -0.20511341 0.15006223 0.19122611 -0.21300367
0002c0 d2 a4 84 3d d1 e0 fd 3d 49 e8 9d 3c f4 d9 e5 bd
       0.064767495 0.12396396 0.019275801 -0.11223212
0002d0 b1 bb 05 bd 90 a9 7a 3d 61 dc 2c be 7e 7c f5 bd
       -0.0326497 0.061196864 -0.16880943 -0.119866356
0002e0 b6 2e 00 be 77 82 91 bd 2f 22 03 be 42 4a 16 3d
       -0.12517819 -0.07104962 -0.12806009 0.03669191
0002f0 8a 20 2a 3e 95 db 3a be 07 6b b5 3c ca e6 f4 bd
       0.16613975 -0.18247826 0.022145761 -0.11958082
000300 b2 f4 0a 3e 6b 7b bb bd a5 44 d3 3c b2 31 96 3d
       0.13569906 -0.091543995 0.025789568 0.073336974
000310 f2 71 ff bd 99 78 0d be b0 ea 04 3e e6 68 f6 bd
       -0.12472905 -0.13815536 0.12980151 -0.120317265
000320 68 15 5c be 79 e4 49 3e 49 ff 3c 3e b7 5b 15 be
       -0.21492541 0.19716062 0.18456759 -0.14585768
000330 9a 7c f8 bd cc 73 26 be bf 07 68 3e ef 29 07 be
       -0.12133141 -0.1625511 0.22659205 -0.1319959
000340 87 74 20 bd c0 20 74 3d 2d 14 8b bc 9d 4e 63 3b
       -0.03917363 0.059601545 -0.016977394 0.0034684308
000350 69 e4 32 be a5 d7 2f 3d 8a 6a 9d 3c e0 6d 2a 3e
       -0.17469944 0.042930264 0.01921584 0.16643476
000360 04 25 f0 bc 62 b2 15 3c 1c 88 a0 3d f0 05 e8 bd
       -0.029314525 0.009136768 0.07838461 -0.113292575
000370 8e 10 44 3d 6a 9d 1f 3e 1c da 28 3e b6 84 15 bb
       0.04786735 0.15587392 0.16489452 -0.0022814698
000380 12 a7 11 3d 0a 1c 38 bc e8 5c b3 3d 96 25 22 3e
       0.03555972 -0.011237154 0.08757955 0.1583465
000390 48 b7 b6 bd bd 24 03 3e b5 9c a4 3d 80 df 5f 3e
       -0.08921677 0.12806983 0.08037702 0.21862602
0003a0 7f 17 99 3d 9b 49 2f be 41 2c b0 bd 3b 89 38 be
       0.07475185 -0.17117922 -0.08602191 -0.180211
0003b0 de 07 b3 bd c4 e8 2e 3e 46 94 50 3e 7d f2 f6 3c
       -0.08741735 0.1708098 0.20369062 0.030144924
0003c0 38 76 35 3e d9 97 4a be 48 7d 3e be 2e 5b 58 be
       0.17720878 -0.19784488 -0.18602479 -0.21128532
0003d0 51 0c 23 be 00 47 a8 3d 78 29 40 bd 2b 29 29 3e
       -0.15922667 0.08216667 -0.046914548 0.1651961
0003e0 f4 4f 67 3e e1 17 5f 3d bf ad f6 3d d4 61 31 3e
       0.22589093 0.054466132 0.12044858 0.17322475
0003f0 00 15 9b bd df 31 79 3c 62 75 f4 3c 1b 49 49 be
       -0.07572365 0.015209644 0.029841129 -0.19656794

layers.0.bias f4 [128]
000000 4b 6f 18 bb ce 5d 02 3e 2e ee 4e 3e 08 a1 36 be
       -0.0023259695 0.12731096 0.20208046 -0.17834866
000010 4d c5 87 bd a7 6b e9 bd 36 45 0e be 5e ac c6 be
       -0.06629429 -0.11397486 -0.1389359 -0.3880338
000020 ea a4 e9 3e 5a 88 14 be e1 3b cc be 8f 5b 28 be
       0.45633632 -0.14505139 -0.39889434 -0.16441177
000030 3f 3e ba 3e dd 6d 52 be 17 f1 ce 3e 46 87 46 3e
       0.36375615 -0.20549722 0.40418312 0.1938754
000040 ef bd af 3e 79 9a 37 3e c1 f4 8f 3e 02 92 29 3c
       0.34324595 0.1793002 0.2811642 0.010349752
000050 43 2b a5 3e 15 bd 6f be cd f3 29 be df 51 86 3e
       0.3225957 -0.23411973 -0.16596909 0.26234338
000060 e4 c3 31 3e d9 75 d1 3e 95 53 3b 3e 3f 0e 44 bd
       0.17359883 0.40910223 0.18293603 -0.04786515
000070 d9 12 66 3e 83 76 10 3e 96 7f 5a bd da 27 b8 be
       0.22468127 0.14107709 -0.05334433 -0.35967904
000080 49 1b c2 3e e3 27 32 be aa f6 39 be 39 9a 9c bc
       0.37911442 -0.17398028 -0.18160501 -0.019116508
000090 04 19 7f 3d c5 05 c5 be cc 54 3e 3e 6a 0a 3f 3e
       0.062279716 -0.38480964 0.18587035 0.18656316
0000a0 a4 59 84 be d4 bc b9 3e 52 f1 69 3e 0a 40 86 be
       -0.2584964 0.36276877 0.22845963 -0.26220733
0000b0 a1 0e 6a 3d fd 70 64 be 4a cf 27 3e 41 4f a1 be
       0.057142857 -0.22308727 0.16387668 -0.31505778
0000c0 02 32 91 3e 13 59 87 be 02 64 85 3e 3d 77 db be
       0.28358465 -0.26435146 0.26052862 -0.4286441
0000d0 68 e8 9c be 98 4a 8d be c3 53 09 3e f5 ad 9c 3e
       -0.30646062 -0.27595973 0.13410859 0.3060147
0000e0 a6 31 b8 be ce 7b 8c 3e dd 50 b1 be 53 08 80 be
       -0.3597538 0.27438205 -0.34632006 -0.2500635
0000f0 f3 c0 2f be d6 1b a4 3d ed 64 a2 3e 98 09 9c 3e
       -0.17163448 0.08013122 0.31717625 0.3047607
000100 b2 44 e0 3d 10 93 08 3e c9 3f 34 3e 6e d5 1d be
       0.109506026 0.1333735 0.17602457 -0.15413448
000110 0b 91 82 be 16 00 7e be 67 21 92 3d 67 0a 58 be
       -0.25501284 -0.2480472 0.07135277 -0.21097718
000120 da 9c 68 bd 5d aa 41 be 94 71 ba be 51 23 50 be
       -0.05679021 -0.18912645 -0.36414778 -0.20325972
000130 5c 10 b6 3e af 00 66 3d 15 57 d4 be 82 cf 26 3e
       0.35559356 0.056152996 -0.41472688 0.16290095
000140 e5 93 a7 be 69 48 85 bd 31 28 bb be 7f 5b 56 be
       -0.32730022 -0.06507952 -0.365541 -0.2093334
000150 17 95 64 3e e4 c0 50 bc 80 f1 99 be 9e 5b 6f 3e
       0.22322498 -0.012741301 -0.30067062 0.23374793
000160 ae 50 a6 3e 68 55 6a 3e 4c d8 98 3d a3 d9 e8 3d
       0.3248343 0.22884142 0.0746313 0.11369636
000170 5c 7b a6 3e 7b a0 34 be 18 47 57 be 60 73 f4 bd
       0.3251599 -0.17639343 -0.21023214 -0.119360685
000180 e6 f1 cc 3e 9d 77 e4 3c fb 72 a9 3d 5a 37 19 be
       0.40028304 0.027889067 0.08273884 -0.14962521
000190 99 d1 65 be 2a f8 d1 3e 64 81 7a 3e 5d 21 79 be
       -0.22443236 0.41009647 0.24463421 -0.24329133
0001a0 7d 85 4d 3e ed 5b c4 be 25 71 51 3e a7 b7 07 be
       0.20070453 -0.38351384 0.20453317 -0.13253652
0001b0 9c f1 c2 3e 9b 93 8b be 72 5e 64 3e 52 e2 d6 3c
       0.38074958 -0.27261052 0.22301653 0.026230965
0001c0 e4 3c 04 be 74 29 a5 be b9 71 5e be e8 a5 c8 be
       -0.12913853 -0.3225819 -0.21723069 -0.39189076
0001d0 1c c4 9d be 3f d7 5c 3e 95 34 3b 3d 94 61 11 3e
       -0.30813682 0.21566485 0.045704443 0.1419738
0001e0 1a d2 99 3e 37 77 f4 3c 34 3a 46 3c 2f 1b bb bc
       0.30043107 0.029842002 0.012098838 -0.02284011
0001f0 25 86 92 be 28 2e a5 3e 63 2a 5e 3e d0 84 ce bc
       -0.2861797 0.32261777 0.21695857 -0.025209814

layers.1.weight f4 [128, 128]
000000 b1 1e b5 3d 71 12 62 bd 57 6e e6 3d c8 ab 55 bd
       0.088437445 -0.05519337 0.112515144 -0.052165776
000010 a3 9c 39 3d cb 22 4c bd ea 9f d8 bd ec bf d6 3d
       0.045315396 -0.04983787 -0.10577376 0.10485825
000020 ef 22 0e be 91 dc c8 3d c8 7b 56 bc 77 51 da bd
       -0.13880514 0.09807695 -0.013091035 -0.106600694
000030 c7 e8 bb bd 82 d4 0f be 5a d8 c5 3c 5c 99 4b bc
       -0.09175258 -0.14045909 0.024151016 -0.0124267
000040 c3 18 90 bd b3 8e 11 be 0c 37 05 3e b5 34 8a bd
       -0.07035973 -0.14214592 0.1300928 -0.06748334
000050 a9 89 47 bc 5c b8 a3 bb 56 09 60 3d 06 e4 02 3c
       -0.012178817 -0.0049963426 0.054696403 0.007988935
000060 b5 0b fd 3d 08 ed d5 bd 30 57 e7 bd a4 e9 a7 3d
       0.123557486 -0.10445601 -0.112959266 0.0819886
000070 e2 49 50 3d c0 cd 89 bd d2 8e 38 bd fe 7c ce 3d
       0.05085171 -0.06728697 -0.04505808 0.10082434
000080 48 f4 3c bd f5 6b 03 be 70 d8 c7 bd 4e 7a eb 3c
       -0.046131402 -0.12834151 -0.09758079 0.028744843
000090 ac b8 97 3d b0 7f fc 3d c3 11 1c 3e a3 fe e7 bd
       0.0740827 0.12329042 0.1524115 -0.11327865
0000a0 08 0d 16 3d ba ea c6 bd 96 02 6c bc c1 ae d1 3d
       0.03663352 -0.09712739 -0.014404913 0.1023841
0000b0 df 60 6a 3d 0d 2e 38 bd cb 99 8c 3c 4d 99 2b bd
       0.05722129 -0.044965792 0.017163178 -0.041894246
0000c0 dc b3 05 3e ef 9f a6 3d 4d d2 dd bd bd ab 4d bd
       0.13056892 0.08135974 -0.10831127 -0.05021261
0000d0 bc 9c 0a 3e 65 a5 3d 3e c4 6f 7c bd f0 9d bd bd
       0.13536352 0.18520124 -0.061630026 -0.0925864
0000e0 9b 29 ab bd c3 fd 29 bd 88 01 47 3d ec fe b4 3c
       -0.08357545 -0.04150177 0.048585445 0.022094212
0000f0 51 84 cc bd e7 3e 61 bd 39 05 b7 bb 3a a3 17 3e
       -0.09986175 -0.05499163 -0.0055853394 0.1480836
000100 db c8 c6 3c c5 15 07 3e 2a 78 e3 3d af 04 0e 3e
       0.024265697 0.13191898 0.11106904 0.13868974
000110 0f e3 88 3d 05 21 3e bd 8a bd 3c bd c4 7d 00 b6
       0.06683933 -0.04641821 -0.046079196 -1.9146692e-06
000120 42 10 9e bd 89 a1 2e bd f2 c2 d7 3c 27 b1 07 3e
       -0.07717945 -0.04263452 0.026338074 0.13251172
000130 0a a0 c3 3d c3 6a 06 bd 16 97 8d 3d 21 3e 1f bc
       0.095520094 -0.03281666 0.06913583 -0.0097194025
000140 e7 da bf bc b1 2e 10 be cc 19 1e 3e ed 92 e1 3d
       -0.02341981 -0.14080311 0.15439528 0.11014352
000150 4a 9e cb 3d c7 7f f8 3b ce 76 05 3d 9f be e1 3b
       0.099423006 0.0075835916 0.032584004 0.006889179
000160 54 c5 00 3e bd b8 e7 3d 54 4c d1 bd 97 4e 29 bd
       0.12575275 0.11314533 -0.102196366 -0.041334715
000170 32 d4 96 bd 2a 33 37 bd fa 52 92 bd da 8b f9 3d
       -0.07364692 -0.04472653 -0.07144733 0.12184878
000180 4f ac df bd 91 80 5c bd b5 02 16 be 80 3e 9d 3d
       -0.10921537 -0.053833548 -0.1464947 0.076779366
000190 b5 23 c4 3d 6f 54 c1 bd c7 36 7f 3a 22 39 86 bd
       0.09577123 -0.094399326 0.00097356405 -0.06553866
0001a0 81 2e e5 3d 69 57 db 3d 34 b3 75 ba d9 ac 60 3d
       0.111905105 0.107100315 -0.00093727116 0.05485234
0001b0 d0 48 11 be 0b ca a0 3c 86 ca 43 bb 79 49 78 3d
       -0.14187932 0.019627592 -0.0029875352 0.060616944
0001c0 16 5c 10 3e 96 bd 06 bd fd 0d c1 bd 5c f6 d9 bc
       0.14097628 -0.032895647 -0.09426496 -0.026606731
0001d0 6a d4 22 3c 3b 77 64 3d d3 ea 17 3e 55 65 ab 3d
       0.009938339 0.05577777 0.14835672 0.08368937
0001e0 21 e1 01 be ed c8 2c 3d 27 f1 4e 3d 72 cf 10 3e
       -0.12683536 0.042183805 0.05052295 0.14141634
0001f0 a5 39 0e 3e 0e 6f 93 3d f0 53 d8 bd 06 b2 29 3d
       0.13889177 0.071989164 -0.10562885 0.041429542
000200 bb a1 0f be 3e 5f 86 3d 39 f7 af 3d 09 fc 28 bc
       -0.14026539 0.06561135 0.08592076 -0.010313996
000210 7b 57 e1 3d c8 33 ba bd 7e 19 1d bd 06 bb 97 bd
       0.11003014 -0.09091908 -0.03835439 -0.07408719
000220 97 35 26 3d b9 92 3f 3d 1d 39 84 bd 07 e9 ac bd
       0.04057845 0.046770785 -0.06456206 -0.08442884
000230 35 c5 c6 bd 0c c1 a3 bc 8b fd e2 3a 75 08 1c bd
       -0.09705583 -0.019989513 0.0017317993 -0.038094003
000240 ec 76 02 bd 51 6f 98 bd 23 14 dc 3d fc 2c 71 3d
       -0.031851694 -0.07443107 0.10746028 0.05888079
000250 e8 ea 02 3e ee 1f c4 3d b2 ca b5 3d 48 0c b0 3c
       0.12784922 0.095764026 0.08876552 0.021490231
000260 a7 80 af 3c f3 e8 15 3e a0 e8 f7 3d 1d a7 83 bd
       0.02142365 0.14639644 0.121049166 -0.06428359
000270 aa 18 09 be b0 48 e6 bd 85 7b c2 bd 6b 8b d1 bd
       -0.13388315 -0.11244333 -0.09496216 -0.1023167
000280 ed 0f 1c 3e 1a 2b 16 be ee 88 a3 3d bd 8f 18 be
       0.1524045 -0.1466488 0.07985102 -0.14898582
000290 a7 fa 00 3e 92 47 40 be 56 b9 d1 3d db c0 d5 bd
       0.12595616 -0.18777302 0.10240428 -0.10437175
0002a0 b5 d9 d2 bd 0e 88 bc 3d e2 11 9d bd 0a 1d 8a bc
       -0.102954306 0.09205638 -0.076694265 -0.01685955
0002b0 75 9d 9a bd de 25 00 3e 75 eb 6f 3d 31 f0 e1 3d
       -0.07549564 0.12514445 0.05857416 0.11032141
0002c0 39 57 17 3c b7 0d 01 3e 98 4b 8a bd 8e 1c 02 be
       0.009237104 0.12602888 -0.067526996 -0.12706205
0002d0 55 27 3b 3d 75 f8 09 be 7f 24 06 3e 6d e3 4a bc
       0.045691807 -0.13473685 0.1309986 -0.012383324
0002e0 5c 78 fd bd 47 0a 21 3e a6 f2 6a 3d 95 49 a0 bc
       -0.12376472 0.15726577 0.057360314 -0.019566337
0002f0 f4 a8 1c 3d 88 d1 d7 3d 51 27 fe 3d 83 1d 09 3d
       0.038247064 0.10538012 0.12409843 0.03347541
000300 df c1 1a be 1d ab e3 bd 28 12 04 3e 9f 79 67 bc
       -0.15113018 -0.11116622 0.12897551 -0.014128118
000310 8f 05 9c bc 41 4e 9a 3d ea 73 da 3d ef 18 f4 bd
       -0.01904562 0.07534457 0.1066664 -0.11918818
000320 f1 d8 e7 bd b9 77 03 3e a6 5d 5f bd 31 64 94 bd
       -0.11320675 0.1283864 -0.05453267 -0.072456725
000330 37 d6 a0 3d 9b 98 42 bd 01 05 f8 3b 50 db 00 be
       0.07853358 -0.047508817 0.007568956 -0.12583661
000340 45 06 76 bd 3e 7e 7e 3d 34 8d 1c 3d 1a d7 36 be
       -0.060064573 0.062132113 0.0382206 -0.17855492
000350 7b 5f 81 3d 90 63 f3 3d 88 39 27 bd 03 10 ed bd
       0.063170396 0.118842244 -0.04082635 -0.115753196
000360 ce 17 24 bd c0 01 5b 3d 68 2e 9d bd 6d 4d 31 bd
       -0.040061764 0.053468466 -0.07674867 -0.04328673
000370 89 c9 e8 bd 43 a2 74 3d 1a 1f 2b 3d 26 98 01 be
       -0.11366565 0.059725057 0.041777708 -0.12655696
000380 b1 41 69 3d 8d 0c 00 3e 95 21 d2 bc 79 9c ca bd
       0.056947414 0.12504788 -0.025650779 -0.09893126
000390 f1 0a 17 be 9b 1e cf bd fa b1 0b bd 89 16 f2 bb
       -0.14750268 -0.101132594 -0.03410528 -0.0073879403
0003a0 98 11 0b be f7 ae cf bd c6 ad 02 be 40 5c 4f bd
       -0.1358093 -0.10140794 -0.12761602 -0.050625086
0003b0 9c 7b ec bd 6c 8a dd bd fe ae a7 3d e5 c3 55 3d
       -0.11547014 -0.108174175 0.08187674 0.052188773
0003c0 b7 b9 03 be 48 8b ee 3d 24 fa 38 3d 8d 2e 9d 3d
       -0.12863813 0.116476595 0.045160428 0.076748945
0003d0 1c 9a 8b bd d6 a7 d5 bd 8a c0 45 3c 4b 6b aa bd
       -0.068165034 -0.10432403 0.012069831 -0.08321246
0003e0 7b 3c dd 3d 1c d3 bd 3d 09 44 26 bd 44 58 57 3d
       0.10802551 0.092687815 -0.040592227 0.05257441
0003f0 dc 22 f3 bd 79 a9 d6 3d 10 dd c0 3d 02 df bd 3c
       -0.11871883 0.10481543 0.09417164 0.023177627

layers.1.bias f4 [128]
000000 41 7a 04 3d 8d 59 ad 3d df 29 96 3d 88 06 50 bd
       0.032343153 0.08464346 0.07332205 -0.05078748
000010 b5 2a 90 bd 50 d8 8a bd ff 70 43 bc 2e a6 a3 3d
       -0.07039396 -0.067795396 -0.011928796 0.07990681
000020 95 d1 9b bb 2c c1 97 bc aa 7f 93 3c 00 71 a5 3c
       -0.0047552087 -0.018524729 0.01800521 0.020195484
000030 4d 48 4d 3b 53 2b 9c 3d b2 f3 a2 3d 46 16 7c bb
       0.0031323612 0.07625451 0.079566374 -0.0038465424
000040 91 e7 0f 3d 59 74 94 3d ee bc 86 bd 8c 3d ab bc
       0.03513295 0.07248754 -0.06579004 -0.020903371
000050 4a 1f b4 bc a1 fd 7f bd af 42 44 bd 85 9b 94 bb
       -0.021987576 -0.06249774 -0.047915157 -0.004535141
000060 4e 04 61 bd 2b 88 a9 bd 86 9a b0 3d f6 6b 28 3d
       -0.054935746 -0.08277925 0.08623223 0.041118585
000070 f3 e8 05 3d af 3c 9c 3c e1 4f 54 3d 6b 60 b5 bc
       0.03269286 0.019071905 0.05183399 -0.022140702
000080 ea 23 cc bc 4a c2 4d bb e1 5c 5c bd 48 56 b4 bd
       -0.024919469 -0.0031396323 -0.053799514 -0.08805519
000090 63 10 3a bd 53 16 73 3d 09 85 13 3d 23 a5 aa bd
       -0.045425784 0.059347462 0.036015544 -0.083322786
0000a0 fe 7a 2a 3c 14 03 4f 3c 97 e6 b2 3d d8 e5 ee 3d
       0.0104053 0.012635011 0.08735388 0.11664933
0000b0 9e 4c 77 bd eb ae ca 3c 00 13 07 bd 8e 0a e5 3c
       -0.060375802 0.02474161 -0.032977104 0.027959134
0000c0 6a a5 83 3a 68 9c 03 3d c7 c2 0d 3d 56 0a 79 bd
       0.0010043804 0.032131582 0.034609582 -0.060800873
0000d0 50 08 77 3c 2e f5 ed 3a dd 88 fe 3c e4 20 80 3d
       0.015077665 0.0018154734 0.03107112 0.062562734
0000e0 af a6 c1 bd 13 e9 a7 3d ab c5 ac 3d 19 bd 04 3d
       -0.094556205 0.08198752 0.0843614 0.0324069
0000f0 18 fc a6 3d 41 64 77 bd 10 fa 8e 3d 90 95 cc bd
       0.08153552 -0.060398344 0.069812894 -0.09989464
000100 f4 4b d5 bc 67 43 9b 3d 84 aa 8e 3d 34 a1 9a bd
       -0.026037194 0.07581215 0.06966117 -0.07550278
000110 92 30 ac bc 5c d7 75 3d a7 38 0a bd f0 db 10 3d
       -0.021019254 0.060019836 -0.033745434 0.035366
000120 13 9b 3f 3b 3e 48 8d 3d 04 95 b2 bd 52 e7 cb 3c
       0.0029236719 0.06898545 -0.08719829 0.024890576
000130 62 81 60 bd c1 5f af bd 60 1b 2a bd 2d 19 2e bd
       -0.05481089 -0.085631855 -0.041530013 -0.04250448
000140 38 14 6f bd 69 3e 07 bd 9b a5 fa 3c 57 5c 0b bd
       -0.05836889 -0.033018503 0.030596545 -0.03402361
000150 b6 91 ea bd c5 cf a0 3d 51 f0 5b bc f9 54 87 3c
       -0.114535734 0.07852129 -0.013423995 0.01652001
000160 92 4f 15 bd c2 de e3 3c a5 30 a3 bd 29 be 06 bd
       -0.036452837 0.02781618 -0.079682626 -0.032896195
000170 00 70 16 bd 4b 04 ee bc 0f 57 4b bd 1b 50 98 3d
       -0.036727905 -0.029054781 -0.049643572 0.07437154
000180 4d 4a 37 bd bd f8 78 bd df 7f 2c bd 7b 7d 1b bd
       -0.044748593 -0.06078409 -0.042114135 -0.037961464
000190 92 54 02 3d 19 4e c8 3c 11 8a c2 bd d3 fb 3c 3d
       0.031818934 0.024451302 -0.0949899 0.046138596
0001a0 f8 01 47 3d 1a e9 86 bd 65 d2 8f bd 1f bd 23 3e
       0.048585862 -0.06587429 -0.070225514 0.15990113
0001b0 f2 39 51 bd c4 cb 7d 3d 37 dc 7d bd 3b ac 68 3a
       -0.05108065 0.061961904 -0.06197759 0.0008875762
0001c0 44 91 8b bc 59 d6 82 3d bf e6 52 3d 51 28 2c bd
       -0.017037041 0.0638854 0.051489588 -0.042030636
0001d0 7e 6e eb 3c 20 dc 33 bd a6 86 bd 3d a8 5f 3e 3d
       0.02873921 -0.0439111 0.09254198 0.046477944
0001e0 4e 1b 69 3d e1 8a 33 3d fb b9 64 3c 19 e2 a0 bb
       0.056910805 0.043833617 0.013960357 -0.0049097654
0001f0 88 26 9c bd 38 2a 56 3d 58 06 15 bd 12 2a 9a 3d
       -0.07624537 0.052286357 -0.036383003 0.075275555

layers.2.weight f4 [128, 128]
000000 57 f2 c3 3d d8 9c b9 3c 8c 89 96 ba 43 b8 09 bd
       0.09567707 0.022657797 -0.0011485084 -0.03362299
000010 4c e6 0e bd d5 b8 c6 3d ad 40 73 bc 40 09 4c bb
       -0.034887597 0.09703223 -0.014846963 -0.0031133443
000020 e7 7b 60 bd c3 6b c1 3d fc 69 30 bd 35 9b f7 bb
       -0.054805662 0.09444382 -0.043069825 -0.007556344
000030 55 e1 f4 3c b1 76 d3 3d 91 00 f9 3d 4f b7 e1 3d
       0.029892603 0.10325373 0.12158311 0.110212915
000040 8f 77 19 3d 19 cb ff bd 05 52 86 3d 2d 41 9f bd
       0.037467536 -0.1248991 0.06558613 -0.07776103
000050 18 0c 89 bd 86 81 42 bc 4e 4d e5 bb c2 e7 b8 3d
       -0.0669176 -0.011871701 -0.006997741 0.09028579
000060 e2 f3 06 be dc 2b 7e bd 68 5f 6d 3d 36 e4 b5 bd
       -0.13178971 -0.062053546 0.057952315 -0.088814184
000070 1d f0 f4 bd ff ef f3 bd bd 3e c3 bd 42 15 37 be
       -0.119598605 -0.1191101 -0.09533451 -0.17879203
000080 75 04 18 be ed ad 21 be 83 0c 5b 3d 41 2f f7 bd
       -0.1484545 -0.15789004 0.05347873 -0.1206956
000090 6e df 29 bd cc 0e b0 bd 64 55 d3 bc 64 1e 8d 3d
       -0.041472845 -0.08596572 -0.025797553 0.06890562
0000a0 f0 8f d5 bc 0f 52 0a be 71 58 56 3d 6e 6c f9 3d
       -0.026069611 -0.13507865 0.052330438 0.121788844
0000b0 40 b6 8f 3d 12 dc d4 bd 6d b3 0d be 30 df 66 bd
       0.07017183 -0.103935376 -0.13837977 -0.056365192
0000c0 4f ad 0c bd 95 34 06 3d 7c 7f 97 bd 3b f1 e0 bd
       -0.034344967 0.03276499 -0.073973626 -0.10983511
0000d0 81 40 12 3d b7 4d c2 3d 2f 45 06 be 77 cd 88 bd
       0.035706047 0.09487479 -0.13112329 -0.06679814
0000e0 f2 d9 bd 3d 46 db 2c be 83 91 df bb 49 10 14 bd
       0.092700854 -0.16880521 -0.0068227663 -0.036148343
0000f0 01 9e 16 be 15 8c ba bd c8 ae c3 3d f3 15 44 bd
       -0.14708711 -0.0910875 0.09554821 -0.047872495
000100 c6 90 83 bd 71 6f d6 3d 2e 48 61 3d 22 d1 b8 bd
       -0.06424098 0.104704745 0.055000477 -0.09024264
000110 6c fa 08 bd 49 99 ae bd 79 86 d2 3d 87 cd c0 3d
       -0.033441946 -0.085253306 0.10279555 0.09414201
000120 31 be 15 be 79 8f 18 3e f6 a0 2d be 48 48 9d 3d
       -0.14623334 0.1489848 -0.16955933 0.07679802
000130 00 00 00 3e 39 44 f1 bd 89 18 32 bd e5 c1 98 3d
       0.125 -0.117805906 -0.04348043 0.074588574
000140 e8 86 db bd a0 2b 1f bd 30 62 ed bc 04 0a eb 3d
       -0.10719091 -0.038859963 -0.028977484 0.1147652
000150 d9 6e f8 bc 52 83 ea bd 7f 3c fb 3d 01 f2 54 3d
       -0.030326294 -0.114508286 0.12267398 0.051988605
000160 64 c1 db 3d 28 ce 3f 3d 4f 3d 00 3e d8 50 8a bd
       0.10730246 0.046827465 0.12523387 -0.06753701
000170 60 a6 b4 bc 2d 85 e2 bd c0 13 02 be af 14 15 be
       -0.02205199 -0.110605575 -0.12702847 -0.14558671
000180 b0 50 a6 3d eb 85 87 bd 5e 8f 44 bd 16 d9 e2 3c
       0.08120859 -0.0661734 -0.047988288 0.027691405
000190 af 17 00 be ae f2 1c 3d 46 5a d2 ba 7b 24 28 be
       -0.12509035 0.038317375 -0.0016048632 -0.16420166
0001a0 20 34 06 3e 88 9f 6b bd 3f 0a cf bd 63 23 10 3e
       0.13105822 -0.057525188 -0.10109376 0.14075999
0001b0 45 ed d4 3d a8 9e fe 3c 31 e6 b1 3d 5b 3d d2 3d
       0.10396818 0.031081513 0.08686484 0.10265609
0001c0 b0 6f db bd 0e ee db bc 28 9a f8 3d b3 68 4e bd
       -0.10714662 -0.026846912 0.12138778 -0.050392818
0001d0 13 04 d6 3d 9e a6 dd bc 0d 00 32 3d 8a 4d d4 bd
       0.10449996 -0.027056988 0.04345708 -0.10366352
0001e0 55 af 12 bb 5b 09 a9 bd ea 1d 0b be 0a 8b 83 3c
       -0.0022382338 -0.082537375 -0.1358563 0.01605751
0001f0 a8 55 b6 3d 85 bf 18 bc 6b 4c 03 be 11 24 11 be
       0.089030564 -0.009323006 -0.1282212 -0.14173914
000200 f8 8f 22 3e ea 73 d2 bd b0 52 ca 3c 48 91 b3 bd
       0.15875232 -0.10276015 0.024697632 -0.087679446
000210 d4 06 b7 bd 86 93 ba 3d bb 58 7b 3b 28 19 b6 3d
       -0.08936849 0.09110169 0.0038352448 0.08891517
000220 4c 4a 04 be ce 74 b8 3c e5 2e 0a be b3 44 71 3c
       -0.12918967 0.022516634 -0.13494451 0.014725852
000230 ae 31 9d 3d ff 8c c4 bd 81 90 a0 bd 91 53 e1 3d
       0.07675491 -0.09597205 -0.07840062 0.11002267
000240 81 ae f7 bc b1 91 1b be eb da d4 3c db 19 a4 bd
       -0.030234577 -0.15192296 0.025983294 -0.08012744
000250 c1 8c f4 3c 85 f9 c8 3d c2 34 a5 bd 78 b0 18 3e
       0.029852273 0.09813217 -0.080667034 0.14911067
000260 80 12 35 bc 1f f1 fb bc a2 da 27 3c 66 fa 7e 3c
       -0.011051774 -0.030754624 0.010244997 0.015562629
000270 19 cc 74 bd 85 ac 4c 3d 12 9e 00 3e 11 f0 cd 3d
       -0.059764955 0.049969215 0.12560299 0.10055555
000280 28 45 56 bc 36 b0 9d 3d c3 bf 6b bd e7 09 1f 3e
       -0.013078012 0.07699625 -0.057555925 0.15531121
000290 ea 34 5f 3d 80 a4 b2 3c fe 11 24 bd 10 3c 1e 3d
       0.054493822 0.021806955 -0.04005622 0.0386315
0002a0 f9 db 06 3e f1 db 20 3e 23 93 df 3d 80 36 01 3e
       0.1316985 0.15708901 0.10916736 0.12618446
0002b0 ae 70 04 be 8f 67 95 3d ba 48 fe bd 44 c5 9b 3d
       -0.12933609 0.07295143 -0.12416215 0.07605985
0002c0 06 b9 21 be 63 1d 81 bb 06 f2 38 3d e7 b9 ae 3d
       -0.15793237 -0.0039402707 0.045152687 0.08531552
0002d0 11 44 d0 bc 37 27 bb 3d 3f 3f 0d be aa 4b 67 3d
       -0.025423082 0.09138339 -0.13793658 0.056468643
0002e0 ee dc 33 3d ee 1c 01 be 16 db 8f bd 17 32 6a bd
       0.043911867 -0.12608692 -0.07024209 -0.057176676
0002f0 7a b9 fc 3c d2 af 8f 3d eb d9 b6 bd 4e 8c c7 bd
       0.03085016 0.07015957 -0.08928283 -0.09743558
000300 08 33 88 3c ea 17 87 3d 94 92 00 3e a7 13 c7 3d
       0.016625896 0.06596358 0.12555915 0.09720545
000310 ad 65 0e bd 45 73 6b bd 39 fe 04 3e e6 17 86 bd
       -0.034764934 -0.057482976 0.12987603 -0.06547527
000320 52 f0 90 3d 6d 90 58 bd 8f 33 e9 3d 07 70 f2 3d
       0.070770875 -0.05287211 0.11386787 0.11837774
000330 4a 6e 77 bc 17 74 a8 bd 12 8d e4 bd d0 6c 0a be
       -0.015101979 -0.082252674 -0.111597195 -0.13518071
000340 6a fa 15 be 72 0a d6 3d c0 12 1f bd d2 de ec 3c
       -0.14646307 0.10451211 -0.03883624 0.028914843
000350 0b 07 e6 bc c7 63 af 3d 3a 00 2c bd f4 d9 44 bb
       -0.02807953 0.08563953 -0.041992404 -0.0030037137
000360 b2 46 3a 3d 4d 98 ea 3b 76 86 f5 bb 94 f9 f5 bd
       0.045477577 0.007159269 -0.0074928356 -0.12010494
000370 77 6d f8 bd 50 03 f1 3c 5f 46 a0 3d 47 f1 91 3b
       -0.12130254 0.029420525 0.07825922 0.0044538113
000380 97 b8 9d bd 57 7d 8f 3d f8 4f 6c 3d d6 0e ef 3d
       -0.07701223 0.070063286 0.05769345 0.116727516
000390 0e 14 cd 3d e0 38 c8 bc 9e a1 97 3d 92 2a 01 be
       0.10013591 -0.024441183 0.07403873 -0.12613896
0003a0 e4 7a ea bc 54 f1 d4 3c 97 eb 31 bd 76 3c 0e bd
       -0.028623052 0.02599398 -0.043437567 -0.03472563
0003b0 33 6b 02 3e 62 7c d0 bd 70 f6 e2 3c 39 4b c0 3b
       0.12736206 -0.10179974 0.027705401 0.0058683422
0003c0 41 ef b0 3c de 13 24 3c 7c 9d c0 3d f0 d0 ef 3d
       0.02159846 0.010014502 0.09405038 0.117097735
0003d0 c9 cd ef bd 3f 53 b4 3d 84 dc da bd 1a 0b 04 3d
       -0.11709172 0.088049404 -0.10686591 0.03223715
0003e0 5c d9 2f 3d b2 4c 9b 3c 93 78 9b 3d 13 a3 01 bd
       0.0429319 0.01895747 0.07591357 -0.03164966
0003f0 20 be cf 3d 2f b5 56 3d 9f f7 14 3e ca 43 05 3e
       0.10143685 0.052418884 0.14547585 0.1301414

layers.2.bias f4 [128]
000000 98 ae 55 bd a8 a1 a4 bc 3f c1 4c 3d d7 39 d2 3d
       -0.05216846 -0.020096615 0.04998898 0.10264938
000010 a5 e3 2e bd 97 9b 42 3c 98 a9 a4 bd 3b 4d 7e 3d
       -0.042697567 0.011877916 -0.0804016 0.06208537
000020 b6 c8 9a bc 12 66 36 bd aa 1a ad 3d 64 bc 98 bd
       -0.018894535 -0.044530936 0.084523514 -0.07457808
000030 3e ca ae bd 06 24 cf 3a f5 54 51 bd 04 78 67 bd
       -0.085346684 0.0015803583 -0.051106412 -0.05651094
000040 7f 1c 83 bd a8 23 83 bd 89 4d 33 3c e3 5e b3 bd
       -0.064019196 -0.06403285 0.010943779 -0.087583326
000050 dc 09 74 bd eb 60 9d 3d ba 21 4c bd 8d 49 9e bb
       -0.059579715 0.07684501 -0.04983685 -0.0048305453
000060 84 c3 80 bd 81 85 2f bc 2c 63 d1 bd 17 97 9c 3c
       -0.06287292 -0.010712982 -0.10223994 0.019115014
000070 1c bd 46 3d 87 f7 28 bb 74 28 49 3d 1a f6 92 3d
       0.048520193 -0.0025782303 0.049110845 0.071758464
000080 32 e1 63 bc 62 1c 89 bd 31 72 50 3d 83 13 91 bd
       -0.013908671 -0.06694867 0.05089015 -0.070838
000090 bd a7 ad bd 8f af 61 bc cb c9 7f bd c4 a0 3c 3d
       -0.08479259 -0.013774767 -0.062448304 0.046051756
0000a0 28 90 5e bb 3d 74 38 3d 88 85 c8 bc 6a 74 ed 3c
       -0.0033960436 0.04503273 -0.024477735 0.028986175
0000b0 0d 68 0d bd 67 fb e1 bc 37 cf 54 3d d9 f6 c2 bc
       -0.03452306 -0.027585698 0.051955428 -0.023799347
0000c0 c0 da d6 bd d0 fd 83 bd c3 f1 c9 bd 03 ab a3 bd
       -0.10490942 -0.06444895 -0.098605655 -0.07991602
0000d0 48 23 af bd cc 0d 24 3d b1 80 b8 bd 5e 7b d5 bd
       -0.08551651 0.04005222 -0.09008921 -0.10423921
0000e0 df 7f 53 3d fb f8 2b bd 8d 31 e5 bc d5 76 78 3c
       0.05163562 -0.041985493 -0.02797773 0.0151650505
0000f0 fd 08 6c 3b b4 31 f9 bc c2 b0 ba 3c 19 dc 9a 3d
       0.00360161 -0.030419208 0.022789363 0.075615115
000100 13 05 a6 3d 88 40 50 bc 50 9a 02 bd e8 9b fe bc
       0.081064366 -0.012710698 -0.031885445 -0.031080201
000110 f6 3d b0 bd 43 aa c1 3d ac 28 90 3d 56 3a a3 3c
       -0.08605568 0.09456303 0.070390075 0.019925278
000120 71 f2 ec 3c c8 0e b9 bc ee 01 4c bc 0f 10 70 bd
       0.028924199 -0.022590056 -0.012451632 -0.058609065
000130 17 de 8b 3d 81 d7 85 bd 0a 5f c7 3d 7c 1c d2 3c
       0.0682947 -0.06535245 0.09734924 0.025648348
000140 ce 0b 9e bd 96 5c 54 b8 3a ad 6a 3d 35 f4 91 bc
       -0.07717095 -5.0630966e-05 0.057294108 -0.017816642
000150 3e 8e 63 bd 0a 98 b5 3d 9c 9a 5c 3d 1f 30 9d bd
       -0.055555575 0.0886689 0.053858384 -0.07675194
000160 39 2c 92 bd 1c 1b fa b9 dc 33 e8 3c ed 2f 41 3d
       -0.07137341 -0.00047703914 0.028345041 0.047164846
000170 45 c9 9a bd bf 59 41 3c 0e 83 3e 3d 1d 48 67 3d
       -0.0755792 0.011801182 0.046511702 0.056465257
000180 25 4c 8c 3c 6e 61 bf bd cf 4a 97 bd a8 8e a8 3b
       0.017126152 -0.09344755 -0.073873155 0.005143959
000190 b6 b5 8a bd cd 94 bd bd 2d 92 3e 3c 96 03 5b bd
       -0.0677294 -0.09256897 0.011631531 -0.053470217
0001a0 24 58 86 bc 84 4f 2e 3d e5 d7 18 bd 41 a4 00 3d
       -0.01639945 0.0425563 -0.037315268 0.031406645
0001b0 f4 96 93 bd e1 66 89 bd 16 2b 03 3e 60 95 ae 3d
       -0.072065264 -0.06709076 0.12809405 0.08524585
0001c0 e3 73 bc bd d9 a8 93 3c d2 e2 9b bd 79 16 9c bd
       -0.09201791 0.018024849 -0.07611622 -0.07621474
0001d0 0f 15 a7 bd 2e 53 86 3d 65 30 6f bd 0e 0c 65 bd
       -0.081583135 0.06558834 -0.058395762 -0.0559197
0001e0 b9 96 b7 3d 1d f3 d1 bc a0 13 90 bd 14 53 8c bd
       0.08964295 -0.02562862 -0.07034993 -0.068517834
0001f0 7b 6f 36 3d 10 6e b9 3d 3f 98 91 bd b1 04 70 bd
       0.04453991 0.09054196 -0.07109117 -0.058598224

layers.3.weight f4 [128, 128]
000000 fe 44 08 be 6b 39 2c 3c da d2 ae 3d 27 2e 19 3e
       -0.13307568 0.010511736 0.085363105 0.14959012
000010 86 a4 cb 3c 94 eb e8 3d bb 39 d3 3d ba 8a a5 bd
       0.024858724 0.11373058 0.103137456 -0.080831006
000020 17 06 d3 3d 6c e8 06 3e ed 8e e5 bd fe 7b 5b bc
       0.10303896 0.131746 -0.112089016 -0.013396261
000030 1f f0 eb 3d 61 6f 13 be ec 23 99 3d 64 2d cc bd
       0.11520409 -0.14397956 0.07477555 -0.09969595
000040 ff 12 70 bc 50 5a 24 3e d1 f3 e3 bd cd 8a 25 bd
       -0.0146529665 0.16050076 -0.11130489 -0.040415574
000050 62 98 9b bd 4f 4e aa bc ea 9e c7 bd 52 c3 05 be
       -0.07597424 -0.020789294 -0.09747107 -0.1306279
000060 25 0a 50 bd 95 91 7f 3c ef a1 00 be 47 d7 96 3d
       -0.050790925 0.015598674 -0.12561773 0.0736528
000070 33 3e f4 bd 0c e2 11 3e aa 21 b0 bc d9 d5 a5 bd
       -0.11925926 0.14246386 -0.021500427 -0.08097429
000080 1b b4 d2 bd 5f e3 32 3d 4d 40 ca bd 7a 29 cf 3d
       -0.10288259 0.04367387 -0.09875546 0.10115333
000090 0c 2a 11 3e 7e 8b 24 3e ba 9d 88 bc de 80 b2 3d
       0.14176196 0.16068837 -0.016676772 0.08715986
0000a0 1d 28 4b bc 81 20 17 be d7 c1 ee bd 7e c1 25 bd
       -0.0123997005 -0.14758493 -0.11658066 -0.04046773
0000b0 16 38 36 3c 14 37 2b 3d 88 3c e2 3b 89 3f 02 3e
       0.01112177 0.041800573 0.0069041885 0.12719549
0000c0 3a 92 81 3d 59 58 10 be 63 76 90 3d 2f aa d7 3c
       0.06326719 -0.14096202 0.070538305 0.026326267
0000d0 a1 1f c8 3d 8d 54 3e be 5a 73 4a 3d 39 7b 87 3d
       0.09771658 -0.18586941 0.049426414 0.066153
0000e0 5b a8 f4 3d 07 6f e6 3d 59 ab 06 be 1a 9f 01 be
       0.11946174 0.112516455 -0.13151301 -0.12658349
0000f0 9c dc 1f 3d 8f 3f bc 3d c1 e1 03 3e 6a 57 bd bd
       0.03902875 0.0919181 0.12879087 -0.092451885
000100 4b e5 13 be a7 90 79 3d be 56 91 3c 2f 2d e1 bd
       -0.14442937 0.060928967 0.017741557 -0.10994946
000110 b3 27 88 3d b0 11 b6 bd 51 94 39 3d a8 bf 15 be
       0.06648197 -0.088900924 0.04530746 -0.14623892
000120 39 62 ed bc 09 05 96 3d d7 76 15 bd 6a c5 3e 3d
       -0.0289775 0.07325179 -0.036490288 0.046574987
000130 87 a3 99 bd 7f 81 a5 bd 73 e7 3a bc 05 97 69 3c
       -0.075018935 -0.0808134 -0.011407721 0.014257197
000140 0c 61 8b 3d 4d 47 9d bd 63 10 16 3c 9e 23 a2 bd
       0.068056196 -0.07679615 0.00915918 -0.0791695
000150 7d 08 8a 3c 72 3b f6 bd 9e ef f1 3d c1 16 b1 3d
       0.01684975 -0.12023057 0.118132815 0.08646918
000160 f2 06 c2 3d f0 88 0a be 73 ee 19 be 1a a7 f6 3b
       0.09473981 -0.135288 -0.15032367 0.0075272443
000170 88 c6 b4 3b 0a c7 bf bd cb 10 f7 bd 1a d4 c5 bc
       0.005516831 -0.093641356 -0.1206375 -0.02414899
000180 f6 40 8c bd 4a dd 3a bd 01 43 23 3d 8c 19 76 bc
       -0.06848328 -0.045621194 0.03985882 -0.015020739
000190 77 e7 a1 3d 8c 14 81 bd ca c3 17 bd 35 b7 b0 bc
       0.079054765 -0.06302747 -0.037051953 -0.021571735
0001a0 a4 55 c3 3c d3 ff 95 bd 98 cb 22 be 35 ef 1c be
       0.023844548 -0.07324185 -0.15897977 -0.15325625
0001b0 0a 5d 1d be 2b 20 93 bc 2b 38 db 3d 84 21 3d 3d
       -0.15367523 -0.017959675 0.107040726 0.04617454
0001c0 5b 93 3f 3d e5 94 96 3c d9 18 0b 3e e3 ed 98 3d
       0.04677139 0.018381545 0.13583697 0.07467248
0001d0 fd 36 d8 bc 64 b1 12 3e 24 ab b6 bc 99 e8 f2 3c
       -0.026393408 0.14325482 -0.022298403 0.029651927
0001e0 32 c6 eb 3c bb ee 94 bd 53 4c 13 3e 0e 73 03 3e
       0.02878103 -0.07272097 0.14384584 0.12836859
0001f0 28 7f 9a 3d 2c 30 c3 bd 32 3e e7 3d ae b5 37 bd
       0.075437844 -0.095306724 0.1129116 -0.044850998
000200 72 e7 36 3d dd a7 ff bd f7 c5 bd 3d f9 d0 29 3e
       0.044654317 -0.12483189 0.092662744 0.16583623
000210 5e bf 67 bd 27 55 b5 3d f3 27 82 3d 67 1d ff 3d
       -0.056578986 0.08854132 0.06355276 0.1245678
000220 6e f5 ee bb 57 c8 82 bd 10 32 0e be 54 7b de bc
       -0.007292441 -0.06385868 -0.13886285 -0.027158417
000230 65 3a 0a 3e e6 45 92 3c 07 b0 2b 3d 5e aa c7 3d
       0.13498838 0.017855596 0.04191592 0.09749292
000240 8d 20 19 bd 1a 49 89 bc f0 84 e0 3d 8e 40 10 3e
       -0.03738456 -0.01675849 0.10962856 0.14087126
000250 78 2c f0 3d 9a 8b 19 3d fa 0e 05 be ea 31 0e 3e
       0.11727232 0.03748665 -0.12993994 0.13886228
000260 23 63 04 3c 80 e1 3e bb 5e 03 00 bb 27 cd e7 3d
       0.008080277 -0.0029126108 -0.0019533257 0.113184266
000270 88 16 be bd ee 1f ca bd 12 a3 f6 3c 4e 7b fa 3d
       -0.09281641 -0.09869371 0.030107055 0.1223055
000280 72 12 88 3d d0 bf 12 3e b5 80 d9 3d 25 17 95 3d
       0.06644143 0.14330983 0.10620252 0.07279805
000290 d2 29 e6 bc 13 05 a8 bc 09 6e be bd f2 73 0e 3d
       -0.028096113 -0.020510232 -0.09298331 0.034778543
0002a0 b4 e9 29 3e b2 6f 35 3d 7c a2 4e 3d 3d 2e b2 3c
       0.16593057 0.044295974 0.050447926 0.021750564
0002b0 bd 4b 47 bb c6 b6 88 3d 76 c6 eb 3d 19 95 bc 3c
       -0.0030410134 0.06675486 0.11512463 0.023020314
0002c0 31 e3 ad 3d ee 78 17 3e 80 8d 95 bd 55 98 0c 3e
       0.08490599 0.14792225 -0.073023796 0.13729985
0002d0 ea 28 22 be ef a7 a9 3d f0 0e 79 bd 82 96 be 3d
       -0.1583592 0.08283984 -0.06080526 0.09306051
0002e0 98 3d 43 3d d6 96 82 bd 84 2b 04 3e a8 91 1a be
       0.047666162 -0.06376426 0.12907225 -0.15094626
0002f0 21 ac 69 3c 71 1f 19 3e ef 2e 1a be 35 6d 0a 3e
       0.01426223 0.149534 -0.15056966 0.13518222
000300 26 24 f4 bd 5b 7d 17 bd 8b f7 3f bc 00 35 be bb
       -0.11920957 -0.036984783 -0.011716734 -0.005804658
000310 7a 01 d7 3d 4b 87 aa 3d 8a 38 e4 bd 90 56 1e be
       0.104983285 0.08326586 -0.111435965 -0.15462708
000320 94 af 0c 3e 34 17 68 bd 2c 5a 0b 3e db bc 74 3d
       0.13738853 -0.056662753 0.13608617 0.05975042
000330 1f 3f d8 3c 00 1b 16 3e 88 4c c2 3d 4a 48 b4 3b
       0.026397286 0.14658737 0.094872534 0.0055017816
000340 67 38 06 3e 51 02 e8 3d 7c b5 c2 bd 7f 6f f8 3d
       0.13107453 0.11328567 -0.09507272 0.12130641
000350 6b 0c e1 bd 02 4b ca 3d fb a6 75 3d 19 87 1a bd
       -0.10988697 0.09877588 0.059973698 -0.037726495
000360 f7 c8 05 3e 36 bc 09 3d 36 71 e5 3d 4c cd 48 3c
       0.13064943 0.033626758 0.11203234 0.012255978
000370 69 20 ae bd 7a 87 71 bd 4c db 34 bc 00 07 ee bc
       -0.085022755 -0.05896709 -0.011038613 -0.029056072
000380 ce 02 9f 3c f7 9f 9c bd 88 06 9f 3d 81 6d f7 3d
       0.019410517 -0.076476984 0.077649176 0.12081433
000390 a3 e2 86 bc 54 3f 7d 3d 39 aa f8 bd fd 7a f1 3c
       -0.01646549 0.061827973 -0.121418424 0.02947759
0003a0 5a 72 a6 bd 1f c1 e7 3d 01 44 ee 3d 8f 1c eb 3d
       -0.081272796 0.11316132 0.116340645 0.114800565
0003b0 58 30 cb 3b 47 ae ab bd 6b 4d 13 3e f6 3e 07 be
       0.0062008314 -0.0838285 0.14385001 -0.13207611
0003c0 80 10 19 bb 06 2d 15 3d 13 4d 82 3d f9 a9 a0 bd
       -0.0023355782 0.03641989 0.06362357 -0.0784492
0003d0 34 a9 3d 3d 06 c9 82 bc ca bd 82 3d 90 d1 ea 3d
       0.046303943 -0.015964996 0.06383856 0.11465752
0003e0 73 e1 8d bd 7b 6d 77 3c 9f 73 12 be 91 21 4e 3d
       -0.06927767 0.015101786 -0.14301918 0.05032498
0003f0 40 89 a4 bd 75 21 a9 3d da 7d 95 3c e4 2d 30 bc
       -0.08033991 0.082583345 0.018248487 -0.010753129

layers.3.bias f4 [128]
000000 9e 60 c4 bd df cd ad bd 4d 01 57 bc b5 10 8d 3c
       -0.09588741 -0.084865324 -0.013122869 0.01721988
000010 27 f6 47 bd d9 96 97 bd f2 c5 aa bc 3e 88 40 bc
       -0.048818734 -0.07401819 -0.02084634 -0.011751233
000020 b4 4d a6 3c f9 c5 c1 3d 15 e1 02 3d 2c 13 a8 3d
       0.020300724 0.094615884 0.031952936 0.08206782
000030 e2 fe 67 3d 63 35 64 3d df 96 8b bc 0d 8d a8 bd
       0.05663956 0.055714976 -0.017039714 -0.08230028
000040 d6 29 35 bd 3a ca 01 bc 4d a1 b9 3c d8 d6 0d 3d
       -0.04422935 -0.00792175 0.022659922 0.03462872
000050 a8 26 0e bc 6e 3b 73 bd 78 47 dd bc 3e 29 37 bd
       -0.008676209 -0.05938285 -0.027011618 -0.044717066
000060 a5 22 45 bd 34 4d 56 bd 95 88 ac 3c 70 f4 cd bd
       -0.048128743 -0.05231972 0.021061221 -0.100563884
000070 f6 da b8 3c 6d 0b 9d bd 0f c4 63 bd d6 7a bf bd
       0.022565346 -0.07668195 -0.055606898 -0.09349601
000080 e7 05 35 3d f5 9b bb 3d a7 67 a7 bd 76 77 79 3d
       0.044195082 0.09160606 -0.08174067 0.060904942
000090 6e af 38 bd ac 97 a7 3c 6c c5 27 3d 17 3b b0 bc
       -0.045089178 0.020458065 0.04095976 -0.021512551
0000a0 3f 1e 3f 3c 24 69 58 bd 9a 5d 5b bd 16 cf 98 3d
       0.011664926 -0.052834645 -0.053556062 0.074613735
0000b0 b3 86 50 3b 06 f7 07 3c 02 d5 7a 3c ef 6f 25 bd
       0.0031818568 0.008298641 0.015309574 -0.04038995
0000c0 c7 a0 8b 3d 7e b6 14 3c 25 e5 e4 3c 94 7c 92 3d
       0.06817775 0.009076713 0.027941296 0.07152668
0000d0 10 4e 76 3d d4 16 a8 bd 84 1a 85 3d 08 94 61 3c
       0.06013304 -0.08207479 0.06499198 0.013768204
0000e0 33 6c 29 bd 40 44 84 bd 79 1c 09 3c 78 4c 16 bc
       -0.041362952 -0.0645833 0.008368605 -0.009173505
0000f0 00 e5 66 3b 79 1e 17 bd 5c 1d 73 bb c4 7c 57 3d
       0.003523171 -0.036894295 -0.0037096357 0.05260922
000100 c1 6e 55 bd 27 1f 14 bd 3a 8f 48 bc b3 62 96 3d
       -0.052107576 -0.03616252 -0.012241179 0.07343044
000110 e6 be b2 3c 88 10 8a 3d d0 ec c9 bc 38 68 80 bc
       0.021819543 0.06741434 -0.024649054 -0.015674695
000120 d0 3d 01 3d 26 d7 3a bd df 8c a5 bd 24 0d ab 3d
       0.03155309 -0.045615338 -0.0808351 0.08352116
000130 8f 2b e0 ba 92 5f af bb 81 43 67 3d 58 34 5f 3d
       -0.0017102825 -0.005351969 0.05646086 0.05449328
000140 74 f6 ea bc 31 92 1c bd 66 94 52 bd 87 cd a9 3d
       -0.028681971 -0.038225356 -0.051411055 0.08291154
000150 9b 11 2c bd a7 e2 4c bd b5 f0 c3 bc 6b 15 4b 3d
       -0.042008977 -0.05002084 -0.023918489 0.049580973
000160 88 01 0a 3d f5 02 29 bd 06 9f ae bc 8f c5 a9 3d
       0.033692867 -0.041262586 -0.021316063 0.082896344
000170 79 d3 94 3d 99 2d 8b 3d 32 23 74 bd 9c 83 e6 bc
       0.07266898 0.067958064 -0.059603877 -0.028138928
000180 a1 e6 32 bd 73 68 a7 3d d3 9c 45 bd 19 c7 59 bd
       -0.043676976 0.08174219 -0.048245262 -0.05316839
000190 fe 0b 46 3d 77 a6 b4 bd 00 3c f0 3c 49 5e 89 3c
       0.04835128 -0.08820813 0.029325485 0.016768591
0001a0 85 a3 a2 3d a4 a8 80 3d e1 75 13 3d 01 7a c0 3d
       0.07941345 0.06282166 0.03600109 0.093982704
0001b0 3c 47 b3 3c f4 45 5a 3d cf 4d df bd 56 48 83 3d
       0.021884553 0.05328937 -0.10903513 0.06410281
0001c0 b3 d8 8e 3c 1f 13 46 3d 0b 07 69 bc 1c cf b7 3a
       0.017437315 0.04835808 -0.014222871 0.0014023515
0001d0 03 88 93 bd 43 07 a5 bd 75 41 2a bd 07 7f 92 bd
       -0.072036766 -0.08058026 -0.04156633 -0.07153135
0001e0 49 42 41 3c 71 36 b9 3b 98 22 a3 bd db b8 b0 3d
       0.011795589 0.005652242 -0.079655826 0.086290084
0001f0 8e 6c 88 b9 e3 95 83 3c 81 fc 33 bd a8 72 70 3d
       -0.0002602082 0.016062682 -0.04394198 0.058703095

layers.4.weight f4 [128, 128]
000000 40 c2 04 39 a6 f4 0e 3c f5 90 a7 bd 93 a9 4b 3c
       0.00012660865 0.008725321 -0.08181945 0.012430566
000010 bd b2 0b 3e 6b 4c 04 be 4d c9 97 3d 7a c9 26 bd
       0.13642402 -0.12919776 0.07411442 -0.040719487
000020 5e 73 e6 bd 24 f3 a7 bd e0 33 0a 3e 37 d0 f8 bd
       -0.11252473 -0.08200672 0.13496351 -0.12149089
000030 12 c4 c1 bd e8 42 08 3c 03 da 14 3d d6 f9 cf bd
       -0.094612256 0.008316733 0.036340725 -0.10155074
000040 a2 a4 fe 3d fa c2 22 3e ab ab 0e bd a5 11 a4 3d
       0.12433745 0.1589469 -0.034831684 0.08011178
000050 1a ac f0 3c 8c b7 eb bd 08 24 13 be 9b 25 81 bd
       0.02937894 -0.11509618 -0.14369214 -0.06306001
000060 a2 ff 92 bc a7 66 a3 bd b7 8a 01 bd a7 37 de bd
       -0.01794416 -0.07978564 -0.03162643 -0.108504586
000070 99 ad b8 3c 7e de 3a bd dd 33 a0 3d ea 9b 3e 3d
       0.022543715 -0.04562234 0.07822392 0.04653541
000080 7e dd 04 be 00 b9 04 be b9 f2 ac 3d fe ae fa ba
       -0.12975118 -0.12961197 0.08444733 -0.0019125638
000090 a3 07 d9 3d 12 ab 8f 3d 24 e4 40 3d ea 50 91 bd
       0.1059716 0.07015051 0.04709257 -0.07095511
0000a0 de f3 b4 3d f9 a7 00 3e 13 ec 9e 3c d5 62 34 bd
       0.088355765 0.12564076 0.019399678 -0.044039566
0000b0 18 e2 03 3d 75 7f 1b be c2 26 13 be 6d d0 0b 3e
       0.03219804 -0.1518534 -0.14370254 0.13653727
0000c0 f3 38 db bd 70 e7 f6 3d ac 0b f4 3d c2 87 0c 3e
       -0.107042216 0.12055862 0.11916289 0.13723662
0000d0 d5 1f 04 3e a7 6e d3 bd 03 25 00 3e 2d cd be bd
       0.12902768 -0.1032384 0.12514119 -0.09316478
0000e0 36 71 52 3d a3 fb 60 3d e6 1f fc 3d c1 24 fb 3d
       0.051377498 0.05492748 0.12310772 0.122628696
0000f0 6c 22 a4 3d aa 84 70 bd 64 ef 22 be 84 2a 8d ba
       0.08014378 -0.05872027 -0.15911633 -0.0010770117
000100 64 cb 18 bd 59 e9 14 3d 89 dd b0 bd c2 75 11 be
       -0.037303343 0.03635535 -0.086360045 -0.14205077
000110 6a f6 fc bd 45 55 c3 bc 9c 60 9f bd d4 fc 5d bd
       -0.12351687 -0.02384437 -0.07782099 -0.054196194
000120 dd 79 93 bd 36 80 11 be d3 da ba bc c5 93 8d 3d
       -0.07200978 -0.14209065 -0.022809422 0.069129504
000130 b4 1e 66 3c b0 8f 9a 3d 5a 57 69 bd 52 cc cc bd
       0.014045406 0.075469375 -0.05696807 -0.099999085
000140 db 88 fb bd 41 d3 34 bc 50 e7 38 3d 4f de 32 3d
       -0.122819625 -0.011036695 0.04514247 0.04366904
000150 30 e4 81 3d 3f 0f ca bc ad fb d0 3c cf 6f 04 3e
       0.063423514 -0.024665473 0.025510633 0.12933277
000160 34 b2 81 bb 0b ac 2c bd 56 c1 df bd 08 a9 8c bd
       -0.003958011 -0.04215626 -0.10925548 -0.06868178
000170 de f1 09 be d6 ef 03 bc b1 47 77 bd 46 11 d2 bd
       -0.13471171 -0.008052787 -0.060371105 -0.10257201
000180 7f 2f 9a bd 2b bc af bd cf 8b 20 be b6 1b 13 3e
       -0.075285904 -0.08580812 -0.15678333 0.1436604
000190 dd 44 81 bd 64 ac c5 3c ee 28 bf bd 16 97 0e be
       -0.06311963 0.024130054 -0.093339786 -0.13924822
0001a0 e7 4b df bd 98 a5 8a bd a9 9a 11 bd ca 86 11 bd
       -0.10903149 -0.06769866 -0.035547886 -0.035528935
0001b0 d3 a6 db bd 71 06 50 bd ce 24 c6 bd 16 e2 fa bd
       -0.107251786 -0.050787393 -0.09674989 -0.12250154
0001c0 85 16 97 3d e5 c6 02 be f4 8b 0b be 40 32 67 3b
       0.07377342 -0.12771185 -0.13627607 0.0035277754
0001d0 0d cc 4a bd d5 c0 fb 3d 64 aa 94 bd 4c b0 f7 3d
       -0.049511004 0.12292639 -0.07259062 0.12094173
0001e0 bb f4 85 3c 2f 8f 88 bd 90 c8 85 bc 6f 2f 8e 3d
       0.016352048 -0.06667935 -0.016330987 0.06942641
0001f0 77 70 f4 3c 36 de 9c bd d3 d4 a5 3c 85 41 fa 3b
       0.029838784 -0.07659571 0.020243084 0.007637205
000200 1a 12 09 bd 88 59 1c be f2 a1 36 3d 61 0e c6 3d
       -0.03346453 -0.15268528 0.044588037 0.09670711
000210 80 cb 5e 3d f8 1d 83 bc 38 77 5c 3d 70 e2 cf bd
       0.05439329 -0.016005501 0.053824633 -0.101506114
000220 42 30 0b be 04 a4 be 3d 4b c1 37 bd 5a 47 ac bc
       -0.13592628 0.09308627 -0.044862073 -0.021030117
000230 80 fd 68 bd 85 3c e9 bc 26 7b 01 be 67 66 ee bd
       -0.05688238 -0.02847124 -0.12644634 -0.116406254
000240 84 f1 c7 bd f4 d8 39 3d 86 b6 af bc dc fa 97 bc
       -0.09762862 0.04537292 -0.021449339 -0.018552236
000250 05 a5 01 3e 23 e7 a2 bb 99 99 2e bc ca 43 92 bc
       0.12660606 -0.0049714013 -0.010656738 -0.01785459
000260 c2 4d 11 be a0 df 33 3d 4a ec 77 3c 15 ea 81 3d
       -0.14189819 0.043914437 0.015132019 0.06343476
000270 c8 75 c0 bd 77 a5 39 bd d7 c3 80 bd 4c dd 8a 3d
       -0.09397465 -0.045323815 -0.062873535 0.0678049
000280 f3 79 c2 bc 54 3e 05 be e0 7c c3 3d 5d 63 cc 3d
       -0.02373979 -0.13012058 0.095453024 0.099798895
000290 38 d2 b5 3d 3b 83 66 3c 2a 53 cb bd 41 64 c9 3d
       0.08877987 0.014069374 -0.09927972 0.09833575
0002a0 30 6d c9 bd 14 99 f3 3b d6 7a 30 bd c0 dd fe bc
       -0.09835279 0.00743402 -0.043085895 -0.031111598
0002b0 c0 43 be bd 1a e1 bf 3d cf 11 25 3e d1 f2 8f 3d
       -0.09290266 0.093691066 0.16120075 0.070287354
0002c0 4b 8f 18 3e 70 74 ce 3d c1 47 db bd c3 f4 8f bc
       0.14898412 0.100808024 -0.10707045 -0.017572766
0002d0 35 1b 87 bc 34 f6 d7 3d 10 b5 c4 3d 0e ff 5f bb
       -0.016492466 0.105450064 0.096048474 -0.0034179124
0002e0 4e 69 f9 bc 40 da ad 3d e0 1b a7 3d cd 89 c1 bc
       -0.030445721 0.084888935 0.081596136 -0.023625279
0002f0 80 23 4d bd 09 1f 10 be 52 ea 8b 3d 7d 8a 04 3e
       -0.050082684 -0.14074339 0.068318024 0.12943454
000300 ff 94 04 3e 5c 07 71 3d 8a 0c be bd 38 3e aa 3c
       0.12947462 0.05884491 -0.092797354 0.020781621
000310 a5 13 81 bd bc df 9c bd 6f 41 e9 3d 22 fb 2e 3b
       -0.06302575 -0.076598614 0.113894336 0.002669998
000320 cd 26 53 bd 37 31 10 3e e7 9d 6c 3c e7 25 e0 bd
       -0.051550675 0.14081274 0.014441944 -0.10944729
000330 9a 9a 8b bd 63 8b 85 ba e0 ab e4 3c 82 e6 cd 3d
       -0.06816597 -0.0010188635 0.027913988 0.100537315
000340 6d 07 ea 3d 4e 68 d6 bd ce a2 cc bd 18 3a e7 3d
       0.114271976 -0.10469113 -0.0999199 0.112903774
000350 93 84 13 be 29 9b b2 3c 1d a2 64 bd 01 11 e8 bd
       -0.14406042 0.021802502 -0.055818666 -0.11331368
000360 20 a1 ae ba 19 5b 8c bd d8 e7 ae 3d 05 f4 ac 3d
       -0.0013323165 -0.06853313 0.085403144 0.084449805
000370 7e a3 47 3d ba 29 9c 3c 9e c4 fe 3d d2 66 9c bc
       0.048739903 0.019062866 0.124398455 -0.019091997
000380 b7 77 45 3d 38 a6 1c 3d 11 fa ed bd 06 e9 f7 bd
       0.048209872 0.038244456 -0.11619962 -0.121049926
000390 89 e5 a3 3d d1 3f c9 3d 1d 4e a2 3c db ff 12 be
       0.08002765 0.09826625 0.019812638 -0.14355414
0003a0 f5 ee ec 3d cc de f9 bc 18 41 18 bd 32 c4 b8 bd
       0.11569015 -0.030501746 -0.037171453 -0.09021796
0003b0 12 b1 a0 3d 16 34 ac bd c8 a4 e3 bd bf 0e 80 3d
       0.078462735 -0.08408372 -0.11115414 0.062528126
0003c0 47 71 ba 3d 3b 83 ee bd 00 46 18 bc 27 b6 d1 bd
       0.09103637 -0.11646124 -0.009294033 -0.10239821
0003d0 ea 11 00 be 3e ce 0e 3e ea dd 76 bd 5f 4f 9c bd
       -0.12506834 0.13945863 -0.060270227 -0.07632326
0003e0 f8 3f 69 3d d6 fb b1 bd 99 31 c3 bc f9 9c f5 bc
       0.05694577 -0.08690612 -0.023827361 -0.029982077
0003f0 b3 90 eb 3c d5 b9 5a 3d 12 a2 ae 3d c3 c4 14 3e
       0.028755521 0.05339988 0.08527006 0.14528184
