real_btcusdt_call_pricing_mlp_6inputs/result_8/pinn_model.pth (torch, 472610 bytes, 17 tensors)

layers.0.weight f4 [128, 6]
0	0x3c5dc276	0.013535133
1	0x3e15625b	0.14588301
2	0x3dc9f91b	0.09861966
3	0xbd7b93dc	-0.061420307
4	0x3d40885c	0.047005042
5	0xbdb18298	-0.08667487
6	0x3be4228e	0.006962127
7	0x3dbd0765	0.09229926
8	0x3e170a1a	0.14749947
9	0x3e77b61f	0.24190567
10	0x3e4831fb	0.19550316
11	0x3defd032	0.11709632
12	0x3d05aaea	0.0326337
13	0x3e480200	0.19532013
14	0x3e3ea24a	0.18616596
15	0xbe09bc48	-0.1345073
16	0x3e1e99c1	0.1548834
17	0x3e0be7af	0.13662599
18	0x3da82264	0.082096845
19	0xbce37221	-0.027764382
20	0x3e379064	0.17926174
21	0x3e0a1c54	0.13487369
22	0x3e0a09cf	0.13480304
23	0xbe1668ec	-0.14688462
24	0x3e3dbb71	0.18528534
25	0xbe02abff	-0.12760924
26	0x3cf98786	0.03046013
27	0xbe7f6777	-0.24941812
28	0x3c09d860	0.008413404
29	0x3e0d9b1f	0.13828705
30	0x3e05375c	0.13009399
31	0xbd7f17ed	-0.062278677
32	0x3e6c513e	0.23077866
33	0x3e0f0a29	0.1396872
34	0xbbcc36c0	-0.0062321126
35	0xbd8c0cc4	-0.06838372
36	0x3e03c904	0.1286965
37	0x3e358597	0.17726742
38	0x3dda5f31	0.106626876
39	0x3dde74e8	0.10862142
40	0xbe15341a	-0.14570656
41	0xbd618558	-0.055058807
42	0xbd64e24c	-0.055879876
43	0xbd7a48a1	-0.06110442
44	0x3cdc266b	0.026873788
45	0x3db13a5d	0.0865371
46	0xbdca2951	-0.09871162
47	0xbe064b2a	-0.1311461
48	0xbd2b95d2	-0.041890927
49	0xbe29f3a9	-0.16596855
50	0xbdebf340	-0.11521006
51	0xbb096768	-0.0020966176
52	0xbce2e450	-0.027696759
53	0xbe37b805	-0.17941292
54	0x3d8accc1	0.06777335
55	0xbcfb2fc7	-0.03066243
56	0x3d823cd4	0.06359258
57	0xbd62c759	-0.055365894
58	0xbe45b8f7	-0.1930884
59	0xbcd37f18	-0.025817439
60	0xbe153754	-0.14571887
61	0xbe4d30f6	-0.20038208
62	0xbdb50486	-0.088387534
63	0x3e1195f0	0.14217353
64	0x3e098f9d	0.1343369
65	0xbe1d6378	-0.15369976
66	0xbddba24b	-0.10724314
67	0x3d397bab	0.045283955
68	0x3de1ac21	0.11019159
69	0xbe630317	-0.22169147
70	0xbd8e1496	-0.0693752
71	0xbe222c55	-0.15837224
72	0x3d622f34	0.055220798
73	0x3d553ce7	0.052060034
74	0x3e3746d3	0.17898111
75	0xbdac6de6	-0.08419399
76	0x3e569001	0.2095337
77	0x3d53a8ac	0.05167453
78	0x3c8c31c7	0.01711358
79	0xbc83f9d0	-0.01611033
80	0xbd2210d9	-0.03956685
81	0x3cea6bca	0.028615851
82	0x3dde5862	0.108567014
83	0x3db67aae	0.08910118
84	0xbdc65098	-0.09683341
85	0x3dfc0e5a	0.12307425
86	0xbdff996d	-0.124804355
87	0x3ce23ae4	0.027615972
88	0xba643e00	-0.00087067485
89	0x3e092341	0.13392355
90	0x3e059d4a	0.13048282
91	0x3de5f403	0.11228182
92	0x3e502412	0.2032626
93	0xbe0178fa	-0.12643805
94	0xbc7ce490	-0.015435353
95	0xbb947e00	-0.004531622
96	0x3e0042ff	0.12525557
97	0x3e50cc43	0.2039042
98	0x3e27a4a5	0.163714
99	0x3d945781	0.072432525
100	0xbe4a6784	-0.1976605
101	0x3ccf8240	0.025330663
102	0x3de6f073	0.11276331
103	0x3e094a03	0.1340714
104	0x3e40d04a	0.18829456
105	0xbd80e307	-0.06293302
106	0x3e37cee9	0.17950024
107	0x3cf1c7f0	0.029514283
108	0xbe56360a	-0.20919052
109	0xbc989acf	-0.018628506
110	0xbe42890b	-0.1899759
111	0x3dddf68f	0.10838043
112	0x3d9613d2	0.07327999
113	0x3e5355af	0.20638154
114	0xbe233d48	-0.15941346
115	0x3de48409	0.11157996
116	0x3d9261ab	0.07147535
117	0xbe015b4d	-0.12632485
118	0xbd637a58	-0.055536598
119	0xbc1b7710	-0.009488836
120	0xbe4134a3	-0.18867736
121	0x3e4457ef	0.19174169
122	0x3e2992bf	0.16559885
123	0x3e3d219f	0.18469857
124	0x3e51d867	0.20492707
125	0x3e1585e1	0.14601852
126	0x3dd9eb60	0.10640597
127	0xbdb5294b	-0.08845767
128	0x3ddd7066	0.10812454
129	0x3d72a7f9	0.059242222
130	0xbd434050	-0.047668755
131	0xba0e6e00	-0.00054332614
132	0x3e236f0d	0.15960331
133	0xbe06f664	-0.13179928
134	0xbe148c71	-0.14506699
135	0x3dc4bf79	0.09606833
136	0x3e45b23f	0.19306277
137	0xbdbe8170	-0.09302032
138	0x3dd8967c	0.105755776
139	0xbd895624	-0.06705883
140	0x3d6e858d	0.058232833
141	0xbe207375	-0.15669043
142	0xbd898e74	-0.06716624
143	0x3e290bd1	0.16508414
144	0xbe151a9e	-0.14560935
145	0x3d0e412f	0.034730133
146	0x3e2ce5b6	0.16884503
147	0x3e4e9bc1	0.20176603
148	0xbd60e2e0	-0.054903865
149	0x3c1c8c70	0.009554967
150	0x3e17f985	0.14841278
151	0xbe28afd6	-0.16473326
152	0x3e48be87	0.1960393
153	0x3e61c4f2	0.22047785
154	0x3dc3b6ca	0.095563486
155	0x3dd82c46	0.105553195
156	0x3daede52	0.08538498
157	0xbdf0764f	-0.117413156
158	0x3e4f3441	0.20234777
159	0xbd28df2f	-0.04122847
160	0x3c0de850	0.008661345
161	0x3cfee010	0.0311127
162	0x3e3de609	0.18544783
163	0x3e07ec2d	0.13273688
164	0xbd63374d	-0.05547266
165	0xbe38fbda	-0.18064824
166	0x3e284899	0.16433944
167	0xbe2e344c	-0.17012137
168	0x3d6eb4ce	0.058277898
169	0x3e020983	0.12698941
170	0x3e40132e	0.18757316
171	0xb93ad90c	-0.00017819199
172	0x3e457a71	0.19284989
173	0xbd1537bc	-0.036430106
174	0x3df6ac0c	0.12044534
175	0x3c16efb5	0.009212424
176	0x3d882954	0.06648508
177	0xbe560f8d	-0.2090437
178	0xbdaceac6	-0.08443217
179	0x3e50120f	0.20319389
180	0x3db77692	0.08958162
181	0xbe54ea27	-0.20792447
182	0x3d0b1db8	0.03396389
183	0x3dd83053	0.10556092
184	0xbe52edf4	-0.20598584
185	0x3e0b11b7	0.13580976
186	0xbd1076ea	-0.035269655
187	0xbcc0793e	-0.023495313
188	0x3e5cca97	0.21561657
189	0x3d90b512	0.070657864
190	0xbe518858	-0.20462167
191	0xbdc65868	-0.09684831
192	0x3dce1641	0.10062838
193	0xbc0be4d7	-0.008538446
194	0xbddfb1e8	-0.10922605
195	0x3d33ae30	0.04386729
196	0xbdd79553	-0.10526528
197	0xbe14d60a	-0.14534774
198	0xbd49cbc3	-0.049266588
199	0x3de967be	0.113967404
200	0x3e1d0046	0.15332136
201	0x3da6211c	0.08111784
202	0xbe177b2e	-0.14793083
203	0x3d8fdd3e	0.070246205
204	0x3d0a98b9	0.033837054
205	0x3cca9db5	0.024733404
206	0x3da871d1	0.08224834
207	0xbd29e32a	-0.041476406
208	0x3a906400	0.001101613
209	0x3d0501bc	0.032472357
210	0x3e198e14	0.14995605
211	0x3d354676	0.04425665
212	0xbdd2e11a	-0.10296841
213	0x3e55d7fd	0.20883174
214	0xbe529b9a	-0.2056717
215	0xbd47386c	-0.048637792
216	0x3df5fa9e	0.12010692
217	0x3d718cbc	0.058972105
218	0xbe15bde2	-0.14623216
219	0xbabd248d	-0.0014430449
220	0xbe02e7f4	-0.12783796
221	0x3da4128a	0.080113485
222	0xbe4462c4	-0.19178301
223	0x3de67ed4	0.11254659
224	0xbe18b6f6	-0.14913544
225	0xbe049d22	-0.12950566
226	0x3c3ba0c0	0.0114519
227	0xbe103f5e	-0.14086673
228	0xbe312cb3	-0.17302208
229	0xbd4f9e5c	-0.050688133
230	0x3e1d87e9	0.15383877
231	0x3df645a0	0.12024999
232	0x3e33dfc5	0.1756583
233	0x3d81156a	0.063029125
234	0xbde22a99	-0.11043281
235	0x3e272e52	0.16326264
236	0xbcf13170	-0.029442519
237	0xbe5fd3b8	-0.21858108
238	0x3c6c4860	0.014421552
239	0x3d172da0	0.036908746
240	0xbe3d36f3	-0.18477993
241	0x3dd4c93a	0.103899434
242	0x3e2a9854	0.16659671
243	0x3e1f8b78	0.15580547
244	0x3c81def8	0.01585339
245	0x3e093d31	0.13402249
246	0xbe3f6363	-0.18690257
247	0x3de14fd7	0.11001556
248	0x3e39f273	0.18158893
249	0xbc8d0fe7	-0.017219497
250	0xbe3894cf	-0.18025516
251	0x3d30e234	0.043184474
252	0xbe33906f	-0.17535566
253	0x3e011f41	0.12609579
254	0x3e0fcc9c	0.14042896
255	0x3dbd7c4a	0.09252222

layers.0.bias f4 [128]
0	0x3dba0987	0.090838484
1	0x3eb4d0a9	0.35315445
2	0x3d8b695f	0.06807207
3	0xbd93d6a3	-0.07218673
4	0xbdbcf3a9	-0.09226162
5	0x3e84c2b0	0.25929785
6	0xbe52a24b	-0.20569722
7	0xbe92a99a	-0.2864502
8	0x3e4a6439	0.19764794
9	0x3e6236d2	0.22091225
10	0xbdbf7ebb	-0.09350344
11	0xbe590f24	-0.21197182
12	0xbe2a200d	-0.16613789
13	0xbe229864	-0.15878445
14	0xbeb30029	-0.3496106
15	0x3eb11bc1	0.34591487
16	0x3e9014ae	0.28140777
17	0x3e306b6c	0.17228478
18	0x3d705c92	0.058682032
19	0xbb46db49	-0.0030343106
20	0x3e26fba0	0.16306925
21	0x3ebe64e5	0.3718635
22	0xbd3c1725	-0.04592051
23	0x3e4a9d3a	0.1978654
24	0x3c9b53a5	0.018960783
25	0x3dc74f79	0.09731955
26	0xbe612d77	-0.2199
27	0x3ec3e125	0.3825771
28	0x3ead932b	0.33901343
29	0x3e03c7b9	0.12869157
30	0xbe62afc7	-0.22137366
31	0x3e9c623d	0.305437
32	0x3eceda93	0.40401134
33	0xbe258375	-0.16163428
34	0x3e3a7ff5	0.18212874
35	0xbea7ff64	-0.32812035
36	0xbe33a6cf	-0.17544101
37	0x3a403741	0.0007332452
38	0xbec51cc0	-0.38498497
39	0xbe5b8240	-0.21436405
40	0x3d3af2b2	0.04564161
41	0x3eb4516e	0.35218376
42	0x3e621c89	0.22081198
43	0xbe851817	-0.25994942
44	0xbe8b551d	-0.27213374
45	0x3ea445aa	0.320844
46	0xbe8f6900	-0.28009796
47	0x3eb980f1	0.36231187
48	0x3ea2254d	0.31669083
49	0x3d8daca8	0.06917697
50	0xbe106c9c	-0.14103931
51	0xbe3780b9	-0.17920198
52	0x3eaae077	0.33374378
53	0x3df25bbc	0.11833903
54	0x3dfd7674	0.12376109
55	0x3e1b1ec0	0.15148449
56	0xbe9b3e7f	-0.30321118
57	0x3dc67c8d	0.09691725
58	0x3e729c0d	0.23692341
59	0x3e8b3b52	0.27193695
60	0x3eb3348e	0.35001034
61	0xbe43f77e	-0.1913738
62	0xbeccb8e6	-0.39984816
63	0xbdd1c710	-0.10243046
64	0x3e763426	0.2404333
65	0xbe424089	-0.1896993
66	0xbec80ea6	-0.39073676
67	0xbe71d769	-0.23617329
68	0x3eaa32b7	0.33241817
69	0xbeb3b9b4	-0.35102618
70	0xbe90c53a	-0.28275472
71	0xbe803c9c	-0.2504624
72	0x3d461678	0.04836127
73	0xbe126ccc	-0.14299315
74	0xbe837b5a	-0.25680047
75	0x3e32e106	0.17468652
76	0xbe82152a	-0.25406772
77	0x3e8b9ec8	0.27269578
78	0x3ebe6fe4	0.3719474
79	0xbde528a9	-0.11189396
80	0xbe1bf8ad	-0.15231581
81	0x3e4fc48b	0.20289819
82	0x3ec11f2b	0.37719092
83	0x3ed70707	0.4199755
84	0xbe9b7c95	-0.30368486
85	0x3e113ad4	0.14182597
86	0x3eac302b	0.336305
87	0x3d720593	0.059087347
88	0xbe8333a2	-0.2562533
89	0xbe5421ef	-0.2071607
90	0xbed1e2d3	-0.40993366
91	0x3ea17b08	0.31539178
92	0x3dba039f	0.09082722
93	0xbe7be819	-0.24600257
94	0x3da770d2	0.08175816
95	0xbe6f91de	-0.23395488
96	0x3df802f8	0.12109941
97	0xbe8997c4	-0.268736
98	0x3ea6f490	0.3260846
99	0x3e596de7	0.2123333
100	0xbe1e1798	-0.15438688
101	0x3e4792ff	0.19489668
102	0xbec45215	-0.38343874
103	0xbd435683	-0.047689926
104	0xbeb08577	-0.34476826
105	0xbed4d07d	-0.41565314
106	0x3e586ae6	0.21134529
107	0x3e5ae284	0.21375471
108	0xbeafb3e5	-0.34316936
109	0xbd9689a3	-0.07350471
110	0x3ea76024	0.32690537
111	0xbece6afb	-0.40315995
112	0x3ed1b0cf	0.40955207
113	0xbdd32315	-0.10309426
114	0x3cd55250	0.026040226
115	0xbe381559	-0.17976893
116	0xbe86b60a	-0.2631076
117	0x3e2da36b	0.1695687
118	0x3eac7c71	0.3368869
119	0x3d432540	0.047642946
120	0x3d29682a	0.041359104
121	0xbe5c0623	-0.21486716
122	0x3e8983f9	0.268585
123	0x3e85809e	0.2607469
124	0xbdaec132	-0.08532943
125	0x3d8ec426	0.06971006
126	0x3e9d3d20	0.30710697
127	0x3e3a8c5a	0.18217602

layers.1.weight f4 [128, 128]
0	0x3e14a6a2	0.1451669
1	0xbdd47639	-0.10374112
2	0x3dc3974b	0.09550341
3	0xbda61f12	-0.08111395
4	0x3d119c78	0.03554961
5	0xbc49dac8	-0.012320228
6	0x3c0847aa	0.008317867
7	0x3bb2be56	0.0054548187
8	0x3d42d898	0.04756984
9	0x3d48ba1b	0.04900561
10	0x3d73e174	0.05954118
11	0x3e0f0f2c	0.13970631
12	0xbd135cca	-0.035977162
13	0x3dd43c9e	0.10363124
14	0x3dddd164	0.10830954
15	0x3d8f2f9b	0.06991502
16	0xbddf7d9c	-0.1091263
17	0x3d0aa100	0.033844948
18	0xbd9ead96	-0.07747953
19	0x3d49915d	0.049210895
20	0xba62048e	-0.00086218945
21	0xbcf1ef02	-0.029532913
22	0xbd9a5da2	-0.0753739
23	0xbdbf6bd0	-0.093467355
24	0x3dbd0156	0.092287704
25	0x3d1208da	0.035652973
26	0x3cb0e6d6	0.021594446
27	0x3d93549d	0.07193873
28	0x3de6e5c4	0.11274293
29	0x3ca4c5d7	0.020113869
30	0xbe074ad3	-0.13212137
31	0x3cd589f4	0.026066758
32	0xbdddf7fe	-0.108383164
33	0x3dd1c0b3	0.102418326
34	0x3d910d06	0.07082562
35	0x3d1238e0	0.03569877
36	0x3c2e2414	0.010628719
37	0xbdeb0107	-0.11474805
38	0xbdba6995	-0.091021694
39	0x3dcec053	0.10095277
40	0xbdfa92a2	-0.12234999
41	0xbde1cb4b	-0.11025103
42	0xbe0df580	-0.13863182
43	0x3df9906d	0.1218575
44	0xbda9eafd	-0.082967736
45	0xbd19d185	-0.03755333
46	0x3d27abb1	0.040935222
47	0x3e1c199b	0.15244143
48	0xbe2ae897	-0.16690288
49	0x3e08321d	0.13300367
50	0xbda61751	-0.08109916
51	0xbdbbc3e1	-0.0916822
52	0x3dbbd666	0.09171753
53	0xbe09295d	-0.13394685
54	0xbdfbb5e4	-0.12290552
55	0x3ddfd36d	0.10928998
56	0x3debe739	0.115187116
57	0x3d71ecb2	0.05906362
58	0xbe066de3	-0.13127856
59	0x3d997106	0.07492261
60	0x3d2df0f1	0.042466108
61	0xbe116504	-0.1419869
62	0xbcbadf42	-0.022811536
63	0xbd6f7a38	-0.058466166
64	0x3dbcc271	0.09216774
65	0x3cae9be3	0.021314567
66	0xbcb6acbf	-0.022299169
67	0x3e20fa6d	0.1572053
68	0xbe207575	-0.15669806
69	0x3d546a5e	0.051859252
70	0x3e03b5b6	0.12862286
71	0x3da93874	0.08262721
72	0xbdfef391	-0.124488
73	0x3dc7176e	0.09721266
74	0xbcdca009	-0.02693178
75	0x3de6ba85	0.112660445
76	0xbd14611a	-0.036225416
77	0xbe1b56cc	-0.15169829
78	0x3c90c378	0.017671332
79	0x3e2af176	0.16693673
80	0xbc98982b	-0.018627247
81	0xbe11dc13	-0.14244108
82	0xbe23efc2	-0.16009429
83	0xbac30ab5	-0.001488051
84	0x3d95e616	0.07319276
85	0x3de960e1	0.11395431
86	0x3e1d33bf	0.15351771
87	0xbd5daa58	-0.05411753
88	0x3cdaa5b2	0.026690338
89	0x3cb332a5	0.021874735
90	0xbd3bc9bb	-0.045846682
91	0xbcb5f2b9	-0.022210466
92	0xbd37d038	-0.044876307
93	0x3e0027cb	0.1251518
94	0x3de04030	0.10949743
95	0xb99dd5b5	-0.00030104598
96	0x3dbc84a2	0.09204985
97	0x3dd0a6aa	0.10188039
98	0xbca2453a	-0.0198084
99	0xbda2f2f3	-0.07956495
100	0xbdd12f24	-0.102140695
101	0x3dbdceee	0.09267984
102	0x3e20b799	0.15695037
103	0x3d1b5bbd	0.037929285
104	0x3e084416	0.13307223
105	0x3de6929f	0.112584345
106	0xba98ba7c	-0.0011652256
107	0x3bea621b	0.0071528084
108	0x3e1f4c8d	0.15556546
109	0xbde02e9e	-0.109463915
110	0x3ca29797	0.019847674
111	0xbcb5f420	-0.022211134
112	0xbcca6f52	-0.024711285
113	0x3dd972e5	0.106176175
114	0xbd9bce3c	-0.076076955
115	0xbdc0f222	-0.09421183
116	0xbd8bd37b	-0.06827446
117	0xbd759e21	-0.059965257
118	0xbde01f53	-0.109434746
119	0x3d75845e	0.05994069
120	0x3d87dc77	0.06633847
121	0x3dd526bc	0.104077786
122	0x3da16979	0.078814454
123	0x3e086ebd	0.13323493
124	0xbd19a386	-0.037509464
125	0x3c3ef79d	0.011655715
126	0xbe067173	-0.13129215
127	0xbe0e6223	-0.13904624
128	0xbe14cb52	-0.14530686
129	0x3df6649d	0.12030909
130	0x3d4bfa2f	0.04979914
131	0xbdb6ca69	-0.089253254
132	0xbd2cf430	-0.042225063
133	0x3de1c152	0.11023201
134	0x3d9c0a7c	0.07619187
135	0x3dbed5c8	0.09318119
136	0x3e139faf	0.14416383
137	0xbe057258	-0.130319
138	0x3d47ef1f	0.048812028
139	0x3e01cfee	0.12676975
140	0x3df35f97	0.11883467
141	0xbdb4f445	-0.08835653
142	0x3d48a4af	0.04898518
143	0xbdf95ff5	-0.121765055
144	0xbe0878ec	-0.13327378
145	0x3c506a03	0.012720588
146	0xbd3bd590	-0.045857966
147	0xbd9a564b	-0.0753599
148	0xbccd2a27	-0.025044514
149	0xbe23b6bb	-0.15987675
150	0x3da856a7	0.082196526
151	0x3ae05b1b	0.0017116995
152	0xbdbc860f	-0.09205257
153	0x3c85d5c3	0.016337281
154	0x3e212280	0.15735817
155	0x3de44af4	0.11147109
156	0x3d1421a5	0.0361649
157	0x3e0ca327	0.13734113
158	0x3da7286c	0.08162007
159	0xbcf11de7	-0.029433204
160	0xbe16c8b2	-0.14724997
161	0xbdd79df2	-0.105281726
162	0x3dc0b860	0.09410167
163	0x3d8a0db3	0.06740894
164	0x3d85bb7c	0.065299004
165	0xbdb8ac18	-0.09017199
166	0xbe0d9d19	-0.13829459
167	0xbe15f39c	-0.14643711
168	0xbdac2b51	-0.084066994
169	0xbcc9e967	-0.024647428
170	0xbae3e495	-0.0017386848
171	0xbd64953f	-0.055806395
172	0x3b88f727	0.0041798535
173	0x3d5c7e3f	0.053831335
174	0xbccc1a49	-0.024914877
175	0xbd1fd302	-0.039019592
176	0x3cb15327	0.021646095
177	0x3d40664a	0.04697255
178	0xba2a28d8	-0.00064910715
179	0xbbbb77cf	-0.0057210694
180	0xbe030910	-0.12796426
181	0xbdd7cdc6	-0.10537295
182	0xbde94aac	-0.11391196
183	0x3dd7b0d6	0.10531776
184	0xbd959521	-0.07303835
185	0x3e0ad072	0.13556078
186	0x3d8e24e0	0.06940627
187	0x391e31ec	0.00015086652
188	0xbc82f875	-0.015987614
189	0x3e157e1e	0.14598891
190	0x3cf4795f	0.02984303
191	0xbdc8f212	-0.09811796
192	0x3dcf8ae2	0.10133912
193	0x3e1702fb	0.1474723
194	0x3d1248d2	0.035713978
195	0xbaa1c374	-0.0012341575
196	0xbbab0ce9	-0.005220045
197	0xbd4215a3	-0.047383916
198	0x3c9fa82b	0.019489368
199	0x3dcba0fa	0.09942813
200	0xbd7de446	-0.061985277
201	0xbd8a1012	-0.067413464
202	0xbde75ee0	-0.11297393
203	0xbe031342	-0.12800315
204	0xbdc9abd0	-0.09847224
205	0x3d5cddc1	0.05392242
206	0xbd1e062b	-0.0385801
207	0x3d52cba0	0.051463723
208	0x3d9d441f	0.07679009
209	0xbe0dc27b	-0.1384372
210	0xbdc261a0	-0.09491277
211	0xbd642e37	-0.055708136
212	0x3d05190c	0.03249459
213	0x3d3027a5	0.043006558
214	0x3d875812	0.06608595
215	0x3dcb3035	0.09921304
216	0x3e2cf110	0.16888833
217	0x3d142edd	0.036177505
218	0x3e0ad0df	0.1355624
219	0xbd8eed34	-0.06978837
220	0xbd620ee0	-0.055189967
221	0xbd3a3237	-0.045458045
222	0x3d3c1858	0.045921654
223	0xbd6eaab6	-0.05826827
224	0xbd01a7db	-0.03165422
225	0xbde968fd	-0.11396978
226	0xbe1f2ec5	-0.15545185
227	0x3d72d207	0.05928233
228	0xbdcb9a09	-0.09941489
229	0xbd2d49da	-0.04230676
230	0x3d2ff69d	0.042959798
231	0xbc07c563	-0.008286807
232	0x3da40ebc	0.08010623
233	0xbd94b379	-0.07260794
234	0xbe035059	-0.12823619
235	0x3df2c926	0.11854772
236	0xbdd36118	-0.103212535
237	0x3d113696	0.035452448
238	0xbda3d318	-0.07999247
239	0x3e04435a	0.12916318
240	0x3d02f6f5	0.031973798
241	0x3cb7ca03	0.022435194
242	0xbd16a8e3	-0.036782157
243	0x3d475420	0.048664212
244	0xbdb362d2	-0.08759083
245	0xbde5c879	-0.11219878
246	0x3c1fe444	0.009759013
247	0x3d80945d	0.06278298
248	0x3dfa4112	0.122194424
249	0xbd91f204	-0.07126239
250	0x3d806036	0.06268351
251	0x3de252d8	0.110509574
252	0x3d00ca4a	0.031442918
253	0x3c6f3660	0.014600366
254	0x3db9a287	0.09064203
255	0xbe1d9035	-0.15387042

layers.1.bias f4 [128]
0	0xbd2ee93a	-0.04270289
1	0x3c692ac3	0.014231387
2	0x3d93db52	0.072195664
3	0xbd668682	-0.05628062
4	0xbd634ff2	-0.055496164
5	0x3ce8500f	0.028358487
6	0x3de06601	0.10956956
7	0x3c654fae	0.013996048
8	0x3d2c97e3	0.042137038
9	0x3cc282cf	0.023744015
10	0x3d3d74b4	0.046253875
11	0xbd96ede9	-0.073695965
12	0xbd4d207e	-0.050079815
13	0x3d27cb0c	0.040965125
14	0xbd860209	-0.06543357
15	0xbad25d57	-0.0016049546
16	0x3cecf432	0.028925035
17	0x3c3843e0	0.011246651
18	0xbd4704ae	-0.048588447
19	0xbdb66906	-0.089067504
20	0xbd9183a9	-0.0710519
21	0x3baca29e	0.005268409
22	0x3caf2b72	0.021383021
23	0xbd3d71cb	-0.0462511
24	0xbc98fb26	-0.018674444
25	0xbd0db6b5	-0.03459807
26	0x3d02c4ad	0.031925846
27	0xbd795fff	-0.060882565
28	0x3d93949f	0.072060816
29	0x3d8d0ffd	0.06887815
30	0x3d8e7a25	0.06956891
31	0x3c12f932	0.008970546
32	0x3d65e421	0.056125764
33	0x3d9375a3	0.07200172
34	0xbc77493b	-0.015093143
35	0xbd8f4f4a	-0.06997545
36	0x3d97ffb7	0.074218206
37	0x3de14d27	0.11001044
38	0xbd449ac6	-0.047999166
39	0xbc3bd4f7	-0.011464349
40	0x3cd8a3e7	0.026445342
41	0x3da45923	0.08024814
42	0xbd84f889	-0.06492717
43	0xbc8ebb47	-0.017423285
44	0xbd8982da	-0.06714411
45	0x3ca47033	0.020073032
46	0x3dcc031d	0.09961531
47	0xbcb4cfb1	-0.022071691
48	0xbdc4c10d	-0.09607134
49	0xbcfd6beb	-0.030935248
50	0xbca697d3	-0.020336067
51	0xbdc4717b	-0.09591957
52	0xbcc3d0bc	-0.023903243
53	0xbd3ef7e4	-0.046623126
54	0x3dcfb60c	0.101421446
55	0xbc045d76	-0.008078923
56	0x3d4f8d74	0.05067201
57	0x3d94e0ee	0.072694644
58	0xbcbe6df5	-0.023245791
59	0xbc8a4009	-0.016876237
60	0xbda36bf1	-0.079795726
61	0xbd1d5e0c	-0.03841977
62	0x3daa5560	0.08317065
63	0x3b79d651	0.0038122127
64	0x3cae7dbc	0.02130019
65	0xbd291696	-0.041281305
66	0xbd4ac1cf	-0.049501237
67	0x3b925a6c	0.0044663455
68	0xbde13d97	-0.109980755
69	0xbda562a3	-0.08075454
70	0x3d93f42a	0.07224305
71	0x3b5eb376	0.0033981479
72	0x3d168a58	0.03675303
73	0x3d2966f3	0.041357946
74	0x3d009708	0.031394035
75	0x3c1f9e17	0.009742281
76	0x3d05ae86	0.03263714
77	0xbb540406	-0.003235103
78	0xbd70056d	-0.058598924
79	0x3cbf666b	0.023364266
80	0x3cb3d880	0.021953821
81	0x3d25b7c6	0.040458463
82	0x3d25c746	0.040473245
83	0xbc5b247a	-0.013375396
84	0xbce47868	-0.027889445
85	0xbc7ce85c	-0.015436258
86	0xbcb6fa44	-0.022336133
87	0x3cde0c35	0.02710543
88	0x3d2272e2	0.039660342
89	0xbd92bab5	-0.07164518
90	0xbdb96dbf	-0.090541355
91	0x3d25699f	0.04038393
92	0x3b8a1a3a	0.004214552
93	0x3c065412	0.008198755
94	0x3c3c758a	0.011502633
95	0xbc9f525b	-0.01944845
96	0xbda4a4f9	-0.080392785
97	0xbbd52603	-0.0065047755
98	0x3d239aaa	0.03994242
99	0x3d5a62ef	0.053317007
100	0x3c421fd3	0.011848408
101	0xbc8290b7	-0.015938146
102	0x3c2d1d55	0.010566075
103	0x3d31f2c6	0.043444417
104	0xbd84bfec	-0.06481919
105	0x3b895d74	0.0041920487
106	0x3d310862	0.043220885
107	0x3c8a2982	0.016865496
108	0x3bac06ae	0.0052498197
109	0xbd361384	-0.044452205
110	0xbcad03de	-0.021120008
111	0xbda9b23c	-0.08285949
112	0x3da0f24b	0.07858714
113	0xbc909d3c	-0.0176531
114	0x3d7c5ae5	0.06161012
115	0xbbf228bd	-0.0073901103
116	0xbd04682a	-0.0323259
117	0x3d6da9cb	0.058023255
118	0xbd8a5bff	-0.06755828
119	0xbcddff45	-0.027099261
120	0xbda832ca	-0.08212812
121	0x3d95eae4	0.073201925
122	0xbc34b34a	-0.011029074
123	0xbd1fcf55	-0.039016087
124	0xbc85c13e	-0.016327497
125	0x3c12c1a5	0.008957301
126	0xbcf88a20	-0.0303393
127	0x3d2d6128	0.042328984

layers.2.weight f4 [128, 128]
0	0x3d254ab9	0.040354464
1	0x3d43bb31	0.04778594
2	0xbe01bbc4	-0.12669283
3	0x3d74f89e	0.059807412
4	0xbc1dd31a	-0.00963285
5	0xbe155bca	-0.14585796
6	0xbe12e1fd	-0.1434402
7	0xbdc074d9	-0.09397287
8	0xbe0986ac	-0.1343028
9	0xbd9ec721	-0.077528246
10	0x3d079b77	0.033107247
11	0x3d0e2331	0.03470153
12	0x3c50ed36	0.012751868
13	0x3c904ed5	0.017615715
14	0xbe07eb48	-0.13273346
15	0xbc93271a	-0.017962981
16	0x3d6e180b	0.058128398
17	0x3df96f90	0.12179482
18	0x3c8e7cf9	0.017393576
19	0x3d81b7c9	0.06333882
20	0xbddd2024	-0.10797146
21	0x3dca4cc4	0.09877923
22	0xbda7ff25	-0.08202962
23	0xbe052949	-0.1300403
24	0xbe11596b	-0.14194266
25	0xbd799cee	-0.060940675
26	0xbb8c9610	-0.00429035
27	0xbe02ba3c	-0.12766355
28	0xbd8d0481	-0.06885625
29	0xbdbc89f2	-0.092059985
30	0x3d8dbd3c	0.06920859
31	0xbded2a6b	-0.11580356
32	0xbc986635	-0.018603424
33	0x3ca949ea	0.020665128
34	0x3d8f08f8	0.069841325
35	0x3d917c92	0.07103838
36	0xbdddb5d5	-0.10825697
37	0x3d98dad5	0.07463614
38	0x3e1a2406	0.15052804
39	0xbda66efa	-0.08126636
40	0xbc522ad5	-0.012827595
41	0xbd1ac3ee	-0.03778451
42	0x3e0a97a6	0.13534412
43	0xbd979065	-0.07400588
44	0x3e155e75	0.14586814
45	0xbcf9d06c	-0.030494891
46	0x3d845494	0.064614445
47	0xbe0bb1b5	-0.13642009
48	0xbdb0a905	-0.08625988
49	0xbbdc8408	-0.0067296065
50	0x3b4f6cf1	0.0031650627
51	0x3db306eb	0.08741554
52	0xbd39c0f9	-0.04535005
53	0xbd209d0b	-0.039212268
54	0x3dac0289	0.08398921
55	0x3db9c222	0.09070231
56	0xbda66f43	-0.0812669
57	0x3d21cf59	0.039504383
58	0xbd0240c3	-0.031800043
59	0x3db4d1df	0.08829092
60	0xbe146663	-0.14492182
61	0xbda85126	-0.08218603
62	0x3ddfcf44	0.10928205
63	0xbddf7852	-0.10911621
64	0x3e0b74d2	0.13618782
65	0xbdb63a93	-0.08897891
66	0x3cd74733	0.026279068
67	0x3d06aefd	0.032881726
68	0xbdd389d6	-0.103290245
69	0x3de3990d	0.111131765
70	0x3dfb6587	0.12275224
71	0x3addfada	0.0016935722
72	0xbcf209ce	-0.02954569
73	0x3dbc0f14	0.091825634
74	0x3dd5ad58	0.10433453
75	0xbdd5965b	-0.10429069
76	0x3cf66dda	0.030081678
77	0x3def0fc3	0.11672928
78	0xbd6d9cc1	-0.05801082
79	0xbe0bd82f	-0.13656686
80	0x3e13c0ed	0.14429064
81	0xbdac0b10	-0.084005475
82	0x3db4f3df	0.08835577
83	0x3d4cd2fb	0.050005894
84	0x3dfae048	0.122498095
85	0x3d90d977	0.07072728
86	0xbd44d52a	-0.04805485
87	0xbdc9a4ad	-0.098458625
88	0x3d08ad0c	0.033368155
89	0x3dc4bb4f	0.09606039
90	0xbe1090fc	-0.14117807
91	0xbd39576b	-0.045249384
92	0xbd81a51b	-0.063303195
93	0x3cd3e356	0.025865238
94	0xbcdb4a71	-0.026768895
95	0xbe0220e9	-0.12707867
96	0x3c87c1c9	0.016571896
97	0xbd8d2640	-0.06892061
98	0x3d2c2e0c	0.0420361
99	0xbd3706c8	-0.0446842
100	0xbd8c3ad5	-0.06847159
101	0xbd09deca	-0.033659734
102	0x3d2f58fe	0.04280948
103	0xbe09eb4f	-0.1346867
104	0xbdb89d36	-0.090143606
105	0xbdb1bce1	-0.08678604
106	0xbd09b3dd	-0.033618797
107	0xbbf38e20	-0.007432714
108	0xbe2490ac	-0.16070813
109	0xbbe3e981	-0.006955326
110	0xbddf67ab	-0.10908445
111	0xbd16ef25	-0.03684916
112	0xbdacff16	-0.08447091
113	0xbdccf0a2	-0.100068346
114	0x3e33915e	0.17535922
115	0x3e02ac5a	0.1276106
116	0x3e049d18	0.12950552
117	0x3bd41237	0.006471898
118	0xbd9c1fe3	-0.076232694
119	0x3dbb8ff2	0.09158315
120	0x3db9087e	0.09034823
121	0x3ddb053c	0.10694358
122	0xbde5e3ca	-0.11225088
123	0x3cab42a5	0.020905802
124	0xbd805b73	-0.062674426
125	0xbce5bc25	-0.028043816
126	0xbc093d8e	-0.008376492
127	0xbde2d3be	-0.11075543
128	0xbd49f316	-0.04930409
129	0x3e12f3f5	0.14350875
130	0x3d2d26be	0.042273276
131	0x3d9f365a	0.077740386
132	0x3e009bde	0.12559459
133	0x3d4a1a17	0.049341287
134	0x3d559620	0.052145123
135	0x3d650163	0.055909526
136	0xbdc6e2c6	-0.09711222
137	0x3dcc09ec	0.0996283
138	0x3d79d841	0.06099725
139	0x3defe142	0.117128864
140	0xbe223aa6	-0.15842685
141	0x3db780b5	0.08960096
142	0xbe0d2f07	-0.13787471
143	0xbdcee747	-0.101027064
144	0xbc9feaef	-0.019521205
145	0xbcf26985	-0.029591331
146	0xbd69258c	-0.056920573
147	0xbdfa1fae	-0.12213074
148	0xbd700f9e	-0.058608644
149	0xbe1b646f	-0.15175031
150	0x3c3bcf90	0.011463061
151	0x3d77d0e2	0.06050194
152	0xbd604ee3	-0.054762732
153	0xbc232a9a	-0.0099588875
154	0xbd869ce9	-0.06572897
155	0xbd886831	-0.06660498
156	0x3e07cb7e	0.1326122
157	0xbd8d8569	-0.069102116
158	0xbd9ee7f8	-0.07759088
159	0x3e100120	0.14062929
160	0xbdfe71a6	-0.124240205
161	0x3e18aeb9	0.14910401
162	0x3ab689cf	0.0013926568
163	0xbdcde2bd	-0.100530125
164	0x3e0863c3	0.13319306
165	0xbde82002	-0.1133423
166	0xbd2d0786	-0.042243503
167	0xbd82fe05	-0.06396107
168	0x3d5185ce	0.051152997
169	0x3d29e4f2	0.041478105
170	0x3e069422	0.13142446
171	0xbb8e39d5	-0.00434039
172	0xbd09e195	-0.033662397
173	0xbdee1ad0	-0.11626208
174	0x3c1be838	0.0095158145
175	0xbd580715	-0.05274113
176	0xbc616aa7	-0.013758338
177	0xbd855cdd	-0.06511853
178	0x3d7f5363	0.062335383
179	0x3dd7ffab	0.10546812
180	0xbd2e2916	-0.04251965
181	0x3d5844e6	0.05280008
182	0x3e145658	0.14486063
183	0xbc070ac1	-0.00824231
184	0x3d622fc8	0.05522135
185	0x3df4626b	0.11932834
186	0x3cbeb90f	0.023281602
187	0x3dbfeef6	0.0937175
188	0x3dac6d1d	0.08419249
189	0xbe0eaddd	-0.13933511
190	0xbd861dab	-0.065486275
191	0x3d162348	0.03665474
192	0x3e0d17bd	0.13778587
193	0x3d52efcb	0.051498216
194	0xbdf94749	-0.121718
195	0x3db9cc62	0.09072186
196	0xbd94e7d6	-0.07270782
197	0x3c6067d5	0.0136966305
198	0x3e0fffba	0.14062396
199	0xbcb39fd8	-0.021926805
200	0x3dc8c788	0.098036826
201	0xbdac604f	-0.08416807
202	0xbca9f825	-0.020748207
203	0xbdf6dd6e	-0.12053953
204	0xbc82dd28	-0.015974596
205	0x3def9cf3	0.116998576
206	0xbcce647a	-0.025194395
207	0xbc7d6bac	-0.0154675655
208	0xbccc5cf4	-0.024946667
209	0x3db35cbc	0.08757922
210	0x3e001458	0.1250776
211	0x3c8d8cea	0.017279107
212	0xba9fea6d	-0.0012200602
213	0x3e39cb44	0.18143946
214	0x3e1ec674	0.15505391
215	0x3dec6cc3	0.11544182
216	0xbae87cad	-0.0017737352
217	0xbba61c97	-0.005069326
218	0xbc570c22	-0.013125451
219	0x3de0d6ac	0.109784454
220	0xbda02ea3	-0.07821395
221	0x3d2bbded	0.041929174
222	0xbe078d1f	-0.13237427
223	0xbdc048b0	-0.09388864
224	0x3da0df92	0.07855143
225	0xbd0cc9b1	-0.034372035
226	0xbcd6d5e8	-0.026225045
227	0x3e1a8532	0.15089872
228	0xbd9fc6fb	-0.078016244
229	0x3e0a7950	0.1352284
230	0xbde45552	-0.11149086
231	0x3e0a3b71	0.13499238
232	0x3d13aa91	0.036051337
233	0x3dc3a57a	0.095530465
234	0x3d99bc08	0.07506567
235	0x3c9ddeff	0.019271372
236	0x3d4f086e	0.05054515
237	0x3d62cc16	0.055370413
238	0x3c996ed8	0.018729612
239	0xbcb6b445	-0.022302756
240	0x3dcb10c2	0.09915306
241	0x3b9ee002	0.004848481
242	0xbde07a2d	-0.10960803
243	0xbd97b1d0	-0.07406962
244	0x3dbe2de7	0.09286099
245	0xbd12f999	-0.035882566
246	0xbd5f49c3	-0.054513704
247	0xbde9468a	-0.113904074
248	0xbd75d60f	-0.060018595
249	0xbc7086ad	-0.014680547
250	0xbdfafd5a	-0.12255354
251	0x3d19c623	0.037542474
252	0xbe0b6926	-0.1361433
253	0x3de2d0ca	0.110749796
254	0x3d3e9f82	0.046538837
255	0xbd42805f	-0.047485705

layers.2.bias f4 [128]
0	0x3d926c0b	0.07149514
1	0xbca1dd15	-0.01975874
2	0x3d2cc662	0.04218138
3	0xbd48507d	-0.048904885
4	0x3d02082b	0.03174607
5	0x3ce7f9b8	0.028317317
6	0x3d23ef6f	0.040023264
7	0x3ab7655d	0.0013992001
8	0x3ce2be77	0.027678711
9	0x3d3932bf	0.04521441
10	0xbcc053c6	-0.023477446
11	0x3d5c8f13	0.053847384
12	0xbd3c03fd	-0.04590224
13	0x3d3be83a	0.045875765
14	0xbd4815a1	-0.048848752
15	0xbd84a040	-0.06475878
16	0x3d53fb56	0.051753365
17	0x3c3ef5a3	0.011655244
18	0x3c8b520a	0.017006893
19	0x3d7b6028	0.061371
20	0x3d96b992	0.073596135
21	0xbdb7a2e4	-0.08966616
22	0xbdabb14e	-0.083834276
23	0x3d34595a	0.044030525
24	0xbda0edca	-0.07857855
25	0x3de5c013	0.11218276
26	0xbd01aef7	-0.031661
27	0xbc4bcdeb	-0.012439231
28	0xbcf98216	-0.030457538
29	0x3c5ba7c2	0.013406696
30	0x3d496406	0.049167655
31	0xbd641576	-0.05568453
32	0x3d678f53	0.05653317
33	0xbd7840c7	-0.06060865
34	0x3d1da2a5	0.038485188
35	0xbd8f943b	-0.070106946
36	0xbda5c322	-0.08093859
37	0xbc5f9fb6	-0.013648918
38	0x3d38ca68	0.045114905
39	0x3bc27143	0.005933912
40	0xbd4d6448	-0.050144464
41	0xbd8d849d	-0.069100596
42	0x3d4a329a	0.049364664
43	0x3a1b2f3e	0.00059198204
44	0xbbbc397d	-0.005744158
45	0x3d997c92	0.07494463
46	0x3d80409b	0.062623225
47	0xbd0718d1	-0.03298265
48	0xbd10f927	-0.03539386
49	0x3d1407bd	0.036140192
50	0xbdc45267	-0.095860295
51	0xbdd1688f	-0.10225021
52	0x3baa961b	0.0052058822
53	0xbc8e4885	-0.017368564
54	0xbcdd4497	-0.027010245
55	0x3d9ffbce	0.078117
56	0xbd938836	-0.072037145
57	0x3d24b7fd	0.040214527
58	0xbc634fef	-0.013874038
59	0x3d5526a0	0.05203879
60	0xbd7d8817	-0.061897364
61	0xbdacd62a	-0.08439286
62	0xbc21b4c8	-0.009869762
63	0xb933b8c2	-0.00017139598
64	0xbcddd12e	-0.027077284
65	0x3cb11a71	0.021619054
66	0xbd0bdfaf	-0.03414887
67	0xbc7ef831	-0.015562103
68	0x3d267256	0.040636383
69	0xbd70a219	-0.05874834
70	0xbd8f12f7	-0.06986039
71	0x3c07fd51	0.008300141
72	0x3d7e69c9	0.062112603
73	0xbd93f48a	-0.072243765
74	0xbd6dadf3	-0.05802722
75	0x3c5cace1	0.013468952
76	0xbda77d56	-0.08178203
77	0x3d093937	0.03350183
78	0x3ceebe22	0.029143397
79	0xbd8e0b10	-0.06935704
80	0xbce29acf	-0.02766171
81	0xbcbe9d11	-0.023268254
82	0x3d502986	0.05082085
83	0x3d1e54af	0.03865498
84	0xbd686b5b	-0.056743007
85	0xbdac4cde	-0.08413099
86	0xbd624cbc	-0.05524896
87	0xbd17b943	-0.037041914
88	0x3db700c1	0.08935691
89	0xbd79c31a	-0.06097708
90	0x3c4f0934	0.012636472
91	0x3c5df604	0.013547424
92	0x3c48b1d5	0.01224943
93	0x3d82b188	0.06381518
94	0x3c84c262	0.01620597
95	0x3d93c57e	0.07215403
96	0x3d6233b4	0.05522509
97	0x3d95997f	0.07304668
98	0x3d7b0283	0.061281692
99	0x3c91c079	0.017791973
100	0xbc901d16	-0.017591994
101	0xbd7107ad	-0.05884521
102	0xbb3c3aeb	-0.0028721641
103	0xbd935271	-0.07193459
104	0xbcee3f82	-0.029083017
105	0x3ca8342b	0.020532688
106	0x3dadcf6d	0.08486829
107	0xbbac9230	-0.0052664503
108	0x3d9df38f	0.07712471
109	0xbce1b67b	-0.027552834
110	0x3cd3f116	0.025871795
111	0xbd8ebf46	-0.06970076
112	0xbd9e9c0f	-0.077446096
113	0xbd8fc85b	-0.07020637
114	0x3cbf8778	0.023380026
115	0x3c83d7da	0.016094137
116	0xbd50398d	-0.050836135
117	0xbdb82a08	-0.08992392
118	0xbdb11c88	-0.0864802
119	0xbd3fd8c5	-0.046837587
120	0xbccdcca4	-0.025121994
121	0xbd8dabdc	-0.06917545
122	0x3ca4180f	0.020031003
123	0x3d71bdc1	0.059018854
124	0xbd38f631	-0.04515666
125	0xbb84d4fa	-0.004053709
126	0x3d7607f4	0.06006618
127	0x3d06e081	0.032928947

layers.3.weight f4 [128, 128]
0	0x3d685d70	0.056729734
1	0x3e03bca0	0.12864923
2	0xbc004fc8	-0.007831521
3	0xbad636ed	-0.0016343273
4	0xbdfb2916	-0.12263696
5	0xbd7afe33	-0.06127758
6	0xbe06d558	-0.13167322
7	0xbda5f06f	-0.081025
8	0x3cf5ca58	0.030003712
9	0xbc19490f	-0.009355797
10	0x3dc4462f	0.09583699
11	0x3d4621b7	0.048371997
12	0xbe12a3a2	-0.14320233
13	0xbc59eb50	-0.013300732
14	0xbc8632b9	-0.016381608
15	0xbd2294cf	-0.039692696
16	0xbb495947	-0.003072338
17	0xbde85aab	-0.113454185
18	0x3da70907	0.08156019
19	0x3da9a0e7	0.08282643
20	0x3dc74a24	0.09730938
21	0xbbdbede7	-0.00671171
22	0x3e0cecfe	0.1376228
23	0xbaaaada1	-0.0013021716
24	0xbde6953b	-0.11258932
25	0xbc099d09	-0.0083992565
26	0x3dc80287	0.09766107
27	0x3d591d4e	0.053006463
28	0x3d5f27fd	0.054481495
29	0x3e1937e1	0.14962722
30	0x3d9b0a6a	0.07570346
31	0xbd4929db	-0.049112182
32	0x3d978bfb	0.07399746
33	0xbb6ae593	-0.0035842403
34	0x3d82fdae	0.06396042
35	0xbde12519	-0.10993404
36	0xbd9e3d3e	-0.07726525
37	0x3dc54d32	0.096338645
38	0x3d959093	0.07302966
39	0xbddf37e1	-0.1089933
40	0xbe0adedd	-0.13561578
41	0x3c92d549	0.017923968
42	0x3d9d7868	0.07688981
43	0x3d9c776f	0.07639968
44	0x3de3d31c	0.1112425
45	0xbd80a8ce	-0.06282197
46	0x3d99ff2a	0.07519372
47	0xbdfd1cdd	-0.12359021
48	0xbc0a0eb8	-0.008426361
49	0x3e1dc8be	0.15408608
50	0xbd822b07	-0.06355863
51	0x3d6f21bf	0.058381792
52	0x3d8e15ba	0.06937738
53	0xbde16533	-0.1100563
54	0x3ddd2ea1	0.107999094
55	0xbbf754fe	-0.0075479737
56	0x3d607dc6	0.054807447
57	0x3df27998	0.118395984
58	0x3d9f48fc	0.077775925
59	0xbdbe2630	-0.092846274
60	0x3de5538d	0.11197577
61	0x3dc0d413	0.0941545
62	0xbd475bd6	-0.048671566
63	0xbda28969	-0.07936365
64	0x3e0deacc	0.13859099
65	0x3d27b420	0.040943265
66	0xbb539a30	-0.0032287948
67	0x3d91c585	0.07117752
68	0x3e26ec27	0.16301022
69	0x3ca44ff4	0.020057656
70	0xbe1387b5	-0.14407237
71	0xbd92e0a7	-0.07171755
72	0xbe0f7eef	-0.14013265
73	0xbc2acac2	-0.010424318
74	0xbd18c5cc	-0.03729801
75	0x3dabda65	0.08391265
76	0xbd3998a1	-0.045311574
77	0xbd8d83fd	-0.069099404
78	0x3dce91ae	0.1008638
79	0xbd90fd45	-0.07079557
80	0xbd499257	-0.049211826
81	0xbdaf8fc4	-0.08572343
82	0xbd920178	-0.071291864
83	0x3d26ba12	0.040704794
84	0xbd39d179	-0.045365784
85	0x3d1e37ab	0.038627308
86	0x3dd6c697	0.10487097
87	0xbdd2f071	-0.10299767
88	0x3d861026	0.06546049
89	0x3d437df1	0.04772753
90	0x3cbfd113	0.023415124
91	0x3d2ef598	0.042714685
92	0xbd82077d	-0.063490845
93	0xbccfe631	-0.025378319
94	0xbd0dcc95	-0.034618933
95	0x3d8ca3f7	0.06867211
96	0x3e0c6d72	0.13713625
97	0x3e1c3145	0.1525317
98	0x3d68387d	0.056694496
99	0xbcb4b162	-0.022057239
100	0x3d8fd338	0.07022709
101	0xbde5c1d9	-0.11218614
102	0x3ce2d9e8	0.027691796
103	0x3dd66d76	0.10470097
104	0xbd6095c2	-0.05483032
105	0x3e1e26f2	0.15444544
106	0xbc949bc9	-0.01814069
107	0xbd9a1904	-0.075243026
108	0x3da43ea6	0.08019762
109	0x3c7f82f4	0.0155951865
110	0xbd722fb9	-0.059127543
111	0xbd2226ce	-0.03958779
112	0x3c526b5c	0.012842979
113	0xbd4128c7	-0.04715803
114	0xbdf052bc	-0.1173453
115	0xbdb21440	-0.08695269
116	0x3de551ce	0.11197244
117	0xbc42b953	-0.011885005
118	0xbdc73810	-0.0972749
119	0x3dc5e0d5	0.09662024
120	0x3db12d76	0.08651249
121	0x3d91ce18	0.071193874
122	0xbd8a71e9	-0.06760008
123	0xbde0a758	-0.10969418
124	0xbd47a4dc	-0.048741207
125	0xbdbdbb92	-0.09264292
126	0xbd65d10e	-0.056107573
127	0x3e126d52	0.14299515
128	0xbde048c9	-0.10951383
129	0xbd61b948	-0.05510834
130	0x3d211297	0.03932437
131	0x3dbafdab	0.091304146
132	0x3db3af16	0.08773629
133	0xbd948ee2	-0.07253815
134	0x3d8a11a5	0.06741647
135	0x3c9b66b5	0.018969873
136	0xbda2d9ed	-0.07951722
137	0x3d1a3097	0.037643995
138	0xbc3aff92	-0.011413472
139	0xbd27c90d	-0.04096322
140	0xbd869377	-0.065710954
141	0x3d957e72	0.07299508
142	0x3d88a3b1	0.06671847
143	0xbb7a1932	-0.003816199
144	0x3d3df335	0.04637452
145	0xbdc92791	-0.09822
146	0x3dbc0d6f	0.0918225
147	0x3df7d70f	0.12101566
148	0x3dd06d86	0.1017714
149	0xbe0bc9c9	-0.13651194
150	0xbe00d705	-0.12582023
151	0x3c7a2546	0.015267676
152	0x3e089718	0.13338888
153	0x3d78557c	0.0606284
154	0x3df153f8	0.11783594
155	0x3dc3d793	0.09562602
156	0x3b8ac36b	0.0042347214
157	0xbdf282d0	-0.11841357
158	0xbd97bbea	-0.07408889
159	0x3ba849e0	0.0051357597
160	0x3e0ddeff	0.13854598
161	0x3e082835	0.13296588
162	0xbe05f13c	-0.13080305
163	0xbd6ae764	-0.057349578
164	0x3d7481c1	0.059694055
165	0x3de46840	0.111526966
166	0xbe0b1c7d	-0.13585086
167	0xbe0e1c38	-0.13877952
168	0xbdaa1b8b	-0.08306035
169	0xbbbc7b9c	-0.00575204
170	0x3dd32dc8	0.103114665
171	0xbe0d635c	-0.13807434
172	0xbddb5699	-0.107098766
173	0xbe00f7f1	-0.12594582
174	0xbe0f4e0f	-0.1399462
175	0xbe013845	-0.12619121
176	0x3dcf0ca3	0.10109832
177	0xbde3d9b4	-0.11125508
178	0x3dc031a1	0.09384466
179	0x3e0791e4	0.13239247
180	0xbe1d051e	-0.15333983
181	0x3c3de3f9	0.011589997
182	0x3ddad5bb	0.10685297
183	0xbe19b644	-0.15010935
184	0x3d7b90e0	0.06141746
185	0x3de494aa	0.11161168
186	0xbde1adb3	-0.110194586
187	0xbdc5ca52	-0.0965773
188	0xbdebc855	-0.1151282
189	0x3d8360a5	0.06414918
190	0x3d59c908	0.053170234
191	0xbde8b8d9	-0.11363382
192	0xbe0416a0	-0.12899256
193	0xbd87a1fc	-0.06622693
194	0xbdc5013e	-0.096193776
195	0x3cfd37dc	0.030910425
196	0x3b407caf	0.0029371192
197	0x3dd5c0e0	0.104371786
198	0x3dd443e2	0.1036451
199	0xbd729c10	-0.059230864
200	0xbc41eee7	-0.011836744
201	0xbdd684d7	-0.10474556
202	0xbd3e0e4c	-0.046400353
203	0xbd82a723	-0.06379535
204	0xbcd76eec	-0.026298009
205	0xbd014571	-0.031560365
206	0x3ce64840	0.028110623
207	0xbb2339fa	-0.0024906383
208	0x3e136074	0.14392263
209	0x3e0a77e7	0.13522302
210	0x3c3ee19f	0.011650472
211	0x3e0962fa	0.13416663
212	0x3e0bcbb2	0.13651922
213	0xbdbe1d03	-0.09282877
214	0x3d93a3e0	0.07208991
215	0x3ce3b63a	0.027796853
216	0x3d37c96c	0.044869825
217	0xbdc2c03b	-0.09509321
218	0x3db31a8e	0.08745299
219	0x3e1ab0fd	0.15106578
220	0x3d620872	0.055183835
221	0x3df6a91e	0.12043975
222	0x3d3a07f3	0.045417737
223	0xbe019c7c	-0.1265735
224	0x3d3ae001	0.045623783
225	0xb8231bdd	-3.8888178e-05
226	0xbe0137f7	-0.12619005
227	0xbdbba648	-0.09162575
228	0xbdeab52a	-0.114603356
229	0xbd835037	-0.06411784
230	0x3e01179a	0.1260666
231	0x3df6f480	0.120583534
232	0xbd705408	-0.05867389
233	0xbde31513	-0.11088004
234	0x3e1596c3	0.14608292
235	0x3e0df84e	0.13864252
236	0x3d0fae93	0.035078596
237	0x3a136813	0.0005623113
238	0xbe116e0a	-0.14202133
239	0x3b8ed6ec	0.004359117
240	0x3e109cf1	0.14122368
241	0x3de86d29	0.11348946
242	0x3e06ef5e	0.13177249
243	0x3cc08cf1	0.023504706
244	0x3d546fcb	0.051864427
245	0x3b324e77	0.0027207413
246	0xbdbd76c4	-0.09251168
247	0x3df83d71	0.12121094
248	0xbddc66bb	-0.10761782
249	0xbd74897c	-0.059701428
250	0x3e03697e	0.12833211
251	0xbd68a9fc	-0.056802735
252	0x3cc4fe76	0.024047118
253	0x3d8d289a	0.0689251
254	0x3d592b09	0.053019557
255	0xbdffd40a	-0.12491615

layers.3.bias f4 [128]
0	0x3ca7f3f3	0.020502066
1	0x3d9b6815	0.075882114
2	0xbc554bb6	-0.013018539
3	0x3da29e5f	0.07940363
4	0x3d85fbe7	0.06542187
5	0xbdc392b7	-0.09549468
6	0xbd65705d	-0.05601536
7	0x3d4eb5e2	0.050466426
8	0xbd565d0a	-0.052334823
9	0xbca3fa9f	-0.020016966
10	0xbd84dee4	-0.064878255
11	0x3d9cee34	0.07662621
12	0xbdb04472	-0.08606805
13	0xbd8ab594	-0.067729145
14	0xbc9b9640	-0.018992543
15	0xbd667aaa	-0.056269325
16	0xbda96432	-0.08271064
17	0x3d0a155e	0.033711784
18	0xbd97c98a	-0.074114874
19	0xbd8bd47e	-0.06827639
20	0xbc3ace32	-0.0114017
21	0x3a28d34d	0.00064401777
22	0xbd3ea369	-0.04654256
23	0xbd014aa1	-0.031565312
24	0x3d67194b	0.056420606
25	0xbccc8f90	-0.0249708
26	0x3d19d118	0.037552923
27	0xbd3c2273	-0.04593129
28	0xbda264ad	-0.07929359
29	0x3c25880e	0.010103239
30	0xbd9d89f1	-0.07692326
31	0x3d4327bd	0.04764532
32	0xbc32ac21	-0.010905297
33	0x3c51e2f9	0.012810462
34	0xbd898080	-0.067139626
35	0xbdc82112	-0.09771933
36	0x3cc7ad3e	0.0243746
37	0xbbeefee5	-0.0072935694
38	0x3c7c8569	0.015412667
39	0x3def2339	0.1167664
40	0x3c5802a6	0.013184225
41	0xbdad9a7a	-0.0847673
42	0xbd0a219d	-0.033723462
43	0x3d6a17d7	0.05715164
44	0x3cb01082	0.021492247
45	0x3d8729e5	0.065997876
46	0xbd839e44	-0.06426671
47	0x3c902980	0.017597914
48	0xbd4d2020	-0.050079465
49	0x3cf717d5	0.030162731
50	0x3d81337b	0.06308647
51	0xbd242453	-0.040073704
52	0x3cac4536	0.021029096
53	0x3cdbc0da	0.026825357
54	0x3d1aea53	0.037821125
55	0x3d81ce11	0.06338132
56	0xbcde6136	-0.027145963
57	0xbd16c20e	-0.03680616
58	0xba24ad0f	-0.0006281891
59	0xbd9a1fc1	-0.07525588
60	0x3b115333	0.0022174835
61	0xbcfe0060	-0.031006038
62	0xbd9e91e4	-0.0774267
63	0x3d77334e	0.060351662
64	0xbd12a940	-0.03580594
65	0x3bc758dd	0.0060835914
66	0x3db5d8fa	0.088792756
67	0x3d2637c8	0.04058054
68	0xbd2a5d63	-0.041592967
69	0x3ca1bd0f	0.01974347
70	0xbd39751e	-0.045277707
71	0x3d21c76e	0.03949683
72	0x3d01657f	0.031590935
73	0x3c7ce8d0	0.015436366
74	0xbd4e0179	-0.050294373
75	0xbccb39ed	-0.024807895
76	0x3d0ef395	0.034900267
77	0xbcbaeb2d	-0.022817219
78	0x3d2fad76	0.042890035
79	0xbda87c86	-0.08226876
80	0xbd755e6f	-0.059904512
81	0x3c401534	0.011723805
82	0x3d68c9df	0.056833144
83	0x3d8195f0	0.063274264
84	0x3d7c553b	0.06160472
85	0xbcd8a615	-0.026446382
86	0x3d00e157	0.0314649
87	0xbd2aef46	-0.041732095
88	0x3de59fba	0.11212106
89	0xba65809e	-0.0008754822
90	0xbccc6b3a	-0.024953473
91	0xbd3faa11	-0.046793047
92	0x3dbe3115	0.092867054
93	0x3d9e97b0	0.07743776
94	0xbb9c6a01	-0.004773379
95	0x3d8dba07	0.069202475
96	0x3da7a5cd	0.08185921
97	0x3d03a8c5	0.032143373
98	0xbd0c99e8	-0.034326464
99	0xbd4bda6d	-0.049768854
100	0x3daa7526	0.083231255
101	0x3d642df5	0.05570789
102	0x3dc26d6b	0.09493526
103	0xbd4b8154	-0.049683884
104	0xbd9ce1e0	-0.0766027
105	0x3b281d78	0.002565233
106	0xbd9e97e1	-0.07743812
107	0x3c81b6ae	0.015834179
108	0xbd0904c6	-0.033451818
109	0xbc945797	-0.018108172
110	0xbd585f58	-0.052825302
111	0xbdb60aae	-0.08888756
112	0x3d563fb3	0.052306842
113	0xbd2558d9	-0.040367935
114	0xbd4df3a6	-0.05028119
115	0x3db63999	0.08897705
116	0x3d2a4edb	0.04157911
117	0x3d26163f	0.04054856
118	0xbcc5e7af	-0.024158327
119	0x3c50d0be	0.0127450805
120	0xbd8d9201	-0.06912614
121	0x3d1b5b81	0.03792906
122	0xbceb1f84	-0.028701551
123	0xbbdfbd60	-0.006827995
124	0xbdab557a	-0.08365913
125	0x3d8a0022	0.067383066
126	0x3d3356ff	0.043784138
127	0xbd9773e5	-0.07395152

layers.4.weight f4 [128, 128]
0	0xbdb6fa7b	-0.08934494
1	0xbdf4230d	-0.11920748
2	0x3da3878d	0.07984839
3	0xbd501cea	-0.050808825
4	0xbc731af4	-0.014837969
5	0xbddd8868	-0.10817033
6	0xbde00b83	-0.10939696
7	0x3e0a196c	0.1348626
8	0xbd114fc5	-0.035476465
9	0xbdd5569e	-0.104169115
10	0x3d17fbc4	0.037105337
11	0x3c15befa	0.009139771
12	0x3d5288e2	0.051400073
13	0x3ddb314f	0.10702764
14	0xbe122972	-0.14273623
15	0xba310613	-0.0006752919
16	0xbc190727	-0.009340084
17	0x3d987134	0.07443467
18	0xbc52652e	-0.012841506
19	0xbb1742c0	-0.0023080558
20	0x3ddb727f	0.10715198
21	0xbe14ef13	-0.14544325
22	0xbdee8d53	-0.11648049
23	0x3e1e4861	0.15457298
24	0x3d9395fb	0.07206341
25	0x3dc5fa53	0.09666886
26	0xbd18db95	-0.037318785
27	0xbe05e003	-0.13073735
28	0xbc087094	-0.008327622
29	0xbbe56d30	-0.0070015416
30	0xbe1c7273	-0.15278034
31	0xbcdd4bcb	-0.02701368
32	0xbcf959bc	-0.030438296
33	0x3dd81f0b	0.10552796
34	0xbd809078	-0.06277555
35	0xbe162cd0	-0.14665532
36	0xbde6ca5f	-0.11269068
37	0xbdc59fc2	-0.09649612
38	0x3e11d2ac	0.14240521
39	0x3d85c00f	0.06530773
40	0xbe2773bb	-0.16352741
41	0x3e10a38b	0.14124887
42	0x3dea4af4	0.114400774
43	0xbcc5d628	-0.02414997
44	0x3cbeaa9e	0.023274716
45	0xbd40b35b	-0.047046047
46	0xbd383b9a	-0.044978715
47	0xbdb22ffa	-0.08700557
48	0x3db11b7c	0.0864782
49	0x3dd43363	0.10361364
50	0x3c6033be	0.013684211
51	0x3d203acc	0.039118573
52	0xbca977c0	-0.020686984
53	0xbd905e87	-0.0704928
54	0xbe19e8ee	-0.15030262
55	0x3e20a706	0.15688714
56	0x3d7785c1	0.060430292
57	0xbe22c45e	-0.1589522
58	0xbdd7a82b	-0.10530122
59	0xbdb7dc7a	-0.089775994
60	0x3dff289a	0.12458916
61	0x3e12de18	0.14342535
62	0xbdc2c8e2	-0.095109716
63	0x3daac6f1	0.08338726
64	0xbe1bc118	-0.15210378
65	0xbd763ae1	-0.060114745
66	0x3d353b68	0.044246107
67	0x3aa0e967	0.001227659
68	0x3bdfaed5	0.0068262615
69	0xbc1343de	-0.008988349
70	0xbdff4eb5	-0.12466184
71	0xbd3f8baf	-0.046764072
72	0xbde54ed8	-0.11196679
73	0x3d7d1859	0.061790798
74	0x3e0f29c7	0.1398078
75	0x3e00dc27	0.12583981
76	0xbcfc5597	-0.030802531
77	0x3d50201c	0.050811872
78	0x3de3563f	0.111004345
79	0x3deebc57	0.11657017
80	0xbd010070	-0.031494558
81	0xbcf81157	-0.030281706
82	0x3dd54069	0.10412676
83	0x3da94629	0.08265335
84	0xbdd40593	-0.10352626
85	0xbada169d	-0.0016638819
86	0xbdf8a806	-0.12141423
87	0x3d2daae1	0.04239929
88	0x3e1ca217	0.15296207
89	0x3d5a0177	0.053224053
90	0xbd917700	-0.071027756
91	0x3e0229fa	0.12711325
92	0xbdd7e847	-0.1054235
93	0xbd384322	-0.044985898
94	0xbe093e5e	-0.13402697
95	0xbd0fcfb7	-0.0351102
96	0x3e1996ea	0.14998975
97	0xbdd65294	-0.10464969
98	0xbdce0033	-0.10058632
99	0xbe192637	-0.14955984
100	0xbdb311af	-0.08743607
101	0x3ddb7903	0.107164405
102	0x3dff9777	0.124800615
103	0xbde24ba2	-0.11049582
104	0xbe06c3be	-0.13160607
105	0xbddb17a8	-0.106978714
106	0x3dcb5342	0.099279895
107	0xbd97e27e	-0.07416247
108	0xbdc47d0a	-0.09594162
109	0x3e0f05e2	0.13967088
110	0xbced0519	-0.028933095
111	0xbdb2e89c	-0.08735773
112	0xbc066344	-0.008202378
113	0x3dfc568e	0.123211965
114	0xbdef8976	-0.116961405
115	0x3df5e4df	0.12006544
116	0x3d51fa19	0.051263902
117	0xbdc9b3f9	-0.0984878
118	0xbcaaefc8	-0.02086629
119	0xbc5ae339	-0.013359838
120	0xbcec4af5	-0.028844336
121	0x3df1f88b	0.11814984
122	0x3cef3b57	0.0292031
123	0x3c33d582	0.010976197
124	0xbdaafd54	-0.083491
125	0xbdb0dbc1	-0.08635665
126	0x3e0b19e5	0.13584097
127	0x3d4ced79	0.05003116
128	0xbda28ac6	-0.07936625
129	0xbc37ce28	-0.011218585
130	0xbde016a1	-0.10941816
131	0x3de08458	0.109627426
132	0x3e00c9a1	0.12576915
133	0x3b78fc9c	0.0037992364
134	0xbcbd67f3	-0.023120856
135	0x3dab739c	0.0837166
136	0x3da2fa06	0.079578444
137	0x3e1c9924	0.15292794
138	0xbe10d9dc	-0.14145607
139	0xbdab2c88	-0.08358103
140	0x3d0d6b25	0.03452601
141	0x3d4b1182	0.049577244
142	0x3ce21a77	0.02760051
143	0x3dc06d86	0.0939589
144	0x3dc347c4	0.095351726
145	0xbd069702	-0.032858856
146	0xbde747f9	-0.112930246
147	0xbbf8e7b9	-0.007595983
148	0x3dba7b6e	0.091055736
149	0xbdab54dc	-0.08365795
150	0xbd8ff81e	-0.070297465
151	0x3dba7a95	0.09105412
152	0xbcc94c4e	-0.024572518
153	0xbd98e299	-0.07465095
154	0x3e07fb52	0.13279465
155	0x3d34195f	0.04396951
156	0x3d539990	0.05166012
157	0xbd294106	-0.041321777
158	0x3d1398e9	0.0360345
159	0x3e0184a3	0.12648253
160	0xbd9a3cfa	-0.075311616
161	0x3de2c4ef	0.11072718
162	0xbdd70b3e	-0.10500191
163	0xbd2a1da7	-0.041532185
164	0x3ddcc391	0.10779489
165	0x3dda0f1d	0.10647414
166	0xbd2a7883	-0.041618835
167	0xbbde8666	-0.006790924
168	0xbcd62f4b	-0.026145598
169	0xbcb00082	-0.021484617
170	0x3d7f3496	0.06230601
171	0xbdd95a25	-0.10612897
172	0xbdda45df	-0.10657858
173	0x3e0bb59a	0.13643494
174	0xbdd61286	-0.10452752
175	0x3db436e5	0.08799533
176	0x3d1e2bc2	0.03861595
177	0x3e15fa1d	0.14646192
178	0xbdf9b9b4	-0.12193623
179	0x3df510df	0.119661085
180	0x3e1e30a0	0.15448236
181	0x3d9aab25	0.075521745
182	0xbdb1fd30	-0.0869087
183	0xbd24cf92	-0.040237017
184	0xbc227150	-0.009914711
185	0x3b632e2a	0.0034664967
186	0xbd3820cf	-0.044953164
187	0x3d4e6274	0.05038686
188	0xbd39428e	-0.045229487
189	0x3dbf24af	0.09333169
190	0xbcbe715a	-0.02324741
191	0x3e0f7be2	0.14012101
192	0xbdbce197	-0.09222715
193	0xbd8d6a8e	-0.06905089
194	0xbd987688	-0.07444483
195	0x3d8db738	0.06919712
196	0x3d5664e9	0.05234233
197	0xbe05933b	-0.13044445
198	0x3e0c90aa	0.1372706
199	0x3e1fa6c8	0.15590966
200	0x3d9d375f	0.07676577
201	0x3dbbb53f	0.09165429
202	0x3e114f44	0.14190394
203	0x3a4c1f2c	0.00077866274
204	0xbe0ac5e9	-0.13552059
205	0xbde30f60	-0.11086917
206	0x3cbc54ea	0.022989709
207	0x3e0fef30	0.14056087
208	0x3d99d962	0.075121656
209	0xbb61298c	-0.003435704
210	0xbdb822da	-0.089910224
211	0x3e13f4fa	0.1444892
212	0xbd38d366	-0.04512348
213	0xbd8e5e06	-0.06951527
214	0x3d8ce671	0.06879891
215	0xbb8204db	-0.003967864
216	0x3ca4e827	0.02013023
217	0x3de693c6	0.11258654
218	0x3df69177	0.12039464
219	0x3db8f253	0.09030595
220	0xbcf108e8	-0.029423192
221	0xbdc4b2c0	-0.09604406
222	0x3e1a6fa9	0.15081657
223	0x3d50dc57	0.050991382
224	0xbda806f8	-0.08204454
225	0x3e0c8c1b	0.13725321
226	0x3cec9897	0.028881354
227	0xbdc2b6b8	-0.09507507
228	0xbd2859ef	-0.041101392
229	0xbc880440	-0.016603589
230	0x3e03be86	0.12865648
231	0xbd8e3dc2	-0.06945373
232	0x3c190a78	0.009340875
233	0xbdb8e01e	-0.09027122
234	0x3dec4326	0.11536245
235	0xbcbb053e	-0.022829648
236	0x3da3f3d4	0.08005491
237	0xbba0a4ec	-0.0049024727
238	0x3cd46875	0.025928715
239	0x3d4cf566	0.050038718
240	0xbd19aa4e	-0.03751593
241	0xbd502eed	-0.050826002
242	0xbd9fc134	-0.078005224
243	0x3d23bee8	0.039976984
244	0xbe0ef919	-0.1396221
245	0xbddeac12	-0.108726636
246	0xbdc0ce2f	-0.094143264
247	0x3dabd7a3	0.08390739
248	0x3c3f8251	0.011688785
249	0xbcc855fa	-0.02445506
250	0xbdebf708	-0.11521727
251	0x3cf5c104	0.029999264
252	0x3d237580	0.03990698
253	0x3b6ef13a	0.00364597
254	0xbcad0d76	-0.021124583
255	0xbd9816ab	-0.074261986
